Models/25_rec_fin1.pt (torch, 317303 bytes, 12 tensors)

lstm.weight_ih_l0 f4 [512, 6]
000000 16 60 17 be 16 88 70 bd 60 cc 0c 3e 9b 65 a9 bd
       -0.14782748 -0.05872353 0.13749838 -0.08271333
000010 c0 42 1a be 7d c2 c0 bc 59 2a af bd b1 ae 5b 3e
       -0.15064526 -0.02353024 -0.08552999 0.21453358
000020 89 b3 4b 3e 1a e9 8e 3d bf d9 5f bd 62 2c ca 3e
       0.19892706 0.06978054 -0.05465102 0.39486986
000030 02 41 72 bd 55 9e 62 be 75 d4 82 3d c6 69 e3 3e
       -0.059144028 -0.22130711 0.06388179 0.44416636
000040 3e 26 6e 3c 38 19 91 3d 4d 1b 25 be 97 67 80 3e
       0.014535485 0.07084888 -0.16123696 0.25079033
000050 e7 e3 6c be 57 62 12 be ea d0 3c 3e 28 30 90 be
       -0.23133813 -0.14295326 0.1843907 -0.2816174
000060 96 0c 15 3d 13 bc 85 3d bb 29 20 3e 73 91 0b be
       0.036388956 0.06530013 0.15640919 -0.13629703
000070 93 79 2e be ad c1 b9 bd 30 d1 8a bd f7 19 3a 3d
       -0.17038564 -0.09070144 -0.067781806 0.04543492
000080 a0 2e ba bd 8b 9d af 3e 9f 2e 82 be 47 d4 3d 3e
       -0.09090924 0.34299883 -0.25426194 0.18538009
000090 99 d5 10 be a3 a0 a5 be 6a f9 0d 3d 9c 7a 90 3e
       -0.14143981 -0.3234912 0.034661688 0.28218544
0000a0 ad 31 08 be 9d ee cf bd 58 57 48 3e aa 91 8e be
       -0.133002 -0.10152934 0.19564569 -0.27845508
0000b0 95 68 42 3e ed 11 cb bd b5 8c 18 bf 92 97 ac 3e
       0.18985207 -0.099155284 -0.595897 0.3370939
0000c0 0d b1 c2 3d f7 e8 d9 3e 71 9a 0b be b4 83 8b be
       0.09506426 0.4256055 -0.13633133 -0.2724892
0000d0 60 d6 b2 3d 74 24 d4 be 12 03 5e be ca 97 95 3c
       0.08732295 -0.41434062 -0.21680859 0.018260855
0000e0 4c ec 98 3e d5 c0 2d 3c 58 d9 fd 3d 02 94 40 bd
       0.2986778 0.010605057 0.12394971 -0.04701615
0000f0 84 3f b9 3c ff 33 89 3d 75 b4 06 3e 3c c4 2f 3e
       0.022613294 0.066993706 0.13154776 0.17164701
000100 fd 3d 90 be af 35 64 3e 8b cf 92 be 70 78 61 3b
       -0.28172293 0.22286104 -0.28673968 0.0034404062
000110 62 aa 2b be 43 c2 a7 3e 3d 28 b0 be d1 20 ff bd
       -0.16764215 0.32765397 -0.344057 -0.12457431
000120 e7 ea 2d 3e 8e d9 68 3c 80 09 df bd dd b8 b2 3e
       0.1698414 0.014212025 -0.10890484 0.34906664
000130 91 b0 21 bd 0c b5 8c 3e 32 82 0d 3e e8 a1 9d bd
       -0.039475027 0.27481878 0.13819197 -0.07696897
000140 e9 3e a0 be 37 c4 8b bd d0 d0 db bd ed 5d 98 be
       -0.31297997 -0.068245344 -0.10733187 -0.2975916
000150 49 ab 27 3e 90 7f af 3e 89 a5 bd 3d 15 f9 12 3e
       0.16373934 0.3427701 0.09260089 0.1435283
000160 df 89 9c bd b5 4b 7c 3c 1a a3 a6 3d a6 35 88 bd
       -0.07643484 0.015398909 0.08136578 -0.066508576
000170 7d 62 3a be 58 16 52 be d4 e0 a9 bd 28 74 eb bd
       -0.18201633 -0.20516336 -0.08294836 -0.114967644
000180 1c 41 4b 3d 3e da e5 bd 19 54 9c bc ab 49 9d 3b
       0.04962264 -0.11223267 -0.01908307 0.0048000417
000190 0d 6b 81 bc ae 1a 38 3d d2 33 95 3e a4 4e 83 3e
       -0.015798116 0.04494732 0.29141098 0.25645936
0001a0 a2 75 86 bd 83 2d 09 be 58 06 94 bd e5 23 88 be
       -0.065654054 -0.13396268 -0.072277725 -0.26589885
0001b0 a4 cb 34 be 20 47 4d be cb c4 64 3e 2a 10 49 be
       -0.17655808 -0.20046663 0.22340696 -0.19635072
0001c0 3e 13 f1 3d 39 be c3 3d ae df 6e be 25 61 da bd
       0.11771248 0.095577665 -0.23327515 -0.1066306
0001d0 81 ab 85 3e 81 c5 84 3e 9b a7 ac bd 47 f1 1f 3e
       0.2610741 0.25931934 -0.08430406 0.15619384
0001e0 c1 36 a4 be e7 d7 0e be b0 7a fa bc 86 cc 88 3e
       -0.32073024 -0.13949548 -0.03057608 0.2671854
0001f0 12 be 4f bc 03 4a d2 3d 59 e7 fb 3d 23 fe 6f be
       -0.012679594 0.10268023 0.122999854 -0.23436789
000200 00 27 d2 bd cc a3 1a 3d b5 60 8b bd 54 7a dd bd
       -0.10261345 0.037753865 -0.06805555 -0.10814348
000210 4e d9 0b bd c6 91 a7 3d d3 f6 5f 3d 4c 50 fb ba
       -0.034142785 0.08182101 0.05467875 -0.0019173711
000220 aa 34 1d bd 2e b0 05 be b3 45 69 3d 3f ed d0 be
       -0.038380302 -0.13055488 0.056951236 -0.40806004
000230 79 bf d9 3c fd 88 86 3e 5b de 0c 3e f7 52 09 be
       0.02658056 0.2627639 0.13756697 -0.13410555
000240 87 ec 52 3e b3 40 5c 3d 07 2e 8d bc 7b 77 a9 bc
       0.2059804 0.05377264 -0.017233862 -0.020686856
000250 b8 71 27 3d fc dc e7 3e 75 60 6d 3d ac 67 de bd
       0.040879935 0.45285785 0.057953317 -0.108596176
000260 05 8c 60 3e 3f df 83 bd f5 07 88 3e 97 b9 68 3e
       0.21928413 -0.06439065 0.2656857 0.22727047
000270 49 a7 85 be a6 1a 1c be 00 f9 d4 3d a1 4a 2d bc
       -0.2610419 -0.1524454 0.103990555 -0.010576875
000280 27 d8 94 3d 55 2c ee 3d 39 dd 6d be a4 e5 ca 3e
       0.0726779 0.116295494 -0.23228921 0.39628327
000290 7a 84 03 3e 92 d3 06 be 54 2d 4b 3d 67 82 1b 3e
       0.12843505 -0.13166645 0.049603775 0.15186463
0002a0 37 9f 6c 3d 1f 30 50 be f5 e9 fd bd e0 be 9c be
       0.057769027 -0.20330857 -0.123981394 -0.30614376
0002b0 e1 93 55 bd ac c5 be bd a5 1c 31 3e ce cc d0 3d
       -0.05214298 -0.09315047 0.17296083 0.101953134
0002c0 fe 3b e4 bd 44 b6 00 3e b8 81 c9 bd fd 2e 19 3d
       -0.11144255 0.12569529 -0.09839195 0.037398327
0002d0 23 72 ad be 02 67 0c 3e 29 dd 42 3e e1 1b 37 be
       -0.33876142 0.1371117 0.19029678 -0.17881729
0002e0 b0 aa a0 3d 1a 2d 5b 3e 5d e9 04 bd f9 23 c1 3e
       0.07845056 0.21403924 -0.032449115 0.37722757
0002f0 db 35 7c be 31 66 1b be 84 cc 0d be 24 53 8e be
       -0.24629919 -0.15175702 -0.13847548 -0.27797806
000300 4f f6 3c 3e 46 41 e4 3d 62 a7 f7 3d 13 b8 07 3d
       0.18453334 0.111452624 0.120924726 0.03313453
000310 9d ee 94 be cb aa 09 be 5b bc 00 3e cf 77 e8 3d
       -0.29088297 -0.13444059 0.12571852 0.11350977
000320 12 59 5d bd 9f 2e 1f 3f 2b b1 ea bd 9c 8a 32 bd
       -0.054040022 0.62180513 -0.11459573 -0.04358922
000330 ea 15 26 be ab d0 c5 3d cd 6d c9 3c 88 49 26 3e
       -0.16219297 0.09658941 0.02458849 0.16238987
000340 4e 08 70 bd 40 d6 9f 3d 7e 72 83 be c7 a1 7d be
       -0.05860167 0.07804537 -0.25673288 -0.24768744
000350 d4 09 22 3e ae 50 ce be de 03 b6 3d 82 b0 81 bd
       0.15824062 -0.4029593 0.08887456 -0.06332494
000360 e5 0c da be 06 21 4f 3e 18 1e 00 3e 61 c9 8d be
       -0.42587963 0.20227441 0.1251148 -0.27692702
000370 2b d9 7e 3d ed 8b 34 bd 9b 64 0f 3f 90 16 d3 be
       0.062218826 -0.044078756 0.56012887 -0.4122815
000380 c1 f0 81 3e 95 96 f0 3c 5b 69 41 3c d2 a5 de 3d
       0.25378993 0.029368678 0.011804904 0.108714715
000390 c4 70 d6 3c 23 b1 af 3d ff 86 0d 3d eb 82 79 bd
       0.026176818 0.08578708 0.03455257 -0.06091587
0003a0 f0 be 7b 3e bc d9 c6 3d 05 38 d1 bc e8 5c c3 bd
       0.24584556 0.09709498 -0.025539408 -0.09539205
0003b0 84 e4 b1 bd da 79 41 be 4f 2e bc 3e 6a d6 34 3e
       -0.08686164 -0.18894139 0.3675408 0.17659917
0003c0 b7 8c 0c 3e 8e a4 67 be d4 97 73 3e 6f 1c 06 3e
       0.13725553 -0.22621366 0.23788387 0.13096784
0003d0 7c fc 63 bd 97 2d 29 bd ae 20 0b be db eb 16 bc
       -0.05566071 -0.041303243 -0.13586685 -0.009211506
0003e0 63 01 ba 3d cc b2 96 3e d4 87 d0 bb 85 f7 52 3d
       0.09082296 0.29433286 -0.006363848 0.051505584
0003f0 32 91 a5 be d1 32 12 be 45 04 48 3f d0 46 b7 be
       -0.32337338 -0.14277197 0.78131515 -0.35796213

lstm.weight_hh_l0 f4 [512, 128]
000000 f3 e4 b4 3d a8 ee ce 3d 34 57 30 3e 45 f9 1d bd
       0.08832731 0.10104114 0.17220765 -0.0385678
000010 97 93 1f bb 07 06 d6 bc 28 6d 52 3e dc 54 50 be
       -0.0024349445 -0.026125921 0.20549452 -0.20344871
000020 21 22 fe 3c f6 78 f3 bd 78 fa 3e 3d c3 19 b3 bd
       0.031022133 -0.11888306 0.046625584 -0.08745148
000030 70 3b 0d 3d db 62 da 3d 90 2d ac bc 51 b8 6a bd
       0.034480512 0.106633864 -0.02101782 -0.057304684
000040 e4 63 e8 3d 10 94 41 3e 6e f2 9e 3d 77 ab 90 bc
       0.113471776 0.18904138 0.077610835 -0.017659886
000050 1e 3e 7a be 94 ff 82 3d ec 4c 38 3e 56 de 21 3e
       -0.24437758 0.06396404 0.17998093 0.1580747
000060 88 f4 07 3d 0e b7 57 bd bd a8 46 be 28 3c a0 bc
       0.033192188 -0.05266481 -0.19400306 -0.019559935
000070 b8 f0 4a 3e 51 20 81 3b a8 08 0a bd e7 cb 9c bd
       0.1981839 0.00394062 -0.03369966 -0.07656079
000080 9e a5 0e be 8a 15 1d 3e 57 f8 38 be ab b6 38 be
       -0.13930365 0.15340248 -0.18063484 -0.18038432
000090 d6 0d bc 3b 71 2f 60 be bc 60 0b 3d 55 4d 83 bc
       0.005738954 -0.21893097 0.0340278 -0.016028086
0000a0 85 88 1f 3d 39 e0 1f 3e 0d 1a 67 3e 8e d6 3b be
       0.038948555 0.15612878 0.22568531 -0.18343565
0000b0 c1 41 12 3e 20 7c e5 3d ab e0 00 3e 73 be a0 3d
       0.14282896 0.112053156 0.12585704 0.07848825
0000c0 b5 2d 23 3d e1 a8 c0 3d 6d 1a d6 bd df 88 38 3c
       0.03983851 0.09407211 -0.10454259 0.011263101
0000d0 7d 75 30 be 47 d3 09 3e 62 97 b8 3d e4 ed d2 3d
       -0.17232318 0.13459502 0.09013249 0.1029928
0000e0 09 77 1a 3d 30 56 0a 3d 01 ea c7 3d bb 97 c6 bb
       0.037711177 0.0337736 0.097614296 -0.006060568
0000f0 c1 39 3b be a7 d1 41 3d 04 e2 60 bd c5 6e 75 be
       -0.1828375 0.04731908 -0.054903045 -0.23968036
000100 12 0f ca 3a 5f 01 50 be 6c 90 87 3e be 97 1d bd
       0.0015415868 -0.20313023 0.26477373 -0.03847479
000110 1c 89 fa 3c f2 f2 26 3d 77 68 29 bd 60 4d a7 3e
       0.030582957 0.040759034 -0.04135939 0.3267622
000120 10 d0 52 be e1 29 1e bd 2b a2 c2 bd 01 a4 ef bd
       -0.20587182 -0.038614158 -0.09503587 -0.11701203
000130 7b c3 8f 3d e9 59 fc 3c 5e 1c b9 bb 1b a3 80 bd
       0.07019707 0.030804591 -0.0056491336 -0.0628111
000140 57 de 85 be a6 77 3e bd 28 6c 9a 3d ab d9 5e 3d
       -0.26146194 -0.046500824 0.075401604 0.054406803
000150 35 69 9f be 89 62 81 3d da 0e cf be 7a 34 7a be
       -0.31134954 0.06317622 -0.40441018 -0.2443408
000160 2e 42 21 3e 56 a4 4d be 09 d1 e4 3d e6 aa 0e 3e
       0.15747902 -0.2008222 0.11172683 0.1393238
000170 06 b4 ba bd 36 7f 35 3d ea c7 01 3d 1f f9 1d bd
       -0.09116368 0.04431077 0.031684794 -0.03856766
000180 97 be 39 3d 3f a1 3b 3e ff 41 99 3d 80 92 a5 bc
       0.045347776 0.18323229 0.07483291 -0.020211458
000190 03 cc 1a bd f6 47 3f 3e eb 94 a7 bd 6d 6d 61 be
       -0.037792217 0.18679795 -0.08182701 -0.22014399
0001a0 e5 ae 57 be 90 aa 1f 3d 0f ef a9 bd 59 90 4f 3c
       -0.2106281 0.03898102 -0.0829755 0.0126686925
0001b0 c4 4a b4 bc 00 8a 80 3e b0 e3 93 3e 91 63 e6 bd
       -0.022008307 0.25105286 0.2888465 -0.112494595
0001c0 15 01 a3 bd e3 da af 3d 0c e0 dc bd 33 b3 37 be
       -0.07959191 0.08586671 -0.10784921 -0.17939453
0001d0 67 2b 61 3b 17 14 39 3d 13 52 d5 3c ad c1 ce 3d
       0.0034358145 0.045185175 0.026040113 0.100955345
0001e0 c4 f3 ed bc 14 df ab 3d fd dd 07 be d2 8d 13 3e
       -0.0290469 0.08392158 -0.13268276 0.14409569
0001f0 84 36 a3 3c 25 b6 86 3e 13 67 38 3d b2 70 3f be
       0.019923456 0.2631084 0.045020174 -0.18695334
000200 94 31 5c bc 04 4f 2e be ae a8 22 3e 96 f1 80 be
       -0.013439555 -0.1702233 0.15884659 -0.25184315
000210 07 86 7a bd 66 d3 b8 3d 98 58 f4 3d 56 09 9f 3d
       -0.061162975 0.09024696 0.119309604 0.077654526
000220 14 8f 32 3e 21 7e 1f be ef 4b 4b be 37 6d f0 be
       0.17437392 -0.15575458 -0.19853185 -0.46958324
000230 a5 ba a4 3e 50 f4 0c 3e 33 0a 09 3d 20 37 cb 3d
       0.32173648 0.13765073 0.033456992 0.09922624
000240 8f 11 49 3e 0a a5 0b 3e 4e 11 16 be 55 43 33 3e
       0.19635604 0.13637176 -0.14655039 0.17506154
000250 46 8c 30 3e 9f b4 4d be 39 44 ea 3d 22 d6 89 3e
       0.1724101 -0.20088433 0.11438794 0.26921183
000260 ce 46 0a bd cd 2c 84 be 83 f9 a8 3c bb a4 0f be
       -0.03375893 -0.2581543 0.020626789 -0.14027683
000270 62 48 1b be 02 76 ac 3d 6f 4a 4e be 2c 43 83 bd
       -0.1516433 0.08420946 -0.20145582 -0.064092964
000280 19 a4 ed bd 6a 8c 5e 3d a8 c7 e2 bd d7 9a a1 bd
       -0.11603565 0.054333128 -0.11073238 -0.078908615
000290 40 18 9f bc dc 92 d6 bd 5a 88 3b 3e bb 70 67 3e
       -0.019420743 -0.1047723 0.18313733 0.22601597
0002a0 c3 10 a4 3d 3b 92 25 3b 1e 92 a5 3d 42 71 22 be
       0.080110095 0.0025264162 0.0808451 -0.15863517
0002b0 b0 9d 06 be 9c f6 26 3e 88 32 04 be 93 9d 19 be
       -0.1314609 0.16305012 -0.12909901 -0.15001516
0002c0 ce c9 02 3e 4f 1e 62 be 8e 92 7b bd 1b 68 4d 3e
       0.12772295 -0.22081874 -0.061419062 0.20059244
0002d0 db af a8 bd d6 84 69 3e 2b 60 18 bc 62 73 ff 3d
       -0.08236667 0.22804579 -0.009300272 0.124731794
0002e0 6d bf 79 bd cd 44 ae 3d e3 66 7d 3e 8a 6d d9 3d
       -0.060973573 0.085092165 0.2474628 0.10616596
0002f0 01 28 d4 3b 09 43 ed 3c e9 38 cb bd 37 60 2c 3d
       0.0064744954 0.028962629 -0.09922964 0.042083945
000300 fe 9c 1d be 2d cc 60 be 80 43 93 3d 19 75 4b be
       -0.15391919 -0.21952887 0.07190609 -0.19868888
000310 fd c3 68 3d 6e 02 98 bd e9 ad 32 3d 52 f9 d8 bd
       0.056827534 -0.074223384 0.043622885 -0.10594429
000320 79 80 e3 bd aa 90 7c 3e 44 07 5c be e8 2b e8 bc
       -0.111084886 0.2466456 -0.21487147 -0.028341249
000330 c0 36 49 3e a7 0d 7b 3e 36 4b 90 bd 39 71 31 be
       0.19649792 0.24516927 -0.07045595 -0.17328347
000340 b4 b5 34 be 5f e7 00 3e b2 39 b0 bd 34 72 3d be
       -0.17647439 0.12588261 -0.086047545 -0.18500596
000350 21 25 00 3e 4b 62 32 3e 84 6e 93 3d b9 7f 0c 3e
       0.12514164 0.17420308 0.071988136 0.13720597
000360 d4 d7 ea 3d 04 e3 47 bd 2a 7c 5b 3e 09 02 a8 bc
       0.11466947 -0.048800483 0.21434084 -0.020508783
000370 91 2d a8 3d bc 20 9d bd 65 06 37 be da df 1b be
       0.08211816 -0.07672259 -0.17873533 -0.15222111
000380 e7 6d 9f bc 91 f0 c5 3d 6f 51 47 be 2e 51 a9 3d
       -0.019461585 0.09665025 -0.19464658 0.08267437
000390 7b d1 61 bd c9 2d 17 3e 0b 8d 89 bd a5 00 08 be
       -0.055131417 0.1476356 -0.06716355 -0.13281496
0003a0 f2 0e 28 be f3 4c 05 3c 61 e5 08 bd 62 ca 7d bd
       -0.16411951 0.008136022 -0.033421878 -0.061960585
0003b0 63 48 ac 3c aa 61 e9 3e 35 00 64 3e ed 99 b2 be
       0.02103061 0.45582324 0.22265704 -0.3488306
0003c0 3f af f6 bd dc 0b 08 3e 93 1d 22 bd 85 a2 22 be
       -0.12045144 0.13285774 -0.039578985 -0.15882309
0003d0 6b 4f 9c bd ea bd 87 bd dd 85 f2 3d f1 0a 0c 3e
       -0.07632335 -0.0662802 0.11841939 0.13676049
0003e0 2f 4d fb 3d 44 f9 b6 3d ed 64 86 be e4 86 19 bd
       0.12270581 0.089342624 -0.26248875 -0.037482157
0003f0 65 90 2d be 1e cf 44 3d 91 21 12 be 53 58 aa bd
       -0.16949613 0.048049085 -0.14270617 -0.08317628

lstm.bias_ih_l0 f4 [512]
000000 87 8d 57 be f0 7e 27 be ad be e2 bd b9 d1 49 be
       -0.21050082 -0.16357017 -0.11071525 -0.19708909
000010 30 48 e6 3d 3f f9 2a be c0 4d 6e be bd 98 20 3b
       0.112442374 -0.16696642 -0.23271847 0.0024505102
000020 1d 64 87 3c 49 c0 a9 3d 30 a6 68 bd 88 25 8a be
       0.01652723 0.082886286 -0.056799114 -0.2698176
000030 7e 80 83 be b2 27 16 be bd ff 32 bd 71 3f 60 be
       -0.2568397 -0.1466358 -0.043700922 -0.21899201
000040 83 b5 a0 be d9 50 00 be 5d 69 1c be 9e aa b7 bd
       -0.31388482 -0.12530841 -0.15274568 -0.089680895
000050 6f 82 0c 3d d8 bd c3 bd 26 97 12 be 82 54 c5 be
       0.03430408 -0.09557694 -0.14315471 -0.38541037
000060 9c 78 8c be 6e 72 90 be 91 4c 26 bd d8 be 9e be
       -0.27435768 -0.28212303 -0.040600363 -0.31004977
000070 6e be a2 be a6 39 4a be af 91 35 be e7 9e ac be
       -0.3178591 -0.19748554 -0.17731355 -0.33714983
000080 01 07 9a bd 08 bd 6e be 86 8e f5 bd f2 36 07 3d
       -0.07520867 -0.23314297 -0.11990075 0.033011384
000090 d2 24 2d bd 57 4e 59 bd 6e 04 93 be 6b 48 4d ba
       -0.042271443 -0.053053226 -0.28714317 -0.00078309205
0000a0 6d 38 b4 bd a7 f0 d5 be b4 ed 19 be 09 cb 40 be
       -0.08799825 -0.41785166 -0.15032083 -0.18827452
0000b0 99 06 56 be ae a9 47 bd 4a 80 c7 bd 31 f0 09 be
       -0.20900954 -0.048745804 -0.09741266 -0.13470532
0000c0 93 25 33 bd 9b 84 d6 bd a9 51 50 be 2b 9f 72 be
       -0.043737005 -0.10474511 -0.20343651 -0.2369353
0000d0 65 ac a8 be c9 d8 ab be 5c 49 34 be 8b b1 78 be
       -0.32944027 -0.3356383 -0.1760611 -0.24286477
0000e0 03 43 38 bd ea 03 c2 be 22 21 42 be b6 39 e1 bd
       -0.044985782 -0.3789361 -0.18957952 -0.109973356
0000f0 16 f8 79 be 57 53 87 bd 1a 75 f1 3d 40 d2 f5 3d
       -0.24411044 -0.06607693 0.117899135 0.12002993
000100 89 88 6d be d7 0d 8c bd 8b e1 d5 bd 36 59 b0 be
       -0.23196615 -0.06838577 -0.104434095 -0.34443063
000110 d9 86 02 3d 3f 8f 6a be 98 de ef 3c 6b 35 10 be
       0.031866882 -0.22906207 0.029280946 -0.14082877
000120 71 fe 28 be 3e 2b 79 be eb 7e ca be 78 39 c4 be
       -0.16503312 -0.24332902 -0.39549956 -0.38325095
000130 4c d9 e6 3d fe 5c a3 bd 96 8f 7c be 23 93 be be
       0.11271915 -0.07976721 -0.24664149 -0.3722163
000140 2d 88 71 be ba 2b 1d be 45 90 a6 bd eb 09 88 bd
       -0.23587103 -0.15348712 -0.08132986 -0.06642517
000150 20 c9 36 3d 8d 87 88 be 06 db ec be aa 83 93 be
       0.0446254 -0.26665917 -0.46260852 -0.2881139
000160 83 d7 6b be a5 fb 57 be 5d a8 56 be ca ad 09 be
       -0.2303143 -0.21092089 -0.20962663 -0.13445202
000170 cc d1 4b be ff 5a 83 be 83 56 30 be eb ac a1 be
       -0.1990425 -0.25655362 -0.17220502 -0.31577238
000180 4d a4 ce bd bf 13 e9 3a d2 51 a7 3d 6c 19 4a be
       -0.10089932 0.0017782374 0.08169903 -0.1973626
000190 c0 61 30 bd 36 7c ca bd ab 45 bf bd 7d 05 ab bd
       -0.04306197 -0.098869726 -0.0933946 -0.08350656
0001a0 5a 48 28 be bb 4c 18 be 63 87 36 be e3 79 bb bd
       -0.1643385 -0.1487302 -0.17825083 -0.091541074
0001b0 70 7c 41 be db 53 73 3b 35 cd b3 bd 8a ea 32 be
       -0.18895125 0.003712884 -0.087793745 -0.17472282
0001c0 e7 55 4e be c6 82 82 bc de 71 0b be b8 a3 2d be
       -0.20149957 -0.015931498 -0.13617656 -0.16956985
0001d0 32 38 e5 bd 44 f2 7f bd ff b8 4b be 45 25 5b 3d
       -0.11192359 -0.062486902 -0.19894789 0.05350234
0001e0 70 66 3d be 9e 49 a6 be 90 01 fc be 65 81 ac bd
       -0.18496108 -0.3247804 -0.49219942 -0.084231175
0001f0 98 f6 8e be 5f a2 03 be bb 5d 35 bd 29 a9 4b be
       -0.2792251 -0.12854908 -0.04427884 -0.19888748
000200 52 a8 a0 bd a8 30 91 bd c6 f4 cc 3c f4 17 58 3d
       -0.078446046 -0.070893586 0.02501906 0.05275722
000210 70 1a 17 3e 4a 3d 12 bd 76 e5 05 bd 69 71 b0 3d
       0.14756179 -0.03570298 -0.032689534 0.08615381
000220 71 30 8b 3d 9d db 82 3c 3e b7 2c bd c8 a5 8c be
       0.06796349 0.01597386 -0.04216694 -0.2747023
000230 f1 01 f6 bd 90 1a a1 3d 1d 63 11 3e c9 23 1a be
       -0.12012089 0.078663945 0.14197965 -0.15052713
000240 a1 7f b4 be c4 92 e1 bc 9f d9 34 be 09 ea 8d bd
       -0.35253623 -0.027535804 -0.17661141 -0.06929404
000250 a2 9b b4 3d 8a 62 00 be 86 e4 12 3d b2 1a 9e be
       0.08818747 -0.1253759 0.03586247 -0.30879742
000260 45 55 05 be c1 80 24 be 68 f1 84 3d e6 0c 96 be
       -0.13020809 -0.1606474 0.06491357 -0.29306716
000270 a9 d9 f1 bd 15 02 ae bd 1b 9c e5 bd de f3 a5 3c
       -0.118090935 -0.08496491 -0.112114154 0.020257886
000280 72 92 07 bd e0 a3 04 be bf ff 1e 3d d0 e3 18 3d
       -0.033098646 -0.12953138 0.038818117 0.037326634
000290 51 3f 48 3d 86 9a 50 3e 6a 93 d3 bd 5b d2 aa bd
       0.04888851 0.20371446 -0.103308514 -0.08340903
0002a0 02 2b a1 bd e1 71 78 be 08 a3 a8 3e 82 c5 0f be
       -0.07869531 -0.24262191 0.32936883 -0.14040187
0002b0 99 cd 3e be 21 78 39 bd 7c db 09 be 3f 12 51 3d
       -0.18633117 -0.04528058 -0.13462633 0.05104279
0002c0 b9 c3 13 3e 69 f5 c4 3d 07 01 67 3c 72 67 15 be
       0.14430131 0.09617121 0.014099366 -0.14590243
0002d0 ba d2 09 be f7 82 da be 64 d8 8e bd 46 c2 d6 bd
       -0.13459292 -0.42678043 -0.06974867 -0.104862735
0002e0 01 ac 10 3e ce 94 6d be 9f f8 54 be d2 32 45 bc
       0.14128114 -0.23201296 -0.20797966 -0.012036042
0002f0 04 67 e9 bd e4 50 a4 3d fd 38 75 3d f2 6f ec 3d
       -0.11396602 0.08023241 0.0598688 0.115447894
000300 3f c7 4c be d3 28 3f bd ab 56 55 be 37 81 11 3f
       -0.19997881 -0.046669792 -0.20833842 0.5683779
000310 98 af fe 3d 2a c1 14 be e9 05 a2 3d c1 b6 33 be
       0.124358356 -0.14526811 0.079112835 -0.17550184
000320 d0 91 c6 bd 63 03 56 be 21 ee 6e bd f3 59 59 3e
       -0.0969578 -0.2089973 -0.058332566 0.21225719
000330 52 32 c3 bc 14 e8 78 3d 86 b8 b3 be 38 97 50 be
       -0.023827706 0.060768202 -0.35101718 -0.20370185
000340 a9 25 9a be 29 d7 69 3d 4e b3 33 3a 52 13 a8 3e
       -0.30106857 0.05708996 0.00068550266 0.3282724
000350 a0 c0 e5 3c b8 30 2d bd 61 a2 6e 3e b4 61 60 be
       0.028045952 -0.04228279 0.2330413 -0.21912271
000360 03 90 9d be 1b a9 02 be 29 9b 8f be 26 f1 d5 bd
       -0.30773935 -0.12759821 -0.28048065 -0.10446386
000370 05 90 4c bd 6f f7 63 be 0b 99 cb bd dd ae 49 be
       -0.049942035 -0.22262357 -0.099413 -0.19695611
000380 81 a1 73 be a8 0f 94 3e ed fb 8b 3e 5b 97 5d 3d
       -0.23792078 0.28918195 0.27340642 0.054099422
000390 4e 5f 49 3d 25 00 e8 bd b0 eb 22 be 03 74 00 be
       0.049163155 -0.113281526 -0.1591022 -0.12544255
0003a0 03 ba 9c bd 93 5b 7f 3e da 9b 60 3d ce 4a ca bd
       -0.076526664 0.24937277 0.05483613 -0.09877549
0003b0 0a 0d 71 bd 2d c2 e3 3d c4 f9 14 3d 0b 51 67 ba
       -0.058850326 0.111210205 0.036371008 -0.0008824027
0003c0 ae 9b 31 bd 4b b3 9e 3d 16 a4 58 bd 4f 78 93 bd
       -0.04336136 0.07749041 -0.05289086 -0.072006814
0003d0 b1 26 59 3d 94 5e 69 3d 89 85 17 be d4 49 b4 3e
       0.053015415 0.056974962 -0.14797033 0.35212576
0003e0 c9 8d 1a be db 25 60 be 55 4b 06 3e 94 be 1e bd
       -0.15093149 -0.2188944 0.13114674 -0.03875597
0003f0 90 eb 5a be db e4 26 be da 0f dd bd 67 6c 48 bd
       -0.21378922 -0.16298239 -0.10794039 -0.048931506

lstm.bias_hh_l0 f4 [512]
000000 b5 bb b9 bd 40 80 5b be f3 75 23 be d1 c4 17 be
       -0.090690054 -0.21435642 -0.15962963 -0.14821173
000010 7f 2c 81 3d 16 0c 30 be 8b 3e de bd 0e 5b 00 be
       0.06307315 -0.1719211 -0.10851773 -0.12534735
000020 4f cc 1a 3d 25 32 83 bd 86 ef 30 be 5e f3 cf be
       0.0377925 -0.06406049 -0.17278871 -0.40615362
000030 5b 64 8d be 3a 6c b4 bd bb 56 ed bd ed bc 9a be
       -0.27615628 -0.08809705 -0.11588808 -0.30222264
000040 88 44 91 be 48 00 05 be af e9 56 be cc 50 2a be
       -0.28372598 -0.12988389 -0.2098758 -0.16632384
000050 b0 fd c6 3d 82 c1 0d be 65 6a c9 bd ea 78 84 be
       0.09716356 -0.13843349 -0.09834746 -0.258735
000060 b9 59 81 be a5 db 9b be 21 3a 3e bd b4 d8 97 be
       -0.25263765 -0.30441013 -0.046442155 -0.2965752
000070 c0 93 59 be e3 5a b8 bd 9a e5 3f be ca a2 8d be
       -0.21247768 -0.0900171 -0.1873993 -0.2766326
000080 ce e8 27 be 61 fe d4 bd 68 2d e4 bc 44 e2 9e bd
       -0.16397402 -0.104000814 -0.027853683 -0.077580005
000090 db 33 3b bd 98 56 47 be 82 29 72 be 2b 6c be bc
       -0.04570375 -0.19466627 -0.23648646 -0.023244938
0000a0 96 bf 4b 3d e2 79 e0 be b2 af 47 be 61 06 82 be
       0.049743257 -0.4384299 -0.19500616 -0.25395492
0000b0 8a 60 83 be cb c8 42 bd b6 99 33 be 22 73 0e be
       -0.2565959 -0.047554772 -0.17539105 -0.13911107
0000c0 a0 02 5d bc 03 ca aa bd 79 44 38 be 93 59 35 be
       -0.013489395 -0.08339312 -0.1799487 -0.17709951
0000d0 28 df a0 be 13 f0 b3 be 56 14 af bd e2 12 a0 be
       -0.31420255 -0.351441 -0.08548801 -0.31264406
0000e0 4c f0 1d be d6 84 96 be 58 01 17 be c5 d6 66 bd
       -0.15423697 -0.2939822 -0.14746606 -0.056357164
0000f0 5e 20 71 be ca 8f 92 3d d9 10 08 3e bb 54 bc 3d
       -0.23547503 0.07156332 0.13287677 0.091958486
000100 07 4c 37 be 12 b5 ce 3c c6 48 6f be 26 15 a5 be
       -0.17900096 0.025232825 -0.23367605 -0.32242697
000110 37 cf c4 bd 85 4a a7 be b3 af 86 bc b3 fa be bd
       -0.096098356 -0.3267404 -0.016441202 -0.09325161
000120 c6 3f 25 be 47 ac 87 be 70 93 d8 be 0d f8 ac be
       -0.16137609 -0.26498625 -0.42299986 -0.33782998
000130 2e ea 5c 3d ff 06 01 be e2 7b 3d be e0 bc b8 be
       0.05393427 -0.12600325 -0.18504289 -0.360816
000140 49 a7 55 be cb 6f a2 be f9 b2 37 be f4 9a 20 3d
       -0.20864595 -0.31725916 -0.17939366 0.039210275
000150 ee f6 39 3d 23 b2 0a be b1 56 12 bf b0 43 64 be
       0.045401506 -0.13544516 -0.5716353 -0.22291446
000160 3a 58 4c be 93 cf 4a be 1a 98 21 be 8f 8b 33 be
       -0.19955531 -0.19805746 -0.15780678 -0.17533706
000170 12 85 5d be 64 2f a5 be 51 50 fc bd 5c 7f 8e be
       -0.21632794 -0.3226272 -0.12320007 -0.27831542
000180 e8 55 e4 bd e8 8a 9a bd 3f 54 d8 3d 58 fd 91 be
       -0.11149198 -0.075460255 0.10562944 -0.28513598
000190 bc ce 6f bd 7b d0 98 bd 16 68 da bd 50 ba db bd
       -0.058546767 -0.074616395 -0.10664384 -0.10728896
0001a0 9c 7a 0c be 53 c9 57 be 33 ba 88 bd a9 86 55 be
       -0.13718647 -0.21072893 -0.0667614 -0.2085215
0001b0 80 a3 3f be 39 de cd bb 2d 84 9d 3c e7 4e ab bd
       -0.18714714 -0.0062825945 0.019228065 -0.08364659
0001c0 b5 41 4e be ba be 2f bc 9e ac 54 be 56 1a 89 be
       -0.20142253 -0.010726625 -0.20768973 -0.26777905
0001d0 98 51 a5 bb 06 c6 9f bc 2a cc d7 bd d5 f6 2c 3d
       -0.005045127 -0.019503605 -0.10536988 0.042227585
0001e0 46 00 29 be 69 6e bc be fd ee cb be 10 3e b0 bd
       -0.1650401 -0.36802986 -0.3983077 -0.086055875
0001f0 e6 41 82 be a3 48 ec bd 57 ca 17 be 36 35 87 be
       -0.25440902 -0.11537292 -0.1482328 -0.26407784
000200 d8 d4 c9 bd 12 ee 17 bd e3 25 67 bd c6 33 c6 bd
       -0.0985505 -0.037092276 -0.056432616 -0.09677844
000210 e1 80 49 3e 9e d1 44 3c 5d d3 15 3a 8e 26 24 3e
       0.1967807 0.012012867 0.00057153945 0.16030332
000220 c7 81 27 3d 7f 92 d7 bc bf 23 25 3d ad 2c a8 be
       0.04089525 -0.026314972 0.040317293 -0.32846585
000230 1c 21 05 bc fc bb 97 bc 0a 9f cb 3d 50 e6 08 bd
       -0.00812557 -0.018522255 0.09942444 -0.033422768
000240 c5 01 aa be b1 4c b6 bc 13 dc c5 bd a2 8c d1 bd
       -0.33204475 -0.022253366 -0.096611165 -0.10231902
000250 fb ff e0 3d 40 9f 1c be b9 c0 04 3e 1a f6 63 be
       0.109863244 -0.15295124 0.12964143 -0.22261849
000260 60 24 2a be d8 a7 90 bd 4d 75 19 3e 29 3b 43 be
       -0.16615438 -0.07063264 0.14986153 -0.19065537
000270 fa d2 17 3c 5d e3 78 bd 3e 02 5b bd ca 17 10 3d
       0.009266609 -0.060763706 -0.053468935 0.035178937
000280 be e0 42 bd 34 8b 95 bd 11 42 83 3d 8c c2 0b 3b
       -0.047577612 -0.073019415 0.064090855 0.0021325676
000290 8d e2 e9 3d 20 0e 13 3e a8 e6 5b be 3a 9f c9 bb
       0.11420164 0.14360857 -0.21474707 -0.0061530145
0002a0 45 77 ae bd fd ba b9 be 36 82 e2 3e fc 18 64 be
       -0.085188426 -0.36275473 0.44239968 -0.22275156
0002b0 aa a3 7b be 3b 8d 31 bc 40 27 6a be 26 97 6d bc
       -0.24574152 -0.010836895 -0.22866535 -0.014501369
0002c0 59 f1 0f 3e d1 ef cc 3d 39 b9 34 ba ba 7d cf bd
       0.1405691 0.10006679 -0.00068940554 -0.10131402
0002d0 c2 33 f4 bd b4 ed af be 7b 88 32 bd 8b 77 48 bd
       -0.119239345 -0.3436104 -0.04358719 -0.04894213
0002e0 dc c3 02 3e 6d a1 8e be a5 b7 b2 be a2 af 0f 3b
       0.12770027 -0.27857533 -0.34905735 0.0021924754
0002f0 75 c5 cb bd fc 04 8a 3d 5b 4f 58 bc 3a e8 f1 3d
       -0.09949771 0.06739232 -0.013202514 0.11811872
000300 17 80 e3 bd b3 7c 2b 3d 7a 5e c1 bd 48 63 03 3f
       -0.111084156 0.04186697 -0.09441848 0.51323366
000310 56 9f 2e 3e 9a bb 40 be 24 73 d0 3d 38 eb 10 be
       0.1705297 -0.18821564 0.10178211 -0.14152229
000320 9f 17 61 be df a6 10 be 70 18 b8 bd 85 5c 59 3e
       -0.21981667 -0.14126156 -0.08989036 0.212267
000330 d8 13 cf 3d 44 50 00 3e 54 e2 9b be 2d 14 14 be
       0.10111207 0.12530619 -0.30446112 -0.14460821
000340 62 d5 9c be b1 e4 75 bd 52 10 78 bd 8f c2 c9 3e
       -0.30631548 -0.06003255 -0.06056244 0.3940625
000350 83 83 c7 3c 11 a2 03 bc c0 5f 68 3e 59 ee 50 be
       0.024354702 -0.008034245 0.22692776 -0.20403422
000360 dc 78 63 be 8a 04 1c be 67 8e 72 be ad f9 46 bd
       -0.22214073 -0.15236107 -0.23687135 -0.048577953
000370 7b c7 b5 bd d3 96 dd bd 0f dc 61 be b6 32 25 be
       -0.088759385 -0.10819783 -0.22056602 -0.16132626
000380 fc 5c 1b be 94 62 85 3e 7c 58 06 3e ba 21 cf bd
       -0.1517219 0.26051772 0.13119692 -0.10113855
000390 3e 53 e1 3c 9e 3a e4 bd 33 e9 89 bd 65 22 ab 3c
       0.027505513 -0.11143993 -0.06733932 0.020890424
0003a0 eb df d4 3c 40 b6 f8 3d db 87 0c bd 22 06 96 bd
       0.025985679 0.121441364 -0.03430925 -0.073253885
0003b0 08 80 64 3c 67 ca 25 3d e9 37 1f 3e 1a 06 31 be
       0.013946541 0.04047623 0.15548672 -0.17287484
0003c0 20 6d 91 bc 40 b6 d8 3d b5 f8 37 3d cd a4 0e be
       -0.01775223 0.105816364 0.04491492 -0.13930054
0003d0 86 b3 85 bd 01 aa 8e 3b 6e 37 24 bd d0 80 92 3e
       -0.06528382 0.004353762 -0.040091924 0.286139
0003e0 f2 b4 42 be 4d eb 60 be 72 04 33 3d d1 4a 4a bd
       -0.19014338 -0.2196476 0.04370541 -0.049387757
0003f0 25 ef 45 be 0e 68 02 be e9 f5 e4 3c be 77 18 be
       -0.19329508 -0.12735006 0.02794929 -0.14889428

fc1.weight f4 [64, 128]
000000 27 65 6a 3d 0b a6 26 3d 0a b6 7a 3d f3 25 5c 3e
       0.057225373 0.040685695 0.061208762 0.21498851
000010 8c 9c 0c bd 00 4c 11 3e 67 83 17 be 90 4c d3 bd
       -0.034328982 0.14189148 -0.1479622 -0.103173375
000020 cb ec c3 3d 5b f2 87 3d d1 c9 e9 bd 98 55 e1 bd
       0.09566649 0.066380225 -0.114154465 -0.11002654
000030 15 24 91 bd 63 95 89 be e8 e3 30 3e 1d aa 54 be
       -0.0708696 -0.26871786 0.1727444 -0.20768018
000040 20 96 a6 3d 3b 67 9d bd 86 0b 59 bd c1 61 5d 3c
       0.08134103 -0.07685705 -0.052989505 0.013512076
000050 57 c1 61 bd c1 41 1d 3e 04 a4 24 3d 99 0e b5 3d
       -0.055116024 0.15357114 0.04019548 0.08840675
000060 7b 6e 38 be 2a 93 21 3d a0 e9 04 3e 0f 74 f2 bd
       -0.18010895 0.039446987 0.12979746 -0.11838543
000070 d0 28 51 3e 24 25 fa 3d c3 f3 e6 3b 0d 1f a8 bd
       0.20425725 0.12214115 0.0070481016 -0.082090475
000080 fb 73 f5 bd 62 37 2c 3e 09 4a 8c be 87 96 3d 3e
       -0.11985012 0.16818002 -0.27400234 0.18514453
000090 b3 e4 87 be 5c 64 6c 3d c9 d6 39 3d 34 5d 30 bc
       -0.2654167 0.057712898 0.04537085 -0.010764409
0000a0 5c b6 0b 3e cc ad 3a be b4 c4 07 3f 9b 0f b8 3c
       0.13643783 -0.18230361 0.5303452 0.022468379
0000b0 91 79 f4 3d d7 c9 a7 bd 76 56 bd bc b4 47 ba 3d
       0.119372495 -0.08192795 -0.023112517 0.090957075
0000c0 4b 50 6f bb 40 3f 33 bd a1 4a e5 3c 50 db 34 bd
       -0.0036516364 -0.04376149 0.027989687 -0.044154465
0000d0 ec 9e 80 3e 43 3e 19 3e c2 9f 09 3e eb c2 ac bd
       0.25121248 0.14965157 0.13439849 -0.08435615
0000e0 3d 2f a3 3d 0a f4 2e 3e 4f a3 59 3d 37 15 d2 3d
       0.07967994 0.17085281 0.05313426 0.10257953
0000f0 ed 1c 8a 3e e9 da 59 be cd 08 23 3e 37 c3 77 3e
       0.26975194 -0.21274914 0.15921326 0.24195562
000100 b8 f9 cc bd 8a 36 c0 3c 6d d8 06 3e 29 3c 2a 3e
       -0.100085676 0.023463506 0.13168497 0.16624512
000110 f7 25 32 bc ef b7 f2 bd ce 0d 79 be 65 d4 a8 bd
       -0.010873309 -0.11851489 -0.24321672 -0.08243636
000120 a0 86 42 3d 33 2c cd 3d 28 98 c2 bd b7 b3 e5 bc
       0.04749167 0.10018196 -0.09501678 -0.028039796
000130 81 da c2 3d 95 0d 63 3e 65 bc 4a bd 86 71 20 be
       0.095143326 0.2217315 -0.049496073 -0.15668306
000140 44 43 96 bd 8f 41 05 3d e5 1b 35 be ca 3c 88 3d
       -0.07337049 0.032533225 -0.17686422 0.066522196
000150 87 c6 21 be d9 ce f3 3e f2 fd a9 3e ab f2 cc bd
       -0.15798388 0.4761875 0.33201557 -0.10007223
000160 df 83 36 be 16 94 b3 3d c3 1d 3f be 45 1f b1 bc
       -0.17823742 0.087684795 -0.18663697 -0.021621356
000170 8f 22 0e bd 5e 33 c4 bd ec 15 ce bd 9f 7b 40 bd
       -0.034700926 -0.0958011 -0.10062775 -0.046992894
000180 a3 76 e9 bd 4a 96 5e 3e 91 8f 41 3d 49 79 92 be
       -0.11399581 0.21737018 0.047256056 -0.28608158
000190 9a 19 49 bd f0 03 86 3e 10 5a 11 3e 5d 74 f8 bb
       -0.04909668 0.2617488 0.14194512 -0.007582231
0001a0 ba 1c 18 be af 8f 22 3e 57 e0 e9 bd e4 2e 46 3e
       -0.14854708 0.15875123 -0.114197426 0.19353825
0001b0 07 21 a2 3d ef 9e 9e bd 83 c9 72 bd 41 84 4d bd
       0.07916456 -0.07745158 -0.059274208 -0.050174955
0001c0 5d 70 d9 3d 3b 1c 10 3d 85 15 24 3e 03 82 0c 3d
       0.10617135 0.035183173 0.16023834 0.034303676
0001d0 37 74 b4 bd 2a 1c 37 bd 01 ed 42 3d 25 89 60 bd
       -0.08811229 -0.044704594 0.047589306 -0.05481829
0001e0 d4 6d 13 bd 98 96 0b bd 31 8e ce bd ab 6c 1b 3d
       -0.035993412 -0.034079164 -0.100857146 0.03794543
0001f0 fd 08 38 bd e8 3a cb 3d e8 8e ef bd 4f 2e 00 be
       -0.044930447 0.09923345 -0.11697179 -0.12517665
000200 80 20 75 be 6c f4 9e bd b6 65 49 be 9b 7f 82 3e
       -0.23938179 -0.077614635 -0.19667706 0.2548798
000210 b4 78 10 3e 3f 85 46 be ed 02 cc bd 16 7b 91 3e
       0.14108545 -0.19386767 -0.099614955 0.2841422
000220 56 16 65 bd 32 a9 95 bd b0 8f d8 bd 00 b1 ae 3e
       -0.055929504 -0.07307662 -0.10574281 0.34119415
000230 da 99 b7 3d 40 fa b6 bb 23 a7 13 be dd 14 25 3e
       0.08964892 -0.0055840313 -0.14419226 0.1612124
000240 c8 94 06 be 8f cd 07 bd 69 2f 8e bb 76 a0 02 bd
       -0.13142693 -0.03315502 -0.004339148 -0.03189131
000250 21 7b f8 3d e5 e5 97 3d aa b3 9a bd 66 57 44 bc
       0.1213286 0.07416896 -0.075537995 -0.011983728
000260 89 d4 20 3d 9c 08 57 3d b8 65 14 be 91 73 92 bd
       0.03926519 0.052498445 -0.14491928 -0.07150949
000270 21 2c 90 bd de 64 90 bc ce 42 f9 bb 85 75 27 3e
       -0.07039667 -0.017626222 -0.0076068407 0.16353424
000280 24 4f 28 bd 5c 21 ec 3d 1a 97 3e 3e 4b 5c c2 3c
       -0.0410911 0.115298 0.18612328 0.02372565
000290 85 b6 8b 3c 37 3f 97 3e 78 4e b8 bd bf 16 d9 3d
       0.017054806 0.29540417 -0.08999342 0.106000416
0002a0 f0 93 30 3e c2 19 03 3d 82 68 bb bd 5f bf d5 3c
       0.17243934 0.032006986 -0.09150793 0.02609223
0002b0 40 0a 83 3d c1 a7 82 bd 06 77 18 3d 08 2f 94 bd
       0.063984394 -0.06379653 0.037222885 -0.07235533
0002c0 1e 02 74 3d 91 73 21 3d c7 02 55 ba cd c9 ba bd
       0.05957233 0.039416853 -0.0008125719 -0.09120522
0002d0 e7 87 93 bc 6e e1 20 be 60 07 8a 3d 31 82 3c 3c
       -0.01800914 -0.15710995 0.06739688 0.011505649
0002e0 3f 66 ac bc fb 1d a7 3a 3e 11 6a 3e d7 af 37 3d
       -0.021044848 0.0012750024 0.2285814 0.04484543
0002f0 a6 24 4f 3e be f7 68 3e 47 ce 58 3e f4 92 01 be
       0.20228824 0.22750756 0.21172439 -0.12653714
000300 83 e0 3e be db b7 f4 3d 78 a4 be bd a1 d8 52 be
       -0.18640332 0.1194913 -0.09308714 -0.2059045
000310 0f 2e 2a 3e fc 4d fc 3d 1e 8b ee bd 6e 61 23 be
       0.16619132 0.12319562 -0.11647628 -0.15955135
000320 de 58 a8 bc ae fc c9 bd 96 69 f5 3d 59 3e 5a be
       -0.020550188 -0.09862648 0.119830295 -0.21312846
000330 21 36 44 3e 96 00 17 be 82 cf d1 bc 43 01 bc bd
       0.19161274 -0.14746317 -0.025611643 -0.09179928
000340 48 6b 89 3d 28 28 6b bd 1a b8 71 3c 80 44 77 bd
       0.067099154 -0.057411343 0.014753366 -0.06036806
000350 f3 37 69 3d 8c ff 8d 3e 9c 32 b0 3e 37 a0 8f 3d
       0.056938123 0.2773403 0.34413612 0.070129804
000360 cd d4 28 3e 39 3f 85 bd 81 e1 74 bc 82 09 80 3d
       0.16487427 -0.065061994 -0.014946342 0.062518135
000370 d9 8e 46 3d ef c2 7b be 7b 99 4f 3b 76 c0 c8 3d
       0.048476074 -0.2458608 0.0031677175 0.09802334
000380 bf f7 38 be 93 3d 8c be 2b 41 b0 3d 70 57 47 bd
       -0.18063258 -0.27390727 0.0860618 -0.04866737
000390 58 a5 b7 bd 8a b2 c7 3d 2a 9a 0c be 05 68 6b bd
       -0.08967084 0.097508505 -0.13730684 -0.057472248
0003a0 12 68 25 bd 87 0f cf 3d f4 60 12 bc ce 6d 16 be
       -0.040382452 0.101103835 -0.008934248 -0.14690325
0003b0 95 ae db 3d eb a9 11 3d 2c 50 88 bd bc 84 14 bd
       0.10726658 0.035562437 -0.066559166 -0.036259398
0003c0 a0 a2 40 3e b2 09 45 3e 65 4e c1 bd f0 04 72 3e
       0.18812037 0.1924198 -0.09438781 0.23634696
0003d0 4d bf 16 3e 97 22 f3 3b a6 78 14 bd b6 d5 f8 3c
       0.14721413 0.007419895 -0.03624787 0.030375343
0003e0 5a 95 07 bc a3 51 55 bd 0c b0 eb 3d d7 ea f8 bd
       -0.008275354 -0.052079808 0.11508188 -0.12154167
0003f0 e1 dc 61 3c fa da 24 be 15 09 c6 3d 93 3e 49 3d
       0.013785572 -0.16099158 0.09669701 0.04913194

fc1.bias f4 [64]
000000 de 91 6b 3d 19 08 e8 bd b2 90 16 3d e2 ea 32 be
       0.057512157 -0.113296695 0.036759086 -0.17472413
000010 6c 2b 1a be ea d9 8f bd d6 26 f4 3d fb 08 3b 3d
       -0.15055627 -0.07023986 0.1192147 0.04566286
000020 22 e6 fb bc c1 3a 52 bd c4 5f b6 bd 73 b7 4e bb
       -0.030749384 -0.051325563 -0.089049846 -0.003154245
000030 7f de e6 3c c7 53 61 bb 58 eb 18 be 1a 29 10 3d
       0.028182266 -0.003438221 -0.14933527 0.035195448
000040 34 12 bc 3d c6 49 a5 bd 6f eb 03 3d 60 f3 3a 3d
       0.091831595 -0.08070712 0.03220695 0.045642257
000050 09 55 3b bd 7b 9b 85 bb f7 d4 9f 3d 8f 4a 1a bd
       -0.045735393 -0.0040773726 0.07804292 -0.03766876
000060 15 69 2c bc 96 6d 3e be 3a 1e 8e 3d 79 b6 9f 3c
       -0.0105231 -0.18596491 0.06939359 0.01949619
000070 33 96 7f 3c d2 4b 11 be 09 7a a2 bc 18 c8 f4 3d
       0.015599775 -0.1418908 -0.019833582 0.11952227
000080 8e af 89 bd 93 09 93 bd 09 f7 5e bd 4c 60 06 3e
       -0.067229375 -0.071795605 -0.05443481 0.13122672
000090 6a 18 5d be 97 73 32 3e 1d 51 3e 3e 11 ac ba bd
       -0.21591344 0.17426907 0.1858563 -0.0911485
0000a0 9f f8 18 3d d4 c8 3f 3e 14 18 c7 bd 46 a2 37 3d
       0.03734648 0.18728954 -0.097213894 0.04483249
0000b0 3f 75 2b bc 29 39 fb 3d f0 66 30 be 5d c1 08 be
       -0.010464965 0.12266762 -0.17226768 -0.13355012
0000c0 03 bb 59 3d 75 c2 7e 3b 60 c2 e9 3c df b7 2b bd
       0.053156864 0.003887323 0.028535068 -0.0419234
0000d0 fc 99 15 3e 5f 5b ad bc 04 68 aa bd f3 1a a1 bd
       0.14609522 -0.021161733 -0.08320621 -0.07866468
0000e0 50 76 fb 3c a9 fa 36 3d bb 95 02 3e 29 2f 2e 3e
       0.030696064 0.044672642 0.1275243 0.17010178
0000f0 f0 15 f2 bd 5f e0 64 3e 74 18 4a bd a3 f3 26 be
       -0.118205905 0.22351216 -0.049339727 -0.16303878

bn1.weight f4 [64]
000000 ea bf 74 3f 22 4b 98 3f c3 c6 92 3f 79 4e 93 3f
       0.9560534 1.1897929 1.1466907 1.1508323
000010 86 87 8b 3f 28 3e 52 3f 55 88 88 3f ab 55 8c 3f
       1.0900733 0.8212609 1.0666605 1.0963644
000020 ee 6a a2 3f a4 fe 99 3f 79 c2 80 3f dc 28 94 3f
       1.2688882 1.2030835 1.0059348 1.1574969
000030 06 0d 97 3f 14 82 85 3f 8e b5 93 3f 1f 83 82 3f
       1.180085 1.0430322 1.1539781 1.0196265
000040 36 17 79 3f f0 d8 78 3f 75 bd 92 3f a0 e8 80 3f
       0.9730104 0.9720602 1.1464068 1.0070992
000050 b0 35 9e 3f 47 ce 94 3f 86 89 6a 3f 61 30 70 3f
       1.2360134 1.1625451 0.91616094 0.9382382
000060 90 c3 7d 3f 03 31 83 3f 62 77 97 3f 34 f5 95 3f
       0.9912653 1.0249332 1.1833308 1.1715455
000070 bb 95 65 3f 17 6d 97 3f 83 b9 86 3f ab c7 7f 3f
       0.89681596 1.1830167 1.0525364 0.99914044
000080 70 2d 99 3f 9f a6 8d 3f 73 93 92 3f ec ec 86 3f
       1.1966991 1.1066474 1.1451248 1.0541053
000090 68 0e 80 3f 1c 54 82 3f f3 ff 53 3f 31 f9 7a 3f
       1.0004396 1.0181918 0.8281242 0.98036486
0000a0 9d a8 8b 3f b8 b5 90 3f c7 24 a0 3f 44 be 9c 3f
       1.0910832 1.1305456 1.2511224 1.2245564
0000b0 21 9a 9c 3f 6b 70 7a 3f b1 a8 76 3f 3f 0c 80 3f
       1.2234536 0.97827786 0.9635115 1.0003737
0000c0 9d d6 8b 3f 8e 66 a9 3f 9e db 59 3f 9f 0a 8f 3f
       1.092487 1.3234422 0.85100734 1.1175116
0000d0 37 c8 94 3f 1b 9a 8a 3f 28 38 8c 3f 53 00 8c 3f
       1.1623601 1.0828279 1.0954638 1.0937599
0000e0 2a d7 85 3f 4a 12 9e 3f b9 4c 9e 3f a8 78 a2 3f
       1.0456288 1.2349331 1.2367164 1.2693071
0000f0 63 1c 83 3f 4e 12 52 3f 5c 6a 82 3f 01 2d 88 3f
       1.0243038 0.8205918 1.0188708 1.0638734

bn1.bias f4 [64]
000000 81 0d 49 bc 80 5d 3a 3d f6 ea 8b 3d 83 28 96 3e
       -0.012271286 0.045499325 0.068319246 0.29327783
000010 f3 74 77 3e d0 cd 6a be 9e ff ba bc 1f df 82 3d
       0.24165706 -0.22930074 -0.022826966 0.06390213
000020 61 ae b9 3e 8e dd 02 3e fa 03 46 3e 43 30 3f 3e
       0.36265853 0.12779829 0.19337454 0.18670754
000030 0e 15 9b 3e 1c 7d 3c 3e 94 12 a3 3e dd 0a f7 bd
       0.302895 0.184071 0.3185011 -0.12062619
000040 ba 12 77 3e 94 ed 55 be 93 5c bb 3c 92 81 6a bd
       0.24128237 -0.2089141 0.022871291 -0.057252474
000050 95 06 9b 3e 8b 38 5a bd 82 de b0 bc 68 4b d8 bd
       0.3027846 -0.05327658 -0.021590475 -0.105612576
000060 b5 80 15 3e aa e0 d0 bd 64 38 90 3e 3f 90 08 3e
       0.14599879 -0.10199101 0.28168023 0.13336276
000070 92 04 36 be 2d 45 ac 3e 84 44 7f 3e 4e a4 36 bd
       -0.17775181 0.33646527 0.2492848 -0.044590287
000080 28 99 b7 3d 78 fe 88 3e 93 5a b1 3e 0d 3e c5 3e
       0.08964759 0.26756644 0.34639415 0.38523903
000090 fd 16 3e be 0c 30 0d be 48 41 97 be e6 df 55 3e
       -0.18563457 -0.1378786 -0.29541993 0.20886192
0000a0 2a 43 29 3c 4b 69 ae 3e d7 c9 4a 3d f0 7c 4a 3e
       0.010330955 0.34064707 0.049508896 0.19774222
0000b0 01 f1 62 3d ad b0 e6 3d 08 74 0a be 2a bf ce bd
       0.05540562 0.11264167 -0.13520825 -0.100950554
0000c0 27 e7 b7 3e 13 1a 99 3d ff 41 69 be 68 b3 6e 3e
       0.35918543 0.074756764 -0.22779082 0.23310626
0000d0 73 a2 43 3e f6 20 26 be 79 e9 0a 3e 9d 5c 80 3e
       0.19104938 -0.16223511 0.13565625 0.25070658
0000e0 a0 b5 8f 3d ed 93 bb 3e 82 a3 07 3e 1f 7f 94 bc
       0.07017064 0.36636296 0.13245967 -0.018127022
0000f0 2e 1f c9 3d c0 b4 81 be 2d 89 4b 3e bd 3e 96 bd
       0.098204 -0.25333214 0.19876547 -0.07336185

bn1.running_mean f4 [64]
000000 cc 5b f4 bc 81 d1 95 3e 57 7c 2c 3f 99 b9 e1 3e
       -0.029828928 0.292614 0.6737723 0.44086912
000010 95 4a c8 3e 60 10 44 bf bb 71 5f 3f f8 d1 4d 3f
       0.39119402 -0.76587486 0.87282914 0.8039851
000020 3c 76 c5 3e 2b c3 29 bf 31 3a 28 bf 2c 61 70 3f
       0.38566768 -0.6631343 -0.65713793 0.9389827
000030 d2 07 93 3f 28 2f ee be e8 d6 28 3f 1c 65 52 bf
       1.1486762 -0.46520352 0.6595292 -0.8218553
000040 e8 d0 c3 3e 94 2e 7f be 88 41 8c 3f b8 cf 52 3f
       0.3824532 -0.24920112 1.0957499 0.82348204
000050 e0 fe d1 3e 7f 73 ae be af 9d 34 bf 7a 5b 39 bf
       0.41014767 -0.34072492 -0.70553106 -0.7240521
000060 1b 3e 02 3e a6 31 49 be 2c ec c4 3e 51 5b 48 3f
       0.12719004 -0.19647846 0.38461435 0.7826434
000070 9b 8b 75 bd a2 7f c9 3e 6b 17 13 3f b1 36 14 3f
       -0.05994759 0.3935519 0.5745761 0.5789595
000080 2e 05 88 3f f7 2f 24 3f 0a 38 bb be d3 71 4a 3f
       1.0626581 0.6413569 -0.36566192 0.7907993
000090 e6 d7 6e bf c6 81 2c bf f5 94 9c 3e 4c 71 e1 3e
       -0.93298185 -0.6738552 0.30582395 0.4403175
0000a0 bc ae 69 be 83 e3 68 3f 34 be 84 be dd 9d 2b 3f
       -0.22820562 0.90972155 -0.25926363 0.67037755
0000b0 57 be 80 3f 58 6c 34 bf 8a 2e f6 be 12 8e f8 be
       1.0058087 -0.7047782 -0.4808238 -0.4854589
0000c0 77 9d 09 3f a9 ff 4c 3f bf fb 23 bf 3b c7 42 3f
       0.537559 0.80077606 -0.6405601 0.7608525
0000d0 74 07 7e 3e e0 10 7a be a4 37 00 bf 8c 05 07 3f
       0.2480753 -0.244205 -0.500849 0.5274284
0000e0 8d 32 d5 3e 6e ca 15 bf 92 ee 3f 3f 9d 69 69 3f
       0.4164013 -0.5851201 0.74973404 0.9117678
0000f0 22 c5 03 bf 2a e7 02 bf 84 92 87 3e f9 88 16 bf
       -0.51472676 -0.5113398 0.2647897 -0.58802754

bn1.running_var f4 [64]
000000 7e ca 80 3f 13 19 e5 3e ce 7f 30 3f 5f 86 37 3f
       1.0061796 0.44745693 0.68945014 0.7168941
000010 e3 92 44 3f 59 2e 2a 3f ab 68 fb 3e e8 60 1f 3f
       0.7678663 0.6647697 0.49103293 0.6225724
000020 a8 bb 25 3f d1 f8 19 3f d9 79 0f 3f b5 8d 97 3e
       0.64739466 0.6014529 0.560453 0.296003
000030 9d df 5a 3f 47 4a 12 3f 76 d0 22 3f e9 c2 39 3f
       0.85497457 0.5714459 0.63599336 0.72563034
000040 bb b8 4a 3f 8a 0e bf 3e 48 ad 25 3f e8 ae ed 3e
       0.79188126 0.3731578 0.6471753 0.46422505
000050 80 94 42 3f 5c 59 04 3f c7 9b 10 3f 35 fb 3a 3f
       0.76007843 0.5169885 0.564877 0.7303956
000060 29 da 97 3e 07 ca 1c 3f 0d fc 6d 3f b4 d2 0b 3f
       0.2965863 0.6124577 0.92962724 0.5461838
000070 0d 05 cb 3e de 68 47 3f d5 4b 42 3f 3c 1e 15 3f
       0.3965229 0.7789439 0.7589696 0.5824926
000080 ae 10 4d 3f 12 1c 6c 3f 49 44 3a 3f e2 ae 6b 3f
       0.80103576 0.9223033 0.72760445 0.92063725
000090 b8 e2 f7 3e 55 62 24 3f 59 d8 67 3e d7 72 85 3f
       0.4841516 0.6421254 0.22641124 1.0425671
0000a0 cf 54 fe 3e 27 2a 2c 3f 10 43 de 3e 3b ee 78 3f
       0.4967408 0.6725182 0.4341054 0.9723851
0000b0 d8 7f 32 3f 6e 58 e6 3e 3a 0b 32 3f fb be a9 3e
       0.69726324 0.44989341 0.6954838 0.3315352
0000c0 1d 29 75 3f c6 96 29 3f f7 83 2f 3f ff da 03 3f
       0.9576586 0.66245687 0.6856074 0.51506037
0000d0 bb 27 37 3f 98 4b ef 3e 00 90 44 3f f9 6d 63 3f
       0.71545 0.4673736 0.76782227 0.8883968
0000e0 e9 0d 85 3f 4c 21 06 3f 96 05 5c 3f 4d 1d 31 3f
       1.039487 0.52394557 0.85946023 0.69185334
0000f0 d9 e4 b8 3e 7e 2d 2b 3f a7 bd 17 3f 44 f0 e6 3e
       0.36112097 0.6686629 0.5927376 0.45105183
