Models/25_rec_fin3.pt (torch, 317303 bytes, 12 tensors)

lstm.weight_ih_l0 f4 [512, 6]
-0.19306387 0.096423216 0.08811978 -0.3956699 0.14515285 0.14426737 0.115072094 0.41907498
0.40331128 -0.13039441 -0.048298486 0.32512066 -0.28962997 -0.41923684 0.10321926 0.9581115
0.6952719 0.09884486 -0.31868115 0.115223914 -0.62124544 -0.5089885 0.035019647 -0.47797662
-0.16807465 0.13554342 0.26073888 -0.0681518 -0.4257249 0.008807579 -0.17423508 0.11384121
-0.27163884 0.5746477 -0.52526695 0.29996386 -0.23620644 -0.46430427 -0.018418053 0.38766012
0.18412307 0.16049495 0.23686776 -0.04262728 0.11957171 -0.20304011 -0.97527856 0.816449
-0.0043356237 0.6358603 -0.15984893 -0.7787199 0.035954915 -0.7146115 0.15308088 0.119907625
0.34055153 0.13713096 0.5580246 -0.086536564 -0.014126719 -0.008593912 -0.119230956 0.41595507
-0.24052592 0.11729591 -0.14866032 -0.846571 0.032406155 0.44740677 -0.75294256 -0.7745434
0.6050755 -0.1845734 -0.27759838 0.5610497 -0.19302423 0.6646874 0.31458554 -0.17226487
-0.28157583 0.6847251 0.22894691 -1.2296749 -0.036004573 0.41660908 0.22096917 0.10807214
0.042967286 0.25980982 -0.036457323 -0.35658473 -0.29340053 -0.48463657 0.089147985 -0.44812936
0.37719512 -0.64708763 0.3940555 0.5236176 -0.0031947761 0.19210798 0.7486912 0.10796269
0.30431032 0.0023320343 -0.23901653 -0.7068707 0.11280815 -0.9956169 0.38941842 -0.490479
-0.19546834 0.051328465 -0.20453304 0.078729555 0.1894229 0.23174915 0.2084087 0.14941993
-0.66367424 0.3590296 -0.48933914 0.24762289 0.3260531 0.13072424 0.26201618 -0.78715163
-0.086319245 -0.016370581 -0.5065898 -0.43067825 -0.09589615 0.04868042 0.2168633 0.28136024
0.6756121 -0.29700658 -0.06735239 -0.30270424 -0.17436528 0.19908985 0.5934781 -0.28037533
0.3639256 -0.26791736 0.08457563 -0.50206095 0.42064628 0.76929677 0.35677326 0.25993967
0.1582583 -0.20868447 0.30426466 0.354486 -0.20838243 0.021804456 -0.10496391 0.34500226
-0.24239941 -0.34268075 -0.29545322 -0.13071951 0.11088391 -0.09861938 -0.08520546 0.5837291
-0.1575153 -0.59017247 -0.23975503 -0.38763854 -0.08990282 0.18597832 0.1872896 0.38344964
-0.47155595 0.38644952 0.030478759 -0.11342021 -0.4396646 0.8015474 0.4496637 -0.14148325
0.029973865 0.24161391 -0.08857134 0.77863747 -0.45569643 -0.25540045 -0.07239107 -0.72272074
0.5060904 0.05126918 -0.2138092 -0.037642606 -0.417891 -0.5806364 0.27617857 -0.5695267
0.076458946 1.2440729 0.039478045 -0.42502138 -0.20765078 -0.26721022 0.042677574 0.14882044
-0.45062298 -0.113782175 -0.43892914 -0.27249944 0.25051764 -0.24136515 -0.08938429 -0.6921012
-0.9078077 0.5995168 0.46679926 -0.7603773 -0.015630875 -0.07047737 0.91687316 -0.34774265
0.4439643 0.08436692 -0.16050471 0.37326607 -0.02196116 -0.2448469 0.21709414 -0.497956
0.53846675 -0.023424879 0.099643566 -0.6538764 0.015987806 -0.48012617 0.50322926 0.046454363
0.30073568 0.3118747 0.020532433 0.1878346 -0.26771528 -0.42928338 -0.18625176 0.4261457
-0.28726044 0.19829302 -0.34622875 0.2410688 -0.24312769 0.42769948 1.0003308 -1.0143907
00000000: 89b2 45be 8979 c53d 2578 b43d 3f95 cabe
00000010: f3a2 143e d3ba 133e ebaa eb3d ff90 d63e
00000020: d17e ce3e 1d86 05be a2d4 45bd 3776 a63e
00000030: 614a 94be 36a6 d6be 9f64 d33d cc46 753f
00000040: 57fd 313f 2d6f ca3d 2d2a a3be 84fa eb3d
00000050: f109 1fbf 124d 02bf c370 0f3d 5ab9 f4be
00000060: c31b 2cbe e5cb 0a3e 917f 853e 2c93 8bbd
00000070: 9df8 d9be aa4d 103c ae6a 32be 9525 e93d
00000080: 3f14 8bbe 1d1c 133f e577 06bf dd94 993e
00000090: 1ae0 71be 4ab9 edbe 75e1 96bc 637b c63e
000000a0: c28a 3c3e ca58 243e 768d 723e f199 2ebd
000000b0: 03e2 f43d bfe9 4fbe dbab 79bf cd02 513f
000000c0: d911 8ebb bec7 223f 70af 23be 305a 47bf
000000d0: 7645 133d c7f0 36bf 3cc1 1c3e 2192 f53d
000000e0: c55c ae3e 0f6c 0c3e b3da 0e3f 153a b1bd
000000f0: c173 67bc 7bcd 0cbc 5c2f f4bd 10f8 d43e
00000100: 6d4c 76be d738 f03d 693a 18be e1b8 58bf
00000110: 51bc 043d 8012 e53e d8c0 40bf 7a48 46bf
00000120: 3ae6 1a3f cf00 3dbe 6021 8ebe f4a0 0f3f
00000130: 25a8 45be f428 2a3f 5b11 a13e 3466 30be
00000140: b52a 90be 254a 2f3f 0f71 6a3e fd65 9dbf
00000150: 8879 13bd c94d d53e be45 623e ed54 dd3d
00000160: 77fe 2f3d cb05 853e 4654 15bd 4692 b6be
00000170: 9838 96be 4922 f8be 3893 b63d 3671 e5be
00000180: b81f c13e 89a7 25bf a4c1 c93e ce0b 063f
00000190: 735f 51bb f4b7 443e 3aaa 3f3f 8b1b dd3d
000001a0: 90ce 9b3e 0bd5 183b c0c0 74be 7af5 34bf
000001b0: f607 e73d c0e0 7ebf da61 c73e 1020 fbbe
000001c0: da28 48be cc3d 523d 1c71 51be f63c a13d
000001d0: 14f8 413e a64f 6d3e 1769 553e 8a01 193e
000001e0: 8ee6 29bf bad2 b73e a98a fabe db90 7d3e
000001f0: 6ff0 a63e 93dc 053e fc26 863e c582 49bf
00000200: 25c8 b0bd 991b 86bc deaf 01bf dc81 dcbe
00000210: 3365 c4bd 1f65 473d 6a11 5e3e 730e 903e
00000220: eaf4 2c3f 3f11 98be 0df0 89bd 0dfc 9abe
00000230: d08c 32be 36de 4b3e 2eee 173f 5b8d 8fbe
00000240: 7554 ba3e 772c 89be fd35 ad3d 1187 00bf
00000250: f35e d73e a2f0 443f fcaa b63e d016 853e
00000260: 770e 223e 62b1 55be 94c8 9b3e 307f b53e
00000270: 3462 55be 429f b23c 52f7 d6bd 23a4 b03e
00000280: 8d37 78be da73 afbe a545 97be 56db 05be
00000290: 1a17 e33d f5f8 c9bd 3380 aebd 456f 153f
000002a0: b14b 21be 8b15 17bf 5882 75be 8f78 c6be
000002b0: f81e b8bd 1a71 3e3e d8c8 3f3e 8353 c43e
000002c0: c86f f1be b6dc c53e 97ae f93c db48 e8bd
000002d0: b81b e1be 3632 4d3f 523a e63e fce0 10be
000002e0: c08b f53c a369 773e e464 b5bd c954 473f
000002f0: 0b51 e9be d9c3 82be c541 94bd 3a04 39bf
00000300: 248f 013f a2ff 513d cdf0 5abe 222f 1abd
00000310: cff5 d5be 96a4 14bf 4767 8d3e 80cc 11bf
00000320: 8296 9c3d c83d 9f3f bbb3 213d 679c d9be
00000330: 68a2 54be c7cf 88be aece 2e3d 6364 183e
00000340: 0eb8 e6be a106 e9bd 52bb e0be 0c85 8bbe
00000350: d943 803e 6d28 77be 1c0f b7bd 8b2d 31bf
00000360: 1666 68bf ef79 193f 5000 ef3e 16a8 42bf
00000370: 520c 80bc 7056 90bd 33b8 6a3f 530b b2be
00000380: 4a4f e33e 90c8 ac3d 595b 24be bb1c bf3e
00000390: e4e7 b3bc 25b9 7abe ed4d 5e3e 17f4 febe
000003a0: f5d8 093f 88e5 bfbc ed11 cc3d 7264 27bf
000003b0: dcf8 823c 19d3 f5be a2d3 003f ee46 3e3d
000003c0: 07fa 993e 0aae 9f3e a233 a83c b757 403e
000003d0: fa11 89be 08cb dbbe c8b8 3ebe c52f da3e
000003e0: cd13 93be 530d 4b3e e544 b1be bdda 763e
000003f0: 77f6 78be 6dfb da3e d70a 803f 8ed7 81bf

lstm.weight_hh_l0 f4 [512, 128]
-0.21796815 0.18129237 0.56311643 -0.18397129 -0.07032991 -0.027533114 0.10646145 -0.36395702
0.10882697 -0.0070157507 -0.58098197 0.012985143 0.03917625 0.76121736 -0.09057949 -0.440618
0.25969368 0.5860228 0.15662222 -0.262437 0.21910587 -0.028940417 0.29907882 0.2749366
-0.043011133 0.24049939 -0.23694538 -0.23366866 0.2041588 -0.031118961 0.052135613 -0.36492047
0.06332187 0.35492238 -0.328529 -0.31470522 0.12458851 -0.5373831 0.6836346 0.16564474
0.18840505 0.11291163 0.5326417 -0.14837112 -0.16824265 0.27199802 -0.22038615 0.28366795
0.5175635 -0.032271676 0.15032098 0.11015965 -0.3316316 0.26867154 0.09495043 0.07859236
0.28977603 -0.057509985 0.18920305 0.31534272 -0.28301308 0.29193547 -0.0023213506 -0.13960609
0.2988313 -0.6420046 0.7999036 -0.12839131 0.34062466 0.069433205 0.24906339 0.42814896
-0.011125015 -0.10217965 0.049177464 -0.38356146 0.23912302 0.24432725 -0.24262805 0.17584972
-0.5071729 -0.19685154 -0.1750523 -0.27019498 -0.25094315 0.03979684 -0.13015623 -0.374893
0.43202448 0.009743385 0.3753688 0.23800348 0.23889752 0.19980583 0.11670985 0.49354675
-0.18542202 0.21776856 0.108880155 0.45623198 -0.2674625 0.3564658 -0.16479704 0.2201035
-0.064139985 0.057728786 -0.45557314 0.16957466 0.023485012 0.3971106 0.784909 -0.30048078
-0.35552484 0.4391049 -0.14674711 -0.23214333 0.25193316 0.43977547 -0.03660741 0.08309945
-0.0028396114 0.21208596 0.06670686 -0.119077615 0.18390808 0.50350124 0.027146854 -0.15188675
-0.33639953 -0.18468584 0.3423038 -0.72117186 0.108029515 0.03857465 0.18744588 0.42706445
-0.023308096 -0.20079733 -0.08058727 -0.48640898 0.63362443 0.37959582 0.058397975 0.43319145
-0.17571537 0.1940892 0.22677794 0.4426701 -0.08285287 -0.08846438 0.078383654 0.3287942
-0.38774806 -0.4489653 0.022666726 0.38971108 -0.3494356 0.0009737865 -0.32509574 0.35377732
-0.06862138 0.021213647 -0.09513301 -0.37426195 0.3044734 -0.11660624 0.6296717 0.55194306
-0.16042279 -0.10577696 -0.14200296 -0.5628537 -0.12309539 0.53870326 -0.4734212 -0.1649866
0.056814652 -0.6820388 -0.18417364 0.58126783 -0.24283849 0.5985525 -0.37804672 0.34557173
0.41780373 -0.18049414 0.0028299312 -0.08407698 0.21895678 0.3967247 -0.31049967 0.30515364
-0.0070480136 -0.45165998 0.2173544 -0.059422273 -0.023075927 -0.40623188 0.21765181 0.72068965
-0.17963608 0.12627351 -0.05984191 0.39718848 -0.0022293106 0.44326097 -0.076736495 0.0028242487
-0.22788447 -0.23869172 0.4286841 -0.12145537 0.11242491 0.20008908 0.4052667 0.10433126
0.03045905 0.28786322 0.30630088 -0.12646471 0.10671739 -0.12738025 -0.28839487 -0.12290132
-0.22875518 0.17670877 -0.06263319 0.092500694 0.38157743 0.26756626 -0.06870996 -0.21436349
0.08347477 -0.08257498 0.05379464 -0.50120795 0.11995793 -0.1385567 0.38517207 -0.2067012
-0.23870894 0.35859 0.09067 -0.25276214 0.15118627 -0.19929348 0.39940485 0.3066427
0.39647233 -0.10235641 -1.0058024 -0.397454 0.015065583 0.15573007 -0.29876384 -0.2142268
00000000: 0b33 5fbe b5a4 393e 6628 103f f862 3cbe
00000010: 2109 90bd 208d e1bc 7608 da3d 9358 babe
00000020: ade0 de3d 62e4 e5bb 3cbb 14bf a3bf 543c
00000030: 4777 203d 24df 423f bd81 b9bd af98 e1be
00000040: 92f6 843e 9705 163f 9361 203e 245e 86be
00000050: 4a5d 603e 7414 edbc dc20 993e 7dc4 8c3e
00000060: 712c 30bd 7945 763e cfa1 72be d646 6fbe
00000070: 010f 513e 31ed febc 278c 553d dbd6 babe
00000080: e6ae 813d 63b8 b53e f434 a8be 0b21 a1be
00000090: 4328 ff3d f091 09bf ad02 2f3f c69e 293e
000000a0: 41ed 403e 363e e73d 355b 083f 99ee 17be
000000b0: cd47 2cbe 5343 8b3e e8ac 61be ed3c 913e
000000c0: 0b7f 043f 4e2f 04bd beed 193e 629b e13d
000000d0: 9ecb a9be 518f 893e 5f75 c23d 08f5 a03d
000000e0: 865d 943e 978f 6bbd 72be 413e 9a74 a13e
000000f0: 17e7 90be 9178 953e cd21 18bb e6f4 0ebe
00000100: 6b00 993e 6a5a 24bf 7bc6 4c3f 0379 03be
00000110: 5b66 ae3e ff32 8e3d 790a 7f3e 5736 db3e
00000120: b245 36bc 9043 d1bd 4f6e 493d 2b62 c4be
00000130: aadc 743e ec30 7a3e 7d73 78be f311 343e
00000140: 15d6 01bf 7393 49be e940 33be ff56 8abe
00000150: 9f7b 80be 0302 233d ad47 05be faf1 bfbe
00000160: 5032 dd3e b8a2 1f3c 5730 c03e 2fb7 733e
00000170: 8da1 743e e699 4c3e 9305 ef3d 29b2 fc3e
00000180: 45df 3dbe b9fe 5e3e 8ffc de3d 3d97 e93e
00000190: d8f0 88be af82 b63e 8ec0 28be d062 613e
000001a0: d35b 83bd 0575 6c3d e240 e9be fba4 2d3e
000001b0: a463 c03c 1552 cb3e ccef 483f 9ed8 99be
000001c0: 5a07 b6be 5cd2 e03e e044 16be fbb6 6dbe
000001d0: 62fd 803e 402a e13e a7f1 15bd 0b30 aa3d
000001e0: c618 3abb 102d 593e 9b9d 883d f7de f3bd
000001f0: 6652 3c3e 75e5 003f 1463 de3c 3388 1bbe
00000200: 8f3c acbe 491e 3dbe 7242 af3e b89e 38bf
00000210: 943e dd3d 7400 1e3d d0f1 3f3e 31a8 da3e
00000220: 9ff0 bebc d19d 4dbe f00a a5bd 990a f9be
00000230: 3635 223f 625a c23e b732 6f3d 45cb dd3e
00000240: bbee 33be 52bf 463e 7a38 683e a8a5 e23e
00000250: c4ae a9bd d02c b5bd 9c87 a03d b757 a83e
00000260: ea86 c6be c8de e5be 92af b93c 3688 c73e
00000270: 39e9 b2be b545 7f3a f372 a6be 4d22 b53e
00000280: 5e89 8cbd 3ec8 ad3c 18d5 c2bd 439f bfbe
00000290: f0e3 9b3e 41cf eebd 2a32 213f 244c 0d3f
000002a0: df45 24be 97a1 d8bd 3969 11be 2e17 10bf
000002b0: 7019 fcbd 75e8 093f 4364 f2be 3ff2 28be
000002c0: 7bb6 683d 189a 2ebf 0498 3cbe f8cd 143f
000002d0: a7aa 78be bd3a 193f 578f c1be c7ee b03e
000002e0: 5fea d53e 75d3 38be 5e76 393b 8d30 acbd
000002f0: 3536 603e 801f cb3e d0f9 9ebe 193d 9c3e
00000300: 06f3 e6bb fa3f e7be 2792 5e3e c564 73bd
00000310: ba09 bdbc a0fd cfbe 1ee0 5e3e 1e7f 383f
00000320: 85f2 37be d84d 013e ca1c 75bd 4a5c cb3e
00000330: a019 12bb 1af3 e23e 0628 9dbd 0817 393b
00000340: 8c5a 69be 9a6b 74be 7b7c db3e 98bd f8bd
00000350: 083f e63d 27e4 4c3e 1e7f cf3e a1ab d53d
00000360: 4285 f93c cf62 933e 78d3 9c3e f77f 01be
00000370: a68e da3d f86f 02be 7ea8 93be b0b3 fbbd
00000380: cc3e 6abe 25f3 343e d445 80bd 0171 bd3d
00000390: 1e5e c33e 72fe 883e cfb7 8cbd 1a82 5bbe
000003a0: d2f4 aa3d 121d a9bd c557 5c3d 2a4f 00bf
000003b0: 81ac f53d cfe1 0dbe 4635 c53e 7ba9 53be
000003c0: 1e70 74be 1c99 b73e 31b1 b93d 0a6a 81be
000003d0: 93d0 1a3e 9713 4cbe cb7e cc3e 4600 9d3e
000003e0: 6cfe ca3e 3da0 d1bd 22be 80bf 177f cbbe
000003f0: a3d5 763c b477 1f3e 93f7 98be 455e 5bbe

lstm.bias_ih_l0 f4 [512]
-0.6100108 -0.54521936 -0.30347726 -0.042518932 -0.21020332 -0.5505384 -0.5271446 -0.046326816
-0.2871833 -0.46842366 -0.46936905 -0.2941857 -0.3893493 -0.16831787 -0.14082725 -0.20974235
-0.6073204 -0.53955376 -0.5450078 -0.40747553 -0.15306154 -0.37581033 -0.1525931 -0.9473566
-0.5657607 -0.7601345 -0.5566488 -0.3860315 -0.7812046 -0.4160174 -0.39735246 -0.3936509
-0.17123607 -0.62188196 -0.32052267 -0.100507304 -0.04817205 -0.3122791 -0.62620974 -0.04868258
-0.60429806 -0.45570675 -0.27889848 -0.27251542 -0.55942196 -0.1527348 -0.56180656 -0.13384686
-0.3893004 -0.19365333 -0.274733 -0.64732033 -0.44749638 -0.5290898 -0.3820611 -0.6245016
-0.13030693 -0.97596383 -0.83505625 -0.24505669 -0.40158686 -0.30907613 0.032058824 0.29345003
-0.28266898 -0.31823134 -0.44353434 -0.6562303 -0.05942368 -0.5104203 -0.36142206 -0.27233362
-0.32773602 -0.8505075 -0.53058416 -0.65251243 0.35851166 -0.54942375 -0.86774975 -0.8623276
-0.32123324 -0.436563 -0.41717538 -0.156788 -0.08044758 -0.48291752 -0.4107069 -0.87523973
-0.5667315 -0.7023245 -0.3433837 -0.75708777 -0.86169666 -0.4673448 -0.561039 -0.96694046
-0.36550328 -0.03846847 0.062090684 -0.36516067 -0.061411362 -0.28909612 -0.3637988 -0.43818596
-0.5725928 -0.18264247 -0.6709052 -0.22469158 -0.6460449 -0.39328012 -0.098207965 -0.1640074
-0.459245 -0.29282165 -0.3118336 -0.4288271 -0.6323236 -0.14909343 -0.65399486 -0.30069977
-0.47202107 -0.4340826 -0.9344226 -0.33409408 -0.6703266 -0.20894308 -0.0860532 -0.78570586
-0.4586883 -0.24744555 0.40138423 0.50817215 -0.22940536 -0.4044925 -0.11960056 0.2590271
0.018851822 -0.34710488 -0.4395557 -0.3583047 -0.074397996 0.05708219 0.045309793 0.31452152
-0.9652891 -0.1612028 -0.44705322 -0.3667116 0.057066448 -0.6339662 0.002214949 -0.7476412
-0.31698596 -0.41964674 -0.43407166 -0.4634955 -0.5674859 -0.3234863 -0.3015472 -0.02656077
-0.12107164 -0.37562576 -0.07419621 0.043920983 -0.0338042 0.32778087 -0.32246006 0.02282194
-0.7256999 -0.20915869 0.41861665 0.099502124 -0.55249244 -0.104172505 -0.7389437 -0.09218907
-0.47156924 0.2513247 -0.002770496 -0.5084027 -0.15085241 -0.49304444 -0.37862927 -0.3175479
-0.13123496 -0.6988687 -0.66851616 -0.21407138 -0.09931226 0.014068555 -0.035604343 0.15457055
-0.43221837 -0.2504635 -0.38147938 0.78014493 0.28572315 -0.3913415 0.04759944 -0.43366054
-0.68482774 -0.69114 -0.1073392 0.51902246 0.12781964 -0.21587686 -0.8522216 -0.65195
-0.7394218 -0.24586184 -0.32363206 0.5763573 0.15647699 0.05626776 0.49467036 -0.84400445
-0.5232351 -0.14565693 -0.33381188 -0.7649139 -0.71803015 -0.19689165 -0.1292585 -0.869073
-0.6284914 0.49675485 0.2850939 0.02374092 0.19759855 -0.16166681 -0.3257323 -0.73627764
-0.4341614 0.37540945 -0.24037552 -0.1179814 -0.15997534 -0.10198641 -0.000353458 -0.20691037
-0.12620972 -0.14743388 -0.024251118 0.016994076 -0.34806782 0.04823191 -0.7017374 0.22627047
-0.029639356 -0.8144883 0.35395616 -0.009367438 -0.44326591 -0.6806288 0.0864899 -0.7179768
00000000: ab29 1cbf 7f93 0bbf 5f61 9bbe 5528 2ebd
00000010: 8a3f 57be 16f0 0cbf f3f2 06bf 30c1 3dbd
00000020: b109 93be 3ad5 efbe 2451 f0be 829f 96be
00000030: cb58 c7be 855b 2cbe 0535 10be b3c6 56be
00000040: 5a79 1bbf 3220 0abf a285 0bbf a2a0 d0be
00000050: 2abc 1cbe 366a c0be 5e41 1cbe f685 72bf
00000060: b1d5 10bf 2d98 42bf 8980 0ebf eca5 c5be
00000070: 06fd 47bf 3c00 d5be c871 cbbe 9c8c c9be
00000080: 8258 2fbe a833 1fbf 8c1b a4be c6d6 cdbd
00000090: 0e50 45bd 0ce3 9fbe 484f 20bf 6367 47bd
000000a0: 47b3 1abf 6552 e9be c8cb 8ebe 2487 8bbe
000000b0: 4736 0fbf 8366 1cbe 8ed2 0fbf 270f 09be
000000c0: 6252 c7be 0f4d 46be cea9 8cbe c9b6 25bf
000000d0: 3f1e e5be 6e72 07bf 839d c3be 56df 1fbf
000000e0: 2e6f 05be c4d8 79bf 3fc6 55bf 24f0 7abe
000000f0: cb9c cdbe 3a3f 9ebe 1d50 033d 153f 963e
00000100: fdb9 90be 38ef a2be ef16 e3be b5fe 27bf
00000110: 3f66 73bd e8aa 02bf 500c b9be 506f 8bbe
00000120: 04cd a7be dcba 59bf 5dd4 07bf 0e0b 27bf
00000130: d78e b73e 09a7 0cbf d924 5ebf 80c1 5cbf
00000140: af78 a4be 2f85 dfbe 0398 d5be 098d 20be
00000150: b3c1 a4bd f740 f7be 2d48 d2be b60f 60bf
00000160: 5115 11bf 8acb 33bf fdcf afbe 81d0 41bf
00000170: 2798 5cbf d147 efbe 40a0 0fbf 6989 77bf
00000180: 3f23 bbbe 1d91 1dbd cd52 7e3d 57f6 babe
00000190: 7b8a 7bbd 6804 94be d643 babe e959 e0be
000001a0: 7195 12bf a106 3bbe 71c0 2bbf 8d15 66be
000001b0: 3363 25bf 035c c9be 4221 c9bd 8ef1 27be
000001c0: 2922 ebbe b8ec 95be a7a8 9fbe 3a8f dbbe
000001d0: f6df 21bf f3ab 18be 356c 27bf 52f5 99be
000001e0: bfac f1be 1340 debe 5236 6fbf 610e abbe
000001f0: 869a 2bbf 2df5 55be a93c b0bd 0524 49bf
00000200: 31d9 eabe 5e62 7dbe 3c82 cd3e 9217 023f
00000210: 3de9 6abe a419 cfbe 23f1 f4bd 339f 843e
00000220: 236f 9a3c bbb7 b1be 720d e1be b773 b7be
00000230: fa5d 98bd 04cf 693d c396 393d f708 a13e
00000240: 301d 77bf 5912 25be 29e4 e4be 9fc1 bbbe
00000250: 82be 693d 9c4b 22bf ae28 113b 6a65 3fbf
00000260: fc4b a2be f0db d6be a43e debe 484f edbe
00000270: c246 11bf ff9f a5be 6564 9abe f995 d9bc
00000280: 68f4 f7bd 0552 c0be 2ff4 97bd 7de6 333d
00000290: 4676 0abd e5d2 a73e 7c19 a5be 14f5 ba3c
000002a0: 78c7 39bf b22d 56be ec54 d63e c5c7 cb3d
000002b0: 2570 0dbf 6558 d5bd 6a2b 3dbf a0cd bcbd
000002c0: 8671 f1be a2ad 803e 3691 35bb ae26 02bf
000002d0: 0e79 1abe 5270 fcbe b2db c1be a395 a2be
000002e0: 7562 06be 0fe9 32bf e023 2bbf 8735 5bbe
000002f0: 3a64 cbbd cc7f 663c dcd5 11bd be47 1e3e
00000300: ba4b ddbe c03c 80be 4451 c3be 94b7 473f
00000310: 4e4a 923e ea5d c8be a1f7 423d c108 debe
00000320: df50 2fbf 8dee 30bf a8d4 dbbd a8de 043f
00000330: 27e3 023e d30e 5dbe 322b 5abf 32e6 26bf
00000340: bf4a 3dbf 35c3 7bbe 1ab3 a5be 278c 133f
00000350: 813b 203e 0679 663d 6f45 fd3e ad10 58bf
00000360: bcf2 05bf 1727 15be 64e9 aabe 66d1 43bf
00000370: d3d0 37bf f79d 49be 575c 04be 917b 5ebf
00000380: d0e4 20bf a756 fe3e d4f7 913e 517c c23c
00000390: 4657 4a3e fc8b 25be 62c6 a6be b17c 3cbf
000003a0: 674a debe ab35 c03e 0025 76be 3ba0 f1bd
000003b0: 93d0 23be 40de d0bd 5450 b9b9 50e0 53be
000003c0: 1f3d 01be e8f8 16be 48aa c6bc 2937 8b3c
000003d0: f235 b2be d38e 453d 10a5 33bf 72b3 673e
000003e0: 3cce f2bc 4e82 50bf be39 b53e e279 19bc
000003f0: c0f3 e2be b03d 2ebf 9e21 b13d 54cd 37bf

lstm.bias_hh_l0 f4 [512]
-0.49019882 -0.59600484 -0.3523919 0.0063581956 -0.25957263 -0.55549353 -0.402944 -0.1741246
-0.26591834 -0.61537063 -0.5853586 -0.43052077 -0.40866584 -0.10977913 -0.21301427 -0.292973
-0.5771614 -0.5441294 -0.60213786 -0.4841185 -0.09020201 -0.41866726 -0.10778586 -0.82068163
-0.5440405 -0.78242135 -0.56249046 -0.37255687 -0.67582333 -0.30854893 -0.40743795 -0.33313328
-0.26000208 -0.49273956 -0.22847617 -0.21109872 -0.051604215 -0.45389244 -0.57555366 -0.07114455
-0.46655652 -0.47628525 -0.32358357 -0.33819565 -0.6070084 -0.15154378 -0.6397846 -0.13825242
-0.35905275 -0.1723016 -0.25124493 -0.58748466 -0.4322586 -0.54489255 -0.29148883 -0.69428
-0.2395579 -0.8910106 -0.7929422 -0.19144033 -0.3929515 -0.17143576 0.04703637 0.26537862
-0.229704 -0.22461304 -0.5727769 -0.63422686 -0.18738893 -0.6080968 -0.40714422 -0.22475605
-0.324079 -0.8721647 -0.55808437 -0.6070919 0.29972658 -0.5956598 -0.8061511 -0.8509273
-0.29400808 -0.60033417 -0.51524085 -0.051152486 -0.07967144 -0.3517032 -0.5197336 -0.8100403
-0.53597254 -0.68946123 -0.29156354 -0.7979733 -0.8789821 -0.53341866 -0.5120339 -0.9294833
-0.37609592 -0.11570712 0.086021096 -0.45293385 -0.07689615 -0.26484245 -0.3770482 -0.46196863
-0.54544073 -0.24464126 -0.55941474 -0.34167176 -0.644241 -0.40327552 0.008813649 -0.07293209
-0.45916787 -0.2876168 -0.38334692 -0.527037 -0.5254451 -0.10611019 -0.5604172 -0.31197453
-0.45210004 -0.47733217 -0.840531 -0.33591884 -0.6455105 -0.19576651 -0.19000751 -0.85089606
-0.4787927 -0.21364401 0.31993282 0.35863745 -0.18018642 -0.3567765 -0.086339355 0.33317584
-0.0082164 -0.3893939 -0.35707214 -0.4120685 0.03759707 -0.04010421 0.002754705 0.43162683
-0.94479764 -0.1559204 -0.36705345 -0.39973664 0.07874212 -0.66154194 0.09599414 -0.661462
-0.35293254 -0.3296325 -0.3491241 -0.36108416 -0.4401279 -0.299285 -0.2429012 -0.011639972
-0.13555065 -0.319114 -0.04892335 0.008726914 0.03150884 0.26767504 -0.43389866 0.100077696
-0.73219305 -0.32929167 0.5316489 0.017152105 -0.61190206 -0.06972896 -0.83298266 -0.15773313
-0.4753014 0.25522032 -0.017559174 -0.4638146 -0.13549884 -0.40987396 -0.35246855 -0.2616272
-0.14481576 -0.7454313 -0.8095938 -0.19984281 -0.08484392 0.0012286231 -0.108675666 0.1572414
-0.34332407 -0.16192655 -0.26755953 0.7250007 0.33189473 -0.43428898 0.07026886 -0.39968103
-0.8076853 -0.6234047 -0.1388967 0.5190323 0.2527594 -0.15133859 -0.80566573 -0.5928566
-0.744669 -0.3629838 -0.38488024 0.64214814 0.15278567 0.09051619 0.48855677 -0.82891595
-0.43763644 -0.17041977 -0.2902027 -0.7090283 -0.7568472 -0.082465716 -0.25041178 -0.8334436
-0.5422924 0.4680906 0.14288482 -0.13149711 0.175941 -0.15982525 -0.23396927 -0.58994466
-0.33164933 0.24747767 -0.32952037 -0.0924597 -0.08717852 -0.17272055 0.11876241 -0.37890318
-0.10059958 -0.11910794 0.07355481 -0.050299916 -0.46636674 -0.0043893037 -0.5938596 0.16028394
-0.06885125 -0.8152415 0.2665142 -0.019999307 -0.42277145 -0.64499664 0.22237971 -0.8179397
00000000: 57fb fabe c693 18bf b66c b4be 6958 d03b
00000010: b4e6 84be d334 0ebf ad4e cebe b84d 32be
00000020: 7326 88be ee88 1dbf 10da 15bf 386d dcbe
00000030: a63c d1be e1d3 e0bd 6a20 5abe 8f00 96be
00000040: d9c0 13bf 104c 0bbf b525 1abf 61de f7be
00000050: d5bb b8bd 8e5b d6be d5be dcbd 3118 52bf
00000060: 3d46 0bbf c44c 48bf 60ff 0fbf c6bf bebe
00000070: c202 2dbf 20fa 9dbe b59b d0be 7290 aabe
00000080: fe1e 85be 5c48 fcbe a8f5 69be 432a 58be
00000090: f15e 53bd 9764 e8be 7c57 13bf 3cb4 91bd
000000a0: 7fe0 eebe a9db f3be bfac a5be fb27 adbe
000000b0: e764 1bbf 4b2e 1bbe ecc8 23bf 0b92 0dbe
000000c0: c3d5 b7be d56f 30be 2da3 80be 6565 16bf
000000d0: 0051 ddbe 147e 0bbf 063e 95be 56bc 31bf
000000e0: ab4e 75be 4519 64bf 43fe 4abf ef08 44be
000000f0: f030 c9be db8c 2fbe 35a9 403d b5df 873e
00000100: 8637 6bbe f600 66be 82a1 12bf b15c 22bf
00000110: e2e2 3fbe 3bac 1bbf 3575 d0be 7326 66be
00000120: afed a5be 3046 5fbf 9ede 0ebf 606a 1bbf
00000130: c375 993e 297d 18bf eb5f 4ebf 5fd6 59bf
00000140: 3a88 96be 80af 19bf d3e6 03bf 4585 51bd
00000150: c82a a3bd 7112 b4be 430d 05bf cd5e 4fbf
00000160: 7f35 09bf 8880 30bf d147 95be fa47 4cbf
00000170: f904 61bf 208e 08bf a714 03bf 9ef2 6dbf
00000180: a58f c0be dbf7 ecbd d42b b03d f2e6 e7be
00000190: bb7b 9dbd 6e99 87be 760c c1be 2787 ecbe
000001a0: 01a2 0bbf 3d83 7abe ce35 0fbf 9aef aebe
000001b0: faec 24bf 217a cebe 2067 103c 6b5d 95bd
000001c0: 0d18 ebbe 8242 93be 0c46 c4be e6eb 06bf
000001d0: 9283 06bf 4d50 d9bd 8077 0fbf 20bb 9fbe
000001e0: a879 e7be e264 f4be 0a2d 57bf 8efd abbe
000001f0: 2d40 25bf 0477 48be 5491 42be 53d4 59bf
00000200: 5124 f5be 7fc5 5abe 3cce a33e 549f b73e
00000210: ca82 38be 69ab b6be b0d2 b0bd 0696 aa3e
00000220: 149e 06bc a35e c7be 29d2 b6be a4fa d2be
00000230: 63ff 193d 5044 24bd 4888 343b 31fe dc3e
00000240: 42de 71bf 99a9 1fbe 6eee bbbe 48aa ccbe
00000250: 8c43 a13d d05a 29bf 9398 c43d 9355 29bf
00000260: 93b3 b4be 97c5 a8be 65c0 b2be 06e0 b8be
00000270: 7258 e1be e23b 99be 18bb 78be 95b5 3ebc
00000280: cacd 0abe e962 a3be da63 48bd 55fb 0e3c
00000290: 6a0f 013d b40c 893e f727 debe 89f5 cc3d
000002a0: 0171 3bbf eb98 a8be 241a 083f 9282 8c3c
000002b0: 9da5 1cbf 0fce 8ebd 5a3e 55bf cb84 21be
000002c0: b55a f3be 3dac 823e 42d8 8fbc 1b79 edbe
000002d0: 35c0 0abe 00db d1be c276 b4be 00f4 85be
000002e0: 954a 14be 96d4 3ebf 8a41 4fbf 98a3 4cbe
000002f0: a6c2 adbd c009 a13a 5991 debd e403 213e
00000300: 2cc8 afbe 13d0 25be 90fd 88be a599 393f
00000310: 1bee a93e 205b debe 1fe9 8f3d fea2 ccbe
00000320: 77c4 4ebf 7397 1fbf f03a 0ebe 4ddf 043f
00000330: ae69 813e 81f8 1abe 1c40 4ebf 73c5 17bf
00000340: a1a2 3ebf 03d9 b9be 060f c5be d263 243f
00000350: d973 1c3e 8d60 b93d 1d24 fa3e d633 54bf
00000360: e211 e0be 8582 2ebe 7395 94be e182 35bf
00000370: bdc0 41bf c9e3 a8bd f935 80be 8f5c 55bf
00000380: add3 0abf 92a9 ef3e 6650 123e 2ea7 06be
00000390: e129 343e 3ba9 23be a495 6fbe 9d06 17bf
000003a0: f1cd a9be c96a 7d3e e5b6 a8be 835b bdbd
000003b0: a78a b2bd a8dd 30be b539 f33d 99ff c1be
000003c0: 2707 cebd ddee f3bd e7a3 963d 4907 4ebd
000003d0: 9fc7 eebe 26d4 8fbb 2f07 18bf 7921 243e
000003e0: e201 8dbd abb3 50bf 8d74 883e 96d5 a3bc
000003f0: 8075 d8be 801e 25bf 82b7 633e 7f64 51bf

fc1.weight f4 [64, 128]
0.049278203 0.33638766 -0.30541438 0.5595531 0.14208755 -0.24033141 -0.084946096 0.14003088
0.013380573 0.070286505 -0.3791829 -0.14884228 -0.45307735 0.45510486 0.6567654 -0.48574337
-0.16427888 -0.36288807 0.17429772 -0.15723407 0.008071426 -0.25249177 0.19327468 0.35674658
-0.057596345 0.20207736 0.06955467 -0.61810476 0.0181138 -0.01794361 0.24606276 0.35554203
-0.4136394 -0.14048809 -0.11602658 -0.020981746 -0.20083684 -0.2679469 0.004295631 0.3961576
-0.10237121 -0.15265967 0.76743776 -0.109193996 0.07479254 -0.08349999 0.2503491 0.25696918
0.24733089 0.5799365 0.012127607 -0.0044972133 0.34738705 0.12332099 0.23968631 -0.07752431
-0.1202784 0.19463873 0.06817763 -0.49424812 0.44741598 -0.13821456 0.05827468 0.5507312
-0.7151508 0.014358795 -0.44031593 -0.15206078 -0.043431193 0.51463693 -0.6267921 0.055443738
-0.21853864 -0.29318053 -0.22119504 0.2872793 0.16554709 0.42149964 -0.5892343 -0.13591503
0.30583832 0.2206432 0.051159978 0.13817602 0.2157582 0.8258512 0.4667784 -0.13650863
-0.6286068 0.0007778005 -0.777167 -0.24610367 -0.36342078 -0.094216555 -0.08917001 0.1647177
-0.4841382 -0.040072534 -0.78564817 -0.2827607 -0.4178928 -0.09783343 -0.006951485 0.4704089
-0.16231471 -0.12874956 -0.06116854 0.7488913 0.17380393 -0.4046784 -0.0125763435 0.34399492
0.19931376 -0.029460311 -0.20701706 0.1462136 -0.3420741 -0.5059891 0.13582525 0.23952107
-0.19439703 -0.3487359 0.25869206 -0.10865303 0.24626668 -0.34360445 0.303625 0.128608
-0.23919904 -0.2776988 -0.27646717 0.0009576334 0.0447585 -0.6392221 0.31600642 0.5563273
-0.22127214 -0.5901975 -0.076266356 0.11616303 -0.16498174 0.41689318 0.2616458 0.06564587
-0.35258946 -0.004019515 0.6287528 -0.08549297 -0.09488937 -0.09322565 -0.08495892 0.14118376
-0.18299595 0.23179583 -0.43374106 -0.4699504 -0.2437808 0.452313 -0.12556158 0.19265686
-0.692238 -0.0050380207 0.6073013 -0.29733783 -0.17864856 0.7150135 0.28310677 0.87469304
0.15710635 0.36224857 -0.033275597 -0.12989518 0.2525184 -0.004650603 0.49707526 0.2529675
0.8181865 0.5014188 0.117580324 -0.09908711 -0.23518579 -0.026198672 -0.11817502 0.2652343
-0.2994656 0.08968404 0.12815402 -0.07105083 0.08725864 0.38256884 0.5166634 -0.04307482
-0.40152627 -0.1877892 -0.25831446 -0.51412517 0.009614491 0.0493213 -0.08482739 -0.10866605
-0.5500178 -0.2342229 -0.019305006 -0.26784608 0.094401255 -0.063441925 -0.43684998 -0.31235543
0.2687242 -0.018892055 0.03609487 0.21931913 0.0083798 -0.12500465 0.85705453 0.04175469
0.33083558 0.0035141173 -0.046600427 -0.06697004 -0.4606235 -0.18046175 -0.10776104 0.15764663
-0.43546945 -0.4647452 -0.007990633 -0.22663233 -0.20032723 0.07348824 -0.12608188 0.38810816
-0.00061407743 -0.10113325 0.05233988 -0.12986864 0.43502375 0.058027066 -0.20617451 0.10676714
0.19781537 0.051033154 -0.49826348 0.30636555 -0.03485802 -0.13166866 0.33578333 0.5506688
0.28020993 -0.42648914 -0.24112281 -0.2601326 0.09625924 -0.46448848 0.40200815 -0.25892323
00000000: f1d7 493d 013b ac3e 465f 9cbe df3e 0f3f
00000010: 667f 113e 7019 76be 38f8 adbd 4164 0f3e
00000020: 313a 5b3c 5ff2 8f3d 4324 c2be 1c6a 18be
00000030: c1f9 e7be 8103 e93e c721 283f 5bb3 f8be
00000040: b938 28be 77cc b9be 1a7b 323e f801 21be
00000050: 043e 043c 9a46 81be cce9 453e 7da7 b63e
00000060: 25ea 6bbd 5eed 4e3e ae72 8e3d 1d3c 1ebf
00000070: 6463 943c 7afe 92bc e0f7 7b3e 9b09 b63e
00000080: 8bc8 d3be 1cdc 0fbe 589f edbd e9e1 abbc
00000090: 2ca8 4dbe 5630 89be 5dc2 8c3b 2bd5 ca3e
000000a0: ffa7 d1bd d152 1cbe cd76 443f 1aa1 dfbd
000000b0: d52c 993d 0b02 abbd c22d 803e 7791 833e
000000c0: 4f44 7d3e b876 143f dfb2 463c 5c5d 93bb
000000d0: b7dc b13e b78f fc3d 5470 753e 11c5 9ebd
000000e0: 8654 f6bd 604f 473e b7a0 8b3d 170e fdbe
000000f0: b513 e53e 1e88 0dbe 6eb1 6e3d b8fc 0c3f
00000100: 1f14 37bf 2741 6b3c 1771 e1be d2b5 1bbe
00000110: e8e4 31bd 3fbf 033f 7275 20bf f918 633d
00000120: 98c8 5fbe c21b 96be f480 62be 4616 933e
00000130: 2d85 293e cdce d73e 0fd8 16bf 4f2d 0bbe
00000140: d796 9c3e 4bf0 613e 208d 513d 047e 0d3e
00000150: b8ef 5c3e fc6a 533f 94fd ee3e ebc8 0bbe
00000160: 60ec 20bf 4fe5 4b3a 6bf4 46bf 9a02 7cbe
00000170: 4a12 babe 9cf4 c0bd c49e b6bd c2ab 283e
00000180: f6e0 f7be 1923 24bd 3d20 49bf 03c6 90be
00000190: 0cf6 d5be e55c c8bd 48c9 e3bb 6fd9 f03e
000001a0: d435 26be edd6 03be dd8b 7abd 57b7 3f3f
000001b0: a8f9 313e 0232 cfbe 020d 4ebc 1a20 b03e
000001c0: e818 4c3e c056 f1bc 48fc 53be 05b9 153e
000001d0: 5624 afbe 8088 01bf c615 0b3e 0345 753e
000001e0: 0410 47be 838d b2be 4973 843e 7b85 debd
000001f0: 552d 7c3e ecec afbe bc74 9b3e d1b1 033e
00000200: 98f0 74be 8a2e 8ebe 1b8d 8dbe b109 7b3a
00000210: b054 373d 0fa4 23bf 98cb a13e 776b 0e3f
00000220: 2a95 62be 2f17 17bf 8931 9cbd e2e6 ed3d
00000230: f9f0 28be 0673 d53e 70f6 853e 5871 863d
00000240: 9b86 b4be 23b6 83bb f2f5 203f f016 afbd
00000250: 5c55 c2bd 17ed bebd f1fe adbd 7a92 103e
00000260: 4a63 3bbe e35b 6d3e 4f13 debe 579d f0be
00000270: ada1 79be 9295 e73e 3793 00be d747 453e
00000280: 8236 31bf fb15 a5bb 1978 1b3f aa3c 98be
00000290: a6ef 36be 200b 373f 5ff3 903e e2eb 5f3f
000002a0: 7de0 203e a578 b93e fe4b 08bd 3e03 05be
000002b0: 174a 813e 1664 98bb a680 fe3e f584 813e
000002c0: ac74 513f fc5c 003f f4cd f03d 2fee cabd
000002d0: 8bd4 70be 999e d6bc bf05 f2bd cacc 873e
000002e0: 8e53 99be 44ac b73d cf3a 033e 1983 91bd
000002f0: a8b4 b23d 10e0 c33e 0d44 043f 396f 30bd
00000300: da94 cdbe d04b 40be cb41 84be b59d 03bf
00000310: 1986 1d3c 2205 4a3d fcb9 adbd 4e8c debd
00000320: f7cd 0cbf 21d8 6fbe 8825 9ebc 1f23 89be
00000330: 7255 c13d d7ed 81bd cdaa dfbe 0ded 9fbe
00000340: 3896 893e 83c3 9abc 37d8 133d 3295 603e
00000350: 6e4b 093c 3801 00be ed67 5b3f f706 2b3d
00000360: 4863 a93e 1b4d 663b 17e0 3ebd 9727 89bd
00000370: d8d6 ebbe f7ca 38be d2b1 dcbd 1e6e 213e
00000380: daf5 debe 15f3 edbe 25eb 02bc 4e12 68be
00000390: 9522 4dbe 0181 963d 9c1b 01be 1db6 c63e
000003a0: 0afa 20ba f31e cfbd 5862 563d 49fc 04be
000003b0: 6fbb de3e caad 6d3d 691f 53be bba8 da3d
000003c0: 1d90 4a3e 2408 513d 641c ffbe f2db 9c3e
000003d0: 48c7 0ebd 26d4 06be cbeb ab3e a1f8 0c3f
000003e0: ad77 8f3e c95c dabe e6e8 76be 1a30 85be
000003f0: 9023 c53d 6fd1 edbe 03d4 cd3e 9691 84be

fc1.bias f4 [64]
0.04116513 -0.07169144 0.06904805 -0.18698145 -0.11812246 -0.033327784 0.15588155 0.026118044
0.030654255 -0.022527019 -0.08271246 0.057062358 0.0620451 0.012597668 -0.10424036 0.044749938
0.07869304 -0.07569235 0.054933123 0.13138023 -0.04925309 0.03076605 0.047095235 -0.006893723
0.007182892 -0.16401851 0.055908114 0.03699622 0.002798816 -0.12387411 -0.027346378 0.11563201
-0.07101105 -0.0545993 -0.117448814 0.11176327 -0.22785012 0.20701627 0.22595714 -0.0789826
0.027846407 0.20573317 -0.07388414 0.0387952 -0.010799376 0.13476719 -0.18819627 -0.124580525
0.06398233 -0.03735329 0.038066212 -0.031016245 0.14071868 -0.0048213047 -0.07320584 -0.10462979
0.09058367 0.0850551 0.21181576 0.16515633 -0.06683225 0.28797695 -0.018120594 -0.128923
00000000: c49c 283d f6d2 92bd 1069 8d3d 1178 3fbe
00000010: 30ea f1bd b782 08bd 6a9f 1f3e 82f5 d53c
00000020: a21e fb3c 958a b8bc 2665 a9bd 38ba 693d
00000030: 0123 7e3d 7366 4e3c f87b d5bd b64b 373d
00000040: d129 a13d 9704 9bbd 8e01 613d 8a88 063e
00000050: 9cbd 49bd 1509 fc3c efe6 403d bde4 e1bb
00000060: 775e eb3b 78f4 27be e8ff 643d 5989 173d
00000070: 576c 373b b6b1 fdbd 8305 e0bc 7ad0 ec3d
00000080: 3e6e 91bd 84a3 5fbd 0189 f0bd 24e4 e43d
00000090: 8b51 69be 13fc 533e 4f61 673e a1c1 a1bd
000000a0: 261e e43c b7ab 523e 9150 97bd b7e7 1e3d
000000b0: deef 30bc 6900 0a3e 86b6 40be 1324 ffbd
000000c0: 2b09 833d c3ff 18bd 51eb 1b3d c815 febc
000000d0: 8f18 103e 09fc 9dbb f2ec 95bd 2548 d6bd
000000e0: ee83 b93d 5e31 ae3d 3be6 583e be1e 293e
000000f0: 59df 88bd b771 933e a471 94bc 6404 04be

bn1.weight f4 [64]
0.8198326 1.1461859 0.7171812 1.020091 1.4614049 0.7748464 0.9698374 1.0117974
0.9290767 0.9856061 0.8563233 0.9845951 1.0635939 0.9707152 1.1518327 0.85515064
0.8805379 0.9532029 1.0268786 1.1209702 0.9041832 1.1556445 1.0022033 0.9508161
0.98515457 1.0073242 0.6979276 0.88718843 0.78411585 1.3470087 1.1374359 1.1256803
0.93016887 0.9296319 0.8401211 0.7589349 0.99125916 0.954609 0.9161807 0.7369335
1.0099903 1.2122614 1.2072306 1.3186207 1.0632544 0.7069159 0.91994286 1.0784693
1.161006 1.1297762 0.8237106 0.8899193 0.9408261 0.87911075 1.0807576 0.84673846
1.094841 1.0322365 1.197224 1.0016178 0.9876091 0.83608997 0.61092836 0.98022765
00000000: 8de0 513f 38b6 923f 3099 373f 5892 823f
00000010: 510f bb3f 555c 463f 4447 783f 9482 813f
00000020: f8d7 6d3f ae50 7c3f 0138 5b3f 6d0e 7c3f
00000030: d823 883f cb80 783f 416f 933f 27eb 5a3f
00000040: ef6a 613f 1b05 743f c270 833f f47b 8f3f
00000050: 8d78 673f 29ec 933f 3348 803f af68 733f
00000060: 1733 7c3f 00f0 803f 62ab 323f c81e 633f
00000070: d1bb 483f c86a ac3f 8097 913f 4b16 903f
00000080: 8c1f 6e3f 5bfc 6d3f 2d12 573f 8f49 423f
00000090: 29c3 7d3f 4161 743f d18a 6a3f ada7 3c3f
000000a0: 5d47 813f 622b 9b3f 8886 9a3f 90c8 a83f
000000b0: b818 883f 71f8 343f 6081 6b3f 480b 8a3f
000000c0: d89b 943f 829c 903f b3de 523f c0d1 633f
000000d0: fbd9 703f 670d 613f 4456 8a3f dac3 583f
000000e0: c023 8c3f 5320 843f a33e 993f 0335 803f
000000f0: f3d3 7c3f fe09 563f cd65 1c3f 33f0 7a3f

bn1.bias f4 [64]
-0.4701546 0.24087973 0.43672475 0.4692816 0.29070196 -0.3531871 -0.007905049 0.10069388
0.38721377 0.3006255 -0.04068727 0.3207756 0.4591858 0.13949236 0.12771076 -0.28962123
0.24096917 0.066677034 -0.012193967 0.3743501 0.15899536 -0.08179881 -0.22993882 -0.11364676
0.02737225 -0.29279825 0.46697664 0.5341633 -0.23354131 0.35273027 0.4781293 0.101530164
0.107048765 0.26082334 0.37700498 0.46240667 -0.25380433 -0.3425364 -0.058021866 0.08506304
-0.21973242 0.53108233 -0.14091583 -0.03536203 0.08841535 -0.1723551 -0.37559286 -0.11167464
0.45094278 0.2381236 -0.27011847 0.2222823 0.34719375 -0.26103386 0.006996047 0.3060237
0.3337967 0.17249443 -0.008804859 -0.48671153 0.23768045 -0.35515425 0.07898203 -0.018918376
00000000: 1bb8 f0be 2da9 763e 639a df3e ae45 f03e
00000010: e3d6 943e f1d4 b4be 2e84 01bc 9838 ce3d
00000020: e240 c63e 96eb 993e b2a7 26bd b33c a43e
00000030: 671a eb3e 16d7 0e3e 9cc6 023e 3c49 94be
00000040: 9fc0 763e f88d 883d 34c9 47bc d1aa bf3e
00000050: aecf 223e 2286 a7bd 1575 6bbe a2bf e8bd
00000060: c53b e03c a7e9 95be 9017 ef3e edbe 083f
00000070: 7425 6fbe 1099 b43e 5dcd f43e 0cef cf3d
00000080: 623c db3d a38a 853e cc06 c13e 91c0 ec3e
00000090: a4f2 81be ee60 afbe 56a8 6dbd 8835 ae3d
000000a0: 8901 61be 03f5 073f 3d4c 10be c7d7 10bd
000000b0: 1b13 b53d db7d 30be b54d c0be acb5 e4bd
000000c0: f9e1 e63e acd6 733e f84c 8abe f99d 633e
000000d0: 61c3 b13e 3ba6 85be 193f e53b 23af 9c3e
000000e0: 67e7 aa3e 61a2 303e 4142 10bc 4132 f9be
000000f0: 8162 733e c7d6 b5be 55c1 a13d b6fa 9abc

bn1.running_mean f4 [64]
0.47524548 -0.27274352 -0.089740954 -0.19425546 0.30296752 0.31808436 0.25937957 -0.29192758
0.44049326 -0.88068384 0.2342666 -0.2422038 0.26161668 0.48005033 0.062336836 0.92991185
-0.3490407 0.19738586 0.3686556 -0.5126558 0.06408788 0.7375919 1.0368973 0.23768148
0.26660728 0.8979595 0.06612071 -0.27016106 0.24485654 0.18638796 -0.31643358 0.78935003
0.19997348 0.4424225 -0.46431875 -0.13300459 0.59721756 0.9860064 0.52423424 -0.090941615
0.07844735 1.0764439 0.48237625 0.29525083 -0.42078626 0.8244369 0.5952131 0.28944674
-0.03178425 -0.14109483 0.72457546 0.32455686 0.064634345 0.47163516 -0.25395912 0.013704451
0.35126603 -0.30703613 0.5717254 -0.14402907 -0.92932 0.46178398 0.06209268 -0.34874055
00000000: 6053 f33e 0aa5 8bbe 1bca b7bd e7ea 46be
00000010: 8f1e 9b3e f4db a23e 66cd 843e 8877 95be
00000020: 5588 e13e 7f74 61bf 95e3 6f3e 4604 78be
00000030: 9ff2 853e 28c9 f53e e954 7f3d b40e 6e3f
00000040: 76b5 b2be 851f 4a3e 6dc0 bc3e 693d 03bf
00000050: 8240 833d d3d2 3c3f 0db9 843f c662 733e
00000060: c080 883e ace0 653f 4b6a 873d 8d52 8abe
00000070: acbb 7a3e 7cdc 3e3e 9503 a2be d812 4a3f
00000080: d9c5 4c3e 3485 e23e 30bb edbe 5b32 08be
00000090: 40e3 183f ea6a 7c3f 3734 063f 993f babd
000000a0: 01a9 a03d eac8 893f 05fa f63e 1e2b 973e
000000b0: 4c71 d7be 4c0e 533f e35f 183f 5d32 943e
000000c0: 3430 02bd 2a7b 10be c77d 393f 512c a63e
000000d0: 035f 843d 2a7a f13e ee06 82be a288 603c
000000e0: 24d9 b33e d733 9dbe 995c 123f 5b7c 13be
000000f0: eae7 6dbf f36e ec3e e554 7e3d 1f8e b2be

bn1.running_var f4 [64]
2.4225717 2.7721155 3.5683591 2.855864 1.5027474 3.2458763 2.0999594 2.7160811
2.0676346 4.342543 2.3365438 2.5304246 3.3274066 3.0626981 2.4775937 3.1218562
2.607332 2.392448 2.0079968 3.5866659 2.583339 3.5928001 2.2344887 2.5616527
1.4796644 1.7142353 3.153667 3.3285983 3.3470714 3.6951845 3.4607222 3.5482526
3.2000432 2.1556716 3.2830243 5.0509295 3.0227778 3.4690096 3.6606417 2.4484124
3.6805923 3.1237628 2.5395212 1.9850038 2.5073724 3.837241 2.907053 3.2791579
2.7530072 1.8223131 3.2658043 2.1577075 2.2912743 2.4203546 3.4339576 3.0169122
3.7893906 3.0224445 2.3096552 2.289632 3.7174513 2.640375 1.7188721 2.8872185
00000000: 6a0b 1b40 576a 3140 ff5f 6440 7ac6 3640
00000010: 075a c03f 70bc 4f40 bc65 0640 46d4 2d40
00000020: 2054 0440 1df6 8a40 ef89 1540 7af2 2140
00000030: 3bf4 5440 3f03 4440 e590 1e40 7ecc 4740
00000040: 87de 2640 de1d 1940 0583 0040 ef8b 6540
00000050: 6d55 2540 70f0 6540 dd01 0f40 1ef2 2340
00000060: a565 bd3f 106c db3f aed5 4940 c107 5540
00000070: 6b36 5640 e77d 6c40 797c 5d40 9216 6340
00000080: 82cd 4c40 86f6 0940 121d 5240 37a1 a140
00000090: 3175 4140 4104 5e40 f447 6a40 cab2 1c40
000000a0: d38e 6b40 bbeb 4740 8487 2240 9b14 fe3f
000000b0: ca78 2040 5b95 7540 280d 3a40 b9dd 5140
000000c0: 4531 3040 8e41 e93f f002 5140 e117 0a40
000000d0: 3da4 1240 17e7 1a40 f6c5 5b40 1715 4140
000000e0: 6085 7240 bb6f 4140 64d1 1340 5589 1240
000000f0: b9ea 6d40 e7fb 2840 0004 dc3f 30c8 3840

fc2.weight f4 [4, 64]
0.13949937 -0.0071145454 0.18993168 0.16425449 0.3817269 -0.24141993 0.16940942 -0.064751275
0.11525976 0.06372793 -0.08660913 -0.046959914 0.29918194 -0.12284264 0.26405978 -0.20869905
0.2594479 -0.13884163 0.0029974433 0.099766806 0.078997366 -0.0025142122 -0.30485916 -0.18050478
-0.10976571 -0.24489033 0.1368521 0.05020233 -0.09506791 0.38414708 0.26096666 -0.08561781
0.13600567 0.05869291 0.23717265 0.17456374 -0.20574068 -0.271694 -0.040261917 -0.13321708
-0.053154252 0.1781698 -0.12907432 0.17337576 -0.08081361 -0.1640211 -0.22603269 -0.1905835
0.33254886 0.067414075 -0.24427599 0.083647184 0.08560579 -0.21629345 -0.19038442 0.12685713
0.39023206 -0.039862204 0.32081822 -0.026864532 0.011615616 -0.18312295 -0.15293095 -0.058745112
0.062456734 -0.45376974 -0.4992181 -0.19586326 -0.24554585 0.039640006 -0.22780071 -0.78733605
-0.54394156 0.14102684 0.13779625 -0.67148536 -0.43065172 0.22209774 -0.20951147 0.1565004
-0.237049 -0.91903865 -0.7074783 -0.8391462 -0.5569846 -0.7335142 0.10096991 0.16461906
-0.50264704 0.30448925 -0.37299448 -0.4718407 -0.9536952 -0.31373903 -0.09308188 -1.2139217
-0.8262983 -0.46521896 0.08491543 -0.38882408 0.19455113 0.12164825 -1.0298119 -0.40444288
0.26720664 -0.80441195 0.20961879 -0.5118093 -0.5715065 0.06392404 -0.024059094 0.20927893
-0.33435935 -0.77119744 0.115590855 -0.5207829 -0.011786568 -0.6074191 0.12871909 -0.48413727
-0.3513618 0.20056897 -0.2954819 -0.31687397 0.15003426 0.15923126 -0.078175336 0.2021826
-0.87729496 -1.1484711 -0.1420644 -0.32485786 -0.83899117 -0.31413794 -0.53057396 -0.6226428
0.14834473 -0.56233275 -0.3596533 -0.6248717 -0.98775685 0.016945988 -0.5463536 0.110634215
-0.3277757 0.38186547 -0.8797961 -0.68720967 -0.4655864 0.42150176 0.23709433 0.27247733
0.31828102 -0.65048784 -0.58144474 -0.8441846 0.18845813 -0.6341791 -0.46256462 0.086074024
-0.835902 -0.46870688 -0.8702457 -0.4312463 0.31895384 0.17157696 0.32589117 -0.19793624
-0.16737372 0.27840438 -0.8521966 -0.17825344 -0.52506053 0.2717679 0.3189958 -0.5607109
-0.78308696 -0.9549044 0.23040804 0.20664665 -1.0752543 0.2352431 -0.9981899 -0.6481298
-0.5213875 -0.60662323 -0.65439653 -0.9871188 -0.6111788 0.30485585 -0.67383754 -0.8899639
0.16810101 0.20143455 -1.2707368 -1.0359571 -0.6328122 0.1955739 -0.20838134 0.11326777
-0.5029201 -0.66780305 -0.9734874 0.3652209 -0.13519497 -1.3111566 -0.34761313 -0.57681334
-0.14282367 -0.06756349 0.16781999 0.29471004 0.15413827 -0.37731776 -1.3339628 -0.7813019
-0.67919713 -0.3354538 -0.007554449 0.36150205 -0.3288106 -0.27758884 -0.7525436 0.28795627
0.13482803 -0.1142662 -0.9661844 -0.36098194 -1.1641538 -1.1037728 0.16235319 -0.18221354
-1.1869867 -0.36178753 -0.6694452 -0.8359218 0.31098038 -0.5463572 0.10427893 0.30158934
-0.3752945 0.16773516 0.14358036 -0.18034543 -0.96790874 -0.57545483 0.23757236 -0.76792073
-0.28931412 -0.6346857 -0.42601034 0.24015935 -0.9281115 -0.25663924 -0.36417657 -0.939058
00000000: ecd8 0e3e 2221 e9bb 737d 423e 5432 283e
00000010: b571 c33e c936 77be aa79 2d3e 519c 84bd
00000020: 4f0d ec3d ca83 823d 2160 b1bd 0a59 40bd
00000030: 602e 993e ec94 fbbd d832 873e 34b5 55be
00000040: 5bd6 843e 802c 0ebe c170 443b 8a52 cc3d
00000050: 5fc9 a13d 7bc5 24bb 8016 9cbe 3fd6 38be
00000060: d8cc e0bd 88c4 7abe f522 0c3e f5a0 4d3d
00000070: f7b2 c2bd edae c43e 6c9d 853e 6458 afbd
00000080: 1245 0b3e fa67 703d 63dd 723e d6c0 323e
00000090: afad 52be 7a1b 8bbe aee9 24bd 0f6a 08be
000000a0: 46b8 59bd 2572 363e 0f2c 04be 6a89 313e
000000b0: 9b81 a5bd 26f5 27be 1d75 67be 5228 43be
000000c0: d843 aa3e 6410 8a3d 7c23 7abe 374f ab3d
000000d0: 1752 af3d 087c 5dbe 22f4 42be d6e6 013e
000000e0: 7fcc c73e 8d46 23bd 4942 a43e 0213 dcbc
000000f0: 6d4f 3e3c 9584 3bbe ee99 1cbe b79e 70bd
00000100: a2d2 7f3d 8254 e8be 8499 ffbe 6190 48be
00000110: 5f70 7bbe 8f5d 223d 9744 69be db8e 49bf
00000120: c13f 0bbf 5769 103e 761a 0d3e 77e6 2bbf
00000130: 627e dcbe 976d 633e 2d8a 56be a441 203e
00000140: f9bc 72be 1e46 6bbf 4c1d 35bf 49d2 56bf
00000150: 8b96 0ebf 96c7 3bbf 50c9 ce3d e691 283e
00000160: 7aad 00bf 04e6 9b3e 22f9 bebe 1b95 f1be
00000170: 5e25 74bf 67a2 a0be b6a1 bebd c961 9bbf
00000180: 4988 53bf 2e31 eebe 24e8 ad3d f313 c7be
00000190: 6938 473e b822 f93d e0d0 83bf 2313 cfbe
000001a0: 4fcf 883e f1ed 4dbf 4fa6 563e ef05 03bf
000001b0: 404e 12bf 9bea 823d 9417 c5bc 374d 563e
000001c0: 2631 abbe 326d 45bf e6ba ec3d 0752 05bf
000001d0: 731c 41bc d17f 1bbf f0ce 033e d7e0 f7be
000001e0: b2e5 b3be f461 4d3e 6749 97be 4e3d a2be
000001f0: 95a2 193e 850d 233e 641a a0bd f508 4f3e
00000200: 6796 60bf 1a01 93bf 5479 11be c553 a6be
00000210: 20c8 56bf b0d6 a0be b2d3 07bf 8565 1fbf
00000220: aee7 173e 0af5 0fbf 7a24 b8be 97f7 1fbf
00000230: a2dd 7cbf 50d2 8a3c d4dd 0bbf 3194 e23d
00000240: 37d2 a7be df83 c33e 513a 61bf f9ec 2fbf
00000250: 5761 eebe 14cf d73e dbc8 723e 2682 8b3e
00000260: bbf5 a23e 5f86 26bf 90d9 14bf 7b1c 58bf
00000270: 2bfb 403e 9059 22bf 45d5 ecbe 9447 b03d
00000280: acfd 55bf 59fa efbe 6cc8 5ebf 51cc dcbe
00000290: eb4d a33e dfb1 2f3e 35db a63e ccaf 4abe
000002a0: 0464 2bbe 058b 8e3e 8e29 5abf 1288 36be
000002b0: 5e6a 06bf 2a25 8b3e 6b53 a33e c08a 0fbf
000002c0: 6378 48bf 9d74 74bf 16f0 6b3e 2e9b 533e
000002d0: efa1 89bf 91e3 703e 6089 7fbf d6eb 25bf
000002e0: a779 05bf a94b 1bbf 8886 27bf d1b3 7cbf
000002f0: 3776 1cbf 1116 9c3e 9e80 2cbf add4 63bf
00000300: ac22 2c3e dc44 4e3e 81a7 a2bf 3e9a 84bf
00000310: fbff 21bf 8644 483e eb61 55be eff8 e73d
00000320: 5fbf 00bf 24f5 2abf 7836 79bf 3cfe ba3e
00000330: 8d70 0abe fbd3 a7bf 59fa b1be 0aaa 13bf
00000340: 5e40 12be ba5e 8abd 01d9 2b3e 3ce4 963e
00000350: 6cd6 1d3e cb2f c1be 4bbf aabf 6703 48bf
00000360: dddf 2dbf 9ac0 abbe 508b f7bb cc16 b93e
00000370: dd59 a8be 2020 8ebe b3a6 40bf 016f 933e
00000380: 5c10 0a3e 6604 eabd dc57 77bf a0d2 b8be
00000390: fe02 95bf 6d48 8dbf ea3f 263e 3096 3abe
000003a0: 2eef 97bf 373c b9be c360 2bbf f9fe 55bf
000003b0: d238 9f3e 11de 0bbf 3190 d53d eb69 9a3e
000003c0: 9a26 c0be c4c2 2b3e bb06 133e 79ac 38be
000003d0: dec8 77bf 0251 13bf 2b46 733e 7496 44bf
000003e0: fb20 94be c37a 22bf 071e dabe 55ec 753e
000003f0: b798 6dbf 3866 83be 5a75 babe 1b66 70bf

fc2.bias f4 [4]
-0.042480893 -0.13152996 0.012278204 0.07052628
00000000: 7200 2ebd caaf 06be 852a 493c 1570 903d
