Models/25_rec_fin2.pt (torch, 317303 bytes, 12 tensors)

lstm.weight_ih_l0 f4 [512, 6]
000000 2e 57 a4 bd 4e 3d 21 3c 1d 01 a7 3d 34 76 f3 bd
       -0.08024441 0.009841276 0.08154509 -0.1188778
000010 a8 5f 75 be cd eb a2 3d ca e3 52 3d 05 59 91 3e
       -0.23962271 0.07955132 0.051486768 0.2838823
000020 b4 e4 76 3e 11 7d fc 3c 62 b2 46 3d 93 29 05 3f
       0.24110681 0.030821355 0.048509963 0.5201656
000030 fd 39 91 be 28 cf 60 be 0c fe a6 3c bb e1 03 3f
       -0.28364554 -0.21954024 0.02038481 0.5151631
000040 d8 dd 60 3e 7b 13 11 3e 0c f7 90 be b6 f3 0a 3e
       0.21959627 0.14167587 -0.28313482 0.13569531
000050 b3 e0 95 be 69 1a 0e be 34 40 1b 3e b4 e5 c9 be
       -0.29272994 -0.13877262 0.1516121 -0.39433062
000060 71 cb bf bb e9 be 57 3e b2 db 1b 3e a6 ba 11 be
       -0.0058531095 0.2106892 0.15220526 -0.14231357
000070 85 62 4c be ab b6 bf bc e8 5a 6b bd 8f ad fa 3d
       -0.19959457 -0.023402533 -0.05745974 0.12240135
000080 1e 7f 8b be 0b 34 bf 3e 82 75 8c be eb 54 61 3e
       -0.2724542 0.37344393 -0.274334 0.2200505
000090 fd 06 87 be db 3e bf be 8c 42 d3 bc 02 16 94 3e
       -0.2637252 -0.37352642 -0.025788568 0.2892304
0000a0 05 c0 cd bd 90 87 8e bd a2 29 50 3e 3b 81 9b be
       -0.100463904 -0.0695945 0.20328382 -0.30372033
0000b0 8d 1c 47 3e da 00 d1 bc 1a 94 5a bf f6 9f f3 3e
       0.19444485 -0.025513101 -0.85382235 0.47582978
0000c0 c0 80 f9 3d 37 3d 10 3f f5 b0 00 be 60 91 de be
       0.1218276 0.56343406 -0.12567504 -0.43470287
0000d0 e7 d1 5f 3e d4 12 1f bf 6f c0 52 be ca ca b3 3d
       0.21857415 -0.62138104 -0.2058122 0.08778913
0000e0 16 86 63 3e 12 45 98 3c 03 33 6b 3e d4 5c e2 3c
       0.22219118 0.018587623 0.22968678 0.027632155
0000f0 14 b5 c4 bd 8c 37 01 3c 98 5b 73 3e 64 66 8c 3d
       -0.096048504 0.007886779 0.23765409 0.06855467
000100 61 22 54 be ce e4 5b 3e d5 cf a5 be b4 16 71 bd
       -0.2071624 0.21474001 -0.32385126 -0.058859542
000110 87 3d 47 be a7 ec 70 3e cd 25 c1 be a1 c0 3a be
       -0.19457065 0.23527776 -0.37724152 -0.18237545
000120 cf dd 7a 3e a2 bd e9 3c 42 01 8b bd f1 c9 c4 3e
       0.24498676 0.028532807 -0.06787349 0.3843532
000130 1c f2 02 be 8d 1a ab 3e 8b 33 4d 3e 9d 8c bc bd
       -0.1278767 0.33418694 0.20039193 -0.09206507
000140 84 c0 8b be 70 70 46 3d fa b2 ed bd 8b be 18 bf
       -0.27295315 0.048447073 -0.11606403 -0.59665745
000150 14 75 47 3e c9 98 dd 3e 59 68 d0 3c 93 fe 5f 3e
       0.19478256 0.43280628 0.025440382 0.21874456
000160 7c 29 bd bd f4 3b 30 3e 56 06 2b 3c 73 b8 d1 bd
       -0.09236428 0.1721037 0.010438522 -0.10240259
000170 a9 73 0f be 75 20 50 be 0f c3 c1 3b 08 a3 14 be
       -0.14008965 -0.20324881 0.0059131454 -0.14515316
000180 5d 66 2e ba 08 1d 97 bc bc 16 61 be 4e f6 82 3c
       -0.00066528266 -0.01844646 -0.21981329 0.015986588
000190 61 9e 99 3d a7 fd 2c 3e 94 d7 a9 3e 0c 0e 8b 3e
       0.075009115 0.16893636 0.33172286 0.27159154
0001a0 b2 aa 96 3c 10 70 41 be dc f0 ae bd b7 71 dc be
       0.01839194 -0.18890405 -0.08542034 -0.43055508
0001b0 af 8d a1 bd 87 9a 80 be e1 50 cc 3e 3d 39 8a be
       -0.07888352 -0.25117895 0.39905456 -0.26996794
0001c0 c6 cd 76 3d 8b e2 3d 3b e4 56 5f be aa 18 ad bd
       0.060254835 0.0028974141 -0.2181049 -0.0845197
0001d0 ef cc 88 3e ee 31 8c 3e 0a 40 08 bd 74 d3 ac 3d
       0.26718852 0.27381843 -0.033264197 0.08438769
0001e0 b8 ed 4e be bb 75 f2 bd 30 e6 a6 bd 3f 0a 96 3e
       -0.2020787 -0.118388616 -0.081493735 0.29304692
0001f0 0c f8 45 bd 2f b5 15 3e ed cd 87 3d 0a c1 16 be
       -0.04833226 0.14619897 0.06631074 -0.14722076
000200 4a dd 18 be 4e 23 9b 3d b2 1b 1d be 65 e1 7c bd
       -0.14928165 0.07575093 -0.15342596 -0.06173839
000210 63 f1 a1 3c 25 f5 c0 3d 25 03 9a 3c 61 ee cf 3d
       0.019768422 0.094217576 0.018800328 0.10152889
000220 a1 93 da 3d dc 6b 52 be 0e eb 6e 3c 4b 8b 64 be
       0.10672689 -0.20548958 0.014582409 -0.22318761
000230 3b 6c bf bc f6 b5 80 3e 1a 2f 2c 3e 7e 7e 72 bd
       -0.023367038 0.25138825 0.16814843 -0.059202664
000240 9e 99 8e 3e 08 77 81 3c 26 09 88 bd 95 ce e8 3d
       0.27851576 0.015803829 -0.0664237 0.113675274
000250 c2 ae 92 3c 60 40 c3 3e d2 64 2e 3d 02 68 5c bd
       0.017905597 0.38135052 0.04257662 -0.053810127
000260 bf 81 9e 3e 8a 24 60 bd 27 de 48 3e ed 66 2a 3e
       0.30958363 -0.054722346 0.19615994 0.16640826
000270 ab ae 88 be 40 59 1a be 8d 6f 20 bc f6 7e 44 3d
       -0.2669576 -0.15073109 -0.009792221 0.047972642
000280 c5 e3 d9 3d 4f 50 d8 3d c3 51 8a be ed 8d de 3e
       0.10639147 0.10562193 -0.27015504 0.43467656
000290 80 1e 11 3e a2 97 e0 bd 7b 97 fb bc b1 bc 4c 3d
       0.14171791 -0.10966422 -0.03071188 0.049984638
0002a0 13 01 81 bc d7 58 b5 be 18 85 d9 bc 8f 9e d4 be
       -0.015747583 -0.35419342 -0.026552722 -0.4152722
0002b0 ab 95 8d bd 41 aa bc bc 4c a3 01 3e 2d 64 a9 3d
       -0.069133125 -0.023030402 0.12659949 0.0827106
0002c0 ba 9e 0d be 8b bd 30 3e ec 8d 14 bd 16 91 da bc
       -0.1383008 0.17259805 -0.03626816 -0.02668051
0002d0 77 4d b7 be e5 5e 8b 3e 82 95 65 3e bd 18 25 be
       -0.35801288 0.27220836 0.22420314 -0.16122718
0002e0 c6 7c 95 3d ef b7 57 3e f4 a3 37 be b2 34 c3 3e
       0.07299189 0.21066259 -0.17933637 0.3812614
0002f0 39 0b 6b be 6a 9b 7d be 75 90 c9 bd 67 a9 a2 be
       -0.229535 -0.24766317 -0.09842006 -0.3176987
000300 fa f4 c4 3d db 16 96 3d d7 48 11 3d 5e be f6 3c
       0.09617038 0.07328578 0.035469856 0.030120071
000310 f4 7b 80 be 5f c3 fb bd 3e 20 64 3e 20 06 b0 3d
       -0.2509457 -0.122931235 0.22277924 0.08594918
000320 5e 53 4a bd 6d e8 30 3f a8 9f 01 be 48 c6 93 3c
       -0.04939591 0.69104654 -0.1265856 0.018038884
000330 11 34 cf bd 06 7d 15 37 78 42 50 3d c8 c6 3a 3e
       -0.10117353 8.910201e-06 0.05084464 0.18239892
000340 62 c5 db bc 0a 72 f8 3c 51 0c 28 be 70 90 a2 be
       -0.026827518 0.030327816 -0.16410948 -0.31750822
000350 f2 ff 00 3e 14 3d 02 bf 66 8a 60 3d c3 83 20 be
       0.12597635 -0.5087445 0.054819487 -0.15675263
000360 27 25 0e bf 96 a7 42 3e 47 42 29 3e fc 19 ce be
       -0.5552544 0.19009241 0.16529189 -0.402542
000370 aa 44 20 3e cc 46 54 bb d5 66 16 3f 10 7c c4 be
       0.15651193 -0.003239083 0.5875066 -0.38375902
000380 a9 2b 9c 3e ae 9e 88 bd ca e6 03 bc a6 34 1b 3e
       0.3050206 -0.06670891 -0.00805063 0.15156803
000390 91 10 30 3d 93 00 b9 3d f0 26 0a 3e 73 75 13 be
       0.04298455 0.09033313 0.13491416 -0.14400272
0003a0 cb 99 80 3e 53 6e 03 3d dc cf 85 3d ed 44 6b be
       0.25117335 0.032087635 0.06533787 -0.22975512
0003b0 68 a6 b0 bc e9 52 6e be ae 5b 9f 3e fc e4 41 3e
       -0.021563724 -0.23273815 0.31124634 0.18935007
0003c0 ee 82 c6 3d 13 30 07 be f8 60 89 3e f7 47 28 3e
       0.096929416 -0.13201933 0.26831794 0.16433702
0003d0 9e d3 bd bd 54 5d fe bd c4 2a 40 be f3 7b 2e 3d
       -0.092688784 -0.12420145 -0.18766314 0.042598676
0003e0 3c 6f 86 3d 83 eb 9e 3e 84 46 ae bd ee b2 2d bc
       0.06564185 0.31039056 -0.085095435 -0.010601742
0003f0 39 46 8d be 81 b7 ec bd fc 2e 48 3f 9c 56 d4 be
       -0.27592638 -0.11558438 0.7819669 -0.41472328

lstm.weight_hh_l0 f4 [512, 128]
000000 6a a5 46 bc a7 63 97 3c 0c 7f 9d 3e 7d f7 3f bd
       -0.012124399 0.018480135 0.30760992 -0.046866883
000010 07 6e b1 3d 6e 9b 49 3c 10 08 56 3e c4 0c 2c be
       0.08663564 0.012305124 0.20901513 -0.16801745
000020 08 de 91 3d 58 27 b9 bd ea 13 da 3d 05 4e 83 be
       0.07122427 -0.09040707 0.106483296 -0.25645462
000030 aa 6b 80 3d 4e 4c 45 3e cd f6 ff bc 6f 7c 52 bc
       0.06270535 0.19267389 -0.031245613 -0.01284705
000040 7b 21 0f 3e d9 36 94 3e d8 fb f2 3d c0 db 39 3d
       0.13977616 0.28948095 0.11864442 0.045375586
000050 2e 24 59 be 01 71 88 b9 27 ba 64 3e 4c 51 42 3e
       -0.21205208 -0.00026024136 0.22336636 0.18976325
000060 8f f8 11 be 20 80 03 bd bb 84 8e be a1 2d 92 bd
       -0.14254974 -0.03210461 -0.2783564 -0.07137609
000070 69 70 8a 3e fb 00 1d 3e 46 9d 16 be 85 c8 d8 bd
       0.27038887 0.15332405 -0.14708433 -0.10585121
000080 40 58 40 be 2f f3 6d 3e c5 b7 8b be a7 1a 7b be
       -0.18783665 0.23237298 -0.27288643 -0.24521886
000090 fc 68 83 3d 7d 12 44 be d8 53 b1 3d ab c4 5c 3d
       0.064165086 -0.19147678 0.0865857 0.053898495
0000a0 26 24 0b 3e 7f c4 19 3e 48 5f 22 3e a2 84 e3 bd
       0.13588008 0.15016364 0.1585666 -0.11109282
0000b0 b6 73 3e 3d 2c ec 4d 3e 04 71 48 3d c0 a0 50 3e
       0.04649707 0.20109624 0.048935905 0.20373821
0000c0 8a 59 52 3d fb 99 4c bd 94 1a 2f bd f9 2d 97 3d
       0.051354922 -0.049951535 -0.042749956 0.073818155
0000d0 e2 77 45 be 90 c3 49 3e c7 5f 29 3d ce 8c 31 3e
       -0.19284013 0.19703507 0.041351106 0.17338869
0000e0 fb bc db 3d 89 c7 a1 3c b2 d6 13 3e 44 fa 08 bd
       0.107294045 0.019748466 0.14437369 -0.033441797
0000f0 78 15 37 be 53 33 e6 3d d9 ac 59 bd dd 2a 56 be
       -0.17879283 0.11240258 -0.053143356 -0.20914789
000100 25 e5 31 be a8 9b 7d be 2b 23 c2 3e 7d f0 fa bc
       -0.17372568 -0.2476641 0.37917456 -0.030632252
000110 47 f1 a2 3d 5a 09 05 3c d0 57 ed 3c 10 13 b2 3e
       0.07956176 0.008119905 0.028972536 0.3478017
000120 15 ab 6d bd 73 18 3d bd 25 83 40 bc e0 1e 7b bd
       -0.058024485 -0.046165895 -0.011750017 -0.06130874
000130 d4 59 68 3e 99 7f c6 3d f6 f1 3d 3c 75 98 5d bd
       0.22690517 0.09692306 0.0115933325 -0.054100472
000140 89 fa aa be 06 e6 4a be 6e 5a 60 bd a6 d3 ec bc
       -0.33394268 -0.1981431 -0.05477374 -0.028909516
000150 04 0d 8f be 19 76 a6 3d 11 29 79 be 1b 3a a1 be
       -0.27939618 0.08127994 -0.24332072 -0.31489643
000160 79 5a 19 3e 98 43 4d be 4c cd 0a 3e 75 18 97 3d
       0.14975919 -0.20045316 0.13554877 0.07377712
000170 34 04 c2 bc df 93 a6 3c bd ad a0 bc b1 8f c1 bd
       -0.023683645 0.020334182 -0.019614095 -0.09451235
000180 b2 b3 b0 3d fe bb 5a 3e 1b 74 60 bd 64 ec 3d bc
       0.08628024 0.21360776 -0.054798227 -0.011592004
000190 03 92 72 3d 7f b5 81 3e 3e 3e 79 bd cc a4 38 be
       0.05922128 0.25333783 -0.060850374 -0.18031615
0001a0 ae 4b 78 be 62 01 3c bd 91 2c 68 be 54 96 09 3d
       -0.2424762 -0.045899756 -0.2267325 0.03359063
0001b0 b8 f9 7e 3d 59 47 aa 3e e9 6a ae 3e 0a 71 44 be
       0.06224987 0.3325756 0.3406594 -0.19183746
0001c0 c6 49 9a bd 21 0f 39 3e 31 12 46 be 86 09 5f be
       -0.075336024 0.18072177 -0.19342877 -0.21780977
0001d0 e9 ac cf 3d b8 47 9c 3d 05 99 ee 3d 2f 1c 08 3e
       0.10140402 0.07630867 0.1165028 0.13292001
0001e0 b6 58 14 bc 6b d3 fb 3d 18 fd 1d be f0 4c 40 3e
       -0.009054353 0.12296184 -0.15428579 0.1877935
0001f0 fb 1a 96 bb 4b 33 39 3e 62 b3 a8 bd 4a 92 03 be
       -0.004580853 0.18085973 -0.082373396 -0.12848774
000200 ea 8f 0e be c9 1d 4f be b4 d6 25 3e 50 69 99 be
       -0.13922086 -0.20226206 0.16195184 -0.2996316
000210 29 d0 32 bd 2a ba af 3d 22 3d 4e 3e c4 e9 50 3e
       -0.04365555 0.0858043 0.20140508 0.20401675
000220 d1 92 78 3e ea 89 dc bd c3 54 84 be 4a 19 f1 be
       0.24274756 -0.107684925 -0.25845918 -0.47089607
000230 01 93 d1 3e 65 fa 93 3e 4f b3 a6 3d 03 3e 08 3e
       0.40932468 0.28901973 0.08139669 0.13304906
000240 39 83 6f 3e ce dc 2f 3e a4 c9 38 be 97 ff 42 3e
       0.23389901 0.17174074 -0.1804567 0.19042812
000250 d5 de 6d 3e 43 3b 8d be b9 39 62 3e 12 de 77 3e
       0.23229535 -0.27584276 0.22092332 0.24205807
000260 c1 76 5f be 1e 52 40 be a1 ac ed 3b 15 01 38 be
       -0.21822645 -0.18781325 0.007253245 -0.17969163
000270 ff b5 07 be 05 d1 cb 3d 78 6e ef bd b0 e9 d6 bd
       -0.1325302 0.09951977 -0.11690992 -0.10493791
000280 ca da 50 be 6b 70 00 3d ab 03 7b bd 0b 19 1e be
       -0.20395961 0.03135721 -0.061282795 -0.1543924
000290 e6 3b d6 3d 67 77 0e be b7 12 6b 3e 48 2b a7 3e
       0.104606435 -0.13912736 0.22956358 0.32650208
0002a0 6b fc 1f 3e 87 53 91 3d 5e 7e 29 3d 44 21 53 be
       0.15623634 0.0709601 0.04138028 -0.20618159
0002b0 6c 87 3a be f0 f4 8c 3e 5c 1d 15 be 1b 01 1f be
       -0.18215722 0.27530622 -0.14561981 -0.15527765
0002c0 1f 58 e7 3d c0 04 9a be 49 fb 1f 3d f1 57 94 3e
       0.11296105 -0.3008175 0.039058004 0.28973344
0002d0 7b ab 61 bd 99 23 9d 3e 01 6d 84 bd 8e 46 60 3e
       -0.055095177 0.3069122 -0.06466103 0.21901914
0002e0 df d5 81 bd ba 99 9a bd 4c dd 2d 3e a5 1f 43 3d
       -0.06339621 -0.07548852 0.1697895 0.0476376
0002f0 e0 41 5c 3d f4 73 ba 3d e3 26 a0 bd f2 de 82 3d
       0.05377376 0.091041476 -0.07819917 0.0639018
000300 c0 c2 6b be 16 0d 8e be 25 32 c1 3d d5 de 8a be
       -0.2302351 -0.2774436 0.094333924 -0.27123132
000310 0f a5 e3 3d db 5c e2 bd 1f 58 84 bc 31 cb f4 bd
       0.11115467 -0.11052867 -0.0161553 -0.11952818
000320 73 1e a8 bc 55 e4 43 3e e8 6c 63 be 38 1c 95 3c
       -0.020522332 0.1913007 -0.22209513 0.018201932
000330 49 86 44 3e bb 93 92 3e 20 35 26 be 77 de 6b be
       0.1919185 0.28628334 -0.16231203 -0.23034082
000340 09 e7 0f be b9 21 38 3d 28 c3 19 bd 9e 1b 41 be
       -0.14052977 0.044954035 -0.03753963 -0.18858191
000350 d4 b1 41 3e d5 f5 ad 3e 07 11 52 3e 0f 24 8f 3e
       0.18915492 0.33976617 0.20514308 0.27957198
000360 81 cf 5f 3d 2c d5 ab bb d0 3a 6b 3e 10 2c a1 bd
       0.05464125 -0.005243918 0.22971654 -0.078697324
000370 d8 0c 30 3e 40 a5 08 be 21 1b b6 be 17 f9 3d be
       0.171924 -0.13344288 -0.35567573 -0.18552051
000380 37 6d 4e bd 21 07 b3 3d b6 0e 2b be 92 38 b2 3d
       -0.050397124 0.08741594 -0.1670483 0.08702196
000390 bd 5d 32 3c 0a ae 04 3e 38 52 84 bd 0a 9d ec bd
       0.010886607 0.12957016 -0.064609945 -0.1155339
0003a0 eb 0b d5 bd aa e3 bc bd 97 6d 8d bd 90 b8 9e bd
       -0.10402664 -0.09223111 -0.06905668 -0.07750046
0003b0 86 0f 07 3e 0e b9 fe 3e a0 bc 89 3e cc 70 a3 be
       0.13189515 0.4975056 0.26901722 -0.31921995
0003c0 9b 12 cd 3c f9 6d 0a 3e 26 3c a5 bd e6 1a 8b be
       0.025033286 0.13518514 -0.08068113 -0.2716896
0003d0 ee 9e 84 3c 83 de c7 bd 50 e0 32 3e 86 d0 88 3d
       0.016189065 -0.097592376 0.17468381 0.06680398
0003e0 e8 55 0d 3e e7 9f ba 3b 47 af 8a be 01 86 6e bd
       0.13802302 0.0056953314 -0.2708685 -0.058233265
0003f0 05 d3 e8 bd e8 3f 85 3d 45 f0 3a be 77 b5 09 bd
       -0.11368374 0.0650633 -0.18255718 -0.033620324

lstm.bias_ih_l0 f4 [512]
000000 17 b9 95 be d1 55 55 be fa a8 87 bd dc b8 68 be
       -0.29242775 -0.20833518 -0.066240266 -0.22726768
000010 6b f9 00 3e d5 af 84 be 2a 1b 9f be c7 a0 7c bb
       0.12595145 -0.259154 -0.31075412 -0.003854798
000020 4f b3 bb 3c 8f 33 78 bb 0f dd 07 be 00 0e b9 be
       0.02291265 -0.0037872528 -0.13267921 -0.36143494
000030 9a 52 aa be 1a d4 02 be 94 6e 3f bd 4e b2 9e be
       -0.33266145 -0.12776223 -0.046736315 -0.3099541
000040 2d 6e ac be e4 44 06 be 22 5a 89 be 24 bd 72 be
       -0.33677807 -0.13112217 -0.26826578 -0.23704964
000050 43 f0 b0 3c be 6e 63 be c3 6c 3d be d8 9e 09 bf
       0.02159894 -0.22210214 -0.1849852 -0.53758
000060 7a 75 f5 be 0e 77 d5 be d5 bd 37 be 10 43 b8 be
       -0.4794119 -0.41692394 -0.17943509 -0.35988665
000070 09 af d2 be 59 7a 88 be cc 07 36 be 7c 26 d3 be
       -0.41149166 -0.26655844 -0.17776412 -0.412403
000080 c6 2d 3d be 4a e5 8d be 45 05 55 be 90 dc 7e 3d
       -0.18474492 -0.27713996 -0.20802791 0.062222064
000090 6e 98 e0 bd 32 e3 33 bd 35 76 df be 11 1d a2 bd
       -0.10966574 -0.043917842 -0.43644872 -0.079157
0000a0 dd 7b 75 be 52 93 fa be ad 0c 70 be 27 10 aa be
       -0.23973031 -0.4894052 -0.23442335 -0.33215448
0000b0 fe b5 8a be 5e 92 9e bc 2b a5 46 be 03 2e 6b be
       -0.27091974 -0.019356903 -0.19398944 -0.22966771
0000c0 2e f7 e3 bd 41 98 61 be c6 35 5b be 6c 22 9a be
       -0.1113113 -0.22030737 -0.21407232 -0.30104387
0000d0 af f3 ba be d8 50 b0 be 46 30 51 be ed 2c 9f be
       -0.3651404 -0.3443668 -0.20428571 -0.31088963
0000e0 0e 13 e7 bd fe 8a e0 be 13 58 a5 be a3 b8 0c be
       -0.11282931 -0.43856043 -0.32293758 -0.13742308
0000f0 47 87 82 be 1a 07 14 be fd ad 10 3e af a2 19 3e
       -0.25493833 -0.14455834 0.14128871 0.15003465
000100 63 4c 81 be 87 61 0b be aa f1 0d be 34 c7 cc be
       -0.2525359 -0.13611422 -0.13861719 -0.3999573
000110 28 db cd 3d 54 47 ac be 48 02 7d bc 08 57 20 be
       0.10051566 -0.3364817 -0.015442438 -0.156582
000120 a2 d5 93 be 27 05 ad be 64 92 01 bf 51 82 d0 be
       -0.28873926 -0.33792993 -0.50614 -0.40724424
000130 8b 11 5f 3e 8d 3b e6 bd 65 7d ab be 14 0b 06 bf
       0.21784036 -0.11241827 -0.33494106 -0.52360654
000140 19 e6 8f be 74 12 57 be aa 66 fd bd 2e e9 21 be
       -0.28105238 -0.21003133 -0.12373097 -0.15811607
000150 8a c7 92 3c 66 31 8f be 68 3c 02 bf 7a 45 d5 be
       0.017917413 -0.27967376 -0.5087342 -0.4165457
000160 28 95 8d be 58 fd 8c be 74 5c 56 be 9f c2 ae be
       -0.2765286 -0.27537036 -0.20933706 -0.3413286
000170 a5 e4 9a be 08 8b a1 be fe 0b 83 be ec b9 d1 be
       -0.30252567 -0.31551385 -0.25595087 -0.4096216
000180 64 e5 7a be ee 01 15 bd 38 6f 26 3d fc 04 4c be
       -0.24501568 -0.036378793 0.04063341 -0.19923776
000190 10 01 90 bd 97 4f c4 bd c2 d1 64 be 25 4f 72 be
       -0.07031453 -0.09585493 -0.22345641 -0.23663004
0001a0 21 aa 74 be 8d d2 2e be 9f db 90 be 43 5b b2 bd
       -0.23893024 -0.17072506 -0.28292558 -0.08708813
0001b0 80 82 93 be 32 1a 6f bd bc 87 4c bd 81 92 55 be
       -0.288105 -0.05837459 -0.049934134 -0.20856668
0001c0 83 ed 61 be e9 8c dc 3b f3 dd a1 be c4 9c 26 be
       -0.2206326 0.006730665 -0.31614646 -0.16270739
0001d0 87 10 4d be d1 1f 53 bd 67 42 75 be e6 42 58 bc
       -0.20025836 -0.051544014 -0.23951112 -0.013199544
0001e0 90 73 3d be 83 e9 d1 be 89 47 16 bf 4f dc f3 bd
       -0.18501115 -0.40998468 -0.58702904 -0.11907255
0001f0 35 a1 8f be cf 34 28 be d8 9a 0d be 54 34 a7 be
       -0.2805268 -0.16426395 -0.138286 -0.3265711
000200 99 36 38 be 9f b7 cd bd f9 37 44 3d 8a 97 8d 3d
       -0.17989577 -0.100447886 0.047904942 0.069136694
000210 5e 37 f6 3d 5b 2d d7 bd 84 a1 bb bd 6f 81 0f 3e
       0.12022279 -0.10506698 -0.09161666 0.14014219
000220 fe e6 00 3d 95 8c 52 bd ea 5b 14 be 76 a9 b0 be
       0.03147029 -0.0514036 -0.14488187 -0.34504288
000230 75 9f b4 bd a7 d7 f9 3d e1 43 36 3e d8 83 82 be
       -0.088194765 0.121993355 0.17799331 -0.25491214
000240 bf 2b e1 be ee 9a 9d bc 40 2a 34 be 08 cd 38 be
       -0.43978688 -0.019238915 -0.17594242 -0.18046963
000250 65 03 46 3d 86 76 87 be 17 42 e0 3c e2 64 ed be
       0.04834308 -0.26457614 0.027375264 -0.4636603
000260 1d 06 6d be 6c d9 7e be 4f e9 56 bc 8d 47 b6 be
       -0.23146863 -0.24887627 -0.013117149 -0.35601464
000270 28 f3 4c be b9 38 18 be e7 3c 5e be 3b 42 ae bd
       -0.20014632 -0.14865388 -0.2170292 -0.08508726
000280 57 23 eb bd b4 e7 15 be 69 c3 24 bd dc 6d 2a 3d
       -0.1148135 -0.14639169 -0.04022542 0.041608676
000290 15 84 35 3d 28 9d 63 3e a0 96 54 be eb 36 28 be
       0.044315416 0.22227919 -0.20760584 -0.164272
0002a0 a8 f9 80 be 4d 57 93 be 33 2a c1 3e 9c 93 03 be
       -0.25190473 -0.28777543 0.37727508 -0.12849277
0002b0 7d 01 5b be f7 a6 d8 bc eb 97 58 be 8e 57 2c 3d
       -0.21387286 -0.026446803 -0.21151702 0.042075686
0002c0 3a 9f 5f bc 6e 6a 4e bd 0b d6 d3 ba 86 8e 57 be
       -0.013648802 -0.050394468 -0.0016161812 -0.21050462
0002d0 d2 c6 13 be c9 82 e0 be b6 48 12 be be 64 fb bd
       -0.14431313 -0.4384978 -0.1428555 -0.122750744
0002e0 a6 9d 7f 3d fc bb c3 be 3c 20 c2 be 24 aa e4 3b
       0.062406205 -0.38229358 -0.37915218 0.00697829
0002f0 92 b8 26 be 97 30 bc 3d 30 fd ec 3c 5b 16 0d 3e
       -0.16281345 0.09188955 0.028929323 0.13778059
000300 c9 52 6c be 48 53 1c be 8b 30 61 be c8 9d 1f 3f
       -0.23078455 -0.15266144 -0.21991174 0.6235013
000310 51 d2 4b 3e 52 0d 96 be da b3 ef 3c 3b a9 56 be
       0.19904448 -0.29307038 0.029260565 -0.20962994
000320 3b 15 6b be fa d0 8d be 76 e4 2a bd b5 ed 92 3e
       -0.22957318 -0.276985 -0.041721784 0.2869698
000330 14 6d 4e 3c fd e2 36 3d fb 20 05 bf 57 e3 a0 be
       0.012599248 0.044650067 -0.5200345 -0.31423447
000340 d8 b0 c1 be 42 b2 f3 3c bb c3 3d 3c 49 0f c7 3e
       -0.37830234 0.029748086 0.01158231 0.3887885
000350 af 1c a1 3d ba e0 1b bc cf c6 85 3e ef ec ad be
       0.07866799 -0.009514028 0.2612824 -0.33969828
000360 fd 0d 9c be da 0b 44 be 87 58 94 be 03 9f 8c be
       -0.30479422 -0.19145146 -0.2897379 -0.27465066
000370 25 5e 1c be 89 13 90 be 07 d1 53 be d4 48 a6 be
       -0.15270288 -0.28139904 -0.20685206 -0.32477438
000380 96 8d b5 be 30 24 a6 3e 07 20 41 3e d9 6c 5d 3d
       -0.35459584 0.32449484 0.18859874 0.054058883
000390 5d 3f eb 39 7f 1e ca bd f2 83 57 be 8e a2 82 be
       0.00044869902 -0.09869098 -0.21046427 -0.25514644
0003a0 45 db b6 bd 38 ce 81 3e 0a 0b bf bc 72 c3 e0 bd
       -0.08928541 0.25352645 -0.023320694 -0.10974778
0003b0 1b 7c 66 bd 7b fb 98 3d 18 0e f7 3d 95 33 88 bd
       -0.0562707 0.07469841 0.12063235 -0.066504635
0003c0 6a 76 c8 bd 5f 6e e6 3d 41 d3 10 be df fc 69 bd
       -0.09788211 0.1125152 -0.14143087 -0.057125922
0003d0 60 2a 34 bc f4 5a c4 3d b0 ed 8f be a8 91 eb 3e
       -0.010996431 0.095876604 -0.2811103 0.46009564
0003e0 be 0a 32 be 4c a4 be be 4b 2a 48 3e bd 04 8c bd
       -0.1738691 -0.37234724 0.19547383 -0.06836841
0003f0 2f 85 3e be cb 2b 75 be 7c 92 e8 bd 93 97 01 be
       -0.18605493 -0.23942487 -0.11356065 -0.12655477

lstm.bias_hh_l0 f4 [512]
000000 70 c2 30 be 87 ab 84 be 39 d6 eb bd f8 ab 36 be
       -0.17261672 -0.25912115 -0.11515469 -0.17839038
000010 22 d7 9c 3d 45 39 87 be da 07 3f be f8 cf 06 be
       0.07658221 -0.2641088 -0.18655339 -0.13165271
000020 e0 f3 34 3d 05 5a 1a be 0f a3 7e be da db fe be
       0.04417789 -0.15073402 -0.2486689 -0.49777108
000030 76 36 b4 be 2e c5 8d bd 2d 8e f3 bd 81 4f c9 be
       -0.351978 -0.06922375 -0.11892352 -0.3931847
000040 32 fd 9c be 52 f4 0a be 4a 9a a6 be 53 9c a0 be
       -0.30661923 -0.13569763 -0.32539588 -0.31369266
000050 8d f8 ac 3d b1 a8 87 be d3 8a 0f be 12 62 d2 be
       0.08445845 -0.2649589 -0.14017801 -0.41090447
000060 97 56 ea be 45 e0 e0 be 3d b9 3d be ec 5c b1 be
       -0.45769188 -0.43921104 -0.18527694 -0.34641206
000070 77 ba 9c be 78 e8 22 be b7 5b 40 be 5f 2a b4 be
       -0.3061101 -0.15908992 -0.18784986 -0.35188577
000080 93 09 8c be b7 8c 17 be 72 87 ed bd d7 1e 46 bd
       -0.27351055 -0.14799772 -0.115981 -0.048369255
000090 f1 9f e7 bd cf fb 3d be 88 86 c5 be 8c 1d d0 bd
       -0.11309803 -0.18553089 -0.38579202 -0.101618856
0000a0 83 df d0 bd 49 8e 02 bf 4e e7 8e be 03 b1 cb be
       -0.101988815 -0.5099836 -0.27910846 -0.39783487
0000b0 45 13 a3 be 96 d0 94 bc 5e 3f 8b be f4 b0 6f be
       -0.3185064 -0.018165868 -0.27196783 -0.23407346
0000c0 b6 04 a6 bd f9 ba 4b be 94 28 43 be 40 ff 76 be
       -0.08106367 -0.19895543 -0.19058448 -0.24120808
0000d0 72 26 b3 be 22 68 b8 be 39 e2 e8 bd 09 e7 c2 be
       -0.3499027 -0.36016947 -0.113712735 -0.3806689
0000e0 15 69 63 be ea 0b b5 be 2d c8 8f be e0 a2 ab bd
       -0.22208054 -0.35360652 -0.2808241 -0.08380675
0000f0 d6 36 7c be 83 b1 e2 bb 45 04 20 3e db c7 f9 3d
       -0.24630293 -0.0069181337 0.15626629 0.121963225
000100 4f 5c 4c be d0 0f 2e bd da 24 89 be 24 83 c1 be
       -0.19957088 -0.04249555 -0.26785928 -0.37795365
000110 f9 dd e0 bc 36 4a de be bd 87 7a bd e7 3d df bd
       -0.027449595 -0.43415993 -0.061164606 -0.10900479
000120 4d f6 91 be d0 1b b8 be a2 9c 08 bf e6 40 b9 be
       -0.28508225 -0.3595872 -0.53364 -0.36182326
000130 67 df 22 3e 4c 76 22 be 86 f3 8b be f3 1f 03 bf
       0.15905534 -0.15865439 -0.2733423 -0.51220626
000140 a5 f5 81 be 27 63 bf be 2e 1e 63 be 00 f6 56 bd
       -0.25382724 -0.37380335 -0.22179481 -0.052480698
000150 31 23 99 3c c4 05 18 be 9b 25 1e bf a9 e3 b3 be
       0.018693538 -0.1484595 -0.6177613 -0.35134628
000160 fb aa 7b be 51 67 86 be 31 4c 21 be 85 b1 c3 be
       -0.24576943 -0.262507 -0.15751721 -0.38221374
000170 4b be a3 be 6d 5f c3 be 98 e9 53 be 5d 8c be be
       -0.3198112 -0.38158742 -0.20694578 -0.37216464
000180 17 df 82 be 3b b0 e8 bd 0f 3a 84 3d 26 f3 92 be
       -0.2556083 -0.11361738 0.06456386 -0.28701133
000190 91 b7 af bd e0 a3 92 bd fb 62 72 be c6 54 85 be
       -0.085799344 -0.07160163 -0.2367057 -0.2604124
0001a0 62 dc 58 be 23 4f 6e be f2 8c 2f be 4e f7 50 be
       -0.2117782 -0.23272376 -0.1714361 -0.20406839
0001b0 09 96 92 be 9a 05 8c bd d6 d4 69 3d f1 9e f0 bd
       -0.28630093 -0.06837006 0.05708774 -0.11749066
0001c0 51 d9 61 be 4f 8d 43 3c 55 7b c6 be de 96 85 be
       -0.22055556 0.011935546 -0.3876597 -0.26091665
0001d0 ee 3d bf bd 4a 42 0c bc 7d 6f 15 be 4d 7e c8 bc
       -0.09337984 -0.008560726 -0.1459331 -0.024474287
0001e0 64 0d 29 be 4e 0e e8 be 84 7c fc be fb 98 f7 bd
       -0.16509014 -0.45323414 -0.49313748 -0.120897256
0001f0 87 ec 82 be bf b6 1a be b3 0d 78 be f5 94 c8 be
       -0.2557108 -0.15108775 -0.24223976 -0.39176145
000200 d9 cc 4c be fd 7d 88 bd 45 68 09 bd 35 a8 a4 bd
       -0.20000018 -0.06664655 -0.033546705 -0.080398954
000210 23 82 2d 3e fa e8 6a bd 4d 06 6f bd 47 6f 5b 3e
       0.16944174 -0.05735109 -0.05835562 0.21429168
000220 2a 3f 90 3b d0 e1 bf bd b1 94 7f bd 5b 30 cc be
       0.004402061 -0.09369242 -0.062397663 -0.39880642
000230 57 f9 c2 3c 3f 38 cb 3c 4b b0 0a 3e 6a 1d 0d be
       0.023800535 0.024807094 0.13543813 -0.13780752
000240 e3 ad d6 be b9 a9 64 bc 58 7d c4 bd 4f 9e 5a be
       -0.4192954 -0.013956481 -0.0959422 -0.21349452
000250 0a 66 8f 3d e2 94 95 be ad 1f f8 3d 3c 45 c1 be
       0.07001884 -0.2921515 0.12115417 -0.37748134
000260 9c ea 88 be 91 ac 22 be ea 1b 93 3d 41 d8 81 be
       -0.26741493 -0.15886141 0.071830586 -0.253603
000270 43 12 95 bd 13 e1 fe bd 64 2f 22 be 50 b3 8f bd
       -0.07278874 -0.12445273 -0.1583839 -0.07016623
000280 38 65 04 be d9 12 b8 bd f7 fb 74 bc c6 31 d2 3b
       -0.12929237 -0.0898797 -0.014952651 0.006414625
000290 f3 84 e0 3d c5 10 26 3e cc 59 a3 be 6f 35 b2 bd
       0.10962858 0.16217335 -0.31904447 -0.08701598
0002a0 b9 4c 84 be 56 d9 d0 be 61 09 fb 3e 16 e7 57 be
       -0.25839785 -0.40790814 0.49030593 -0.21084246
0002b0 bf eb 8b be 3a 05 03 3c d3 71 9c be 01 41 c0 bc
       -0.27328297 0.007996852 -0.3055559 -0.023468496
0002c0 99 62 8e bc 9c 75 3e bd a9 63 86 bc f3 e5 29 be
       -0.017381 -0.04649888 -0.016404944 -0.16591625
0002d0 f8 0d 04 be 86 ed b5 be 4a fd ee bd 3c de 88 bd
       -0.12895954 -0.35532779 -0.11669405 -0.06683013
0002e0 22 fd 47 3d 02 93 db be c6 2d 05 bf ed b9 ad 3c
       0.04882539 -0.42885596 -0.5202297 0.02120682
0002f0 cb e7 17 be b2 e4 a1 3d 36 ce 34 bd 7e d2 0f 3e
       -0.14834516 0.07904948 -0.04414197 0.1404514
000300 9a 4b 11 be c7 53 83 bd 58 12 d9 bd d9 7f 11 3f
       -0.14188996 -0.06412464 -0.10599202 0.56835705
000310 dc 19 7b 3e 87 0a ac be 66 b4 54 3d af dd 33 be
       0.24521583 -0.33601782 0.051929854 -0.17565034
000320 e7 71 b4 be 82 45 56 be 95 13 96 bd fe ee 92 3e
       -0.3524315 -0.20924953 -0.07327954 0.28697962
000330 05 d7 0c 3e 0c 9e df 3d c7 6b f2 be dc a1 82 be
       0.13753898 0.10918817 -0.47347853 -0.25514114
000340 91 60 c4 be 53 f1 b2 bd 3a 6e 4b bd 86 be e8 3e
       -0.38354924 -0.08737435 -0.049665667 0.45457858
000350 69 8d 99 3d 01 a0 ca 3c 81 a5 82 3e 42 33 a6 be
       0.07497675 0.024734499 0.25516894 -0.32460982
000360 d3 74 60 be 4a 67 5d be 26 09 7c be d9 03 60 be
       -0.21919565 -0.21621433 -0.24612865 -0.21876468
000370 dd 1d 44 be 0b fb 2a be 45 f0 a7 be c7 0a 94 be
       -0.19152017 -0.16697328 -0.328005 -0.28914472
000380 58 6b 89 be 1c 77 97 3e 96 02 3e 3d f3 36 cf bd
       -0.2683971 0.2958306 0.046389185 -0.101179026
000390 62 be ad bc fc 58 c6 bd ca 19 f3 bd a3 d9 de bd
       -0.021208946 -0.09684941 -0.11870153 -0.10881355
0003a0 ff b5 58 3c f8 9b 00 3e 9c 54 e6 bd c9 7e ac bd
       0.013226985 0.12559497 -0.11246607 -0.0842262
0003b0 ec 61 87 3c 2a e8 81 3b 81 80 75 3e 9a 38 74 be
       0.016526185 0.0039644437 0.23974802 -0.23849717
0003c0 e3 03 94 bd a9 38 10 3e 39 b0 32 bd bc cf fe bd
       -0.07227304 0.14084114 -0.04362509 -0.12441966
0003d0 11 66 04 be 93 2c 31 3d ab 63 31 be a4 c8 c9 3e
       -0.1292956 0.0432554 -0.17323177 0.3941089
0003e0 e7 31 5a be 05 07 bf be 1e 40 dd 3d dd ca a1 bd
       -0.21308099 -0.37310043 0.10803245 -0.07900021
0003f0 c4 88 29 be ff ae 50 be 8a eb b6 3c 39 f4 67 be
       -0.16556078 -0.20379256 0.02232911 -0.22651757

fc1.weight f4 [64, 128]
000000 8e f0 4d 3a aa dd d1 3d bd d3 92 3c 37 f3 97 3e
       0.0007855975 0.10247357 0.01792323 0.29677746
000010 f2 d5 79 3d 43 d6 12 3e 93 5d b1 bd 2f 9e 7f bc
       0.06099505 0.14339547 -0.08660426 -0.015601679
000020 dd c9 c8 3d 69 ce 19 3b cb 2a b8 bd 20 d6 a1 bc
       0.09804127 0.0023468977 -0.08992537 -0.019755423
000030 4c e0 a8 bd dc 94 ab be 40 6c 4e 3e a9 d4 2e be
       -0.08245906 -0.33512008 0.20158482 -0.17073311
000040 e3 e2 fe 3d f5 dd 73 be f7 09 04 be b7 29 8d 3d
       0.12445619 -0.23815139 -0.12894426 0.06892722
000050 ac e4 d7 bc 4d eb 84 3d e8 bd 0a 3e 43 fd 2b 3e
       -0.026354156 0.064901926 0.13549006 0.1679583
000060 97 2c f7 bd 64 d6 b7 3d 91 02 a6 3d 21 3e 46 be
       -0.12069052 0.08976439 0.08105958 -0.19359638
000070 e7 ca 28 3e 39 96 a5 3c cc 34 e2 bd db 36 a2 3d
       0.16483651 0.020213233 -0.110452265 0.07920619
000080 30 da 67 be e4 ff 40 3e 66 e1 66 be 32 3f e2 3d
       -0.22641826 0.18847615 -0.2254692 0.1104721
000090 bb 36 6f be 53 8e 28 bd 94 26 1f 3d 27 fc b1 bd
       -0.23360722 -0.041151356 0.03885515 -0.08690672
0000a0 0e b9 9f 3d 68 ca b8 bd 5c 3f 1f 3f 0b 38 75 bd
       0.07798968 -0.09022981 0.62206054 -0.0598679
0000b0 53 ee 80 3d e7 0a 59 be 1d 82 f5 bc d1 25 c7 3d
       0.06295457 -0.21195565 -0.02996927 0.0972401
0000c0 d0 33 8f bd fe 85 ba bc f9 a5 da 3d 78 86 40 bd
       -0.06992304 -0.02276897 0.10676188 -0.04700324
0000d0 9d 69 b4 3e 70 0b 35 3e 8a 37 53 3e 0c d1 47 be
       0.35236827 0.17680144 0.20626655 -0.19513339
0000e0 92 09 97 3d 38 29 8d 3e 4a bf e7 bc 96 b6 83 3d
       0.07374872 0.2757051 -0.028289456 0.0643131
0000f0 ef db b3 3e 40 29 a3 be c7 45 2e 3e f2 a9 4a 3e
       0.35128734 -0.3186741 0.17018805 0.19791391
000100 80 47 59 be 9e 86 0f 3b 0b 5d ed 3d d9 63 b5 3d
       -0.21218681 0.0021900306 0.11590012 0.08856935
000110 94 fa cf 3c 9d 2f 77 bd 96 e2 37 be 42 a3 27 be
       0.02538804 -0.060348142 -0.1795753 -0.16370872
000120 7c 2d 50 bd 5a 77 9a bd fd 8e 8c be 93 55 42 be
       -0.050824627 -0.07542296 -0.2745284 -0.18977956
000130 9a 88 10 3e 5e 66 3b 3e e4 1b 47 be 5c 3f 64 be
       0.1411461 0.18300769 -0.19444233 -0.22289795
000140 7c 48 fb bd 26 b8 36 3d 2c 4e 25 be 21 b4 15 3e
       -0.12269685 0.04460921 -0.16143101 0.14619495
000150 e8 b7 3e be 79 2b 07 3f 29 27 a3 3e a7 61 42 be
       -0.18624842 0.5280071 0.31865814 -0.18982564
000160 fc a7 90 bd 00 6a 08 bc a6 49 a0 be 79 d7 2b 3c
       -0.070632905 -0.008326054 -0.3130619 0.010488384
000170 36 db af bb d3 44 4e be f7 bc d2 bd ff 4c b3 bd
       -0.005366708 -0.20143442 -0.102899484 -0.0875492
000180 28 9c eb bd 9e 98 67 3e 05 d0 0b bd 7d 58 d5 be
       -0.11504394 0.22616813 -0.03413393 -0.41669074
000190 c9 a1 f4 3c 3c 69 22 3e 87 5e 0a 3e 44 2b 99 3c
       0.029862301 0.15860456 0.13512622 0.018697388
0001a0 6e be a8 bd 5c c8 90 3e b6 b1 9c bd df f6 99 3e
       -0.082394466 0.28277862 -0.07651083 0.3007116
0001b0 ca eb 64 3e 5a 6c e5 bd 19 7b 16 bd ab 9c 25 bd
       0.22355571 -0.11202307 -0.03673849 -0.040432613
0001c0 87 9c 0c 3e 7a 98 aa 3d df 74 43 3e 40 75 8c 3c
       0.13731585 0.08329864 0.19087552 0.017145753
0001d0 9e a3 66 be 22 e6 02 bd e1 93 a9 bd 3c 17 95 3d
       -0.22523353 -0.031957753 -0.08280159 0.07279822
0001e0 9f 8a 1b be 4c 36 13 bb 00 9a 58 3d e5 97 cd 3c
       -0.15189599 -0.0022462783 0.05288124 0.025096843
0001f0 90 38 32 be 9d b9 0a 3e 9b dd af bb 02 57 2a be
       -0.1740439 0.13547368 -0.0053669936 -0.16634753
000200 19 64 89 be ff fb 8d bd 17 21 93 be 8a 30 be 3e
       -0.2683418 -0.0693283 -0.28736183 0.37146407
000210 5c 98 0a 3e 7f 5f 5b be e3 0b de bd 71 51 a1 3e
       0.13534683 -0.21423148 -0.10842111 0.31507447
000220 4d cf 9c bd 9f a2 97 bd 02 01 ea bd 8d f7 d5 3e
       -0.07656727 -0.074040644 -0.114259735 0.4179043
000230 f8 c9 6e 3c 0e 9a f4 bc e3 10 da bd ae 8d 17 3e
       0.01457452 -0.029858615 -0.10647752 0.1480014
000240 6b 5b 37 be b7 e7 03 be d4 d0 d3 3d f4 88 23 bc
       -0.17905967 -0.12881361 0.10342565 -0.009981383
000250 c6 01 03 3e 6a 11 f1 3d a7 7c a5 bd 94 fa 30 3d
       0.12793645 0.117708996 -0.08080416 0.04320772
000260 2e a2 da 3d cb 19 ff 3c 0b 89 ef bd ee 99 a7 bd
       0.106754646 0.031140229 -0.11696061 -0.08183657
000270 a8 2e fa bd 35 fa af bd 33 19 80 bd 9a 74 b9 3d
       -0.1221593 -0.08592645 -0.06254806 0.09055443
000280 8b de 50 bd 9e 44 af 3d 9e 67 72 3e aa 2a bb 3c
       -0.050993484 0.085580096 0.2367234 0.022847492
000290 ab a9 22 3d 0e 8d 91 3e 4f 93 7a bc 59 55 5a 3e
       0.03971259 0.2842793 -0.01529391 0.2132162
0002a0 68 76 15 3e 91 6d a3 3c 23 ed 81 3c b7 0b d4 3d
       0.1459595 0.019949706 0.015860146 0.10353797
0002b0 aa 3e 6d 3e f4 80 1e be d4 86 d5 3d 77 73 03 be
       0.23168436 -0.15478879 0.10426107 -0.12837015
0002c0 0b e9 13 3e e2 5b 85 bd 65 9a 42 3b f1 e1 f8 bc
       0.14444368 -0.06511666 0.0029694077 -0.030381175
0002d0 e1 0f 1a 3b f6 f0 6b be d2 22 80 3d 62 7c c9 3b
       0.0023508 -0.23041138 0.062566414 0.006148861
0002e0 ef 1d 9d bd 21 de 80 3d ce a4 97 3e 9c fa 5b bc
       -0.07671725 0.06292368 0.29617923 -0.013426449
0002f0 e5 f7 70 3e 68 ef 45 3e 03 51 82 3e f0 bc 55 be
       0.23532064 0.19329607 0.25452432 -0.20872855
000300 22 21 57 be af 5c b4 3d 14 11 6c be 5a 75 83 be
       -0.21008733 0.088067405 -0.2305339 -0.2567547
000310 75 b0 05 3e 3c 2e 0e 3e 5a 1c 97 bd d9 ab 16 be
       0.13055594 0.13884825 -0.073784545 -0.14713992
000320 f9 ee 04 be 5e db 06 be 7e 20 12 3d ed 3b 02 be
       -0.12981786 -0.1316962 0.03567552 -0.12718172
000330 40 8e a7 3e c0 a9 5e be 65 38 32 bd 25 53 5c bd
       0.32725716 -0.21744442 -0.043510813 -0.05379023
000340 3f 9d 79 3b d0 e5 5e bd e3 18 98 3d 10 ff 02 bd
       0.003808811 -0.054418385 0.07426622 -0.031981528
000350 29 f4 6e 3c 99 5f 96 3e 96 22 8b 3e f5 e2 5c bd
       0.0145845795 0.2936981 0.27174824 -0.05392738
000360 c6 63 8c 3e 97 4a 0a be c8 d7 fc bd 65 50 02 3d
       0.2741987 -0.13505016 -0.123458445 0.03181495
000370 8f 26 75 3d 9e 3a 8d be 14 e9 2c 3d cd 02 76 3d
       0.059851225 -0.27583784 0.042214468 0.060061265
000380 04 fd 76 be 9f 29 9f be 81 01 54 3c 68 cd c3 bd
       -0.24119955 -0.31086442 0.012939812 -0.095606625
000390 07 20 67 bd 2c be bb 3d 83 f0 24 bc 3d fb 80 3d
       -0.056427028 0.09167132 -0.010067108 0.0629792
0003a0 ac 87 da 3c ea f7 f1 bb e8 77 9a bd dd f7 cc bd
       0.026676022 -0.00738429 -0.075424016 -0.10008214
0003b0 4a e0 53 3e 63 3b d9 bd c8 f0 df bd a1 9b dd 3b
       0.20691028 -0.1060703 -0.10934597 0.006762937
0003c0 dc f4 4c 3e 96 85 4a 3e bc 3b 64 bd 96 65 8b 3e
       0.20015281 0.19777521 -0.05572103 0.2722594
0003d0 eb 0a 90 3e 62 6c dc bb 7a 79 b8 bd c1 be fb 3d
       0.2813333 -0.0067267874 -0.09007545 0.12292243
0003e0 59 c9 01 bd 6d 1b 88 3d 49 02 c8 3d 1b a2 37 be
       -0.03168616 0.06645856 0.09766061 -0.17932932
0003f0 fa 32 d8 bc 26 a2 8f be 09 78 2c 3e 27 d0 50 3c
       -0.026391495 -0.28053397 0.16842665 0.01274494

fc1.bias f4 [64]
000000 ec 8e 2f 3d a1 e4 bc bd 75 09 b4 3c cd 6a 57 be
       0.04286091 -0.09223295 0.021977166 -0.21036835
000010 27 00 10 be 2e 1f 61 bd e7 31 ff 3d 01 cc 0c 3d
       -0.14062558 -0.054961376 0.1246069 0.03437424
000020 4f 5b 4d bc 14 a0 1c bd c1 e5 9b bd 75 e6 e7 3c
       -0.012533977 -0.0382386 -0.076121815 0.028308133
000030 0a de 0d 3d 93 d2 0c bc cc 16 12 be 34 7f f7 3c
       0.03463558 -0.008595127 -0.14266509 0.030212022
000040 e3 4f b9 3d d5 da 97 bd 2a 8b 14 3d 0a d9 38 3d
       0.0904844 -0.07414786 0.03626553 0.04512886
000050 92 20 cb bc 05 cf 63 bb 10 8d b7 3d a7 af 38 bd
       -0.024795804 -0.0034760844 0.089624524 -0.04508939
000060 47 ac ef bb ed 9e 2c be 0d a6 89 3d 36 0e 1b 3d
       -0.007314238 -0.168575 0.06721125 0.03785535
000070 02 81 f5 3b 9f a9 fd bd 9e cd 22 bd 55 fd db 3d
       0.0074921856 -0.12385868 -0.039746873 0.107416786
000080 a6 a8 87 bd 63 a5 84 bd f0 04 55 bd a6 5d e9 3d
       -0.06623964 -0.064768575 -0.052006662 0.11394815
000090 4f 6d 6b be fe 7b 3a 3e 39 73 40 3e e9 1a a7 bd
       -0.22990917 0.18211362 0.18793954 -0.081594296
0000a0 2b 97 d9 3c 07 74 4d 3e 74 ef d9 bd 87 f9 da 3c
       0.02656134 0.20063792 -0.10641375 0.026730312
0000b0 86 f4 87 3b 98 a9 f2 3d 80 68 2a be f6 be 05 be
       0.0041490225 0.11848754 -0.16641426 -0.13061127
0000c0 84 67 5f 3d 30 c7 8c bc 84 32 cb 3c c3 ca 2d bd
       0.05454208 -0.017184824 0.024804361 -0.042429697
0000d0 da 1b 1e 3e c8 7e c4 bc 4d 83 b8 bd 53 c5 87 bd
       0.15440312 -0.023986235 -0.09009419 -0.066294335
0000e0 7c 89 f9 3c d0 20 79 3d 34 3d 12 3e f8 a4 2d 3e
       0.030461065 0.060822308 0.1428116 0.16957462
0000f0 fd 3e c4 bd 1a 33 78 3e f6 6a 34 bd a9 31 18 be
       -0.095823266 0.24238244 -0.04404732 -0.14862694

bn1.weight f4 [64]
000000 3f 5d 77 3f 8c c6 b0 3f 78 e3 90 3f ba d3 8f 3f
       0.9662666 1.3810592 1.1319418 1.1236489
000010 ec 74 89 3f 75 78 4c 3f e0 86 93 3f 43 5e 8c 3f
       1.0738807 0.798713 1.1525536 1.0966266
000020 4a 2d a3 3f d8 fb 9a 3f 74 15 85 3f 0a 9f 97 3f
       1.2748196 1.2108107 1.0397172 1.184541
000030 bb fb 97 3f 7d 06 87 3f c9 6d 97 3f 08 5d 80 3f
       1.1873697 1.0548855 1.1830379 1.0028391
000040 32 99 85 3f 21 73 81 3f 3c 83 94 3f df 2f 7d 3f
       1.0437376 1.011326 1.160255 0.9890117
000050 45 05 9d 3f 71 c1 8e 3f ba 62 74 3f de cc 81 3f
       1.2267233 1.1152784 0.95463145 1.0140646
000060 0e 02 89 3f 89 eb 8b 3f ec 50 98 3f f4 b2 a0 3f
       1.0703752 1.0931255 1.1899695 1.2554612
000070 bd 39 68 3f 0f af 9c 3f 81 40 85 3f ec 4a 83 3f
       0.907131 1.2240924 1.041031 1.0257239
000080 3c 77 9a 3f b4 e1 8d 3f 3a 9d 88 3f a8 d8 7a 3f
       1.2067637 1.1084504 1.0672982 0.9798684
000090 24 bc 88 3f ee 2b 7b 3f a3 b9 68 3f b5 3e 77 3f
       1.0682416 0.98113906 0.9090826 0.9658006
0000a0 45 06 95 3f 9a b6 8e 3f da 81 a3 3f 00 b9 a6 3f
       1.1642538 1.1149476 1.2774003 1.3025208
0000b0 36 9a a9 3f 30 2d 5b 3f 75 e8 8c 3f e0 d5 8e 3f
       1.3250186 0.85615826 1.100844 1.115902
0000c0 64 d7 96 3f e3 86 a8 3f 96 a9 6c 3f 9b 27 84 3f
       1.1784482 1.3166164 0.9244627 1.0324587
0000d0 b7 47 a3 3f 29 d7 8a 3f 78 b7 8c 3f d6 10 8d 3f
       1.2756261 1.0846912 1.099349 1.1020763
0000e0 f8 2f 85 3f 9c dc 92 3f ff 41 a8 3f 84 71 a3 3f
       1.0405264 1.1473575 1.314514 1.2769017
0000f0 1a 7f 86 3f 6f 17 5a 3f f2 aa 61 3f 0a c5 87 3f
       1.0507538 0.85192007 0.88151467 1.0607007

bn1.bias f4 [64]
000000 ad 33 af bd 4a ca 2a 3e f1 94 10 3d 6a fd c0 3e
       -0.08554778 0.1667873 0.03529829 0.3769334
000010 91 b2 fd 3d 77 a3 87 be 36 82 4a bc e0 df 86 3e
       0.123875745 -0.264919 -0.012360146 0.26342678
000020 28 ca 04 3f 3e 6d b2 3d aa da 5c 3e 08 2e 89 3e
       0.51870966 0.087122425 0.21567789 0.26792932
000030 04 c1 a3 3e a2 d6 a8 3e a7 4b ba 3e c8 be 36 be
       0.31983197 0.32976252 0.36385843 -0.17846215
000040 aa ec 70 3e 95 b9 36 be fa 66 96 3d ca 98 00 3d
       0.2352778 -0.17844231 0.0734386 0.03139571
000050 c5 20 84 3e 53 c7 bf bd f8 09 ce bc 45 42 0b be
       0.2580625 -0.0936419 -0.025151238 -0.13599499
000060 74 f9 5c 3e 70 56 0d be b0 50 92 3e ba be 57 3e
       0.21579534 -0.13802505 0.28577185 0.2106885
000070 94 40 38 bd d0 18 82 3e ef 9f 96 3e fe fc 40 bd
       -0.04498346 0.25409555 0.29418895 -0.047116272
000080 be f6 0b 3e 9e 7b 59 3e 7c 3c 98 3e 05 d1 ef 3e
       0.13668343 0.21238562 0.29733646 0.46839157
000090 3f 5d 2c bd ee 37 42 be 7e 11 19 be 41 a6 79 3e
       -0.042081114 -0.18966648 -0.14948079 0.24379827
0000a0 b6 41 5d bd 2b 03 a2 3e d0 f3 29 3c b5 e8 9a 3e
       -0.054017745 0.31643042 0.010373071 0.30255666
0000b0 0b a7 e9 3d 81 16 32 3c bf 15 0e be 05 a4 ca bc
       0.11408814 0.010869623 -0.13875483 -0.024736414
0000c0 06 3b 8f 3e 28 da a3 3d 94 ee 38 be 6d e5 53 3e
       0.2797472 0.080005944 -0.1805976 0.20692988
0000d0 39 fd 9b 3e ab a3 11 be 34 30 ff 3d 27 79 77 3e
       0.3046663 -0.1422259 0.12460366 0.2416731
0000e0 f0 e0 9c 3d 6d 1e a5 3e 0b d8 cc 3d d4 91 53 bd
       0.07660091 0.32249776 0.100021444 -0.051652744
0000f0 95 2d 7c 3e 8b 04 4c be 3b d8 06 3e 56 46 0d be
       0.24626763 -0.19923608 0.13168423 -0.13796362

bn1.running_mean f4 [64]
000000 9d 98 5d 3d 91 c5 a3 3e 8a e4 15 3f 56 58 b6 3d
       0.05410062 0.3198667 0.5855185 0.089035675
000010 f1 71 20 3f ac 78 6e 3d f1 71 2b 3f 21 ba 26 3e
       0.6267386 0.05822055 0.66970736 0.1628194
000020 86 96 a8 3d f8 53 11 bf e7 d5 3d be 05 94 32 3f
       0.08231835 -0.5676875 -0.18538629 0.6975711
000030 3c a3 42 3f 84 83 68 be db 95 27 3f f0 05 0f 3d
       0.76030326 -0.22706419 0.65463036 0.03491777
000040 2c de 5d 3e 48 b0 70 bd ad aa 5f 3f c2 fa 3b 3e
       0.21666783 -0.058761865 0.87369806 0.18357375
000050 74 d5 13 3f 1c f2 1c bc 0a 55 1b be de 6f 46 be
       0.5774758 -0.009579208 -0.15169159 -0.19378611
000060 0f 1f 81 be d8 51 54 3e e1 c9 da 3e 4c 01 07 3f
       -0.25219008 0.20734346 0.42732146 0.52736354
000070 9b f8 ce be 97 a8 41 3f 0d bf b4 3e bd e0 23 3f
       -0.40424046 0.7564787 0.3530201 0.640148
000080 c3 67 78 3f 79 d6 17 3f bb 4a d6 bd ed 33 0e 3f
       0.9703333 0.59311634 -0.104634725 0.5554798
000090 0d 25 3b bf 23 45 2c be 46 88 63 3e d9 8b 05 3f
       -0.7310341 -0.16823249 0.22219953 0.52166516
0000a0 43 70 ba 3b 4d a2 58 3f 8f 50 5a 3e 6d 11 f9 3e
       0.005689652 0.8462265 0.21319793 0.48646107
0000b0 36 d9 6a 3f ac 34 6c be 37 87 74 be c6 a3 b5 be
       0.9173769 -0.23066968 -0.23879705 -0.35476512
0000c0 89 46 4c 3f 9a 83 28 3f d0 41 3c bf 0f bb 8d 3e
       0.7979513 0.6582581 -0.7353792 0.27681777
0000d0 2c 7e ce 3d 43 e5 a9 bc b7 0b 03 bf 37 be f8 3e
       0.10082659 -0.020739203 -0.5118975 0.48582622
0000e0 48 c3 15 3f 28 ae e3 be 6c 6e 7f 3f 2d df 39 3f
       0.585011 -0.44468808 0.99777865 0.72606164
0000f0 7f eb 93 bf 4e f8 93 be dc 54 39 3e 7d 10 0d bf
       -1.1556243 -0.2890038 0.18098778 -0.55103284

bn1.running_var f4 [64]
000000 13 2f b8 3f fd d1 f9 3e 84 bc 89 3f 01 76 80 3f
       1.4389366 0.4879302 1.0760655 1.0036012
000010 1c 3b 39 3f 06 85 32 3f 1a d8 00 3f 8e dc 61 3f
       0.7235582 0.6973423 0.50329745 0.88227165
000020 e4 8e 95 3f 8b 69 90 3f 11 dd 65 3f 88 d5 ce 3e
       1.1684232 1.1282209 0.89790446 0.40397286
000030 fe 1b ab 3f 13 bf 36 3f d4 22 39 3f 2a 2b 4a 3f
       1.3367918 0.71385306 0.7231877 0.78972113
000040 03 73 51 3f f0 6f 2a 3f 63 17 33 3f 24 52 32 3f
       0.8181612 0.66577053 0.6995756 0.69656587
000050 03 83 54 3f 96 9f 9b 3f 69 2f 59 3f cc 9c 56 3f
       0.8301241 1.2158077 0.8483797 0.83833003
000060 8c 40 2e 3f 74 15 42 3f 32 e8 83 3f 7c 23 3d 3f
       0.6806724 0.75813985 1.0305235 0.7388227
000070 a4 7d 76 3f 63 03 63 3f 6d b0 9e 3f e5 5f 83 3f
       0.9628546 0.8867704 1.2397591 1.026364
000080 e2 81 75 3f 72 c8 a3 3f 89 27 8c 3f 4c 58 b4 3f
       0.9590131 1.2795546 1.0949565 1.4089446
000090 c8 13 31 3f 32 0e 2b 3f 36 1a fd 3e 2a 87 90 3f
       0.6917081 0.66818535 0.4943406 1.1291249
0000a0 93 59 43 3f e6 b4 62 3f 53 cb 1e 3f 09 9d 85 3f
       0.76308554 0.8855728 0.62029 1.0438548
0000b0 2e 1f 33 3f b4 f5 32 3f fa 1f 8e 3f a4 04 63 3f
       0.6996945 0.69906163 1.1103508 0.88678956
0000c0 d5 78 5a 3f d6 e7 ec 3e 5c c4 72 3f d5 42 3e 3f
       0.85340625 0.46270627 0.9483087 0.7432073
0000d0 7a a5 6e 3f 90 89 7b 3f 73 00 88 3f 4e 49 80 3f
       0.9322125 0.9825678 1.0625137 1.0022371
0000e0 9a 45 85 3f f3 a9 5e 3f 57 37 90 3f 85 fb 1e 3f
       1.0411866 0.8697807 1.1266888 0.6210254
0000f0 4e f7 44 3f 73 63 36 3f 76 df 3f 3f 75 a7 2a 3f
       0.76939857 0.712455 0.7495035 0.6666177
