Models/early_stop.pt (torch, 951787 bytes, 32 tensors)

lstm.weight_ih_l0 f4 [512, 6]
0	0x3d4131ce	0.047166638
1	0xbdb2d8d0	-0.0873276
2	0x3d5360bd	0.05160593
3	0x3c32a03a	0.010902459
4	0xbe3b4edf	-0.18291806
5	0xb9b9c752	-0.00035434455
6	0x3cae9861	0.021312894
7	0x3dcafe86	0.09911828
8	0xbda2c05f	-0.07946848
9	0x3d8acf8f	0.0677787
10	0xbd27932d	-0.040911842
11	0xbd3f0dbc	-0.046643957
12	0x3d916b4a	0.07100542
13	0xbd42eab8	-0.047587126
14	0x3d02f94a	0.03197602
15	0xbd7bbd82	-0.061460026
16	0x3d672068	0.05642739
17	0x3df52866	0.11970596
18	0x3c9a41c2	0.018830184
19	0x3d08f18c	0.033433482
20	0xbdf87973	-0.121325396
21	0x3c49d7bd	0.012319502
22	0x3e230f6c	0.15923852
23	0xbcc4a108	-0.024002567
24	0x3cbe56c8	0.02323474
25	0xbd1d8011	-0.03845221
26	0x3dc26742	0.09492351
27	0x3d760cf7	0.060070958
28	0x3d9e8185	0.07739548
29	0x3dd41b55	0.10356776
30	0x3da7a08d	0.081849195
31	0xbdb09d37	-0.08623736
32	0xbd36b334	-0.044604495
33	0x3c1dee64	0.009639356
34	0x3cd0ec29	0.025503235
35	0x3cace57a	0.021105517
36	0x3d94597b	0.072436295
37	0xbd96000a	-0.07324226
38	0x3d3f26c5	0.046667833
39	0x3e03962c	0.12850255
40	0x3d9fbf5e	0.07800172
41	0xbd69b158	-0.057053894
42	0x3e0b78c6	0.1362029
43	0xbdaf569f	-0.085614435
44	0xbd9b2474	-0.07575312
45	0x3dc10156	0.09424083
46	0xbc545d14	-0.012961645
47	0xbe14152d	-0.14461203
48	0x3d34ba26	0.044122837
49	0x3cd20768	0.025638297
50	0xbdbc183f	-0.09184312
51	0xbd3b4769	-0.0457224
52	0xbd69a802	-0.05704499
53	0x3d27e83a	0.040992953
54	0xbceeb751	-0.029140146
55	0x3d774033	0.06036396
56	0x3e073124	0.1320234
57	0x398f1b26	0.00027295313
58	0xbcbdde77	-0.023177369
59	0xbcde7825	-0.027156899
60	0x3cc956a9	0.024577456
61	0xbdd110e2	-0.10208298
62	0xbd2fff59	-0.042968128
63	0xbd19fee5	-0.037596602
64	0xbd4f9910	-0.05068308
65	0x3d976d8b	0.073939405
66	0x3dcc93c3	0.09989121
67	0x3d125ea3	0.035734784
68	0x3d5240f6	0.051331483
69	0x3c8918c7	0.016735448
70	0x3d7f5324	0.06233515
71	0x3d8569fe	0.06514357
72	0x3dd1e9bc	0.102496594
73	0x3dcd770c	0.10032472
74	0x3c5f8016	0.013641378
75	0x3c58ffa9	0.013244548
76	0x3c310565	0.010804509
77	0x3d84a6a1	0.064770944
78	0xbda30e7f	-0.07961749
79	0xbd391172	-0.045182653
80	0x3d0e1ee7	0.03469744
81	0x3d38f9c3	0.045160066
82	0xbd318be3	-0.043346297
83	0x3b0ab8d9	0.0021167307
84	0xbc67c6a3	-0.01414648
85	0xbd0788fd	-0.033089627
86	0x3ddf1dca	0.10894354
87	0xbdb4fa29	-0.08836777
88	0xbd9d419a	-0.07678528
89	0xbd83b235	-0.06430475
90	0xbd712ebc	-0.05888246
91	0x3db7bac0	0.089711666
92	0xbd1d820b	-0.038454097
93	0x3d94297c	0.07234475
94	0xbd01e66e	-0.031713895
95	0xbdad3474	-0.0845727
96	0x3c7a6536	0.01528292
97	0xbcfd45fa	-0.030917156
98	0xbd08e8d3	-0.033425163
99	0x39cd5ecb	0.00039171273
100	0x3d6953ac	0.05696456
101	0xbc81e978	-0.015858397
102	0xbd6d0bb7	-0.0578725
103	0xbb02ea73	-0.0019976168
104	0xbd86f1f7	-0.0658912
105	0xbcc75425	-0.024332115
106	0xbcd5513d	-0.026039714
107	0xbd7a6073	-0.061127137
108	0xbe0068ef	-0.12540029
109	0xbda57380	-0.080786705
110	0x3dd46175	0.10370151
111	0xbd205def	-0.039152082
112	0x3c14c61e	0.009080438
113	0xbdc2dc79	-0.09514708
114	0xba57e4fd	-0.0008235721
115	0x3d7e7602	0.06212426
116	0x3d95f0e5	0.073213376
117	0x3bdd43bf	0.0067524607
118	0xbcc9ac7a	-0.024618376
119	0x3e109bb4	0.14121896
120	0x3d5bfa2e	0.053705387
121	0x3dcb3e06	0.099239394
122	0xbd94a547	-0.07258087
123	0x3dacc4b8	0.084359586
124	0xbd08d34a	-0.033404626
125	0xbdac65bb	-0.08417841
126	0xbc22b696	-0.009931227
127	0xbc152b35	-0.00910454
128	0x3ce8557a	0.02836107
129	0xbdc97c37	-0.09838145
130	0x3dd9de90	0.106381536
131	0x3dc1a8f5	0.09456054
132	0x3d167655	0.036733944
133	0xbd99ef62	-0.07516362
134	0x3c5d1c2f	0.013495489
135	0xbde14a10	-0.110004544
136	0xbdd22118	-0.102602184
137	0x3e1b9374	0.15192968
138	0x3dd098f0	0.101854205
139	0xbd514246	-0.051088594
140	0xbcb720f4	-0.02235458
141	0xbdd54162	-0.104128614
142	0x3db34619	0.087536044
143	0x3d914942	0.07094051
144	0x3e651098	0.22369611
145	0x3d1a6539	0.03769419
146	0xbe3cad01	-0.18425371
147	0xbcf7d65b	-0.03025358
148	0xbe097541	-0.13423635
149	0xbd989bdd	-0.074516036
150	0xbdc84621	-0.09779001
151	0x3d1bebd3	0.038066696
152	0x3d055c23	0.03255857
153	0x3d187316	0.03721913
154	0x3d5657d4	0.052329853
155	0x3d08fe4e	0.03344565
156	0xbd0aa0b0	-0.03384465
157	0x3db862bd	0.09003208
158	0x3d5a6f51	0.053328816
159	0xbd579550	-0.05263263
160	0x3c8b8a62	0.01703376
161	0x3e079749	0.13241304
162	0x3d34f552	0.04417927
163	0xbd429e6b	-0.04751436
164	0x3bcba2ca	0.0062144743
165	0xbd3473aa	-0.04405562
166	0xbda2a222	-0.07941081
167	0xbdc0c0ac	-0.09411749
168	0x3dc15582	0.094401374
169	0x3db2a760	0.087233305
170	0xbc4f2527	-0.012643135
171	0x3d2becf8	0.041974038
172	0xbcbe62ce	-0.023240473
173	0xbdbea170	-0.093081355
174	0x3cbcdb68	0.02305384
175	0x3e2488ea	0.16067854
176	0x3ddf363c	0.10899016
177	0x3b18c2e3	0.002330952
178	0x3e07dc03	0.13267522
179	0x3d92636d	0.0714787
180	0x3db86ef7	0.0900554
181	0xbdbdf835	-0.09275857
182	0xbdc96b5f	-0.098349325
183	0xbe414a18	-0.18875921
184	0x3b7a348e	0.0038178298
185	0xbd73909f	-0.059464093
186	0x3dad3096	0.08456533
187	0x3d295595	0.041341383
188	0xbd9489b4	-0.07252827
189	0x3d70d1a8	0.058793694
190	0x3d7886c8	0.060675412
191	0xbda999ed	-0.08281312
192	0x3dd72114	0.10504356
193	0xbd089f11	-0.033354823
194	0x3dd4702d	0.10372958
195	0x3d9ffa70	0.07811439
196	0xbdbff686	-0.093731925
197	0xbce24ed5	-0.02762548
198	0xbd435434	-0.047687724
199	0x3cbab5ef	0.02279183
200	0x3cdfb33d	0.027307147
201	0xbd22f696	-0.039785944
202	0x3cd94eeb	0.026526889
203	0x3da3b6b4	0.07993832
204	0xbd5d2640	-0.053991556
205	0x3c0f1393	0.008732694
206	0x3b1d1156	0.0023966632
207	0xbdd3ad58	-0.10335797
208	0x3d9f5897	0.07780569
209	0xbc743e07	-0.014907367
210	0x3c9cbe36	0.019133668
211	0x3dc3894a	0.0954767
212	0xbc75f981	-0.0150131
213	0xbcb02f2b	-0.021506866
214	0xbcd255b7	-0.025675638
215	0x3d1512f5	0.036395032
216	0xbb8e5d42	-0.0043446133
217	0x3d48a826	0.048988484
218	0x3ce619cf	0.028088478
219	0x3d1a299b	0.037637334
220	0x3d3d8d3e	0.046277277
221	0x3cfc15b2	0.030772064
222	0x3db7ed3d	0.089807965
223	0x3daeaa61	0.08528591
224	0xbc970e9e	-0.018439587
225	0xbd89bc50	-0.06725371
226	0xbd874f94	-0.06606975
227	0x3beda251	0.0072520156
228	0x3c1aafc2	0.009441318
229	0xbc2cec7d	-0.01055443
230	0xbcd1c453	-0.02560631
231	0x3e207f38	0.1567353
232	0x3d81b441	0.06333209
233	0x3dea8e8e	0.114529714
234	0x3d9be720	0.07612443
235	0x3bfecf43	0.0077761724
236	0x3c0f5f50	0.008750752
237	0xbca90c92	-0.020635877
238	0x3da9aded	0.08285127
239	0x3ce8f19d	0.028435523
240	0xbdb394ef	-0.08768641
241	0xbce3595a	-0.027752567
242	0xbd5914d4	-0.05299838
243	0xbd123b1c	-0.035700902
244	0x3da23354	0.07919946
245	0xbd1d340d	-0.038379718
246	0x3d7ee83b	0.06223319
247	0x3c7a95de	0.01529452
248	0x3db1a2cd	0.0867363
249	0x3d3101cb	0.0432146
250	0xbca56718	-0.02019076
251	0x3d9f6cfe	0.077844605
252	0xbdcc535c	-0.09976837
253	0x3d4755fe	0.048665993
254	0xbdda9b01	-0.10674096
255	0x3db8d29a	0.09024544

lstm.weight_hh_l0 f4 [512, 128]
0	0xbe327cc0	-0.17430401
1	0xbe00acee	-0.12565967
2	0x3cfdb2fa	0.030969132
3	0x3d623c06	0.055233024
4	0x3dd4fea6	0.10400133
5	0xbdca8810	-0.09889233
6	0xbd688096	-0.056763254
7	0x3dc39e7b	0.09551712
8	0x3cfa6b2d	0.030568684
9	0x3d89237d	0.06696222
10	0xbdfe5ea5	-0.12420396
11	0xbd4aec41	-0.049541716
12	0xbc890c7a	-0.016729582
13	0xbdf14963	-0.117815755
14	0xbb84168d	-0.0040310086
15	0x3d84ada6	0.06478433
16	0x3e02b3dd	0.12763925
17	0x3b259aae	0.0025269198
18	0x3ca1c67a	0.019747961
19	0x3e0df81d	0.13864179
20	0x3d10ca1d	0.035349
21	0x3d67ddb5	0.05660792
22	0xbd9de122	-0.07708956
23	0x3d2c089d	0.0420004
24	0x3ccccad1	0.024999054
25	0xbde96a45	-0.113972224
26	0x3db0c416	0.086311504
27	0x3d87e972	0.06636323
28	0x3d2c1228	0.042009503
29	0xbd136797	-0.035987463
30	0x3cba4ab5	0.022740701
31	0x3d2981e7	0.04138365
32	0xbdef4bf2	-0.11684407
33	0xbce13c3f	-0.027494548
34	0xbd8c372c	-0.06846461
35	0x3da32478	0.0796594
36	0xbd2b986b	-0.041893404
37	0x3d0daca3	0.034588467
38	0xbd87d414	-0.066322476
39	0x3d01d95e	0.031701438
40	0x3dc61eb9	0.09673829
41	0xbcb817a5	-0.022472212
42	0x3cc6a460	0.024248302
43	0x3da538c9	0.080674715
44	0x3d4249f4	0.04743381
45	0x3cce67d6	0.025195997
46	0xbdb4bb9b	-0.088248454
47	0x3e07378d	0.13204785
48	0xbd75dfae	-0.06002777
49	0x3df79678	0.120892465
50	0xbd628373	-0.05530114
51	0x3da6a29b	0.08136483
52	0xbd2b254b	-0.041783612
53	0x3dd4e1ac	0.10394606
54	0xbde491be	-0.111606106
55	0x3d7891e1	0.060685996
56	0x3ce25e4e	0.027632859
57	0x3d2662bf	0.040621515
58	0xbd8b02ec	-0.06787667
59	0xbb5032e3	-0.0031768612
60	0xbe0401ab	-0.12891261
61	0xbd941207	-0.07230001
62	0xbc89b3a8	-0.0168093
63	0x3dd12560	0.10212207
64	0xbdf6096d	-0.120135166
65	0xbca8536f	-0.020547597
66	0x3d36b142	0.04460264
67	0x3c6e43fd	0.014542577
68	0xbc5cee05	-0.013484483
69	0x3d57d4c7	0.052693155
70	0x3bcb1e79	0.006198701
71	0x3cc45f92	0.023971353
72	0x3b8b82e9	0.004257549
73	0xbdb7cf93	-0.089751385
74	0xbdf229fc	-0.11824414
75	0xbdcb539e	-0.09928058
76	0x3cb4a6e7	0.022052241
77	0x3d6417ce	0.055686764
78	0xbd8886ad	-0.06666312
79	0xbd2ae39f	-0.041720983
80	0xbd0c64fd	-0.034275997
81	0x3ab90dc8	0.0014118487
82	0x3dd3059a	0.10303803
83	0x3d843f01	0.064573295
84	0x3e155e0c	0.14586657
85	0x3c982e5f	0.018576799
86	0x3db68897	0.08912771
87	0xbc0732a0	-0.008251816
88	0xbd99c7c6	-0.07508807
89	0x3e221e5b	0.15831892
90	0x3db86a64	0.090046674
91	0xbcc3465d	-0.023837263
92	0x3e1dcf12	0.15411022
93	0x3c2948a2	0.010332258
94	0xbd665b97	-0.05623969
95	0x3d228721	0.03967965
96	0x3d44ca99	0.048044775
97	0xbcb30f01	-0.02185774
98	0xbda3e5ae	-0.08002792
99	0x3cb06712	0.021533523
100	0x3e19ad27	0.15007459
101	0xbb290c9f	-0.0025794876
102	0x3dddec12	0.108360425
103	0xbdec6be9	-0.1154402
104	0xbd9f04d0	-0.0776459
105	0xbc3fde1e	-0.011710672
106	0xbb9f99db	-0.004870636
107	0x3daae7f1	0.083450206
108	0xbd7ea972	-0.062173314
109	0x3d6fdc5f	0.05855977
110	0xbe1f0fef	-0.15533422
111	0x3dc9ce14	0.098537594
112	0x3dd2f182	0.1029997
113	0xbda41fb1	-0.08013857
114	0x3e4e6e0f	0.20159172
115	0x3c0d673a	0.008630568
116	0x3d8f919c	0.07010195
117	0x3e1a5f71	0.1507547
118	0x3d026139	0.031831
119	0x3c996d48	0.018728867
120	0xbe07d9f5	-0.13266738
121	0xbc91d689	-0.017802494
122	0xbc3ce664	-0.011529539
123	0xbd0cbf99	-0.03436241
124	0x3cd9d896	0.026592534
125	0xbd94133d	-0.07230232
126	0x3de765f6	0.112987444
127	0x3dbe830f	0.09302341
128	0x3dc79100	0.097444534
129	0x3dd0d829	0.10197479
130	0xbe0739fd	-0.13205715
131	0x3d300273	0.042971086
132	0xbe02b31a	-0.12763634
133	0x3b97dcfd	0.004634498
134	0xbc01a5b7	-0.007913045
135	0xbae4bf33	-0.0017452001
136	0xbdf805ce	-0.12110482
137	0xbcd68e92	-0.02619103
138	0xbd947f64	-0.0725086
139	0x3d0d8c8a	0.034557857
140	0x3c408509	0.011750468
141	0xbc89b234	-0.016808607
142	0xbd20dd15	-0.03927334
143	0xbd14ccb8	-0.036328048
144	0xbd2c3a8f	-0.042048033
145	0xbd87c1cf	-0.06628763
146	0x3d8d20cc	0.06891021
147	0x3cf82c88	0.030294672
148	0xbd6dc304	-0.05804731
149	0xbd0cc4b6	-0.034367286
150	0x3daec976	0.085345194
151	0x3c85be11	0.016325982
152	0x3d5504f5	0.05200668
153	0xbcc05a1f	-0.023480473
154	0xbb6bde60	-0.00359907
155	0xbdef81d9	-0.11694688
156	0xbd5eb0cf	-0.054367837
157	0xbd4769b7	-0.048684802
158	0x3d7b74c9	0.061390672
159	0xbda5d02a	-0.08096345
160	0x3d7c05b4	0.061528876
161	0xbd91f753	-0.071272515
162	0x3def34e7	0.11680012
163	0x3d7c04c6	0.06152799
164	0x3d866a35	0.06563226
165	0x3d0be7a4	0.034156457
166	0xbd2b3222	-0.041795857
167	0x3d88db5a	0.06682463
168	0x3c9b81a9	0.018982725
169	0xba4b771c	-0.0007761584
170	0x3deec974	0.11659518
171	0xbd12f779	-0.03588054
172	0xbe0e3bc9	-0.13889994
173	0x3ae0593f	0.0017116441
174	0x3b9eb555	0.004843394
175	0xbd95f971	-0.07322968
176	0x3d641f1f	0.055693742
177	0xbd8110db	-0.06302043
178	0x3d7b6a74	0.06138082
179	0xbe2150af	-0.15753435
180	0xbcd4aca2	-0.025961224
181	0xbccae62e	-0.024767961
182	0xbcc538b0	-0.024074882
183	0x3d7ff6b9	0.062491152
184	0x3da9d3b4	0.08292332
185	0x3d8356b8	0.06413025
186	0xbdad0c5a	-0.084496215
187	0x3d4bd0f1	0.04975981
188	0x3d061cf3	0.032742452
189	0x3af81336	0.0018926624
190	0x3ddc2d04	0.107507735
191	0x3ca45913	0.020062005
192	0x3d427ec4	0.047484174
193	0xbd60913f	-0.054826017
194	0xbd55d6b3	-0.052206706
195	0xbdac2310	-0.08405125
196	0x3d391e27	0.04519477
197	0xbd5aaea5	-0.05338921
198	0x3d1ba523	0.037999284
199	0x3d335ccc	0.04378967
200	0x3c7d292c	0.015451711
201	0x3caffea0	0.02148372
202	0x3c108c64	0.008822534
203	0xbd23c6fa	-0.03998468
204	0xbacb8d92	-0.0015529862
205	0x3c4d66d7	0.012536726
206	0x3cd38d3b	0.02582418
207	0xbd66ad6b	-0.056317728
208	0x3b02081a	0.0019841255
209	0x3b8be7b5	0.004269565
210	0xbd1e26e3	-0.038611304
211	0xbd5383bc	-0.051639304
212	0xbd74e778	-0.05979106
213	0xbd80c502	-0.06287576
214	0xbcb5bbe1	-0.022184314
215	0x3ccf2dd4	0.025290407
216	0xbd3dde97	-0.046354856
217	0xbca0e2ca	-0.019639391
218	0xbc549bcd	-0.012976599
219	0xbcf6cef3	-0.030127978
220	0x3b5d3d83	0.0033758588
221	0x3cc3487e	0.023838278
222	0x3d392ac9	0.04520682
223	0xbd2f7843	-0.0428393
224	0x3dc6c543	0.097055934
225	0xbcb5757e	-0.022150751
226	0xbdc84678	-0.09779066
227	0xbddef15b	-0.10885879
228	0xbd9048d7	-0.07045143
229	0x3c6cb857	0.014448247
230	0xbde7b28a	-0.113133505
231	0xbabd32d5	-0.0014434705
232	0x3db24b90	0.08705819
233	0x3dd02279	0.10162825
234	0xbcee5b12	-0.02909616
235	0x3cd6ac16	0.026205104
236	0xbd15b1e1	-0.03654659
237	0xbde15d80	-0.11004162
238	0x3df42893	0.119218014
239	0x3bb91d1d	0.0056492225
240	0xbbe69b52	-0.0070375586
241	0x3d5771f3	0.052598905
242	0xbe02dc15	-0.12779267
243	0x3d862b98	0.065512836
244	0xbc48dd79	-0.012259834
245	0xbd5e2374	-0.05423303
246	0xbd0fcd80	-0.03510809
247	0xbd8ed6f4	-0.06974593
248	0xbc973606	-0.018458378
249	0x3ca13b38	0.019681558
250	0xbc5ef44d	-0.0136080505
251	0xbd6685de	-0.05628001
252	0xbbaf6139	-0.005352166
253	0x3c253719	0.010083937
254	0xbe09490d	-0.13406773
255	0x3d967272	0.073460475

lstm.bias_ih_l0 f4 [512]
0	0x3dce6190	0.10077202
1	0xbcd86bc0	-0.026418567
2	0x3d899127	0.06717139
3	0xb91a717f	-0.00014728865
4	0xbc269937	-0.010168365
5	0xbd2ec74c	-0.042670533
6	0x3d97bfd1	0.07409633
7	0x3da89872	0.08232202
8	0x3d54cd17	0.0519534
9	0xbd2313e6	-0.0398139
10	0xbd75188a	-0.059837855
11	0xbbc99464	-0.0061517227
12	0x3cb3ac53	0.021932757
13	0x3c88306f	0.016624657
14	0x3d7c5248	0.061601907
15	0xbd0b3e62	-0.03399504
16	0xbd7f3921	-0.06231034
17	0xbdc6706c	-0.096894115
18	0xbe044135	-0.129155
19	0x3d218f77	0.03944346
20	0xbd8a4624	-0.067516595
21	0xbdb2fa10	-0.08739102
22	0x3d8ad538	0.067789495
23	0xbc0e3e01	-0.008681775
24	0x3d6764ac	0.056492493
25	0x3c908dde	0.017645773
26	0x3da615e9	0.08109648
27	0x3c340bf9	0.010989183
28	0xbc9e42cc	-0.01931896
29	0x3d56ede7	0.052472975
30	0x3ccaee03	0.024771696
31	0xbcf14c50	-0.029455334
32	0xbe146c39	-0.14494409
33	0xbe02bc5a	-0.12767163
34	0x3c3b3dd1	0.011428312
35	0xbdc75d5e	-0.09734605
36	0xbdee831c	-0.11646101
37	0xbe06e197	-0.13171993
38	0x3d5068e9	0.0508813
39	0xbc3ba9fa	-0.0114541
40	0x3da89b12	0.08232702
41	0xbca7a4cd	-0.020464325
42	0x3c410c60	0.011782736
43	0xbb39000f	-0.0028228795
44	0xbd47e7b2	-0.048804946
45	0xbc35925e	-0.01108226
46	0xbd369c72	-0.04458279
47	0x3cfe068f	0.031008987
48	0x3d10de11	0.03536803
49	0x3dbda1d4	0.09259382
50	0x3cb605a7	0.022219492
51	0x3c9cfc1f	0.01916319
52	0x3d80d85c	0.06291267
53	0xbcc1e432	-0.023668382
54	0xbe030ef6	-0.12798676
55	0xbdc17135	-0.09445421
56	0x3c80f267	0.015740586
57	0xbc7bf10f	-0.015377297
58	0x3dc63751	0.096785195
59	0xbd21b7e5	-0.039482016
60	0xbd9a7c2f	-0.075432174
61	0x3d3ff6d6	0.04686626
62	0xbda6d59f	-0.08146214
63	0xbd55d403	-0.052204143
64	0x3d9ccd6f	0.07656371
65	0xbe069774	-0.13143712
66	0x3ca14897	0.019687934
67	0xbc46f8c5	-0.012144272
68	0x3c90cbd9	0.017675327
69	0x3cd430ea	0.02590223
70	0xbd00068c	-0.031256244
71	0xbe06792a	-0.13132158
72	0x3db608c9	0.088883944
73	0x3dfb5819	0.12272663
74	0x3d93ed59	0.07223005
75	0x3da17f7d	0.078856446
76	0x3c450d8f	0.012027158
77	0x3d09119b	0.033464056
78	0x3bffb1e9	0.007803191
79	0xbdeed0c3	-0.11660912
80	0x3da02bb9	0.078208394
81	0x3d663a3e	0.056207888
82	0x3d289903	0.04116155
83	0x3c97ccc9	0.018530266
84	0xbd23e704	-0.040015236
85	0xbcc26ee3	-0.023734516
86	0x3b83562c	0.004008075
87	0xbd438755	-0.047736485
88	0x3d2acc31	0.04169864
89	0x3dcc8282	0.0998583
90	0x3d215e74	0.03939672
91	0xbb8bfdaa	-0.0042721825
92	0x3b93a6fb	0.0045059896
93	0xbd7bdfc4	-0.061492696
94	0xbc3f3f30	-0.01167278
95	0x3d92091c	0.07130644
96	0xbd5a3e96	-0.053282343
97	0xbb8de0d1	-0.0043297787
98	0x3b893c0f	0.0041880677
99	0x3cf86fc7	0.030326737
100	0x3d067061	0.032822017
101	0xbde7f9d9	-0.113269515
102	0xbd51acfd	-0.051190365
103	0x3cd7382b	0.0262719
104	0xbd4cb523	-0.049977433
105	0x3d99bdc7	0.075069
106	0x3c091308	0.008366354
107	0xbd120b3f	-0.035655256
108	0x3d12d122	0.035843976
109	0xbd46990d	-0.048485804
110	0x3d4037e7	0.046928313
111	0xbc5bf9cc	-0.013426255
112	0x3d1a33a0	0.03764689
113	0xbcac796e	-0.021053996
114	0xbd8c46cf	-0.06849443
115	0x3cac2467	0.021013452
116	0xbc9235d3	-0.017847931
117	0xbd310ca6	-0.043224953
118	0x3d8bee66	0.0683258
119	0x3dfc3073	0.123139285
120	0xbd09e3e6	-0.033664607
121	0xbd28d330	-0.04121703
122	0x3bdee307	0.006801966
123	0xbd42394e	-0.04741793
124	0xbc513a6b	-0.012770276
125	0x3d62dee1	0.055388335
126	0x3db0f903	0.08641245
127	0xbdc9794f	-0.09837591
128	0xbc731e9d	-0.014838842
129	0xbd949a82	-0.072560325
130	0xbc9c8abd	-0.019109124
131	0xbd3023f4	-0.043003038
132	0xbd125881	-0.035728935
133	0xbdc478d8	-0.095933616
134	0x3d7264e1	0.059178237
135	0x3d299dc8	0.041410238
136	0xbd93f6be	-0.07224797
137	0x3cd8d35a	0.026467968
138	0x3cf0237b	0.029313793
139	0x3d2549ec	0.0403537
140	0xbd644fad	-0.055740047
141	0x3d64505b	0.055740695
142	0x3d3d773e	0.046256296
143	0x3d3feaaf	0.04685467
144	0xbd288740	-0.04114461
145	0xbd6069bc	-0.054788336
146	0xbd81668b	-0.06318387
147	0x3da4859b	0.08033296
148	0xbd285516	-0.04109677
149	0xbd52fa39	-0.051508162
150	0xbcbe6e23	-0.023245877
151	0xbcc6ccc6	-0.024267565
152	0x3e22b3e0	0.1588893
153	0xbd3cf9d8	-0.046136707
154	0xbd8219d5	-0.06352583
155	0xbd18798b	-0.037225287
156	0x3e012118	0.1261028
157	0x3dbbcbae	0.09169708
158	0x3dcc6af3	0.099813364
159	0xbce9dc66	-0.028547477
160	0x3cdf0392	0.027223382
161	0xbda36c85	-0.07979683
162	0xbd9afb7c	-0.07567498
163	0x3c30a85f	0.01078233
164	0x3d11c1ae	0.035585098
165	0xbdcf47fd	-0.101211525
166	0xbb6bfd4b	-0.0036009129
167	0x3d21680e	0.039405875
168	0xbc694fa4	-0.014240179
169	0x3d8b8de4	0.06814173
170	0x3d9b9905	0.075975455
171	0x3dbec737	0.09315341
172	0xbd9fdaa5	-0.07805375
173	0xbc6484cb	-0.013947676
174	0x3c38d2b8	0.011280708
175	0x3d497dc8	0.04919222
176	0xbceb2581	-0.028704407
177	0x3db6c627	0.08924513
178	0x3d801288	0.062535346
179	0xbd5b2480	-0.053501606
180	0x3e1ba68c	0.15200251
181	0xbcf05b18	-0.029340312
182	0xbd61be08	-0.05511287
183	0x3ce0a6c0	0.027423263
184	0xbc4b6eba	-0.012416536
185	0xbd2d72d8	-0.04234585
186	0x3da0ff28	0.07861167
187	0x3d337450	0.043812096
188	0xb9769a48	-0.00023517862
189	0x3c953e20	0.0182181
190	0xbdb604fe	-0.08887671
191	0xbdbeea48	-0.09322029
192	0x3decfbd9	0.11571474
193	0xbcfbfeb0	-0.030761093
194	0xbd553b7f	-0.052058693
195	0xbc8defbc	-0.017326228
196	0x3beb4f3d	0.007181077
197	0x3e415fe5	0.18884237
198	0xbd14e62a	-0.036352314
199	0xbcd30fc8	-0.025764361
200	0xbc806ccd	-0.01567688
201	0x3daaf8d8	0.083482444
202	0x3d800235	0.06250421
203	0xbd58f02a	-0.052963413
204	0xbdcfefa6	-0.10153131
205	0xbdc42927	-0.09578162
206	0xbba181b7	-0.0049287933
207	0xbdfc1bf7	-0.12310021
208	0x3d4e05c6	0.050298475
209	0xbd24d0f1	-0.040238325
210	0xbdb5271a	-0.08845349
211	0xbd4b89a7	-0.049691822
212	0xbcd355a8	-0.02579768
213	0xbd35014b	-0.044190686
214	0x3d5082e6	0.050906084
215	0xbdecbd74	-0.11559573
216	0x3d14433e	0.03619694
217	0x3cb4b9f5	0.022061327
218	0x3d010a94	0.03150423
219	0xbb35fce5	-0.0027769145
220	0x3d8f26db	0.06989833
221	0x3e2ab817	0.16671787
222	0xbda409e3	-0.08009698
223	0x3d56fc1d	0.052486528
224	0xbd8bce8c	-0.06826505
225	0x3d6041f3	0.054750394
226	0x3d60c9a6	0.054879807
227	0x3cbe8a44	0.02325929
228	0x3d0ec076	0.034851514
229	0x3d66b084	0.056320682
230	0x3ddfb615	0.10923401
231	0x3dd16816	0.10224931
232	0xbd6221c8	-0.055207998
233	0xbcef6184	-0.029221304
234	0x3c598f6b	0.013278822
235	0xbd075764	-0.033042327
236	0x3dbfe730	0.093702674
237	0xbdb3759d	-0.08762667
238	0x3d3e35cf	0.046438035
239	0x3cef4be4	0.029210992
240	0xbcdf09d4	-0.027226366
241	0x3d06b360	0.03288591
242	0x3ca810ad	0.020515764
243	0x3ca0d533	0.019632911
244	0x3dcee814	0.10102859
245	0x3d4063b0	0.04697007
246	0xbdd52060	-0.10406566
247	0x3bd6f990	0.006560512
248	0x3d14cb0a	0.036326446
249	0xbdb100e9	-0.08642752
250	0xbda01d55	-0.07818095
251	0x3c8fda33	0.0175601
252	0xbdeb3063	-0.114838384
253	0x3de84028	0.11340362
254	0xbcf5d659	-0.030009435
255	0xbd0ac729	-0.03388134

lstm.bias_hh_l0 f4 [512]
0	0x3bd58c23	0.0065169497
1	0xbd6e74e9	-0.058216963
2	0x3d233b0f	0.039851245
3	0xbd047937	-0.032342162
4	0x3c312bdf	0.010813682
5	0xbd435249	-0.047685895
6	0x3d905999	0.070483394
7	0xbd78b0e7	-0.060715582
8	0xbbac3180	-0.0052549243
9	0x3d95caa3	0.073140405
10	0xbb7f3af2	-0.0038945046
11	0x3c09c5b7	0.008408955
12	0x3a03982d	0.00050199294
13	0xb937bb0a	-0.00017521917
14	0x3db3458f	0.087535016
15	0xbcc19f0d	-0.023635412
16	0xbdaca961	-0.08430744
17	0x3c1b09d8	0.009462796
18	0xbd5f3c7a	-0.054501034
19	0xbb0a9680	-0.0021146834
20	0xbda051c0	-0.078280926
21	0x3d48852f	0.04895514
22	0xbd8ce2ec	-0.068792194
23	0xbc90420e	-0.017609622
24	0x3e0eac12	0.13932827
25	0x3d95925b	0.07303306
26	0x3da386e0	0.0798471
27	0x3d630148	0.055421144
28	0x3d048a76	0.03235861
29	0x3d03537f	0.03206205
30	0xbbf6efa5	-0.007535892
31	0xbc9b9b18	-0.018994853
32	0xbdd8329a	-0.105565265
33	0xbe0b1a57	-0.13584267
34	0xbdbfb1d5	-0.09360091
35	0xbda86f2a	-0.08224328
36	0x3c90da27	0.017682148
37	0xbd8b1e8a	-0.06792934
38	0x3d7b7f67	0.061400797
39	0x3d85c030	0.065307975
40	0x3d1c8d33	0.038220596
41	0xbdcd5b62	-0.100271955
42	0xbcbe156a	-0.02320357
43	0x3d8d8287	0.06909662
44	0xbe0c4a07	-0.13700114
45	0xbc6a9ef6	-0.014320126
46	0x3c0f2c3e	0.0087385755
47	0xbcc6567a	-0.024211157
48	0x3c1cda51	0.009573535
49	0x3d4b0def	0.049573835
50	0xbda2e832	-0.07954444
51	0xbc59dd04	-0.013297323
52	0x3d9e6d19	0.077356525
53	0x3d8027a3	0.0625756
54	0x3d16a90c	0.03678231
55	0x3d3f4e04	0.04670526
56	0xbc9692d1	-0.018380554
57	0xbb262421	-0.0025351124
58	0x3dd80e56	0.10549609
59	0xbd02bdbe	-0.031919234
60	0xbda58a10	-0.08082974
61	0x3d3e1562	0.04640711
62	0x3c00fbc4	0.007872526
63	0x3d7fe159	0.062470768
64	0x3d38cc98	0.04511699
65	0xbe051f4e	-0.13000223
66	0xbdc7bb58	-0.0975253
67	0xbc8fc864	-0.017551608
68	0xbd033a2a	-0.03203789
69	0x3c07953f	0.008275329
70	0x3ca2b05b	0.019859483
71	0xbd987e46	-0.0744596
72	0x3cd64f42	0.02616084
73	0xbccbdd87	-0.024885906
74	0x3d90ba39	0.07066769
75	0xbdad0d76	-0.08449833
76	0xbc071a48	-0.008246012
77	0xbd5c47ba	-0.05377934
78	0x3d941dc6	0.07232241
79	0xbd15ad6e	-0.03654235
80	0xbd1f8b05	-0.03895094
81	0xbdb29250	-0.08719313
82	0xbdc49e6d	-0.0960053
83	0x3c5bc0eb	0.013412694
84	0xbd8241a9	-0.0636018
85	0xbdbfe87e	-0.09370516
86	0xbc9bd1f3	-0.01902101
87	0xbcbfea8c	-0.02342727
88	0x3d355060	0.044266105
89	0x3d27c591	0.0409599
90	0x3ce5c9f8	0.028050408
91	0xbd08d5ae	-0.033406906
92	0x3d623733	0.055228423
93	0xbd8ed9c9	-0.06975133
94	0xbdacf808	-0.08445746
95	0xbbbba80d	-0.0057268203
96	0xbdb6dfe1	-0.0892942
97	0x3d74287c	0.05960892
98	0x3cd9ae9e	0.026572522
99	0xbd404146	-0.04693725
100	0xbd95a7a9	-0.07307369
101	0xbd8a5651	-0.06754745
102	0x3da3862c	0.07984576
103	0xbd3c68b1	-0.04599828
104	0xbcc7031f	-0.02429348
105	0x3cf5acc7	0.029989613
106	0xbd6900a4	-0.056885377
107	0xbd872888	-0.065995276
108	0xbd5701d4	-0.052491978
109	0xbd209f85	-0.03921463
110	0xbd6fc9b5	-0.058541972
111	0xbae90c4c	-0.0017780154
112	0xbd880a92	-0.06642641
113	0x3d5c3bee	0.05376809
114	0xbba1398d	-0.0049201907
115	0x3d67012a	0.056397595
116	0xbdc522ed	-0.09625802
117	0xbca23bc4	-0.01980389
118	0xbd502724	-0.050818577
119	0x3dcb2be6	0.09920482
120	0x3c305a28	0.010763682
121	0x3cd5fde2	0.026122037
122	0x3d130e59	0.035902355
123	0x3db27fbc	0.0871577
124	0x3d0ab492	0.03386361
125	0xbcd52db5	-0.026022771
126	0x3cc2ac96	0.023763936
127	0xbdc770a0	-0.097382784
128	0x3e1d056d	0.15334101
129	0xbbb38852	-0.005478897
130	0x3dfb591c	0.12272856
131	0xbd793e2b	-0.060850304
132	0x3d69f392	0.057117052
133	0xbcf04e02	-0.029334072
134	0x3dd7a2f4	0.10529128
135	0x3d96acc8	0.07357174
136	0x3d7d1d26	0.061795376
137	0x3d851990	0.06499016
138	0xbd478438	-0.048710078
139	0x3d0fa5a2	0.03507007
140	0xbdf489fc	-0.11940381
141	0x3c8fa149	0.017532961
142	0x3c82864f	0.015933184
143	0x3cc7f2df	0.024407802
144	0xbae22361	-0.0017252975
145	0xbba22095	-0.0049477317
146	0xbdaa710b	-0.083223425
147	0xbc5a1a26	-0.013311898
148	0x3d0b4136	0.033997737
149	0x3d030618	0.031988233
150	0x3db01792	0.08598246
151	0xbcc1d970	-0.023663253
152	0x3e19f45e	0.15034625
153	0x3cc8d954	0.024517693
154	0xbd3f91b2	-0.046769805
155	0xbc8593f5	-0.016305903
156	0x3d908ee5	0.07058505
157	0x3bac058d	0.005249685
158	0x3dd359a8	0.10319835
159	0xbcd19286	-0.025582563
160	0xbdceb772	-0.10093583
161	0xbdea6154	-0.11444345
162	0xbcbc0b5f	-0.02295464
163	0x3c417384	0.011807326
164	0xbc4b87e1	-0.012422533
165	0xbc08c2b4	-0.008347202
166	0xbd454ecb	-0.048170846
167	0x3d53cff0	0.051711977
168	0x3b069df4	0.0020540925
169	0xbb04b95a	-0.002025208
170	0x3d033fb3	0.03204317
171	0x3ce5ad6c	0.028036796
172	0xbdf5bbf3	-0.11998739
173	0x3d71d698	0.059042543
174	0x3dcaa9e9	0.09895689
175	0xbdbb07af	-0.09132325
176	0x3d0adc58	0.033901542
177	0x3bc30ef0	0.0059527084
178	0xbd10bc5c	-0.035335883
179	0xbd51a4da	-0.051182605
180	0x3e077679	0.13228787
181	0x3ddb605e	0.1071174
182	0xbc685d22	-0.014182361
183	0x3d1a2bf2	0.037639566
184	0x3ce0c84e	0.027439263
185	0xbb634c96	-0.00346831
186	0x3d08da81	0.033411507
187	0x3ded4e5a	0.1158721
188	0x3d9909af	0.0747255
189	0xbca90ccc	-0.020635985
190	0xbd27a6c6	-0.040930532
191	0xbdb60913	-0.088884495
192	0x3d7bb20d	0.0614491
193	0xbda97e06	-0.0827599
194	0xbd38b769	-0.04509679
195	0xbd1a9397	-0.03773841
196	0x3de871d0	0.11349833
197	0x3def5d31	0.11687697
198	0xbc405a1d	-0.011740235
199	0xbdeb3113	-0.114839695
200	0x3d21eefd	0.039534558
201	0x3de594fc	0.11210057
202	0x3d8d8f4f	0.069120996
203	0x3cf5f82e	0.030025568
204	0xbdbd6999	-0.09248657
205	0x3d55f98f	0.05223995
206	0x3d58b6b6	0.05290862
207	0x3d2b356e	0.041799
208	0x3d583b13	0.052790713
209	0xbc98ba90	-0.018643647
210	0x3d8c63f3	0.06855001
211	0x3d7d2084	0.061798587
212	0xbd04eda7	-0.032453205
213	0x3d31b4b9	0.04338524
214	0x3bfecc40	0.0077758133
215	0xbdd3f4f8	-0.103494585
216	0x3c9409aa	0.018071014
217	0x3e07cf59	0.1326269
218	0xbd5bf967	-0.053704645
219	0x3ca65591	0.020304473
220	0x3de1f4fb	0.110330544
221	0x3cd6cfaf	0.026222078
222	0x3c2d93e9	0.010594347
223	0xbd16eb28	-0.036845356
224	0xbdea20d9	-0.114320464
225	0xbca74a42	-0.020421151
226	0x3d86ace4	0.06575945
227	0x3c3f7cd6	0.011687478
228	0xbd52ef2c	-0.051497623
229	0x3c568a67	0.013094521
230	0x3c3da67f	0.01157534
231	0x3ca732ce	0.020409968
232	0x3d02ac9d	0.031902898
233	0x3d0dd790	0.034629405
234	0x3d4354c9	0.04768828
235	0xbd187317	-0.037219133
236	0xbd38bd99	-0.04510269
237	0xbb0fb9e1	-0.002193086
238	0x3c419233	0.011814642
239	0x3d4a2608	0.049352676
240	0x3d8297e7	0.06376629
241	0x3dfa52d8	0.122228324
242	0x3d6c2354	0.05765088
243	0x3d81405e	0.06311105
244	0x3d48b62c	0.049001858
245	0xbdd188ee	-0.102311954
246	0x3b93e126	0.004512924
247	0x3e032cd2	0.12810066
248	0x3dd68437	0.10474437
249	0xbd2dadf1	-0.04240221
250	0x3d2e1e13	0.04250915
251	0xbd977519	-0.073953815
252	0xbcb166c3	-0.021655446
253	0x3dfda75d	0.12385438
254	0xbd1f87ac	-0.038947746
255	0x3ceb102a	0.028694231

fc1.weight f4 [64, 128]
0	0x3c9249d4	0.01785747
1	0xbce0a9dd	-0.027424747
2	0xbd007644	-0.031362787
3	0x3cc7934a	0.024362225
4	0x3d7c89fc	0.06165503
5	0xba9618e3	-0.0011451509
6	0xbc876782	-0.016528849
7	0x3d5675e3	0.05235852
8	0xbb986dd0	-0.0046517625
9	0xbdd7f145	-0.105440654
10	0xbd44e831	-0.048072997
11	0xbd8cc17e	-0.06872843
12	0x3d8ec083	0.069703124
13	0x3e0431fb	0.12909691
14	0xbbe85ea1	-0.007091359
15	0xbd5461e6	-0.051851176
16	0xbdcde00c	-0.10052499
17	0xb95ebcc0	-0.00021241885
18	0x3d01d258	0.03169474
19	0xbd938598	-0.07203215
20	0xbcd76979	-0.02629541
21	0x3d84d1e5	0.06485347
22	0xbd6ed548	-0.05830887
23	0xbd72adcb	-0.059247773
24	0xbd29219a	-0.04129181
25	0xbd0f83b5	-0.035037715
26	0xbd297331	-0.04136962
27	0xbc92f6ca	-0.017939944
28	0x3c136538	0.0089963
29	0x3d8c81c4	0.06860688
30	0x3cce37b4	0.025173046
31	0x3d3572a9	0.0442988
32	0xbd4d120c	-0.05006604
33	0xbc9fb640	-0.019496083
34	0xbc71be07	-0.014754779
35	0xbd0c7c4c	-0.034298226
36	0x3d2cb7e3	0.042167556
37	0x3d314846	0.043281816
38	0xbdabe1f2	-0.08392705
39	0x3d89a546	0.067209765
40	0x3d3abd41	0.045590643
41	0x3da018b9	0.078172155
42	0x3c0d0301	0.008606673
43	0xbdace36f	-0.08441817
44	0xbd26d501	-0.04073048
45	0x3d49d6e4	0.0492772
46	0xbcc4a81c	-0.024005942
47	0x3d3c7294	0.046007708
48	0x3d13a695	0.036047537
49	0x3d2743ab	0.040836018
50	0x3d3bd7bc	0.045860037
51	0x3cfadd8f	0.030623225
52	0xbd852832	-0.06501807
53	0x3d9ff880	0.078110695
54	0xbd562d91	-0.05228955
55	0x3d21d6ab	0.039511364
56	0xbcf6397a	-0.030056704
57	0x3d4d3f28	0.05010906
58	0x3d2e8de2	0.04261578
59	0xbd276330	-0.040866077
60	0x3d1cf081	0.0383153
61	0x3d72ad99	0.059247587
62	0xbc9e92e6	-0.019357156
63	0xbd034e7d	-0.032057274
64	0x3b35938f	0.002770636
65	0x3cf3901c	0.029731803
66	0xbbc76dad	-0.0060860724
67	0xbd52fa52	-0.051508255
68	0xbbf042ea	-0.0073321955
69	0xbd51451d	-0.051091302
70	0xbced5688	-0.028971925
71	0xbbbac84c	-0.005700147
72	0x3d7f1aa0	0.06228125
73	0xbcf71f2e	-0.030166235
74	0xbcca6482	-0.024706129
75	0x3b3fdd7a	0.0029276297
76	0x3be6d081	0.0070438986
77	0x3d839e0f	0.06426632
78	0x3bcf03db	0.0063175983
79	0xbdab22b8	-0.083562315
80	0xbc3630af	-0.0111200055
81	0x3ba62c03	0.0050711646
82	0xbe14e102	-0.14538959
83	0xbcac212a	-0.021011908
84	0xbd9bf245	-0.076145686
85	0x3d43cc4d	0.04780226
86	0xbc239b7d	-0.009985802
87	0xbd5f0a46	-0.054453157
88	0x3d784466	0.060612105
89	0xbcc9ef81	-0.024650337
90	0xbc365a32	-0.011129903
91	0x3d41f92a	0.047356762
92	0xbdc3957a	-0.09549995
93	0x3d854405	0.06507114
94	0x3d13bf40	0.036071062
95	0xbd524afc	-0.051341042
96	0xbbc1e58e	-0.0059172576
97	0x3d75f6b7	0.06004974
98	0x3c9de44c	0.0192739
99	0x3c376017	0.011192343
100	0x3bc9763a	0.006148127
101	0x3d5ce3a2	0.053928025
102	0x3c6476b3	0.013944316
103	0xbc2308ac	-0.009950798
104	0x3c51f253	0.012814122
105	0x3d98783c	0.07444808
106	0x3d6724ff	0.056431767
107	0xbdd00e53	-0.10158982
108	0x3ccdbdf8	0.025114998
109	0xbd0223dc	-0.03177248
110	0x3cfdf9f8	0.031002983
111	0x3d5c08a7	0.05371919
112	0x3d50dff5	0.050994832
113	0x3dcbb931	0.09947432
114	0xbdd3477d	-0.1031637
115	0xbd3a075b	-0.04541717
116	0xbdbe26ac	-0.0928472
117	0xbdd8c40f	-0.1058427
118	0xbd66489b	-0.056221586
119	0xbd23647c	-0.03989075
120	0x3d74560c	0.059652373
121	0x3ca6c8dc	0.02035945
122	0xbd9c090b	-0.07618912
123	0xbdd01251	-0.101597436
124	0x3d770232	0.060304828
125	0xbd21589b	-0.03939114
126	0xbdb550bc	-0.088532895
127	0xbd3a3eee	-0.04547017
128	0x3d995c69	0.07488329
129	0xbd1e370d	-0.03862672
130	0xbd3426d5	-0.043982346
131	0xbd329661	-0.043600444
132	0x3cdb1fbd	0.026748532
133	0x3cfac12e	0.030609693
134	0x3d3684e8	0.044560343
135	0xbd9e50a0	-0.07730222
136	0xbdaf0bc9	-0.0854717
137	0xbceff516	-0.02929167
138	0x3da5802a	0.08081086
139	0x3dc2cf62	0.095122114
140	0xbc52ded8	-0.012870513
141	0xbcaf2530	-0.021380037
142	0xbd892c55	-0.06697909
143	0x3cb4eb25	0.022084782
144	0xbd839a43	-0.064259075
145	0xbd149893	-0.03627832
146	0x3a38294a	0.00070251955
147	0x3d08b305	0.03337385
148	0xbd4d01d3	-0.050050568
149	0xbcfd646c	-0.030931674
150	0x3cfe8c2c	0.031072699
151	0x3d182a4b	0.03714971
152	0x3d29fe06	0.04150202
153	0x3b65ce6b	0.0035065662
154	0xbdbe5ea5	-0.09295396
155	0x3cbc013d	0.02294981
156	0x3d625f09	0.055266414
157	0xbda443c0	-0.08020735
158	0xbcd883ed	-0.026430095
159	0xbd5d4b3b	-0.054026823
160	0xbcf6ce23	-0.03012759
161	0xbd0fbdee	-0.03509324
162	0xbd296411	-0.041355196
163	0x3db9ae23	0.09066417
164	0xbc9a3e59	-0.018828558
165	0x3cb8b184	0.022545584
166	0xbd8c5b84	-0.06853393
167	0x3d1f524e	0.03889685
168	0xbd2c1fc8	-0.042022496
169	0x3d47d6ad	0.048788715
170	0xbdac34a0	-0.08408475
171	0xbd5641dc	-0.052308902
172	0xbc911659	-0.017710852
173	0x3de80b1d	0.11330245
174	0xbb6b1d65	-0.0035875675
175	0xbd37b144	-0.044846788
176	0x3da2454d	0.07923374
177	0xbcd99ee6	-0.026565026
178	0x3c87ddda	0.01658528
179	0x3c2c9ae7	0.0105349785
180	0xbd44ee37	-0.048078742
181	0x3da214c4	0.07914117
182	0xbdac97fa	-0.08427425
183	0x3d74e538	0.059788913
184	0xbd3409d1	-0.043954674
185	0xbbf8143b	-0.007570771
186	0x3d208f11	0.03919894
187	0xbd97495e	-0.073870406
188	0xbd307385	-0.043078918
189	0x3d8a75fe	0.067607865
190	0xbd2db716	-0.042410932
191	0x3b0fa26c	0.002191688
192	0xbc0ff989	-0.008787521
193	0x3b050147	0.002029495
194	0xbbdbbb0d	-0.006705648
195	0xbd842d0e	-0.06453906
196	0xbda92117	-0.082582645
197	0xbda91267	-0.08255463
198	0xbd015a61	-0.031580333
199	0x3d6b07d6	0.05738052
200	0x3dcd0c23	0.100120805
201	0xbcc176aa	-0.023616154
202	0x3cecc4b5	0.028902391
203	0xbd926065	-0.07147292
204	0x3d702d87	0.05863717
205	0xbcd20e99	-0.025641726
206	0xbd2e8908	-0.042611152
207	0xbcad4e4b	-0.021155497
208	0x3d86c4a1	0.06580473
209	0x3c936315	0.017991582
210	0xbd5f3f4a	-0.054503717
211	0x3c4b4b4b	0.012408088
212	0x3c93971d	0.018016392
213	0xbd15e4e2	-0.036595233
214	0xbd820c14	-0.0634996
215	0xbcc80de4	-0.024420686
216	0x3db836d5	0.089948334
217	0xbccdc60a	-0.025118846
218	0xbcff8d27	-0.031195236
219	0xbde11f76	-0.10992329
220	0xbda0125c	-0.07816002
221	0xbd0b3969	-0.033990297
222	0x3b1dcad5	0.0024077196
223	0x3dcaf5ba	0.0991015
224	0xbe0f82c0	-0.14014721
225	0xbd805f00	-0.0626812
226	0x3d1f79cd	0.038934518
227	0xbc02a798	-0.007974528
228	0x3c95ba5f	0.018277345
229	0x3cc4fc21	0.024046006
230	0xbd337d37	-0.043820586
231	0x3dc10c61	0.09426189
232	0x3c45b265	0.012066458
233	0x3c0f7357	0.0087555265
234	0xbd8fd436	-0.07022898
235	0xbd8bb917	-0.068224125
236	0x3de45a95	0.1115009
237	0xbd8db640	-0.06919527
238	0x3d35dec6	0.044401906
239	0xbd034f76	-0.0320582
240	0xbd9575e5	-0.07297877
241	0x3dd2d9e2	0.10295464
242	0xbcc47610	-0.023982078
243	0x3d0c4c81	0.034252647
244	0xbd663cc1	-0.056210283
245	0xbd155d1f	-0.03646576
246	0xbccf6b0e	-0.025319602
247	0xbdcb37c5	-0.099227466
248	0xbccb8ebc	-0.024848334
249	0x3dc06724	0.093946725
250	0xbd810b84	-0.063010246
251	0xbd7b378e	-0.061332278
252	0xbaab85cb	-0.0013086138
253	0x3c40d97f	0.011770605
254	0x3d3ab15e	0.045579307
255	0x3db95250	0.09048903

fc1.bias f4 [64]
0	0x3dbc8c10	0.09206402
1	0x3e0027db	0.12515204
2	0xbc629418	-0.013829254
3	0x3d88d1f4	0.066806704
4	0xbd17a8a6	-0.03702607
5	0x3d8d8815	0.06910721
6	0xbaf4f5fa	-0.0018689029
7	0xbc55726f	-0.013027771
8	0xbdaef191	-0.08542169
9	0xbd4a5394	-0.049396113
10	0x3d5d6aa2	0.05405677
11	0x3c782512	0.015145557
12	0xbda3b315	-0.079931416
13	0xbc884751	-0.016635569
14	0x3bb2525b	0.0054419464
15	0xbd69692f	-0.056985077
16	0xbca4a56a	-0.020098407
17	0x3da20e7b	0.07912918
18	0xbccdb3ba	-0.025110114
19	0x3cff3161	0.031151475
20	0x3d7bb37f	0.061450478
21	0x3d2db479	0.04240844
22	0x3a8d86c4	0.001079761
23	0x3d339796	0.043845735
24	0x3c829120	0.015938342
25	0xbced1829	-0.028942185
26	0x3d16891a	0.036751844
27	0xbd67cfc4	-0.056594625
28	0xbd74f9b3	-0.059808444
29	0xbdbe4eb4	-0.09292355
30	0xbca025f8	-0.019549355
31	0x3d292a2a	0.041299976
32	0xbdd9abe7	-0.10628491
33	0x3c5f7aa9	0.013640084
34	0x3ad11658	0.0015952094
35	0xbc87ebe0	-0.016591966
36	0x3d6750a9	0.056473408
37	0xbc81262c	-0.015765272
38	0xbdcc2c30	-0.099693656
39	0x3d39d6d7	0.045370903
40	0xbcc885a3	-0.024477785
41	0x3d904030	0.07043493
42	0xbd629c64	-0.055324927
43	0xbcad43ac	-0.021150433
44	0x3d525d6b	0.05135862
45	0x3d43860d	0.047735263
46	0x3db59636	0.08866541
47	0xbd0e4404	-0.034732834
48	0x3cbe6768	0.023242667
49	0x3cc7c225	0.024384568
50	0x3cf0a1b4	0.029373981
51	0xbd054bfe	-0.032543175
52	0xbcfbef8a	-0.03075387
53	0xbd7f697d	-0.06235646
54	0x3daaade2	0.08333947
55	0xbdcc159c	-0.09965059
56	0x3d1f7c36	0.038936816
57	0xbd93405c	-0.0719001
58	0x3d864ec3	0.06557991
59	0x3df42e53	0.11922898
60	0xbde03f31	-0.10949553
61	0xbd4d9e70	-0.050199926
62	0xbb98946d	-0.0046563656
63	0xbcf7105d	-0.03015917

bn1.weight f4 [64]
0	0x3f96e782	1.17894
1	0x3f893ac1	1.0721055
2	0x3f8a9173	1.0825638
3	0x3f84993a	1.0359261
4	0x3f89b98f	1.0759753
5	0x3f894c2c	1.0726371
6	0x3f8b5148	1.088418
7	0x3f82b1d1	1.0210515
8	0x3f86f502	1.054352
9	0x3f849970	1.0359325
10	0x3f8cd5e1	1.1002771
11	0x3f8a103e	1.0786207
12	0x3f899f8e	1.0751817
13	0x3f889c23	1.0672649
14	0x3f828c8e	1.0199144
15	0x3f8214ec	1.0162635
16	0x3f9760e2	1.1826441
17	0x3f861076	1.0473773
18	0x3f881f71	1.0634595
19	0x3f8ad5ac	1.0846457
20	0x3f878b63	1.0589412
21	0x3f8a315d	1.0796314
22	0x3f9c2e0f	1.2201556
23	0x3f8077c8	1.0036554
24	0x3f8cf5a6	1.1012466
25	0x3f916732	1.1359618
26	0x3f942d62	1.157635
27	0x3f8b8b16	1.0901821
28	0x3f8a8c7f	1.0824126
29	0x3f873059	1.056163
30	0x3f85df0c	1.0458694
31	0x3f8b57c7	1.0886163
32	0x3f8152dc	1.0103412
33	0x3f969c27	1.1766404
34	0x3f8fa46a	1.122205
35	0x3f8dc54e	1.1075838
36	0x3f917e30	1.1366634
37	0x3f8673fc	1.0504146
38	0x3f8da532	1.1066039
39	0x3f96beef	1.1777018
40	0x3f8b6886	1.0891273
41	0x3f93a617	1.1535062
42	0x3f84f8f1	1.0388471
43	0x3f8b4bd7	1.088252
44	0x3f9cc28d	1.2246872
45	0x3f8d10d0	1.1020756
46	0x3f8d1df2	1.1024764
47	0x3f88953d	1.0670544
48	0x3f89dcae	1.0770471
49	0x3f8632fd	1.048431
50	0x3f98005c	1.187511
51	0x3f8e7c50	1.1131687
52	0x3f8cc0c6	1.099633
53	0x3f802c21	1.0013467
54	0x3f8fa12f	1.1221064
55	0x3f9fb6b6	1.2477634
56	0x3f7e52dd	0.9934519
57	0x3f92e039	1.1474677
58	0x3f89d397	1.0767697
59	0x3f909d03	1.1297916
60	0x3f941691	1.1569387
61	0x3f8e5f87	1.1122903
62	0x3f8869cd	1.0657288
63	0x3f8b5336	1.0884769

bn1.bias f4 [64]
0	0x3e4ae99a	0.19815674
1	0x3e2b00c3	0.1669951
2	0xbd22720c	-0.039659545
3	0x3d32ccad	0.043652225
4	0x3df04390	0.117316365
5	0x3e19ade8	0.15007746
6	0x3e085eda	0.13317433
7	0x3d43e34e	0.047824197
8	0x3cb000d2	0.021484766
9	0xbd083c53	-0.033260655
10	0x3caf9a1b	0.021435788
11	0x3e1d77f4	0.1537779
12	0xbd5aa635	-0.053381164
13	0xbcab97c7	-0.020946397
14	0x3c2b978b	0.010473142
15	0xbd8d88f0	-0.069108844
16	0x3e610acb	0.21976773
17	0x3da80abd	0.08205173
18	0xbced4c56	-0.028967064
19	0x3e058e41	0.13042547
20	0xbd5d4e13	-0.054029536
21	0x3de87832	0.113510504
22	0x3e52e1a0	0.20593882
23	0xbdbd2400	-0.09235382
24	0x3bddd2b9	0.006769505
25	0x3e1f204c	0.15539664
26	0x3cd10b5f	0.025518117
27	0x3dbb4c89	0.09145457
28	0x3e116c5f	0.14201497
29	0xbcafe003	-0.021469122
30	0x3d98e969	0.074663945
31	0xbca8f0ab	-0.020622572
32	0xbd8b8404	-0.06812289
33	0x3e0976fd	0.13424297
34	0x3e358ad4	0.1772874
35	0x3d548533	0.05188484
36	0x3e02e55e	0.12782809
37	0xbcf085c9	-0.029360669
38	0x3d0a17d5	0.033714134
39	0x3e5e1954	0.2168935
40	0x3cd2a89e	0.025715169
41	0x3e080b1c	0.13285488
42	0x3d9eb01f	0.07748436
43	0x3d15b410	0.036548674
44	0x3df2c956	0.11854808
45	0x3b400945	0.00293024
46	0x3d3cc52c	0.046086475
47	0x3e0f7af6	0.1401175
48	0xbdabfb08	-0.0839749
49	0xbce9f40c	-0.028558753
50	0x3dcbfb3c	0.099600285
51	0x3e3663be	0.17811486
52	0x3d9ef913	0.07762351
53	0xbdb84cd3	-0.08999028
54	0x3ca88165	0.020569513
55	0x3e5d7116	0.2162517
56	0xba9a6293	-0.0011778645
57	0x3e1737b5	0.14767344
58	0x3e00a41c	0.12562603
59	0x3e2dc96a	0.16971365
60	0x3d5a6d3e	0.053326838
61	0x3d0d9869	0.034569178
62	0xbbee161a	-0.0072658183
63	0x3e07d424	0.13264519

bn1.running_mean f4 [64]
0	0xbcc43cb2	-0.023954723
1	0x3d8f814d	0.07007084
2	0xbcbc7fc6	-0.023010146
3	0x3e3a25a3	0.1817842
4	0xbd7c97f8	-0.061668366
5	0x3db2b6ba	0.087262586
6	0x3c99b833	0.01876459
7	0x3c328ff8	0.010898583
8	0x3c623e19	0.013808751
9	0xbdf2cead	-0.118558265
10	0x3e38fead	0.18065901
11	0x3d1c3bc4	0.038142934
12	0x3bf9006d	0.0075989277
13	0xbbe577bf	-0.0070028002
14	0xbd90feb5	-0.070798315
15	0x3b73a4a7	0.0037176998
16	0x3d8658e7	0.065599255
17	0x3dd210bd	0.10257099
18	0xbd40ee1c	-0.04710208
19	0x3d28b771	0.04119057
20	0x3e244296	0.16041026
21	0x3d89ee85	0.06734947
22	0xbda46beb	-0.08028396
23	0x3dbdd4ed	0.09269128
24	0x3ca6ee1e	0.020377215
25	0x3dade87e	0.0849161
26	0xbcad63d6	-0.02116577
27	0xbd2b3271	-0.04179615
28	0xbe4f8871	-0.20266892
29	0xbe16e8cb	-0.14737241
30	0xbd5df35e	-0.05418717
31	0xbdb69023	-0.08914211
32	0xbe6af47a	-0.22944823
33	0xbdc86919	-0.09785671
34	0xbdbeaf39	-0.09310765
35	0xbdfccd52	-0.12343849
36	0xbd2c17e6	-0.04201498
37	0x3d9df635	0.07712976
38	0xbe8f8590	-0.28031588
39	0x3de49109	0.11160476
40	0x3dc4b307	0.09604459
41	0x3de3ed7a	0.111292794
42	0x3d1a72a3	0.037706982
43	0xbe18a30e	-0.1490595
44	0x3cebd84d	0.028789664
45	0xbde32897	-0.11091726
46	0x3e557c89	0.20848288
47	0xbd955b92	-0.07292856
48	0x3dd2c24e	0.10290967
49	0xbd3aa47e	-0.04556703
50	0x3df63755	0.120222725
51	0xbc282feb	-0.010265331
52	0x3de4de14	0.111751705
53	0x3a82351d	0.0009934042
54	0x3e978479	0.29593256
55	0xbe3fdd6b	-0.18736808
56	0x3df7add5	0.12093703
57	0x3c32fb8d	0.010924232
58	0xbdbb779b	-0.09153672
59	0x3e93448b	0.28763232
60	0xbe92aae1	-0.28645995
61	0xbdddb906	-0.10826306
62	0x3c374c4a	0.011187622
63	0x3cad0f4a	0.021125454

bn1.running_var f4 [64]
0	0x3d2bfc78	0.04198882
1	0x3d866518	0.06562251
2	0x3dbb4e58	0.09145802
3	0x3dae8a30	0.08522451
4	0x3ccdfef2	0.025145981
5	0x3db09edc	0.0862405
6	0x3db7f534	0.08982316
7	0x3de3d8e5	0.11125354
8	0x3da5611d	0.080751635
9	0x3d2af46e	0.041737013
10	0x3d93a405	0.072090186
11	0x3dc0779e	0.09397815
12	0x3da2f6c8	0.07957226
13	0x3d8d9bc5	0.06914476
14	0x3d990f3d	0.074736096
15	0x3e20fa45	0.1572047
16	0x3d655310	0.055987418
17	0x3df70ea8	0.12063342
18	0x3d4af04d	0.049545575
19	0x3cfccd93	0.030859744
20	0x3d23d0ec	0.039994165
21	0x3d246311	0.04013354
22	0x3d343f7d	0.04400586
23	0x3ded8912	0.1159841
24	0x3d3aa069	0.045563135
25	0x3d3a4862	0.045479186
26	0x3d8d3ee8	0.06896764
27	0x3d32fc74	0.04369779
28	0x3d5cfc03	0.053951275
29	0x3d4dc4fe	0.050236695
30	0x3d587fff	0.05285644
31	0x3d9c20ac	0.07623419
32	0x3d8f952c	0.07010874
33	0x3d4b3845	0.04961421
34	0x3db5294c	0.088457674
35	0x3d76dc57	0.060268726
36	0x3d6b6efd	0.057478894
37	0x3d9afa2c	0.07567248
38	0x3db8acfb	0.090173684
39	0x3d91592d	0.07097087
40	0x3d8aaacd	0.06770859
41	0x3da651d6	0.08121078
42	0x3d806d45	0.062708415
43	0x3d1a2ca0	0.037640214
44	0x3d80a70f	0.06281864
45	0x3d82e9e0	0.06392264
46	0x3d84491b	0.06459256
47	0x3d7fcff6	0.062454186
48	0x3d81f480	0.06345463
49	0x3d515418	0.05110559
50	0x3d943ceb	0.07238182
51	0x3d5ae403	0.053440105
52	0x3cf6ce74	0.030127741
53	0x3d838915	0.06422631
54	0x3e1c9682	0.15291789
55	0x3d4c086b	0.049812716
56	0x3d8e7ad6	0.06957023
57	0x3d01f219	0.031725023
58	0x3e317a45	0.17331798
59	0x3d96ff53	0.07372918
60	0x3dd86027	0.105652146
61	0x3d418f4f	0.04725581
62	0x3d1710be	0.0368812
63	0x3d8bee6d	0.068325855

fc2.weight f4 [4, 64]
0	0x3cc0c2c6	0.023530375
1	0x3ddaa4c9	0.106759615
2	0xbdb836b9	-0.089948125
3	0x3e22614f	0.15857433
4	0x3e391f4e	0.18078348
5	0x3e330f7f	0.1748638
6	0x3dffe686	0.12495141
7	0x3e2527eb	0.16128509
8	0x3d2c4f44	0.04206778
9	0xbe297191	-0.16547228
10	0xbd63755f	-0.055531856
11	0x3e38fd80	0.18065453
12	0xbdd9a6f7	-0.10627549
13	0xbdb34832	-0.087540045
14	0x3d8c2275	0.0684251
15	0xbdb2f348	-0.087378085
16	0x3e5c6ef1	0.21526696
17	0x3e277d7f	0.16356467
18	0xbdce7e1a	-0.10082646
19	0x3e310be3	0.1728969
20	0xbd572929	-0.052529488
21	0x3e3883df	0.18019055
22	0xbb59328a	-0.0033141696
23	0xbbeae2f4	-0.007168168
24	0xbd0b0c22	-0.033947118
25	0x3e190eb4	0.14947015
26	0xbde9c4b0	-0.11414468
27	0x3c542326	0.012947833
28	0x3da63984	0.08116439
29	0xbdce1728	-0.100630105
30	0x3dd40a1a	0.10353489
31	0xbde2818d	-0.11059866
32	0xbd0ffca5	-0.03515305
33	0xbd7ff5a0	-0.062490106
34	0x3e367fa2	0.17822126
35	0xbdb474aa	-0.088113144
36	0x3cb07a8e	0.021542814
37	0xbbebce31	-0.007196211
38	0xbd967247	-0.073460154
39	0x3e2a15c3	0.16609864
40	0x3d07c5b5	0.033147532
41	0x3d6914fa	0.05690477
42	0x3e1f7220	0.15570879
43	0x3d440b1b	0.047862154
44	0x3d84912f	0.06473004
45	0xbdc159b1	-0.094409354
46	0x3d944923	0.07240512
47	0x3da1cbc6	0.07900195
48	0xbd9a976f	-0.07548415
49	0xbdc6ef24	-0.09713581
50	0xbc63ab8e	-0.013895882
51	0x3df44c36	0.119285986
52	0x3e12bc0a	0.14329544
53	0xbc36515b	-0.011127795
54	0xbdf104e4	-0.11768511
55	0x3dcaad9b	0.09896394
56	0x3e24cd6f	0.16093992
57	0x3dd23575	0.10264102
58	0x3e2d073d	0.16897292
59	0x3dd5eb1e	0.10445236
60	0xbd9e8521	-0.07740236
61	0xbe1e9555	-0.15486653
62	0xbe1c3600	-0.15254974
63	0x3e2e81be	0.1704168
64	0x3b9e9b8f	0.0048403214
65	0x3d01cb8b	0.031688254
66	0xbddad880	-0.10685825
67	0xbdf5e862	-0.12007214
68	0x3dc325aa	0.09528668
69	0xbc854ffb	-0.01627349
70	0xbd697d79	-0.057004426
71	0xbd86f3c5	-0.06589464
72	0xbe4e4b7e	-0.20145985
73	0x3e00003d	0.12500091
74	0xbe3792af	-0.17927049
75	0xbbd14649	-0.0063865525
76	0xbe2f3ca2	-0.17112973
77	0xbd8d1354	-0.06888452
78	0xbcfdca99	-0.030980395
79	0xbc3c63af	-0.011498376
80	0xbd7baf38	-0.0614464
81	0xbc9fd362	-0.019509975
82	0x3e43ff00	0.19140244
83	0xbde68f5e	-0.11257814
84	0xbe67b86f	-0.2262895
85	0xbdc76f89	-0.097380705
86	0x3dbe5d1b	0.09295102
87	0xb9110de3	-0.00013833451
88	0xbe2052da	-0.15656605
89	0xbd94a7a8	-0.072585404
90	0xbc17933b	-0.009251411
91	0xbe25ea25	-0.162026
92	0x3de292d1	0.11063159
93	0x3de468d5	0.111528076
94	0xbd423e21	-0.047422532
95	0x3da911bb	0.08255335
96	0x3e134f16	0.14385638
97	0x3e159f13	0.14611463
98	0x3c8009b3	0.015629625
99	0x3d999fe7	0.07501202
100	0x3dc31a42	0.09526493
101	0xbe2aa6d2	-0.166652
102	0x3d9d6167	0.07684594
103	0x3d99b0a0	0.07504392
104	0xbe0e46b8	-0.13894165
105	0xbe1eb86e	-0.15500042
106	0xbd786b98	-0.060649484
107	0x3e2a4164	0.16626507
108	0x3d5a5a91	0.053309027
109	0x3dc50b59	0.09621305
110	0xbde21000	-0.11038208
111	0x3c95f044	0.018303044
112	0xbe1ca284	-0.1529637
113	0x3e387ad4	0.18015605
114	0xbe51012f	-0.20410608
115	0xbcee7948	-0.029110566
116	0xbe411c09	-0.18858351
117	0xbdc12d61	-0.094324835
118	0xbe6a5cc4	-0.2288695
119	0x3e0b24b4	0.1358822
120	0xbd7e603c	-0.062103495
121	0xbdf67f25	-0.1203597
122	0xbd3de4d4	-0.046360806
123	0xbd9853a9	-0.07437832
124	0x3e131e78	0.14367092
125	0x3e06b6b9	0.1315564
126	0x3d063079	0.03276107
127	0x3c85d461	0.016336622
128	0xbeabc758	-0.33550525
129	0xbe18150a	-0.14851776
130	0x3e2cc072	0.16870287
131	0xbd9096fd	-0.07060049
132	0xbda129b1	-0.0786928
133	0xbe67902f	-0.22613595
134	0xbe27aa84	-0.1637364
135	0xbd8681ce	-0.06567727
136	0x3d8a79c6	0.06761508
137	0x3d73baec	0.059504434
138	0xbe72ac15	-0.23698457
139	0xbe281616	-0.16414675
140	0x3dd757b0	0.10514772
141	0x3d96ef42	0.073698536
142	0x3e03e854	0.12881595
143	0xbd5c8525	-0.053837914
144	0xbe4f3477	-0.20234857
145	0xbcf9db3c	-0.030500047
146	0x3d71aaaf	0.059000667
147	0xbe81bb8f	-0.25338408
148	0x3cf5ccce	0.030004885
149	0xbe0cfb71	-0.13767792
150	0xbd9a4778	-0.07533163
151	0x3d393c36	0.045223437
152	0x3e51154b	0.20418279
153	0xbdee77ea	-0.116439655
154	0xbe664829	-0.22488464
155	0x3b0a4b68	0.0021102075
156	0x3d38fa84	0.045160785
157	0x3da6e96b	0.0814999
158	0xbda79c39	-0.08184094
159	0x3e1222d6	0.14271101
160	0x3b47d9fa	0.0030494914
161	0x3ded9f6d	0.11602674
162	0xbe450d9b	-0.19243471
163	0x3ddd692d	0.10811076
164	0x3dc0cb0a	0.09413727
165	0xbe50c9ed	-0.20389529
166	0xbe011875	-0.12606986
167	0xbe4dd118	-0.20099294
168	0xbd98f3b0	-0.07468355
169	0x3e2fb55b	0.17159025
170	0xbe16a284	-0.14710432
171	0xbd0d6301	-0.034518246
172	0xbe42d1b4	-0.19025308
173	0xbe1fed75	-0.15617926
174	0xbc4f132d	-0.012638849
175	0xbe2d687e	-0.16934392
176	0x3e23fd62	0.16014627
177	0xbd85a67f	-0.06525897
178	0x3e10ff23	0.14159827
179	0xbe85cda5	-0.26133457
180	0x3e2d013d	0.16895004
181	0xba9b4140	-0.0011845008
182	0xbcfad68c	-0.030619882
183	0xbdac6dfc	-0.08419415
184	0x3c0b50f0	0.008503184
185	0xbe04592a	-0.12924638
186	0xbda03019	-0.07821674
187	0xbe0718c7	-0.13193046
188	0xbdb729e3	-0.08943536
189	0xbe2fa996	-0.17154536
190	0xbc233bed	-0.009963018
191	0x3dcf96d7	0.10136192
192	0xbe00b9e0	-0.12570906
193	0x3d2ae807	0.041725185
194	0xbe2b056e	-0.1670129
195	0xbdf87b5c	-0.12132904
196	0xbdff66ba	-0.124707654
197	0xbe22c8b9	-0.15896882
198	0xbc00a9b1	-0.007852958
199	0xbd98466a	-0.074353054
200	0x3ddadaa7	0.10686236
201	0x3c03312f	0.008007332
202	0x3db52aa5	0.088460244
203	0xbe225345	-0.15852077
204	0x3d722824	0.059120312
205	0x3dae154f	0.08500158
206	0xbdd75184	-0.10513595
207	0x3e04c00d	0.12963887
208	0x3e3606e1	0.17776062
209	0xbd3a7037	-0.045517173
210	0xbe0f01fb	-0.13965599
211	0x3d35feb0	0.044432342
212	0x3e11a802	0.14224246
213	0x3daff00a	0.08590706
214	0xbe921739	-0.28533342
215	0x3de461f3	0.11151495
216	0xbe112c1c	-0.14176983
217	0x3e277bec	0.16355866
218	0x3dceea7a	0.101033166
219	0xbe77abd6	-0.24186644
220	0xbe22dcfb	-0.1590461
221	0xbdad1dec	-0.08452973
222	0xbde5addc	-0.11214802
223	0xbe15171d	-0.14559598
224	0x3cdf8adf	0.027287899
225	0xbdf5a326	-0.11994009
226	0xbd362a26	-0.04447379
227	0xbe555e2f	-0.2083671
228	0xbe75901d	-0.23980756
229	0x3e16f973	0.14743595
230	0xbe8119e5	-0.25215068
231	0xbe130fe2	-0.14361528
232	0x3e179b31	0.14805295
233	0x3cf713a8	0.03016074
234	0xbe32181e	-0.17392012
235	0xbd410ad2	-0.04712946
236	0x3e73efc4	0.23821932
237	0xbe80822f	-0.25099322
238	0xbe436669	-0.19082035
239	0x3cc92c1e	0.02455717
240	0xbdd6007a	-0.1044931
241	0xbab9a704	-0.0014164154
242	0x3df46de4	0.119350225
243	0xbd4006f4	-0.04688163
244	0xbb6b2409	-0.0035879633
245	0x3e03f47f	0.12886237
246	0x3d047c7c	0.03234528
247	0xbed23575	-0.4105641
248	0x3cab51c1	0.020913007
249	0x3dd404d8	0.10352486
250	0x3c2264fb	0.009911771
251	0x3e1932a0	0.14960718
252	0xbe6e9542	-0.23299125
253	0x3dbc8ce7	0.092065625
254	0x3d037f08	0.03210357
255	0xbe1fb724	-0.15597206

fc2.bias f4 [4]
0	0x3d0c7b79	0.03429744
1	0x3dd59714	0.104292065
2	0xbe7a25aa	-0.2442843
3	0xbe716419	-0.2357334
