Models/model_new_whisk_2.pt (torch, 317375 bytes, 12 tensors)

lstm.weight_ih_l0 f4 [512, 6]
000000 c3 7a 29 3f 32 86 1a 3e 0a 7f 12 3d 2c 64 d3 bd
       0.66202945 0.15090254 0.035765685 -0.10321841
000010 ea fe 3c be 50 db a3 be 23 64 ff be b7 1d 5d 3e
       -0.18456617 -0.3200326 -0.49881086 0.21593367
000020 1f 5b 7c be d2 65 4d 3f 0d ef 67 bf ca a2 bd 3e
       -0.24644135 0.8023349 -0.9059914 0.3703826
000030 ed 1d db 3e 94 6f dd be 21 12 f4 bd 74 55 6a 3f
       0.4279627 -0.4324919 -0.1191752 0.9153664
000040 8e 9c 44 3e 45 06 22 3f 06 fa 04 3e ac 60 44 bd
       0.19200346 0.63290817 0.12986001 -0.047943756
000050 6c 71 57 3e 67 6f 7f 3e 75 d5 12 3f d2 eb 17 3f
       0.21039361 0.2494484 0.5735696 0.5934421
000060 37 b9 28 bf c6 48 30 bf 94 6c 82 3e bd 24 e8 be
       -0.65907615 -0.68861043 0.25473464 -0.4534053
000070 0e ed 48 bf a3 f7 a8 3e a3 53 c9 be 7f f0 41 bd
       -0.78486717 0.33001432 -0.39321622 -0.047348496
000080 ab 36 2d 3e 73 b0 ab 3e e2 24 06 3e c4 b6 84 3e
       0.16915385 0.33533058 0.13100007 0.2592069
000090 10 f6 9e be e7 b6 b4 be ba a9 02 be a7 08 8e be
       -0.31047106 -0.35295793 -0.12760058 -0.27740976
0000a0 d0 aa f3 3e e8 dd b8 3e f4 bd bc be 25 71 81 3d
       0.47591257 0.361068 -0.36863673 0.06320409
0000b0 8e df 10 bf 31 bd 95 be 0b ef b5 bd c2 68 06 3f
       -0.5659112 -0.29245904 -0.088834845 0.525036
0000c0 04 2d 97 3e 87 9b bb 3d fb 64 b6 bd f6 a2 81 be
       0.29526532 0.09160524 -0.08905979 -0.25319642
0000d0 dc 39 8b 3e 0b 8c 94 bb 43 80 74 bc 17 14 08 be
       0.2719258 -0.004533296 -0.014923158 -0.13288914
0000e0 97 36 c9 3e e0 b2 08 3f 49 45 4f be ae a0 65 3f
       0.3929946 0.5339794 -0.20241274 0.896983
0000f0 ab 82 9a 3e c8 18 80 3e 2f db 42 3b c9 7f b0 be
       0.30177817 0.25018907 0.0029732694 -0.34472492
000100 59 6b d1 3e f8 17 95 be a0 66 c0 3b a6 8e 99 3e
       0.40902212 -0.2911985 0.005871609 0.29991645
000110 dc ee bf bd 9f 3f f8 be 7e a4 05 3f e9 91 dc 3e
       -0.09371731 -0.4848604 0.5220412 0.4308007
000120 1c 20 13 be 6a cc 56 bf 2e 8c 1f 3f 14 d8 23 be
       -0.14367718 -0.8390566 0.6232327 -0.16000396
000130 e2 44 94 bf ed 58 95 bf cb 53 32 3e a1 a3 86 3f
       -1.1583521 -1.1667763 0.17414777 1.0518686
000140 46 6d 54 be 30 e7 c4 3d 31 35 9a 3e 80 6b 7f 3b
       -0.2074481 0.09614408 0.30118707 0.0038973987
000150 35 51 93 3d 34 5f f7 be 95 b7 4e 3f 49 b1 72 3f
       0.071932234 -0.48314822 0.80748874 0.94801766
000160 9c 87 31 bf 21 78 5f 3d ed ca e3 be 2d 94 b8 3d
       -0.6934755 0.054557923 -0.44490758 0.09012637
000170 4a ce c1 3d 0b 63 ac be d1 41 42 3d a0 d8 a1 bd
       0.09463175 -0.33669314 0.04742605 -0.07902646
000180 6a ec 48 be 55 f2 8f 3e da e4 ba bd ed 18 1c be
       -0.19621435 0.28114572 -0.09125681 -0.15243883
000190 71 2a 8d 3d b1 94 2e bc c5 30 2a bf d9 87 9c be
       0.06892861 -0.010655568 -0.66480666 -0.30572394
0001a0 6e 9e 6a 3e c4 77 77 bf 2f cf 1c 3e 28 c0 43 bf
       0.22911999 -0.9666712 0.1531341 -0.7646508
0001b0 15 bb 64 3f 58 c9 9a bd 72 53 64 be 86 38 58 be
       0.89347965 -0.075579345 -0.22297457 -0.21115312
0001c0 e1 18 8f be 0c b1 d1 be db 62 de 3c 52 41 bb 3c
       -0.2794867 -0.4095539 0.027146747 0.022858296
0001d0 e0 37 55 3d 4f d8 31 bf c5 f0 2c be d8 dd c2 be
       0.05205524 -0.69470686 -0.16888721 -0.38059878
0001e0 3b 3f 05 3f ef 6c c5 bd 3f 7c 1c be 2e b9 d5 bd
       0.5204961 -0.09639918 -0.15281771 -0.10435711
0001f0 7b 09 9c 3e 5e f2 14 bf d9 4f 3c be 3a 38 6b 3e
       0.30475983 -0.5818232 -0.18389834 0.22970667
000200 56 3d f0 3e d3 a0 a8 3e 63 0e 9e be d1 4b 4c bf
       0.46921796 0.329352 -0.3087035 -0.79803187
000210 03 40 4b bf 95 bb 9a 3e 41 86 e4 be fd 77 27 bf
       -0.7939455 0.3022124 -0.44633678 -0.6541746
000220 b1 8c ac 3c 88 36 8c 3f 83 de ad 3e b6 75 bd be
       0.02106318 1.0954142 0.33958825 -0.3700387
000230 2a 9b e2 3e 90 df 83 be 4d 8e 4f bf c2 d4 03 3f
       0.44259006 -0.25756502 -0.8107651 0.5149652
000240 2e 29 b7 bd e4 84 86 be 7a 01 10 bf e3 6d cf bc
       -0.08943401 -0.26273263 -0.56252253 -0.025320953
000250 a6 2e 35 bd 7c e6 1c be 7f 9d ab 3e a9 b7 d0 3e
       -0.04423394 -0.15322298 0.33518597 0.40765122
000260 15 ee db 3d 78 3b a3 be 7b 44 e9 3e 60 ed 80 bd
       0.1073877 -0.3188131 0.4556006 -0.06295276
000270 0b 6b a7 3e 8d d2 44 be e7 e3 07 be 40 12 b1 3d
       0.32698855 -0.19220944 -0.13270532 0.08646059
000280 e9 fb 75 3c 50 aa 9c 3e 22 c3 0f 3f a2 ab b6 3d
       0.015013673 0.30598688 0.56157124 0.08919455
000290 d4 88 9a be 65 13 99 bc 5b 60 68 3e ba 8d a4 3e
       -0.30182517 -0.018686006 0.22693007 0.3213938
0002a0 c0 62 75 be 94 1b b1 be 19 46 5b 3f 8e 17 d3 3e
       -0.23963451 -0.34591353 0.85653836 0.41228908
0002b0 62 47 89 3e 1d 20 2a 3e 4f 26 d1 3e b6 12 81 3e
       0.26812273 0.16613813 0.4084954 0.25209588
0002c0 17 d5 1e 3d b2 db de 3b bd 22 5b be b1 a5 98 3e
       0.038777437 0.006801092 -0.2139997 0.29813913
0002d0 4b 55 85 3d 72 3a bc 3d 61 63 eb 3d 1d b9 f8 be
       0.06510409 0.09190835 0.114935644 -0.4857873
0002e0 a3 6e f4 3c ce c9 ec bd 1a 62 2a be 80 4d ea 3d
       0.029837912 -0.11561929 -0.16638985 0.11440563
0002f0 1f be 18 3c 5e 36 73 3f d3 3e 6a 3e c6 4f 40 3f
       0.009322672 0.9500483 0.22875528 0.75121725
000300 d0 83 bd be 7d ce bb be 4a 5d 57 3d f9 48 45 3e
       -0.37014627 -0.36680976 0.0525792 0.19266118
000310 d6 69 1d 3f 37 76 5a 3e 81 ef 3e bd d9 ce 25 3f
       0.6148962 0.21334158 -0.046615127 0.6476875
000320 59 a9 47 3f a7 1e 53 bf a1 63 d3 3e a9 9f 40 bd
       0.7799278 -0.82468647 0.41286948 -0.047027264
000330 8c 26 f5 be b5 97 23 3e bc 5c f2 be 2c 4a 22 bf
       -0.4788097 0.1597584 -0.47336376 -0.6339443
000340 f3 16 de be c5 ba 01 3e 60 fd 6d 3e 90 20 87 bd
       -0.43376884 0.12668903 0.23241186 -0.06598008
000350 6c ad fd bd 7d a3 f6 be b5 ff 63 3e c7 3a 2a bd
       -0.12386593 -0.48171607 0.22265513 -0.04155996
000360 cf 4f d8 be 84 75 ef bd fd ff 05 be 89 fd 5a 3e
       -0.4224839 -0.11692336 -0.13085933 0.21385778
000370 c8 45 d6 3e 25 87 1b 3f 24 e9 e8 be 75 1d f1 be
       0.41850114 0.6075309 -0.45490372 -0.47092786
000380 29 cd f5 be 26 60 48 3e 5c 8f fa 3d 1f 92 35 3f
       -0.48008087 0.19567928 0.12234375 0.7092609
000390 34 27 06 bf f6 a0 0b bf 76 1b 13 b8 87 db a3 be
       -0.5240357 -0.5454248 -3.5073106e-05 -0.32003424
0003a0 ad b2 12 bd d4 cf 3d bf 5b 0b 7c 3c 1d f2 66 3d
       -0.03581493 -0.74145246 0.015383567 0.05638324
0003b0 01 60 24 bd 9e 67 ac be a2 b0 21 be 1e 63 85 bd
       -0.04013062 -0.33672804 -0.15790036 -0.06513046
0003c0 6d f2 e3 3e 32 ff bc 3c 16 0e d3 3d 77 bd 8b be
       0.44520894 0.023070905 0.10305421 -0.27292988
0003d0 39 2b 7f 3e 4a 96 3c be c6 d8 31 be 22 c8 d7 be
       0.24918832 -0.18416706 -0.17367849 -0.42144877
0003e0 ae 17 a1 3e 63 a4 51 3f d9 cd 68 bf 23 99 52 bc
       0.3146338 0.8189146 -0.909391 -0.012853893
0003f0 c0 a2 46 3e 95 bc ac be 46 f5 a7 3e f8 48 8a 3f
       0.19398022 -0.33737627 0.32804316 1.0803518

lstm.weight_hh_l0 f4 [512, 128]
000000 13 20 f5 3e d0 f3 32 3e aa d2 a1 3e fc a7 33 be
       0.47876033 0.1747582 0.31606036 -0.1754455
000010 cd d1 69 be b0 89 b8 3e c4 95 5d 3d 0c 66 8f be
       -0.22833939 0.36042547 0.054097906 -0.28007543
000020 2c 72 ab 3e ab 27 22 be 10 ba 27 be 0a dd 93 be
       0.33485544 -0.15835445 -0.16379571 -0.28879577
000030 93 85 62 3e 2d 3f 2f 3e 0a 5c 7c 3e 05 2f 83 bd
       0.22121267 0.17113943 0.24644485 -0.06405453
000040 93 10 a1 3d 91 6d cc 3e 57 48 8a bc 9f fc ae be
       0.078644894 0.39927343 -0.016880197 -0.3417711
000050 36 6c 3e be 6d 11 33 3d 30 14 c1 be 01 ee 53 bd
       -0.18595967 0.04371779 -0.37710714 -0.05174065
000060 d7 0a f7 bd 48 91 72 3e 00 70 c0 3c c8 95 ab 3e
       -0.120626144 0.23688233 0.023490906 0.33512712
000070 77 17 ee 3e 0e 00 32 be c9 9e 82 3e 6c 61 a7 3e
       0.46502277 -0.17382833 0.25511768 0.32691514
000080 c6 9f 9b be e1 dd 9a 3e 34 6b 29 bd bb 87 5e bc
       -0.30395335 0.30247405 -0.041362002 -0.013582165
000090 c4 83 b5 3e e2 c6 71 3e 53 38 43 be 11 f5 8c bd
       0.35452092 0.23611024 -0.19064455 -0.0688268
0000a0 c6 a4 cf be e0 ca f3 3e e1 f2 b2 bc 7d dc 85 bd
       -0.405554 0.4761572 -0.02184433 -0.065361954
0000b0 a9 b3 eb bd 16 1c e4 3d 56 65 1a 3c a7 c9 4f 3d
       -0.11508877 0.111381695 0.009423574 0.05072942
0000c0 67 5f 26 bd 26 19 3d 3b 93 04 88 be 16 a3 b0 3e
       -0.040618327 0.00288541 -0.2656599 0.34499425
0000d0 50 e5 cb be 69 da 44 3e ec 43 b4 be af 38 0d 3f
       -0.3982339 0.19223942 -0.3520807 0.5516462
0000e0 33 d6 b8 3d d7 45 f1 bd 56 a9 89 3d 83 df 92 3e
       0.0902523 -0.11780899 0.067217514 0.2868615
0000f0 99 44 09 3d 97 d3 32 bf 0c ec 15 3f 9e 00 3a 3e
       0.033512685 -0.6985411 0.58563304 0.18164298
000100 a0 a6 bc 3e c6 51 99 be 2a 55 9d 3e 45 b6 1e be
       0.36845875 -0.299452 0.30729038 -0.15499218
000110 f9 dc 25 3e d3 b1 54 3c 31 69 84 3e 68 00 1c be
       0.16197576 0.01298185 0.25861505 -0.1523453
000120 03 49 a6 3e a7 a4 a7 be 09 b3 52 be e4 df 97 bd
       0.3247758 -0.32742807 -0.20576109 -0.074157506
000130 46 f8 42 be 89 31 fb bd 57 ca 6c 3e f3 54 ec 3c
       -0.19040021 -0.122653075 0.23124062 0.0288491
000140 f9 2f 7b 3e 2b e2 c8 3d f4 70 5c 3e a4 02 ae 3e
       0.24530019 0.09808763 0.21527463 0.3398639
000150 a4 89 ca 3e 54 af a9 3e 91 3e f5 be 1e 7f bc be
       0.39558136 0.33141577 -0.47899297 -0.36815733
000160 b1 24 b4 3e 19 a6 7e bd 2a 08 01 3f ab 1c bb bd
       0.35184243 -0.06217012 0.5040308 -0.09136327
000170 1a 2e 9c 3d 97 8f 4e 3e e9 57 a4 be 29 88 db bd
       0.07625981 0.20171963 -0.3209832 -0.1071933
000180 da 9c e2 3e f4 07 57 bd f3 92 a5 3d a9 18 66 3e
       0.44260293 -0.05249782 0.08084669 0.22470345
000190 8a 42 32 3e 49 d4 22 3e 6c de d2 be 6b aa 88 be
       0.17408195 0.15901293 -0.4118532 -0.2669252
0001a0 93 98 04 be 4b f4 ba 3e 2d fe b2 3e 2a 96 11 3f
       -0.12948827 0.36514506 0.34959546 0.5686976
0001b0 ce 42 37 be 2e c7 74 bd f5 f1 bc bd 8d 88 b6 3c
       -0.17896578 -0.059760265 -0.09225837 0.02228191
0001c0 ac 7b 08 be 76 4f f7 3e e9 ea a4 be ac 9b 05 3e
       -0.13328427 0.4830281 -0.32210472 0.13047665
0001d0 c8 27 15 be 38 32 f6 bd d2 01 e7 be 8c e0 5b be
       -0.14565957 -0.12021297 -0.45118576 -0.21472377
0001e0 9c 35 22 3e 0d 40 cb 3d a2 1e 9e 3e 2d 6a a9 3d
       0.15840763 0.09924326 0.30882746 0.082722045
0001f0 ff ce 91 3c 55 e8 02 3d 24 14 10 bd 2f a8 77 be
       0.017798899 0.03195985 -0.035175458 -0.2418525
000200 a7 86 bd 3e 55 33 5b be 11 5f 11 bf 6c 46 97 3d
       0.37016794 -0.214063 -0.56785685 0.07386479
000210 81 52 08 3f 92 71 77 be 9e 0c cc bd ab 2e dd 3e
       0.5325089 -0.24164417 -0.09963344 0.43199667
000220 4d 54 c2 3e ec 3e 30 be f7 10 f1 be 3e 74 80 be
       0.3795494 -0.17211503 -0.47083256 -0.25088686
000230 39 f5 cf be f5 b2 f3 3e 7f 30 00 bf 89 8c 47 bf
       -0.40616778 0.4759747 -0.50074 -0.77948815
000240 8d 3f 4a bf b0 c0 03 be 6c 3f ac 3e 6b 7c 8c 3e
       -0.7900322 -0.12866473 0.33642137 0.27438673
000250 81 88 3e be 2d b2 36 bf 16 79 10 3f 0e a0 10 be
       -0.1860676 -0.71365625 0.5643476 -0.14123556
000260 5c f9 52 be 1c 36 4c 3f 35 fd 2b be 5b 59 52 3e
       -0.20602936 0.79770064 -0.1679581 0.20541899
000270 4d 7a 4f 3e b0 b7 23 bf 9b de 89 be cb ce 2e 3e
       0.20261498 -0.6395216 -0.26927647 0.17071073
000280 59 35 c4 be f5 97 03 3f db 66 96 be 29 8d 7f be
       -0.3832195 0.51403743 -0.29375347 -0.24956192
000290 d3 88 1d 3d 45 0d a4 3e 43 bb 31 be 5f 02 72 bc
       0.038460564 0.32041374 -0.17356591 -0.014771073
0002a0 89 1d b6 bd 37 12 88 bf 97 4a 4d 3d c4 94 a1 3e
       -0.08892352 -1.0630559 0.050119963 0.31558812
0002b0 fe c1 92 bd 42 ad 18 bf 45 66 aa be 09 10 5b be
       -0.07165907 -0.5963937 -0.3328115 -0.21392836
0002c0 34 25 5e bf 9e 3c 25 be f6 fd a2 be 8a f9 01 3f
       -0.8677552 -0.16136405 -0.31834382 0.5077139
0002d0 27 6e f5 3c 61 a2 44 3e 48 cc fb be d6 99 19 3f
       0.029959751 0.19202568 -0.49179292 0.6000036
0002e0 4e b3 50 3e 93 7a 3e be 7d 4a 86 3e 7a 63 aa be
       0.203809 -0.18601446 0.26228705 -0.3327902
0002f0 6a 8e 3c 3e 14 db 3e be 38 9d ed 3e 51 53 a6 3e
       0.18413702 -0.18638259 0.4640901 0.3248544
000300 1d e9 c7 bc 35 4e 4c 3e 02 4f 46 be 79 1a fd be
       -0.02440315 0.19951709 -0.19366077 -0.4943426
000310 fc 70 87 be ef aa 8c bd 02 6b 02 3f 39 68 15 3e
       -0.26453388 -0.068685405 0.5094453 0.14590539
000320 60 4e 13 3f dd 5a bb be 83 96 77 3c 22 24 89 be
       0.57541466 -0.3659276 0.015111568 -0.2678538
000330 52 68 60 3e 89 a2 04 bf f1 ce 6a be 19 da 1d 3d
       0.21914795 -0.5181051 -0.22930504 0.038538072
000340 78 74 06 3f 53 40 4c be 46 c9 93 3e 14 5c cf 3e
       0.5252147 -0.19946413 0.28864497 0.40499938
000350 42 03 af 3e 29 94 0e bd 46 36 24 bf 14 c5 13 be
       0.34182173 -0.034809265 -0.64145315 -0.14430648
000360 21 2a e0 be 98 c9 f1 bd 53 e0 91 be 08 5e 1b 3e
       -0.43782142 -0.11806029 -0.28491458 0.15172589
000370 c3 3c 33 3e 39 a1 55 be a6 98 c4 3d 47 3d f8 be
       0.17503648 -0.20862283 0.09599428 -0.4848425
000380 7a 8c 37 3d c0 3a 68 be f6 bd cd be 49 0e 50 bd
       0.044811703 -0.22678661 -0.4018399 -0.050794873
000390 02 a4 b1 3d 46 44 b1 3e 43 f8 82 be 10 1f 15 bd
       0.0867386 0.346224 -0.25580034 -0.036406577
0003a0 72 ec 36 bf bb f8 81 bd 5f c3 0f 3f d4 f5 71 bc
       -0.71454537 -0.0634627 0.5615749 -0.014768083
0003b0 86 fd 7f be 56 85 52 3e 00 88 e4 3e d0 17 ed 3e
       -0.24999055 0.20558676 0.4463501 0.4630723
0003c0 82 59 8e 3f 82 40 7c 3e 19 04 19 be 46 08 85 3d
       1.1121066 0.24633983 -0.1494297 0.06495719
0003d0 67 10 1c 3f 35 04 d5 3d 08 85 a1 be 72 d7 89 be
       0.6096253 0.10401193 -0.31546807 -0.26922184
0003e0 3e 99 fe be 45 cc 91 be 0a ba 15 3f 17 de 2b 3e
       -0.4972629 -0.28476158 0.58487 0.1678394
0003f0 66 f6 61 bf c6 90 e0 3e 2f fb 38 3f d6 b9 ec be
       -0.882666 0.43860453 0.72258276 -0.46235532

lstm.bias_ih_l0 f4 [512]
000000 70 c6 d9 be 18 a9 92 be 7f 67 4a bf da 6b 06 bf
       -0.42534208 -0.28644633 -0.7906417 -0.5250832
000010 24 c2 14 bf b3 25 22 bf 75 1a ca be e9 bf 1a be
       -0.58108735 -0.63338774 -0.3947331 -0.1511227
000020 df b9 17 bf 65 34 f7 be 9f ee 66 be 9a 61 bf be
       -0.5926799 -0.4828216 -0.22551964 -0.37379152
000030 e8 f6 1c bf 7a c6 17 bf 48 50 af be d9 2f 8a bf
       -0.6131425 -0.59287226 -0.34240937 -1.0795852
000040 ac d5 03 bf a6 33 7e be a2 20 bf be 83 bc 08 bf
       -0.5149791 -0.2482439 -0.37329584 -0.53412646
000050 ce 6d fb be 87 d5 01 bf cd 9b c7 be 6a 7b 2f be
       -0.49107212 -0.5071644 -0.38986054 -0.17136922
000060 14 b6 c6 be 07 14 46 3d 79 a9 92 be a7 94 46 be
       -0.3881079 0.048358943 -0.28644922 -0.19392644
000070 c8 84 f9 bd 62 bc a5 be d1 a4 25 bf 12 63 06 bf
       -0.12183529 -0.32370287 -0.64704615 -0.5249492
000080 11 dc d2 be 19 d9 8c 3b a5 b1 ab be d8 a4 df be
       -0.41183522 0.004298341 -0.3353397 -0.43680453
000090 1f de a4 be e2 2f a6 be 9b 08 8f be 86 4f 0f bf
       -0.32200715 -0.32458407 -0.27936253 -0.5598072
0000a0 77 fe 08 be 6f 5d 12 bf 95 2b 74 be 0a af d9 be
       -0.1337832 -0.5717382 -0.2384475 -0.42516357
0000b0 aa d8 09 bf 46 4f 0c be 39 44 01 bf 38 d5 13 bf
       -0.5384623 -0.13702115 -0.50494725 -0.5774722
0000c0 97 e2 cb bd 7b 72 19 bf 84 64 bc be ee 63 e5 bd
       -0.09955328 -0.5994031 -0.36795437 -0.11200701
0000d0 29 5e 20 be cd 7e 01 bf 75 ae 02 bf 8c 99 a8 bd
       -0.15660919 -0.5058411 -0.5104745 -0.08232412
0000e0 18 00 18 be 75 df 00 bf 86 2b 89 be 79 2a d4 be
       -0.14843786 -0.5034097 -0.26791018 -0.41438654
0000f0 fe 0e 0b bf d4 f4 5b bf 19 d5 f9 bd 3d cb e0 3c
       -0.5431975 -0.85920453 -0.12198848 0.027440662
000100 25 08 1c bf bc af 1a be f4 c7 9b be 6e a0 01 bf
       -0.6094993 -0.151061 -0.3042599 -0.5063542
000110 09 b3 47 bf f8 59 c2 be 4d 35 1c bf 44 f2 24 bf
       -0.7800756 -0.37959266 -0.6101883 -0.6443217
000120 ea ec ed be d2 6b c0 bd 8a df 81 be 88 5e 51 bf
       -0.46469814 -0.09395565 -0.2536586 -0.8178487
000130 50 2c f8 bd 32 7a 55 be b8 d8 24 bf b2 6c 1f bf
       -0.12117827 -0.20847395 -0.64393187 -0.6227523
000140 dc 86 10 bf 55 fd ff be 9a 27 d4 be 10 7e 61 be
       -0.5645578 -0.49997965 -0.41436464 -0.22020745
000150 dc 4e 30 bf 44 35 d9 be 2d 2d 4c be e2 e2 50 bf
       -0.6887033 -0.4242345 -0.19939108 -0.81596196
000160 d3 bf d9 be ef a3 c8 be ca 21 9c be 38 f6 2d bf
       -0.42529163 -0.3918757 -0.3049453 -0.67953825
000170 51 08 fa bd dc 4e b2 be 6a 11 b5 be 55 e9 ae be
       -0.122086175 -0.3482579 -0.35364848 -0.34162393
000180 87 19 30 bf 2d cf cd be 26 59 54 bf aa 55 13 bf
       -0.6878895 -0.40197125 -0.8294853 -0.5755259
000190 21 5e 16 bf 44 c0 dd be 99 58 e6 be 7f 1b 33 3d
       -0.5873738 -0.4331075 -0.4498947 0.043727394
0001a0 5f 31 0e bf 31 60 bb be b8 ce c3 be 96 f1 8c be
       -0.55544084 -0.36596826 -0.3824365 -0.27528065
0001b0 7b 51 99 be 32 e6 58 bf 4c a2 37 bf 45 99 31 bf
       -0.29944977 -0.8472625 -0.7173202 -0.69374496
0001c0 be 06 bc bb 39 81 ee bc 48 0d f6 be 33 e1 09 bf
       -0.0057381084 -0.029114353 -0.48057008 -0.5385925
0001d0 23 22 9a be 8a c4 8f bd 1d d3 d8 3e ac 42 f0 be
       -0.3010417 -0.07019909 0.42348567 -0.46925867
0001e0 00 a2 1e bf 78 9e f1 be 95 3e e0 be 26 60 08 bf
       -0.6196594 -0.47191215 -0.43797746 -0.5327171
0001f0 a2 bd b5 be 6d 49 24 bf 8d 3f 35 bf 6d 65 08 bf
       -0.3549624 -0.6417454 -0.70800096 -0.53279763
000200 8a 03 07 bf 4d 56 3e 3f bc 66 70 be 7f 2d 0e 3f
       -0.52739775 0.74350435 -0.2347669 0.5553817
000210 f1 f1 b5 be 9f 85 f3 be 6b 0e 1f bd 8d 33 0a bf
       -0.3553615 -0.47562882 -0.03883211 -0.5398491
000220 fe b0 f3 bd 01 f2 18 bd df 11 99 be cc 2e 42 bc
       -0.11898993 -0.037340168 -0.29896447 -0.011851978
000230 f9 0a 12 3e 36 68 0c 3e 3c 79 43 3e ab 2e dd be
       0.14261998 0.13711628 0.19089216 -0.43199667
000240 03 aa 9d be db e1 11 3e a5 31 39 be 1e 44 06 3e
       -0.3079377 0.14246313 -0.18085344 0.13111922
000250 94 f4 42 be bb d8 3d 3d 6e a6 3a bf 90 82 2c bd
       -0.19038612 0.04634927 -0.729102 -0.0421167
000260 7d fb 53 be a7 6c c9 3d e1 35 e3 be 03 f0 92 bd
       -0.20701404 0.09835177 -0.44377044 -0.07174685
000270 72 43 08 be b8 04 2f be 31 66 fd bd d4 29 4f 3d
       -0.13306978 -0.17091644 -0.12373007 0.050577
000280 61 76 16 bd 7d ad 5e 3e 46 56 20 3e 72 db 8d bb
       -0.03673399 0.21745868 0.1565791 -0.0043291384
000290 a4 1e 7a 3e 41 12 5c 3e bf 99 5b be 8d 84 02 bf
       0.24425751 0.21491338 -0.21445368 -0.50983506
0002a0 99 1a c1 3e fa a4 f0 bd fd 92 a6 be 26 d4 17 be
       0.37715605 -0.11750217 -0.32534018 -0.14827022
0002b0 30 ff 03 3f e3 5d 1f be ed 17 ca bb 5c d3 be 3c
       0.5156126 -0.15563159 -0.006167403 0.023294143
0002c0 13 6a 3c 3e 03 86 bb be f7 38 d6 3d c0 e4 56 be
       0.18399839 -0.3662568 0.10460084 -0.20985699
0002d0 ee 72 a2 bd c0 97 2b 3e 96 10 a6 be bd da fc 3d
       -0.07932077 0.16757107 -0.3243453 0.123464085
0002e0 e2 6f 9d 3e 2f 5e c5 be a3 51 01 bf f3 e3 ff bd
       0.30749422 -0.3854842 -0.5051519 -0.1249465
0002f0 cf 42 63 3d 57 1b b0 3e c8 6e 7b be 9f a4 2e 3c
       0.055483636 0.3439586 -0.24553978 0.010659366
000300 48 50 e1 3d e5 e5 53 bd 7a 2d 0f be 7e e8 c3 be
       0.110016406 -0.051732916 -0.13982192 -0.38263315
000310 69 e2 b5 3e 89 ad f8 bd 82 93 8f 3e 68 df cd be
       0.355243 -0.12142474 0.28042227 -0.40209508
000320 ce df 0d bf 54 a0 82 be 32 c2 34 3d a8 7b 7c 3c
       -0.55419624 -0.25512946 0.04413051 0.015410341
000330 73 2b 0a bf 16 4d 10 be b2 a6 9e bd 5a e4 0e bf
       -0.5397255 -0.14091906 -0.07746638 -0.55817187
000340 19 ed 99 3e 93 2a 1c 3e f6 3d da 3e 7f d1 76 bd
       0.30063704 0.15250616 0.42625397 -0.060258385
000350 b2 fc fd be d7 98 bc be e1 63 93 bd 4d b1 83 be
       -0.49606854 -0.36835358 -0.07196785 -0.25721207
000360 24 c6 8f be 4e 48 5a 3d 36 cc a2 be ea c5 27 bf
       -0.28080857 0.05329161 -0.31796426 -0.6553637
000370 51 02 c4 3d 34 12 b2 bc d2 e7 1e be 6a 9b c0 3e
       0.09570754 -0.021737196 -0.1551812 0.37618572
000380 36 5f 19 bf ac f6 45 bd 2d 8c 16 bf 02 80 94 3e
       -0.59910905 -0.048330948 -0.5880764 0.29003912
000390 c8 dd 03 3e b0 04 86 3e 1a 88 0f 3e ed 57 ed 3d
       0.12877572 0.2617545 0.14016762 0.11589036
0003a0 5c 90 0e bf 67 a8 b9 3d b2 ba 3c be 14 ae a2 be
       -0.55689025 0.09065323 -0.18430594 -0.31773436
0003b0 e1 82 2b be 8d 12 ea be 5e 34 82 be c5 16 97 be
       -0.16749145 -0.45717278 -0.25430578 -0.2950956
0003c0 e5 db 4b be 62 0b 62 3d d7 4c cf be 69 80 1f 3e
       -0.19908102 0.055186637 -0.40488312 0.15576328
0003d0 ae df c2 be 2a 61 00 bf d3 e0 b5 3d 77 ab 18 be
       -0.3806128 -0.5014826 0.088807724 -0.14909159
0003e0 cc d6 f9 be 46 b0 95 3c 66 e2 70 3c c6 98 43 be
       -0.4879669 0.01827253 0.014702415 -0.19101247
0003f0 92 49 ac bd 92 d7 00 bf f3 fb 1b bf 78 ba ce be
       -0.0841247 -0.50328934 -0.6093132 -0.4037664

lstm.bias_hh_l0 f4 [512]
000000 f7 64 d1 be 32 82 8e be 96 12 3c bf cf 74 d7 be
       -0.40897343 -0.27833706 -0.7346586 -0.42081305
000010 c6 e8 f4 be ef 59 0d bf ce 72 cc be 28 c0 89 be
       -0.47833842 -0.5521535 -0.3993134 -0.26904416
000020 c0 c1 0f bf 01 76 05 bf e1 4f 67 be a7 8c c3 be
       -0.56155014 -0.52133185 -0.22589065 -0.38193247
000030 59 50 1c bf 6b 49 12 bf 94 cc c2 be 04 77 82 bf
       -0.610601 -0.57143277 -0.38046706 -1.0192571
000040 fc bb 10 bf 7a 23 ba be fd 78 9b be 6b 6a f5 be
       -0.5653684 -0.3635519 -0.30365744 -0.47932753
000050 23 71 d2 be 46 dd 17 bf f0 92 b4 be fc d0 71 be
       -0.4110194 -0.5932201 -0.35268354 -0.23614877
000060 ea 50 c0 be 0c 68 cd 3d 9c f0 9d be 0e 8e f1 bd
       -0.37561733 0.10029611 -0.30847633 -0.11794673
000070 10 02 c5 3c 3a ec b2 be 88 9f 0e bf e2 6e 28 bf
       0.024048835 -0.34945852 -0.55712175 -0.65794194
000080 85 0d 09 bf a4 86 ae bc 38 55 a0 be 8c 01 f8 be
       -0.53536254 -0.021304436 -0.31315017 -0.4843868
000090 30 dc 6a be 37 a8 94 be dd c2 ba be f0 7f f6 be
       -0.22935557 -0.29034588 -0.36476794 -0.48144484
0000a0 59 58 77 3c a5 96 18 bf 6c 9a 54 be 0f e6 e0 be
       0.015096747 -0.59604865 -0.20762032 -0.4392552
0000b0 16 95 fb be ee 32 b3 bd 15 96 04 bf 38 9e 0b bf
       -0.4913718 -0.087499484 -0.51791507 -0.545383
0000c0 b6 6e e6 bd 69 a6 30 bf 7c a9 dc be 8e 74 bc bd
       -0.11251585 -0.6900392 -0.43098056 -0.092019185
0000d0 01 13 46 be 0a 8f 16 bf 1f 56 e3 be 7a 67 c0 bc
       -0.19343187 -0.5881201 -0.44401643 -0.023486841
0000e0 50 5f 95 be f7 fd 23 bf a7 3e 65 be dc 2e 00 bf
       -0.2917428 -0.64059395 -0.22387181 -0.500715
0000f0 64 00 0f bf 98 21 7d bf 3f fa 06 bd 84 09 ea 3c
       -0.5585997 -0.98879385 -0.032953497 0.02856899
000100 88 af 0c bf f4 98 ce bd 08 ce 9b be fc e4 f0 be
       -0.5495534 -0.10087767 -0.30430627 -0.470497
000110 67 c7 5d bf d4 7a a2 be bc 32 2e bf fb 31 0e bf
       -0.8663239 -0.31734335 -0.68046165 -0.55545014
000120 8e 56 fb be 34 af 27 be 68 e0 be be 96 a5 6b bf
       -0.49089473 -0.16375428 -0.37280583 -0.9204954
000130 57 89 04 be a3 a8 76 be 40 5b 34 bf 1d fa 27 bf
       -0.12943016 -0.24087767 -0.70451736 -0.6561602
000140 ac 3d 16 bf 16 5f b8 be 1c b5 97 be 10 15 7d be
       -0.58687854 -0.36010045 -0.29630363 -0.24715066
000150 72 54 15 bf 3d e6 aa be 59 e8 6f be aa 13 60 bf
       -0.5833198 -0.33378783 -0.23428477 -0.87530005
000160 a1 7d c7 be 37 da 87 be 6e a0 89 be 41 1b 0d bf
       -0.38963035 -0.26533672 -0.2688021 -0.5511971
000170 32 6f 25 be 2d 96 ca be 53 db ee be 84 eb 57 be
       -0.16155699 -0.395677 -0.46651706 -0.21085936
000180 c2 ca 3f bf 4f ac 01 bf ae d1 58 bf 7d 24 24 bf
       -0.7491876 -0.5065355 -0.84694946 -0.64118177
000190 82 16 19 bf 45 2e 05 bf 66 90 c1 be 10 dc 0b 3d
       -0.5979997 -0.52023727 -0.3780548 0.034145415
0001a0 99 13 f4 be 3b 31 e2 be 89 2e 6e be fa 3c b2 be
       -0.47671202 -0.44178185 -0.23259939 -0.34812146
0001b0 4e 9d ae be 29 a7 64 bf fc 3b 2a bf 4d 6e 4d bf
       -0.3410439 -0.89317566 -0.6649778 -0.8024643
0001c0 ec 6d ec 3d ce 7b 3f ba 20 78 f8 be 19 76 0f bf
       0.115444034 -0.000730452 -0.48529148 -0.5603958
0001d0 3d 82 b0 be 64 ce f2 bd 69 04 a3 3e b4 2d d5 be
       -0.34474364 -0.11855772 0.31839302 -0.4163643
0001e0 25 d0 11 bf 75 fd 11 bf e1 b5 c7 be 6a 12 16 bf
       -0.5695823 -0.5702737 -0.3900595 -0.5862185
0001f0 4e b0 8b be 5f db 26 bf 44 45 41 bf b6 39 fe be
       -0.27282947 -0.65178484 -0.75496316 -0.49653405
000200 a6 22 e1 be 42 80 42 3f c3 46 21 be cc 0f 26 3f
       -0.43971747 0.75976956 -0.1574965 0.64867854
000210 fd 77 9b be 4a 8b b0 be c5 84 c5 bc 8e 16 0c bf
       -0.3036498 -0.3448127 -0.024111161 -0.54721916
000220 5d 18 49 be 8d 92 2b bd e1 a0 a0 be 1e 1a c2 bd
       -0.196382 -0.04188781 -0.3137274 -0.09477638
000230 f1 fa 39 3d 6c d0 d6 bb 36 c1 2e 3e 47 30 fa be
       0.045405332 -0.0065556075 0.17065892 -0.48864958
000240 1c 48 d8 be d4 88 a2 3d c4 9a 8a be 6f 36 00 3e
       -0.42242515 0.07936254 -0.27071202 0.12520765
000250 cf 88 67 be 18 70 97 3d 5a f1 27 bf 7a 90 54 bd
       -0.22610782 0.07394427 -0.6560265 -0.051895596
000260 b7 17 64 be 5f af 4a 3e 3e 85 ac be 3f f6 1c be
       -0.22274671 0.19793461 -0.33695406 -0.1532831
000270 36 9a c7 bd 62 3f 6f be 0f 09 1a be e8 df 24 3e
       -0.0974621 -0.23364022 -0.15042518 0.16101038
000280 f7 94 09 be 9c 1c 3f 3e c4 75 d5 3d dd e2 7f bc
       -0.13435732 0.18663257 0.10422853 -0.015618053
000290 f7 f5 4e 3e c1 cd 6e 3e ef 65 83 be 75 e9 17 bf
       0.20211016 0.23320676 -0.25663707 -0.593406
0002a0 c2 b5 bd 3e d9 40 76 bd 86 c1 a7 be 6c d6 10 be
       0.37052733 -0.060120437 -0.32764834 -0.14144295
0002b0 85 82 1e 3f b6 3e db bd ef 07 53 bc 46 e8 e0 bc
       0.61917907 -0.107053205 -0.0128803095 -0.027454507
0002c0 9d 85 85 3e cf 66 b5 be df df a2 3d 22 ce a3 be
       0.260785 -0.3543 0.07952856 -0.31993204
0002d0 b9 a9 90 bd 43 38 47 3e c1 6c 95 be f0 bd f2 3c
       -0.07063622 0.19455056 -0.29184535 0.029631585
0002e0 9a d3 86 3e 8b 87 f3 be 86 13 0a bf 7e 99 df bd
       0.26333314 -0.4756435 -0.5393604 -0.10917948
0002f0 3b 8c 88 3d 2f 55 8f 3e 60 0c cf be bc cc a6 3c
       0.06667372 0.27994677 -0.4043913 0.020361297
000300 6f e6 0e 3e 97 8a 42 3d cf 9c 61 be c5 cc 02 bf
       0.13955091 0.04749545 -0.22032474 -0.51093704
000310 d6 e9 b3 3e 06 7d 05 be 1e eb 8f 3e 76 df a0 be
       0.3513934 -0.13035974 0.28109068 -0.31420487
000320 40 ee 02 bf 19 b5 57 be 94 97 2c 3e e2 11 a4 bd
       -0.5114479 -0.21065177 0.16854697 -0.080112234
000330 f3 6a 1e bf 8d 1f 6b bd 82 77 98 bc ba 5a 0e bf
       -0.6188194 -0.057403136 -0.018611673 -0.5560719
000340 a6 42 aa 3e 13 b3 80 3c 50 0a e6 3e 7a ac ed bd
       0.33253974 0.01571039 0.44929743 -0.11605163
000350 05 fd dd be 1d 25 b4 be e0 d6 ed bd 49 8b a9 be
       -0.433571 -0.35184565 -0.1161325 -0.3311408
000360 0e f5 02 be 81 d9 a5 3d e0 a6 45 be e5 94 38 bf
       -0.12788793 0.08098126 -0.19301939 -0.72102195
000370 b2 ea 24 3d 44 45 a7 bd 14 44 d4 bd 45 14 83 3e
       0.040262885 -0.08167508 -0.10364547 0.25601402
000380 4e 1e 13 bf 4e 38 5b bd d8 ff f2 be 79 4e 5b 3e
       -0.57468116 -0.053520493 -0.47460818 0.21416654
000390 fb 3b 9c 3d 7b 42 4b 3e 11 65 92 3e 01 11 f2 3d
       0.07628628 0.19849579 0.28592733 0.118196495
0003a0 c6 b7 10 bf fb e0 86 3e 8b 85 03 be dd 45 b6 be
       -0.56530416 0.2634352 -0.12843911 -0.35600176
0003b0 00 17 88 bd f5 95 c6 be 04 8d 00 be 9c 80 85 be
       -0.06645012 -0.38786283 -0.12553793 -0.26074684
0003c0 8c 1e bc bd 01 40 5e 3d 6e 2c ad be d8 0b 06 3d
       -0.09185514 0.054260258 -0.3382296 0.03272614
0003d0 65 2e 85 be 57 e0 0b bf 87 07 ff 3c 52 2a 8b be
       -0.2601196 -0.5463919 0.031131519 -0.27180725
0003e0 0e f0 0f bf 78 e6 c9 3b 75 c7 a0 bd 91 fd 83 be
       -0.5622567 0.006161507 -0.078505434 -0.25779393
0003f0 9d c2 43 be 4e 5f ff be c8 5f 3d bf 95 06 aa be
       -0.19117208 -0.498774 -0.73974276 -0.33208147

fc1.weight f4 [64, 128]
000000 00 53 ca 3d 5c 4a c7 be 51 51 92 3d 81 ea a8 3e
       0.09879112 -0.3892392 0.07144416 0.32991412
000010 b0 6d bc 3b d0 77 d9 3b 0f 05 59 be 8d 0f e0 bd
       0.0057503805 0.006636597 -0.21193336 -0.10940466
000020 c1 4a c0 bd 33 bf 9a be 26 55 d1 3e c0 0a 7d be
       -0.09389258 -0.30223998 0.40885276 -0.24711132
000030 7e e2 70 be 74 c5 a5 bd 18 2a 0e bd 6e b6 69 be
       -0.235239 -0.08094302 -0.034708112 -0.22823498
000040 6a 2c a7 be 7b 6d 4c be 91 8a 78 3e f0 cf cf bd
       -0.32651073 -0.19963638 0.24271609 -0.10147083
000050 54 4b c7 37 fe 30 66 3e 05 52 bd bd dc 96 18 3f
       2.3757726e-05 0.22479627 -0.092441596 0.59605193
000060 88 d0 2a be 41 2f 4c 3e 2d 9a 89 bd 8a 20 18 be
       -0.16681111 0.19939901 -0.0671886 -0.14856163
000070 58 84 59 bc 46 fc f4 3d 24 96 cc be e9 88 24 bf
       -0.013276182 0.1196218 -0.39958298 -0.6427141
000080 80 b7 ae be 51 09 91 3d fd 1e ea be c9 ac e8 3c
       -0.34124374 0.07081855 -0.45726767 0.028402703
000090 3c 75 86 be 81 b7 07 bf 10 9e eb be b3 9c 8d 3e
       -0.26261318 -0.5301438 -0.4601903 0.27658615
0000a0 c7 1a 1f bb 8b 2c c0 3c 6e c2 5c bf 59 eb 2e 3e
       -0.0024277435 0.02345874 -0.86234176 0.17081966
0000b0 fb e9 1a 3e d8 98 ac be f2 f4 ae bd e0 57 92 3d
       0.15128319 -0.3371036 -0.08542813 0.07145667
0000c0 12 24 b2 bd 6c 2e 82 bd 51 5c 9e be e3 7a 73 3c
       -0.08698286 -0.063565105 -0.30929807 0.014860841
0000d0 04 58 67 3d 34 dc 0a 3e 51 88 bf be 33 24 90 3e
       0.056480423 0.13560563 -0.3740869 0.28152618
0000e0 3e 49 06 be 8f 83 6c 3e 50 83 b8 3e bb f1 fd 3e
       -0.13113877 0.2309706 0.36037683 0.49598488
0000f0 70 40 3e be 9a 85 58 3e b6 ad 53 bd 49 0f 66 be
       -0.18579268 0.21144715 -0.051679336 -0.22466768
000100 fe d7 91 3e a6 a5 a5 3e 80 f9 3d 3d 22 2d 83 3d
       0.284851 0.32352942 0.04638052 0.06405093
000110 04 74 c9 3e b8 1d 10 bd f5 6c c4 3d 94 45 df be
       0.39346325 -0.035184592 0.095910944 -0.4360777
000120 8a fc d5 3e 46 0a 9d be 91 65 01 be be 79 47 3e
       0.41794235 -0.306719 -0.12636401 0.19480035
000130 33 53 bb be a9 d8 83 be 50 e9 b8 be a8 61 cc bd
       -0.36586913 -0.25751236 -0.36115503 -0.09979564
000140 ea 2e 2f 3f 9b cd b6 bd a8 8f 45 be 96 f4 b2 3e
       0.6843096 -0.08925935 -0.19293082 0.3495223
000150 f6 2b 1e be 55 b5 9a 3a f1 49 ff 3d e2 cd ed 3d
       -0.15446457 0.0011803309 0.12465275 0.11611535
000160 47 7d 00 3f 52 a7 8f be a9 27 a6 be af d5 04 3c
       0.5019116 -0.28057343 -0.32452133 0.008107587
000170 51 9a d0 3d 9f cd 0b bf fc 59 e8 3c 36 db 9b 3e
       0.101856835 -0.5461063 0.02836322 0.30440682
000180 72 50 87 3e 25 4c dd 3d 23 eb 4c 3d e4 75 94 bb
       0.26428562 0.10805539 0.05002893 -0.004530655
000190 cd b8 17 3f 97 2d 0b be 58 d8 48 be ba dd 9a 3e
       0.5926636 -0.1359161 -0.19613779 0.3024729
0001a0 fd cc 89 3d e8 b5 42 3e 1f b8 be be a4 fb 10 be
       0.067285515 0.19014704 -0.37249848 -0.14158493
0001b0 b0 55 83 3e 35 43 2c be 0d 12 08 bf ff cb a2 be
       0.25651312 -0.16822512 -0.53152543 -0.31796262
0001c0 68 97 0c 3e fc de 37 3e 99 ec 12 be af cc 4f be
       0.13729632 0.17956156 -0.14348067 -0.20292924
0001d0 1d 99 44 be 4e b8 b0 3e a3 38 05 3e d3 cc 84 3e
       -0.19199033 0.34515613 0.13009886 0.25937518
0001e0 0a 61 e1 3e f3 a8 0c be 70 9a 06 3f 25 23 85 bd
       0.44019347 -0.13736324 0.525794 -0.06500844
0001f0 4b 6f 93 3d 11 5d 03 be b9 09 c5 bc 20 69 82 be
       0.07198962 -0.12828471 -0.024052488 -0.2547083
000200 49 36 af be 89 07 4b be 69 73 60 3e be cb 62 3e
       -0.34221104 -0.19827093 0.21919025 0.22148034
000210 b5 3c b6 3e 77 f3 9c be 0b 9b a6 bd 02 38 fd 3d
       0.3559319 -0.306545 -0.08135041 0.12364198
000220 66 8e 71 be fe 0d 60 3e d7 e7 27 be 9d 74 08 be
       -0.23589477 0.21880338 -0.16397034 -0.13325734
000230 57 2e 9b be ea b1 01 3f ca bf fc be f8 d2 ab be
       -0.30308792 0.506621 -0.49365073 -0.33559394
000240 87 b9 72 3d 56 44 90 3d 55 8c 10 3e 58 2b e3 bd
       0.059258964 0.07044284 0.14116032 -0.110922515
000250 e3 23 5e 3e a2 44 e0 3e 0a 06 ea 3c d6 ea 8c 3c
       0.21693377 0.43802363 0.028567333 0.017201822
000260 3e ad 2a 3d 10 1a 4c 3e eb 38 b2 3e 5d 0d 38 3e
       0.041669123 0.19931817 0.3480905 0.17973848
000270 80 89 24 3e 89 e5 49 bd bf 38 44 be 14 6c a4 3b
       0.16068077 -0.049291167 -0.19162272 0.0050177667
000280 b1 23 ce 3e 82 c4 89 3e db ba 31 be 02 32 dc bb
       0.40261605 0.26907736 -0.17356436 -0.0067198286
000290 f8 4c d3 bb b4 1a 76 3f 5f df b0 3d 5e eb 62 3c
       -0.0064483844 0.96134496 0.08636355 0.013850061
0002a0 07 fe 8a 3e 98 4d 51 be a9 87 dd 3d 0d 0f 96 3e
       0.27146932 -0.20439756 0.10816891 0.29308358
0002b0 37 c9 2f bf fa 39 b6 be 44 01 6a 3e b2 4f 29 bd
       -0.68666404 -0.35591108 0.22852045 -0.04133577
0002c0 97 d7 6b bd 52 33 62 be f0 78 d3 bd cb 0a 1a 3e
       -0.05757865 -0.2208989 -0.10325801 0.1504318
0002d0 7e 39 40 3e 6a 52 81 be 19 47 fc bd ff 71 f4 be
       0.18771932 -0.2525819 -0.12318248 -0.47743222
0002e0 6a cd 85 be 7f ff 08 be 95 0e 4c bd 3e a6 ab be
       -0.2613328 -0.13378714 -0.049818594 -0.3352527
0002f0 ec 2d f2 3d fc 76 9e 3e 1c 73 b5 3e ee 92 f5 bb
       0.11825165 0.30950153 0.35439384 -0.007494322
000300 09 93 08 3e 32 8a b2 3c a9 3f 58 3e 55 29 17 be
       0.1333734 0.021794412 0.21118034 -0.1476186
000310 f7 c7 05 be b9 20 b6 be a8 18 30 be 29 d2 9a bc
       -0.13064562 -0.3557184 -0.17196906 -0.01889904
000320 07 4d c5 3c eb 18 9a be b2 04 1a be 42 6d 38 3d
       0.024084581 -0.30097136 -0.15040854 0.04502607
000330 f7 40 77 3d 8e 1a a0 3d 33 f1 6d 3e 6c 84 08 3e
       0.06036469 0.07817565 0.23236541 0.13331765
000340 17 40 fe be d6 e0 eb 3e d8 d0 cb be b9 54 71 3e
       -0.49658272 0.46069974 -0.39807773 0.23567475
000350 b2 31 35 3e 02 97 41 bd 11 50 40 be 23 e0 b8 bd
       0.17694739 -0.047263153 -0.18780543 -0.09027126
000360 c3 b3 57 3c ad 2a 30 be c3 fe ed bd 0b 41 40 3e
       0.013165417 -0.1720378 -0.116208576 0.18774812
000370 75 84 8c 3e 71 2b 34 be c6 f6 8a 3d 8f 08 5d 3d
       0.27444807 -0.17594697 0.067853495 0.05396324
000380 57 1a f0 3d 6b b4 c2 3e e7 09 b5 3d a0 55 79 3e
       0.11723774 0.38028273 0.08839779 0.2434907
000390 cf e2 09 bf d4 23 4b 3e c3 08 79 3e 0c fb cc 3c
       -0.5386171 0.19837886 0.24319749 0.025022052
0003a0 45 d8 9f 3c 55 15 d4 3e 88 5c 9f 3d 8e 89 2b 3d
       0.019512305 0.41422525 0.07781321 0.04187923
0003b0 93 96 7d be 27 0a 6b 3e 69 2b 1e 3e b0 a7 02 be
       -0.24764471 0.22953092 0.15446247 -0.1275928
0003c0 94 ff 02 bb 04 51 3e 3e 6a e9 06 3e f6 d9 71 3c
       -0.0019988762 0.18585593 0.13174978 0.014761439
0003d0 62 ff c4 3d ef 4b 09 be 3f 4e 61 3e bc 9d ec 3e
       0.09619023 -0.13407873 0.22002505 0.46214092
0003e0 bb ad ae be 13 22 0d 3e b3 ca af bd 1a ad 49 3e
       -0.3411692 0.1378253 -0.08583584 0.1969494
0003f0 1a 86 97 bd 85 d0 b1 be 47 51 7a be fd 77 3e 3e
       -0.07398625 -0.347294 -0.24445067 0.1860046

fc1.bias f4 [64]
000000 cb f8 ca 3c 0f 4f fb 3d df c2 98 bd 98 b4 99 3c
       0.024776837 0.122709386 -0.07459044 0.018762872
000010 14 df 0c 3d 14 ff bc b9 c3 18 0f 3d 27 96 a2 3d
       0.03439243 -0.00036048202 0.034935724 0.079387955
000020 a8 c6 92 bd f2 e0 a5 3d 75 7e df 3b 39 f1 9b 3d
       -0.07166797 0.080995455 0.006820495 0.07614369
000030 21 64 86 3c b6 00 b6 bc 04 e4 17 bb 8f 09 65 3c
       0.016405167 -0.022217136 -0.002317668 0.01397933
000040 4a a2 94 3c 33 1d 02 bd 4e 22 2f 3c db 20 12 3c
       0.018143792 -0.031766128 0.010689331 0.008918966
000050 c9 25 72 3c e7 02 35 bc 1b 08 7a bd fe e6 3a 3d
       0.0147795165 -0.011048055 -0.061042886 0.045630448
000060 99 d8 29 bd 43 4e e1 3a 4d ff 5f bc 4a 83 c5 bc
       -0.04146633 0.0017189462 -0.013671708 -0.024110455
000070 33 d7 dd bc 8a c4 af 3d 07 8f 4d 3d ff 11 36 3d
       -0.027080154 0.08582409 0.05018523 0.044450756
000080 04 9d 67 3d f7 d3 18 3b 8f 69 07 39 fe 81 f5 bc
       0.056546226 0.00233197 0.00012913927 -0.029969212
000090 22 d1 18 bc 3c a0 a5 3b 93 24 d8 bb b8 e0 39 3d
       -0.009327205 0.005054502 -0.006596157 0.045380324
0000a0 d4 bc 37 3d f0 8a 20 3d 6e f7 0c 3b cf d0 d0 3d
       0.044857815 0.039195 0.0021509784 0.10196077
0000b0 bd 3b 93 3d 81 2f ad bd 40 8e d8 3d aa 3e 1f 3c
       0.071891285 -0.08456326 0.10574007 0.00971953
0000c0 88 17 fc 3d 32 aa 3f bd bd 12 63 3d 42 df 2a bd
       0.12309176 -0.04679317 0.055437792 -0.04171682
0000d0 81 72 bd bd fe e3 dd 3b 3d 6c 25 bd d8 88 04 3d
       -0.092503555 0.0067715636 -0.040386427 0.032357067
0000e0 39 12 c1 bd 7c 39 4f 3d bf cc 55 3d 1c a1 04 bd
       -0.09427304 0.05059193 0.052197214 -0.03238021
0000f0 8a f0 ec 3d 63 42 ec bc d8 b9 b1 3d 3e ce ff bc
       0.11569317 -0.02884025 0.08678025 -0.031226274

bn1.weight f4 [64]
000000 60 61 60 3f 2d 1d 9b 3f e9 9f 4f 3f 7e 66 6d 3f
       0.8764858 1.2118279 0.8110338 0.92734516
000010 4a ed 5d 3f e2 ab 4b 3f 33 6a 4c 3f 0c 7d 73 3f
       0.866902 0.7955915 0.7984955 0.9511268
000020 9b 9f 8a 3f f7 bb 51 3f 0f 39 9a 3f dc 52 64 3f
       1.0829958 0.81927437 1.2048663 0.89188933
000030 cb 39 a5 3f a4 cb 73 3f c4 6e 50 3f 2c e3 8e 3f
       1.2908262 0.95232606 0.81419015 1.1163077
000040 92 e0 84 3f d8 77 a2 3f 8a d7 91 3f 59 ca 7a 3f
       1.0381033 1.2692823 1.1393902 0.9796501
000050 7c 44 80 3f 4f da 6b 3f b5 0d 89 3f 90 1f 8d 3f
       1.00209 0.9212999 1.0707308 1.1025257
000060 39 08 92 3f 73 d1 87 3f 11 f3 8a 3f 11 fa 98 3f
       1.1408759 1.0610794 1.0855428 1.1951314
000070 1b df 93 3f 0b 61 80 3f db d2 8a 3f 21 3a 64 3f
       1.1552461 1.0029615 1.0845598 0.891512
000080 3a 78 ad 3f cb d7 5d 3f f5 25 96 3f 49 56 91 3f
       1.3552315 0.866574 1.1730334 1.1354457
000090 bf 51 a9 3f 78 09 67 3f a0 c4 88 3f c4 24 8c 3f
       1.3228072 0.90248823 1.0685005 1.094872
0000a0 91 80 73 3f b0 e5 a2 3f a0 c9 2c 3f 50 96 63 3f
       0.9511805 1.2726345 0.67495155 0.88901234
0000b0 94 5b 82 3f 91 f9 7d 3f b3 bc 84 3f ad 9e 5b 3f
       1.0184197 0.99208933 1.0370086 0.85788995
0000c0 62 ce 7f 3f 6d 64 4f 3f 9a b0 9e 3f 73 33 2c 3f
       0.9992429 0.8101261 1.2397645 0.67266005
0000d0 95 9f 78 3f 81 99 90 3f db ea 97 3f 68 28 6e 3f
       0.971185 1.1296846 1.1868547 0.93030405
0000e0 da 4b 8e 3f 09 45 67 3f 5b 6c 6d 3f ff b3 5e 3f
       1.1116898 0.90339714 0.9274346 0.869934
0000f0 a7 e1 81 3f c0 72 9b 3f 69 97 90 3f 1a 17 78 3f
       1.0146989 1.2144394 1.1296207 0.9691025

bn1.bias f4 [64]
000000 95 d0 88 3e 26 d3 d8 3d 7a 73 0a 3f f0 62 bd 3d
       0.26721635 0.10587148 0.54082453 0.092473865
000010 99 89 af 3e 60 9f b5 3e 63 cb 8b 3e 31 8a db 3e
       0.34284666 0.35473156 0.2730361 0.4287887
000020 95 08 14 be f9 1a 82 3e 01 36 10 3e 51 5c af 3e
       -0.14456399 0.25411204 0.14083101 0.3425012
000030 fa ec 89 3e 86 67 44 3e 03 2b fc 3e a9 f1 63 be
       0.2693861 0.19180116 0.49251565 -0.22260155
000040 e2 7f 9c 3e ea bd 0e 3e 86 4b 65 be 1f 14 c3 3e
       0.30566317 0.13939634 -0.22392091 0.3810129
000050 c0 87 e8 bd 6a 02 ce 3d 33 c5 a2 3d c6 3d 8e 3e
       -0.11354017 0.10059054 0.07947769 0.27781504
000060 7c 0e 35 be 2a 20 40 be ff 7a 80 be 9a 0c bf ba
       -0.17681307 -0.1876227 -0.2509384 -0.0014575899
000070 bb d1 15 3c c9 f8 8b 3e f9 f1 7f 3e 81 bc 4c bd
       0.009144242 0.27338246 0.24994649 -0.04998446
000080 e5 7e cc bd dc 74 e3 3e a5 62 0a be c9 6e b2 3b
       -0.09985141 0.44425094 -0.13514192 0.0054453355
000090 7d 33 81 3e 2e 42 a6 be ac b8 d0 3e c7 9f 8c ba
       0.25234595 -0.32472366 0.40765893 -0.001072877
0000a0 c0 2d 3c be a5 fc 38 3e 53 c7 e6 3e 97 6f 34 3e
       -0.18376827 0.18065126 0.45073947 0.17620693
0000b0 78 76 9d bc 46 2c 88 be 4b 09 1b be 88 52 c3 bc
       -0.01922153 -0.26596278 -0.15140264 -0.023843065
0000c0 ec b0 b2 3e d8 f1 a7 3e 3e 51 3e 3e 71 25 d6 3e
       0.34900606 0.328017 0.18585679 0.4182544
0000d0 67 79 46 3e ad c2 70 be bd db 3d be c7 75 e0 3e
       0.19382249 -0.23511763 -0.18540855 0.43839857
0000e0 97 95 07 be 82 40 1a 3e f5 bd 3e be 92 0e ad 3e
       -0.13240658 0.1506367 -0.1862715 0.3380018
0000f0 26 41 d1 bb f0 d9 38 3d e5 2f ef bd 87 9b cd 3e
       -0.00638594 0.045129716 -0.11679057 0.4015772

bn1.running_mean f4 [64]
000000 b9 47 c2 3e 2d a2 57 be 87 36 a6 be 6a 56 ad 3e
       0.37945345 -0.21057959 -0.32463476 0.3385499
000010 4b 98 9e be b4 b4 50 3d 56 ae b2 3d 84 b2 08 3e
       -0.30975565 0.050953582 0.08724658 0.13349348
000020 2a 74 ec 3e c8 fa 52 3e 1d be a9 3e d5 09 0b 3f
       0.46182376 0.20603478 0.33152857 0.5431188
000030 8c 12 eb be 76 bc 86 be 07 d1 eb be fd 36 a6 bd
       -0.45912588 -0.2631566 -0.46057913 -0.08115957
000040 82 0b 17 3e 0b dc 1f 3f 60 b2 ee 3e 28 2c de bd
       0.14750484 0.62445134 0.46620464 -0.10848266
000050 b9 39 3b 3f b6 ca 99 be 77 d8 14 3f 4f 04 e0 be
       0.7313495 -0.3003747 0.581428 -0.43753287
000060 91 bd aa 3e 56 30 2c 3f e1 13 0a 3f f7 de 42 bd
       0.33347753 0.67261255 0.5393658 -0.047575917
000070 b9 08 5b 3e 21 1e 59 3e 86 71 37 3e a5 06 c8 3e
       0.21390046 0.212029 0.179144 0.3906757
000080 d2 9f 18 3f 9b a3 13 bf f1 b5 0f 3f ca 3e fa 3e
       0.59618866 -0.5767152 0.56136996 0.4887603
000090 18 45 f4 3e fa 46 da 3e 72 66 df be 1f 20 92 3e
       0.47708964 0.42632276 -0.43632847 0.2854013
0000a0 4b 7e 28 3d 8d 4a e7 3e a6 ef e8 bd 19 b8 2e be
       0.041136067 0.45174065 -0.11373834 -0.17062415
0000b0 75 0e 33 3f 1a 49 66 3e a4 b6 3a 3f 23 d7 59 be
       0.69943935 0.22488824 0.7293494 -0.21273474
0000c0 cc 91 a4 be ef e7 b5 be a7 48 96 3c 39 52 a0 3c
       -0.32142484 -0.35528514 0.01834519 0.019570457
0000d0 cc 4d 3f 3e e4 52 21 3f 83 cb 06 3e 10 e1 6f be
       0.18682021 0.63017106 0.13163571 -0.23425698
0000e0 b7 84 af 3e 5b 35 0a 3f 33 cb 99 3e 68 b7 ba bd
       0.3428094 0.53987664 0.3003784 -0.09117013
0000f0 53 2f c4 3e e5 1b dc 3e 98 34 91 3e 53 70 ea bd
       0.38317356 0.42990032 0.28360438 -0.114472054

bn1.running_var f4 [64]
000000 de 6a 58 40 c5 e0 ee 3f 42 56 1a 40 d2 0a 02 40
       3.3815227 1.8662344 2.4115148 2.0319104
000010 7b 0c 49 40 cf 39 e6 3f 2f 57 f4 3f 8b e5 ad 3f
       3.1413867 1.7986392 1.9089106 1.3585676
000020 b2 09 1e 40 44 72 10 40 bf e5 f3 3f 33 ba d5 3f
       2.4693418 2.2569742 1.9054488 1.6697448
000030 81 dc 19 40 77 aa 07 40 5f f5 2e 40 cf 7e 11 40
       2.4040835 2.1197793 2.7337263 2.2733648
000040 da 73 06 40 ed 8b df 3f 15 6b 2a 40 9a 52 4d 40
       2.100821 1.7464577 2.6627858 3.2081666
000050 8b b8 c7 3f 78 f5 c1 3f a2 b8 ce 3f ab f7 e4 3f
       1.5603193 1.5153036 1.6150095 1.7888082
000060 db 3d 13 40 57 0c 23 40 62 41 0a 40 6a 78 29 40
       2.3006504 2.5476282 2.1602407 2.6479745
000070 e5 04 11 40 06 16 1a 40 4f 78 03 40 5c 6e ad 3f
       2.2659237 2.4075942 2.054218 1.3549304
000080 90 a4 1f 40 c8 b3 ce 3f 3d 6a c6 3f 31 cb d6 3f
       2.494419 1.6148615 1.5501171 1.6780759
000090 f6 b0 08 40 e2 c8 f6 3f fb 81 12 40 7c 72 2f 40
       2.1358008 1.9280055 2.2891834 2.7413626
0000a0 5c 47 56 40 73 0d 04 40 ca f6 cf 3f 49 54 28 40
       3.3481054 2.0633209 1.6247189 2.6301444
0000b0 52 fe ce 3f b6 15 3d 40 f0 f0 dd 3f d5 06 f7 3f
       1.6171362 2.9544501 1.7339153 1.929896
0000c0 ed 24 e7 3f 4c d1 11 40 03 b8 0c 40 9b ef 12 40
       1.8058144 2.2783995 2.1987312 2.2958744
0000d0 69 f3 ff 3f 67 3c d0 3f ae 80 8d 40 8c 82 18 40
       1.9996158 1.6268433 4.421958 2.382968
0000e0 e3 df b2 3f a4 6b 1a 40 95 5c f1 3f 67 c1 39 40
       1.3974575 2.4128199 1.8856379 2.9024293
0000f0 5d c3 94 3f 61 62 33 40 cf 5e 00 40 34 5d 0b 40
       1.162212 2.8028796 2.0057867 2.1775637

fc2.weight f4 [4, 64]
000000 5c 09 11 bd ed 34 aa 3d 92 69 8c 3d 65 01 50 3d
       -0.035409316 0.08310876 0.068560734 0.05078258
000010 96 d9 94 3e 79 d3 a2 3d 27 67 1f 3e df 7a 99 3e
       0.29072255 0.079504915 0.15566693 0.29976556
000020 9d 1e 3f be 5c 03 53 3e 3f 45 27 3d 28 7b 9f 3e
       -0.18664022 0.2060675 0.040837523 0.31148648
000030 f6 fc ae 3c a8 3a 0d 3e e1 ea 22 3e e4 60 15 be
       0.021360856 0.13791907 0.15909912 -0.14587742
000040 9e 53 d9 3d 17 e9 c2 3d 01 94 7f bb 77 f3 a8 3e
       0.10611652 0.095171146 -0.003899813 0.3299825
000050 7e a4 33 be 0a de 55 3c e0 d2 73 3d 2e bd ca 3d
       -0.17543218 0.0130534265 0.059527278 0.098993644
000060 90 f8 8c be cb a0 73 be c5 ab 8c be 59 10 fb 3d
       -0.27533388 -0.23791806 -0.274748 0.122589774
000070 ad 84 2e 3e 31 d0 a1 3d 69 51 81 3e 3b f2 c3 bc
       0.170428 0.079010375 0.25257424 -0.023919215
000080 63 a7 fb bc c0 c8 8e 3e da e4 c3 bc 13 bc e7 bd
       -0.030719465 0.27887535 -0.023912836 -0.11315169
000090 bb 97 cd 3c aa cc 30 be 26 7c bb 3e cc 20 dc 3d
       0.025096765 -0.17265573 0.36618155 0.10748443
0000a0 a9 11 0b bd 25 d0 fd bd 82 9c 4d 3e cd 20 14 3d
       -0.03395239 -0.12393216 0.20079234 0.036164094
0000b0 39 05 04 3e 2c 6b 36 be 10 c5 0f be c6 0d 92 bd
       0.12892617 -0.1781432 -0.14040017 -0.07131533
0000c0 5d 04 a0 3e f4 ec 1f 3e 13 8c d2 3d 36 e6 a1 3d
       0.3125333 0.15617734 0.10280623 0.079052374
0000d0 94 33 f0 3d 31 d1 8d be 3a ed 3d be 4a d1 96 3e
       0.11728588 -0.27698663 -0.18547526 0.2945655
0000e0 62 26 3a be 43 0b f4 3d fd 28 64 bd f9 49 45 3e
       -0.18178704 0.119162105 -0.055703152 0.192665
0000f0 a2 b2 88 bd d5 26 bf 3d db b0 64 be 79 33 8f 3e
       -0.066746965 0.093335785 -0.2233309 0.27968958
000100 5d 74 ce be 14 dc 84 3e a2 c4 c2 3e 82 94 a3 be
       -0.40323153 0.25949156 0.38040644 -0.3194924
000110 d0 c1 90 be bf 4b 5e bf bf ed cb be a8 b4 00 bf
       -0.28272867 -0.8683433 -0.39829823 -0.5027566
000120 c9 be 71 3e 90 dc 8a bf 1f 6a bf 3e 5b 56 ad bb
       0.23607935 -1.084856 0.3738565 -0.0052898354
000130 f6 47 cb 3e 39 28 38 bf b1 60 f7 3d e8 47 31 3e
       0.3970334 -0.71936375 0.12078989 0.17312586
000140 d1 f3 10 bf 76 35 4d bf d2 0f 17 bf 64 57 1d be
       -0.56622034 -0.801597 -0.59008515 -0.15365368
000150 6c 26 05 bf e8 8d 07 bf fc 27 1f bf a6 97 ab bf
       -0.5201175 -0.52950907 -0.62170386 -1.3405654
000160 09 7b a0 3e 5c d3 62 bd 79 ba 71 3e 94 51 b0 3e
       0.31343868 -0.05537735 0.2360629 0.3443724
000170 1f 6b 7f 3e 40 a0 28 bf e0 d8 fa be fd 53 20 3e
       0.24943207 -0.6586952 -0.48993587 0.15657039
000180 cd 11 10 bf 7b 51 62 be cc 2c 73 be a0 fb a3 bf
       -0.5627716 -0.22101395 -0.23747557 -1.2811165
000190 97 a2 35 bf ae 64 ab be 5a 77 e1 be 68 97 6e be
       -0.7095122 -0.3347525 -0.4403637 -0.23299944
0001a0 5e 0c e6 be 25 1e 22 bf 72 3f 09 bf cd 85 f9 be
       -0.4493131 -0.63327247 -0.53612435 -0.48734894
0001b0 7c 02 13 bf 8d 69 96 3e ce c5 50 3e 48 04 fb 3d
       -0.57425666 0.29377404 0.20387957 0.12256676
0001c0 9e 08 10 bf 57 71 f9 bd 42 57 8c 3e 0d bb f9 be
       -0.5626315 -0.12179821 0.27410322 -0.4877552
0001d0 c0 37 61 bf 2c 59 9f 3e 5e 51 a3 3e 84 c5 6a bd
       -0.8797569 0.3112272 0.31898016 -0.05731727
0001e0 2c 0f a3 3d fc e9 1d bf cb ba dc 3d ba fa 5c be
       0.07961878 -0.61685157 0.107778154 -0.2158002
0001f0 b8 24 23 bf 27 fc 3e bf 44 bd 8a 3e 12 60 07 bf
       -0.63727903 -0.74603504 0.27097523 -0.52880967
000200 b5 1d 88 be c6 9f 82 be 4d 67 b5 be d5 00 3c 3e
       -0.26585165 -0.25512522 -0.35430375 0.18359692
000210 bf 21 7c bd 9a a1 f3 3d c9 e7 fc bd 4b 35 6a be
       -0.06155562 0.118960574 -0.12348897 -0.22871892
000220 70 bc b0 3b 96 45 3c 3e 5a 70 d5 be a0 a6 d0 bd
       0.0053935573 0.1838592 -0.4168728 -0.10188031
000230 fd f9 85 be 5f 9d 8e be 62 03 91 be b1 c9 eb be
       -0.26167288 -0.2785444 -0.28322893 -0.46052316
000240 e6 9d 16 3e bc 6f 88 3e 4c 35 5d bf 6c b2 01 be
       0.14708671 0.26647747 -0.8640945 -0.12665719
000250 4b cc 46 3e 00 52 24 3d e0 58 8c 3e 4c e8 70 be
       0.19413869 0.040117264 0.27411556 -0.23526114
000260 d1 2e f4 3c 6a ce 8b 3e c7 1d b6 3d 11 db c6 be
       0.02980748 0.2730592 0.08892398 -0.3883901
000270 2c 3b 00 bf 71 9f 30 3e c5 c0 8d 3d 29 ad 69 3e
       -0.5009029 0.17248322 0.069215335 0.22819962
000280 a4 09 2d bf c7 97 19 be 90 4f e9 be 1d 4f 82 3e
       -0.67592835 -0.14999305 -0.45568514 0.25450984
000290 6d 08 32 3e 9d e3 95 3e 1d 3f 20 be 73 30 22 bf
       0.17386027 0.29275218 -0.15649076 -0.6335518
0002a0 fe c1 08 bf e0 41 92 be ac 3f 3c be e9 e9 f3 be
       -0.5342101 -0.28565884 -0.18383664 -0.47639397
0002b0 97 f1 2e bf da 46 88 3e 74 e4 02 3e 7d f5 b3 be
       -0.68337387 0.26616555 0.1278246 -0.3514823
0002c0 d1 fe 30 bb a5 77 d3 bd 2a b0 b9 be 2a 7e b0 be
       -0.002700735 -0.10325555 -0.36267215 -0.34471256
0002d0 6d 81 90 3e c8 fa f3 bd 85 0c 0c bf 48 c8 0b be
       0.28223744 -0.11913067 -0.54706603 -0.1365062
0002e0 96 c6 ee be e5 2e 30 3e 3e 78 80 be 03 4d 47 be
       -0.46635884 0.17205389 -0.25091738 -0.19462971
0002f0 13 8c 69 3e 8a bf 33 bf 0e db f4 3d 0d a7 1f be
       0.2280734 -0.7021414 0.11955844 -0.15591069
000300 39 1e 67 3e 59 82 e8 be dd 02 07 bf 18 ef a7 bf
       0.22570123 -0.45411947 -0.52738744 -1.3119841
000310 01 5a 7d be 6f 0b fa be a8 a0 c4 bd 45 be 1f bd
       -0.24741365 -0.48836848 -0.09600955 -0.038999815
000320 ed fd 97 bf 4d 2e b7 be dd 6a 1a bf 85 dd 94 be
       -1.1874367 -0.35777512 -0.6031931 -0.29075256
000330 4c e4 56 bf 79 f6 93 3e a5 12 24 bf 9c 43 b4 3e
       -0.83942103 0.2889898 -0.6409095 0.35207832
000340 42 1a b2 bf 93 3d 16 bf e7 18 ac 3e c2 ef c2 be
       -1.3914263 -0.58687705 0.3361275 -0.38073546
000350 ee d1 e9 3e b9 90 da be 4e 19 ff be f7 a8 8f 3e
       0.45667976 -0.4268854 -0.49823993 0.28058597
000360 46 6f bb bf 82 d5 ee 3c 74 29 1d bf 06 22 34 bf
       -1.4643333 0.029154543 -0.6139138 -0.70364416
000370 b8 65 fa be 75 cf 1c bf 81 5a 37 bf 26 a2 5b bf
       -0.4890573 -0.61254054 -0.71622473 -0.85794294
000380 df 76 a9 3e 2e 61 90 be 7e 2d b0 3e 2b 71 b6 3e
       0.33098504 -0.28199142 0.34409708 0.35633215
000390 06 c0 70 bf 4f 67 ae be 1b 03 8f be 4d d5 91 3e
       -0.94043005 -0.34063193 -0.27932057 0.28483048
0003a0 96 79 7f 3e 7e d3 a5 3e bc 56 8a 3e a6 47 2a 3e
       0.24948725 0.32387918 0.27019298 0.16628894
0003b0 ad 60 39 3e f8 25 9f bf 93 4a 2d bf 58 19 2d bf
       0.18103285 -1.2433462 -0.67691916 -0.67616796
0003c0 68 f3 f5 be e4 10 db be e2 97 8e bf 1b 61 ad 3c
       -0.48037267 -0.42786324 -1.1140101 0.021164468
0003d0 43 64 80 bf 3f b1 66 3e d5 0c 45 3e 11 79 c5 be
       -1.0030597 0.22528552 0.19243176 -0.3856893
0003e0 e2 c4 a1 3e 8e 30 12 bf 82 d5 2b 3e 37 fc da be
       0.31595522 -0.5710534 0.16780666 -0.4277055
0003f0 66 d8 96 3e ab 44 4d 3e 23 41 6f bf d4 32 63 be
       0.29461974 0.20045726 -0.93458766 -0.22187358

fc2.bias f4 [4]
000000 b0 10 da 3d 7a 20 33 bd e7 32 93 bd fe f5 c1 be
       0.10647714 -0.043732144 -0.07187443 -0.3788299
