Models/model_19_recs.pt (torch, 951913 bytes, 32 tensors)

lstm.weight_ih_l0 f4 [512, 6]
000000 c7 88 8a 3d dc 29 d7 bd 03 bf 80 bd 4b 53 00 bd
       0.067643695 -0.10506031 -0.062864326 -0.031329434
000010 7a 50 f6 bd 4e a6 17 be 79 e7 6c 3c 23 72 2d 3e
       -0.120270684 -0.14809534 0.014459484 0.16938071
000020 fc 9b 2a be af f2 80 3d e9 4e 8b 3e 40 b0 ac bb
       -0.16661066 0.06296288 0.2720864 -0.005270034
000030 25 6e 11 bd e0 98 af bc cd 87 14 3e 4b 73 f9 bd
       -0.035505433 -0.021435201 0.14504929 -0.121801935
000040 df a0 0e 3e 3e b1 e4 3c ea b4 7e bd 43 8a fa bc
       0.13928555 0.027916547 -0.06218425 -0.030583506
000050 57 6b d8 3c 33 cb 0f bd 63 04 9e ba 31 f6 87 3c
       0.026418371 -0.035105895 -0.0012055751 0.016596885
000060 f7 6b a7 ba 62 ec ec bd 5a 46 3f bd b8 5e 3d 3e
       -0.0012773265 -0.11568524 -0.04669795 0.18493164
000070 29 36 03 be fb 36 fc 3d 15 df f8 3d ac 47 db 3d
       -0.12813629 0.12315174 0.121519245 0.1070703
000080 ce 61 ec bd 26 3f a1 bd e9 39 ce bd f6 52 bd 3d
       -0.11542092 -0.07873373 -0.10069639 0.09244339
000090 9a 6c 0b be ba 20 d9 bd 7c 05 13 3e 3c 17 9a bd
       -0.13615647 -0.10601945 0.14357561 -0.07523963
0000a0 19 07 18 3c ff 6b ad 3d 71 c3 49 bd 7a a9 a2 bd
       0.009279036 0.08467864 -0.049258653 -0.07942481
0000b0 ce d6 57 bd f7 4a 0c 3e 0a f2 22 3e f4 38 3f bd
       -0.052695088 0.13700472 0.15912643 -0.046685174
0000c0 44 2b d8 3c 62 d9 88 bd 09 9c 11 3e 6b fd e8 3c
       0.026387818 -0.066820875 0.14219679 0.028441152
0000d0 98 36 0c be 63 b6 cf bd d0 3a 5f 3d 71 87 d6 3c
       -0.13692701 -0.101422094 0.054499447 0.02618763
0000e0 0c 10 15 3e 05 be 2d 3e 67 1d 27 be eb db 68 bd
       0.14556903 0.16967018 -0.1631981 -0.056850355
0000f0 8d 9a e9 bd 33 3f 04 be 6e 13 97 3d ea 6f ac bb
       -0.11406431 -0.12914734 0.07376753 -0.0052623646
000100 98 ac a9 bc 69 8e 47 3e 22 2f ab 3c c1 25 15 3e
       -0.020712182 0.19487919 0.020896498 0.14565183
000110 1f 88 fb bc a0 48 87 3c 81 fc 91 3d dd bc 3d 3e
       -0.030704556 0.016514122 0.071282394 0.18529077
000120 a1 ad 69 3e 18 4a 46 3e e7 09 07 3e 2c 36 67 3d
       0.2282014 0.19364202 0.13187371 0.056448147
000130 34 f3 7c 3c 3d 41 48 bb b9 86 38 bd fb 2a f3 bd
       0.0154388435 -0.0030556463 -0.045050357 -0.11873432
000140 52 de ce 3d 42 e2 0c bd 6f c3 e9 3d d4 cb b9 3d
       0.10100998 -0.034395464 0.11414229 0.0907208
000150 7f 80 e3 bd 55 81 12 3e 67 86 0b bd 3a 0b 3c be
       -0.11108493 0.14307149 -0.034063723 -0.18363658
000160 da a1 d0 3d 03 99 6b bd a0 0e 27 be 1f 9e 33 3e
       0.10187121 -0.05751897 -0.16314173 0.17540787
000170 20 78 88 3d 82 82 c8 bd 24 f4 ee 3d f8 9d 1f be
       0.06663537 -0.097905174 0.1166766 -0.15587604
000180 90 27 28 be 75 d1 2e bd f0 b6 4d 3d 6c e3 ac bc
       -0.16421342 -0.042680223 0.05022329 -0.021104537
000190 49 8b 5e 3d 33 f4 18 3e d6 b0 5e 3d ad ca a4 3c
       0.05433205 0.14936905 0.054367863 0.020116175
0001a0 68 0d ff bd e5 e2 11 3c 41 26 1f bd fe e3 a2 3d
       -0.12453729 0.0089041935 -0.03885484 0.07953642
0001b0 2f 72 99 3c 82 91 a0 3d a9 72 6c 3d f5 ff 61 3e
       0.018731205 0.078402534 0.057726536 0.22070296
0001c0 46 03 6e be f5 54 05 bc f0 1d e2 3c ba 46 25 be
       -0.23243436 -0.008137931 0.027602166 -0.16140261
0001d0 73 a0 99 3c 01 7d 63 be 99 5a ee bc e9 2d bb 3d
       0.018753266 -0.22215654 -0.029095935 0.09139616
0001e0 f5 19 19 3d 6b 76 33 3d 00 a4 47 bd 99 fb 36 bd
       0.03737827 0.043814104 -0.048740387 -0.044673536
0001f0 c0 e4 75 bd 8f d5 f8 3d 99 52 34 bc 44 fe 8f 3d
       -0.060032606 0.12150108 -0.011006021 0.07030919
000200 51 fd a7 bd 78 1d b0 3d c3 73 2a 3c 31 e0 76 3d
       -0.08202613 0.08599371 0.010403576 0.0602724
000210 c7 a4 bb 3b 4a 07 10 3d f6 64 85 bd df 98 34 3e
       0.00572643 0.0351632 -0.065133974 0.1763644
000220 ca 56 5f 3a cf 77 bf 3c 18 93 e7 bd 1e 76 bd 3c
       0.00085197075 0.023372559 -0.11307353 0.023127612
000230 93 be e9 bd 62 73 c1 3d dd 11 2f 3c fc 80 a0 3d
       -0.11413302 0.09445836 0.010685411 0.07837102
000240 dd 85 c4 bd 9a 16 22 3e 57 84 b2 bd ef 84 d9 3b
       -0.09595845 0.15828934 -0.08716648 0.0066381614
000250 2a 4a 07 3e 17 5e 89 bc 70 5c 35 3e 7a 53 83 bb
       0.13211885 -0.016768498 0.17711043 -0.004007754
000260 9d 6e 29 bd 7c d7 18 3e b6 8b 3e be b7 23 19 be
       -0.041365255 0.14925951 -0.18607983 -0.1495503
000270 b1 45 47 be 78 38 62 3d 84 c2 92 3b 93 89 fc bd
       -0.19460179 0.055229634 0.0044787545 -0.12330928
000280 72 bd 93 3d 34 b8 04 3e 60 4b 51 be b6 f3 bf 3d
       0.07213868 0.12960893 -0.2043891 0.09372656
000290 d2 99 a9 3d be 04 72 bd 4d ce 64 3d 4c e0 09 3c
       0.08281292 -0.059086554 0.055860806 0.008415293
0002a0 56 3f 2e 3e fa 1a 3f 3d 5b c5 1d 3e 78 d7 01 bd
       0.17016348 0.046656586 0.15407316 -0.031699628
0002b0 80 a0 85 bd 8e 31 95 bd c1 e7 2c bd 84 27 6b bd
       -0.065247536 -0.072848424 -0.042213205 -0.057410732
0002c0 08 c7 f2 3d 68 29 db 3a 7b 3a c5 bc 1d 20 e3 3d
       0.118543684 0.0016720714 -0.024075737 0.110901095
0002d0 3a 40 b5 3e 8d 23 be 3d 9a c0 bd be a3 0a 8d 3d
       0.35400563 0.092841245 -0.37061006 0.068867944
0002e0 e8 66 8a 3e dd e3 91 3d d7 18 4f bd 05 66 da 3d
       0.27031636 0.071235396 -0.0505608 0.1066399
0002f0 2b 2b 3d 3e 2a fb 36 3e 33 7c 39 3d b7 63 52 3e
       0.18473499 0.17869249 0.04528446 0.2054585
000300 14 a9 09 bd 7e 58 0a 3c 59 34 47 be bf 47 41 be
       -0.03360851 0.00844395 -0.19453563 -0.18875025
000310 59 b0 26 3e 27 0e 9e bd 3e 6f 31 3e 94 3f 62 bd
       0.16278209 -0.07717543 0.17327592 -0.055236414
000320 10 e3 e1 3d ad 95 5c be e3 ad 65 3c 76 18 56 3d
       0.11029637 -0.21541472 0.014018509 0.05226942
000330 4d 1d d9 bd 75 50 49 3d df 15 04 bd e5 e0 ac bc
       -0.10601292 0.049148995 -0.03224742 -0.021103332
000340 0d 84 0f bd 4a e3 01 3e 74 b3 92 bc 97 03 a5 3d
       -0.035038043 0.1268436 -0.017907836 0.08057325
000350 8a b3 a0 3c d1 bc 14 be 6b cf 84 bb be 5f bb bc
       0.01961686 -0.14525153 -0.0040530465 -0.022872802
000360 82 52 46 3e 5c 0c 2d bd 8a 7a f0 3d 7c 41 3b 3e
       0.19367412 -0.042248115 0.117421225 0.18286699
000370 09 e7 e7 bb a1 64 9b bc 44 fc 01 be 68 62 62 3d
       -0.007077102 -0.018968882 -0.12693888 0.05526963
000380 cb 3b 91 bd 3b ee 94 be eb a7 25 3e 1c 85 3c be
       -0.07091483 -0.29088005 0.16177337 -0.18410152
000390 b3 9d a8 3c c6 12 93 3d e9 68 ef 3d 19 32 84 bc
       0.02058301 0.07181315 0.11689932 -0.01613717
0003a0 97 55 08 3e fd ef 91 3c 05 63 03 3e 20 96 23 3e
       0.133139 0.01781463 0.12830742 0.15975237
0003b0 1f 97 1c 3c a3 81 0a 3e f1 54 f5 bc 0e 8e 57 3e
       0.009557514 0.13526015 -0.02994773 0.21050283
0003c0 de 15 90 3d 55 7a 8e 3e f1 53 86 bd f7 4e f3 bd
       0.07035421 0.27827707 -0.06558979 -0.11880296
0003d0 6f 12 2e 3e fb 39 99 bd 3a 32 2c 3e 61 1d 87 bb
       0.1699922 -0.07481762 0.16816035 -0.0041233753
0003e0 2e 8d 1d 3e 1a 84 17 3d 9f 39 9c 3d 97 60 3c 3e
       0.15385887 0.036991216 0.07628178 0.18396221
0003f0 6c cf d8 bd ce 25 74 3d ef 9f d4 3d 10 8b 4d ba
       -0.105864376 0.059606366 0.103820674 -0.00078408513

lstm.weight_hh_l0 f4 [512, 128]
000000 31 1f 73 3d bc 00 d8 bc 7a 37 9f bd 4e e0 03 3e
       0.05935592 -0.026367538 -0.07774253 0.12878534
000010 62 f1 38 3d 54 63 47 3b c1 31 75 bb cd b6 49 3d
       0.045152076 0.0030424194 -0.003741369 0.049246598
000020 7a 1b c7 bd 8e 2e 65 3c 6e 4f 0e be f4 45 02 3b
       -0.097220376 0.01398815 -0.13897488 0.001987812
000030 b7 5c 3a bd cc b9 8a bd 58 59 e9 bd 8f 94 92 bd
       -0.045498576 -0.06773719 -0.11393994 -0.071572416
000040 57 4a 7a 3d 8c 70 33 3c 84 37 20 3e b1 e9 04 bd
       0.061106052 0.010952126 0.15646178 -0.032449428
000050 7e 53 98 3d ea 66 ba 3d 96 2a eb bd 1a 37 db bd
       0.074378 0.091016605 -0.11482732 -0.10703869
000060 54 3d d0 3d 37 01 05 3d 6a 35 c3 3d 9d 97 9f bc
       0.101679474 0.03247186 0.09531672 -0.019481475
000070 f2 d2 3a 3d e5 b0 39 bd 5a 98 b0 3d 9f 40 4e be
       0.04561133 -0.045334715 0.08622809 -0.20141838
000080 71 6a 14 bd 4a 3d 3e 3c 51 57 02 be 53 f5 25 3c
       -0.036234323 0.011611292 -0.12728621 0.010129291
000090 3f 12 2c bd 37 46 46 bc 82 5f 9b bc 17 da 0b 3e
       -0.04200959 -0.012101701 -0.01896644 0.13657413
0000a0 f0 de 05 3e 2a da 60 3c de d6 36 3e 01 6b d8 bc
       0.13073325 0.013723889 0.17855403 -0.026418211
0000b0 9c dc 8f 3d be d0 2c be 52 e6 7b bc 29 b2 2d 3d
       0.070245 -0.16876504 -0.015374737 0.042406235
0000c0 4c 77 d3 bc 66 5c 8e bd 3a 14 ba bd 54 88 d8 3c
       -0.025813721 -0.06951217 -0.09085889 0.026432194
0000d0 fb cf b0 3d 34 df ac bc 08 5c bd bd 16 f4 58 3d
       0.08633419 -0.021102525 -0.09246069 0.052967153
0000e0 a6 cf 94 3d 4e 70 a4 3c 64 22 9e bc 74 3d f1 3d
       0.07266168 0.020073082 -0.019303508 0.117792994
0000f0 0c 9b e9 3d fe 31 b9 3d ae e3 64 be e7 00 8f 39
       0.11406526 0.090427384 -0.22352478 0.00027275758
000100 5a 64 d7 3d 0c e8 02 bc 61 72 4c 3d d9 d2 ae bc
       0.105171874 -0.007989895 0.049913768 -0.021340774
000110 81 7f cc bc 98 e9 07 bd 69 1d 2a be fd 36 ad bd
       -0.024963142 -0.033181757 -0.16612782 -0.08457754
000120 16 b0 91 3d 3c 41 6a 3b 6d 54 07 3d 71 c4 18 3d
       0.07113664 0.003574445 0.0330395 0.037296716
000130 90 ea e1 bc 39 d9 da bc f0 99 ef bd 0a a3 c9 bc
       -0.027577668 -0.026714908 -0.11699283 -0.024613876
000140 55 1e 1e 3e 59 8b 8d 3d 94 e1 45 be 77 de 28 3d
       0.15441258 0.06911344 -0.19324332 0.041227784
000150 d3 15 46 3e 07 eb 9c bd b3 ea d4 3d 20 ad 2c be
       0.19344263 -0.076620154 0.10396328 -0.16862917
000160 17 50 b2 bd 35 c5 11 bd 0e ce a8 3c 67 a2 fa bc
       -0.08706682 -0.035588462 0.020606067 -0.030595018
000170 ce 35 33 3b ea 39 b2 3b 74 07 e8 3d 5a 2c 3c bd
       0.0027345303 0.005439033 0.113295466 -0.045940734
000180 21 93 4c bb a4 73 26 bd ec 48 9c 3d bc 60 0d be
       -0.0031215625 -0.040637627 0.07631096 -0.13806432
000190 83 20 fb 3c a0 c2 44 bd ce cc 86 3d cb b4 a9 3a
       0.030655151 -0.04803717 0.06582032 0.0012947557
0001a0 60 22 29 be b1 0d 16 bd f7 33 31 3e fb 28 b1 3d
       -0.1651702 -0.03663415 0.1730498 0.086503945
0001b0 c0 b4 2c 3e 93 dd e2 3d 2a ba ee 3c a5 6e 8d 3c
       0.16865826 0.11077418 0.029141504 0.017264673
0001c0 83 1c 81 bd cc c9 76 3b 65 42 46 3d 4f 7b 60 bd
       -0.06304266 0.0037656901 0.048403163 -0.054805096
0001d0 fb 0b 9b bc 6e d5 a5 bd 79 44 65 bc ce 2d 5c be
       -0.018926611 -0.08097349 -0.013993376 -0.21501848
0001e0 d6 83 96 3c f7 14 08 3d 26 ba 56 3c 93 7f ac 3d
       0.018373411 0.03322312 0.013105905 0.0842277
0001f0 6c e3 a7 3c 5d 8c c0 3d cf 3c 57 3d 65 6c b6 3d
       0.020494185 0.09401772 0.052548226 0.08907393
000200 b9 00 8f 3d 06 c4 07 3e 37 54 f0 3d bd 61 86 bc
       0.0698256 0.13258371 0.11734813 -0.016404027
000210 99 cc f6 3d c9 a2 bc bd a2 04 12 be e4 73 11 bd
       0.12050743 -0.09210736 -0.1425958 -0.035510913
000220 71 8e 47 3c 0f 87 c3 bd 25 3a e7 bd 12 fa 0c 3e
       0.012179957 -0.09547245 -0.11290387 0.13767269
000230 ef f0 ea 3d 52 f0 cc bd db 12 20 3e ef f7 26 3e
       0.11471736 -0.10006775 0.15632193 0.16305517
000240 5c ea ac 3d 9a 00 19 3e 5f 83 67 3c 8d 3a 5b bc
       0.08443138 0.14941636 0.014130442 -0.013380659
000250 40 91 80 bd 70 69 f2 bd be b9 cb 3d c5 39 8a 3d
       -0.06277704 -0.11836517 0.09947537 0.067493
000260 6d 49 0c 3d 23 a3 99 bc bb 8a 68 3e 5d a9 67 be
       0.03424971 -0.018754547 0.22709171 -0.226232
000270 95 84 8c bd 26 38 b8 bd bf 11 7f 3c 32 44 a2 3d
       -0.068612255 -0.089950845 0.015568196 0.079231635
000280 e4 1a 90 bd 96 db ca 3b 7e ef 5b 3c c0 56 25 bc
       -0.07036379 0.0061907275 0.013423799 -0.010091484
000290 ae a2 a3 bd 9c de 53 be 4b 9c e5 3d 22 75 24 3d
       -0.07990013 -0.20690387 0.11211451 0.04015077
0002a0 1f dc a7 bb c1 98 2b be 87 9e 28 bd af 0b 56 3e
       -0.005122676 -0.1675749 -0.04116681 0.20902894
0002b0 aa 46 c7 bd e6 b2 6a 3d 23 f6 ea 3c 0e 46 71 3d
       -0.09730275 0.057299517 0.02868182 0.0589047
0002c0 30 27 25 bd 31 bf b7 3d e5 e5 0b 3b c2 ec 33 3e
       -0.040320575 0.08972014 0.0021346745 0.17570785
0002d0 90 67 4e 3b 81 6c 0e 3e 34 ce 4c be 52 3b 09 bd
       0.0031494834 0.13908578 -0.20000535 -0.033503838
0002e0 66 5d 4e bd 32 da 11 be ca 18 c6 3d 6e b9 38 3e
       -0.05038204 -0.14243391 0.09672697 0.18039486
0002f0 db c2 d8 3d 32 66 57 bd 44 cf fd 3c 00 98 01 3d
       0.10584041 -0.052587695 0.030982621 0.0316391
000300 28 2f 38 bd ca 27 35 be 57 a7 76 3d 36 da 0c bd
       -0.044966847 -0.1769096 0.06021818 -0.03438779
000310 36 29 d6 bc fc 45 40 3c 4d 73 ab 3c cd 65 6e bc
       -0.026142698 0.011735436 0.020929003 -0.014550638
000320 3a 69 fc 3c e7 0f 9d 3e b5 38 c1 3c 44 a9 49 3e
       0.030811895 0.30676195 0.02358661 0.19693476
000330 55 de 05 3e 71 34 4d 3e 7f e2 13 be 76 e3 bf 3c
       0.13073094 0.20039536 -0.1444187 0.023423892
000340 7d 83 1e 3c 55 67 62 3d 79 80 53 bd 26 7d fa bd
       0.009674904 0.055274326 -0.051636193 -0.122309014
000350 65 f9 08 3e 71 d7 ad bd 93 f1 b5 bd ee d4 8c 3d
       0.13376386 -0.08488358 -0.08883967 0.068765506
000360 ae 62 54 3e c5 ff ba bd 11 2d 46 3d 16 4c 12 3e
       0.20740768 -0.091308154 0.048382822 0.14286837
000370 26 2d e6 bd bc 64 3e 3d 44 50 9f bd 2e e0 c3 bd
       -0.1123908 0.046482787 -0.07778981 -0.09564243
000380 f1 49 15 bd 8e 3c 4f bd e5 5e 4a bd dd e6 76 bd
       -0.03644747 -0.05059486 -0.049406905 -0.060278762
000390 21 84 c3 3d b5 50 0c 3e 33 9e 4e be e6 c3 d0 3c
       0.09546686 0.13702662 -0.20177536 0.025484037
0003a0 b6 ac 06 bb 0a 3f 24 be 4a f2 19 bb 2c c5 62 bd
       -0.002054972 -0.16039672 -0.0023490363 -0.05536382
0003b0 0c 59 51 be 38 74 c8 bd eb dd 15 be 37 39 9c 3c
       -0.20444125 -0.09787792 -0.14635436 0.01907025
0003c0 9b 9b 28 bd ef 60 9c bd 75 95 9a bd 7c b6 71 3c
       -0.041164022 -0.07635676 -0.07548038 0.01475298
0003d0 89 79 e8 bd f3 1d 7f bd e0 42 32 3e 82 9c e2 3d
       -0.11351306 -0.06228442 0.17408323 0.11065008
0003e0 05 23 51 3e 9c 01 5f be e1 7d 62 bd c3 09 0d 3d
       0.20423515 -0.21777958 -0.05529583 0.034433138
0003f0 0c 31 d7 bc ec 0c 3a 3c 1c 94 dd 3d 85 db 5b bd
       -0.026268505 0.01135562 0.10819265 -0.053676147

lstm.bias_ih_l0 f4 [512]
000000 26 6c 82 bb 45 22 cf 3c 2a 7c c7 bd d1 96 86 bc
       -0.0039801775 0.025284896 -0.09740479 -0.016429337
000010 62 56 64 3c b5 8f 87 bd 02 be 46 bb ac 6e b6 bc
       0.013936611 -0.06619207 -0.0030325656 -0.02226957
000020 cd cb 19 3b da 3e dc bc e6 cb 4b bd be 22 de 3c
       0.0023467422 -0.026885439 -0.049755 0.027116176
000030 89 36 40 be ff f5 29 bd 3d b8 b3 bd cb 90 e2 3b
       -0.18770804 -0.041494366 -0.08775375 0.0069142333
000040 d9 76 de bc e8 d4 a3 3d a6 03 f4 3c 60 35 56 3d
       -0.02715628 0.07999593 0.029786896 0.052296996
000050 46 ae 74 bd 9a d8 c0 bd fc f8 27 be 19 5b 39 bd
       -0.059736513 -0.094163135 -0.16403574 -0.045252893
000060 15 38 b8 bd 4b d8 e5 bd 52 59 d0 3c fd d6 ee 3d
       -0.08995072 -0.11222895 0.025433216 0.116620995
000070 80 1e 0c bd 00 b5 82 b9 9f 11 f1 bd fc 27 07 be
       -0.034208775 -0.00024930388 -0.11770939 -0.13198847
000080 52 f1 7c bc c8 cc 99 3b 73 09 61 3d c7 e8 76 3d
       -0.015438395 0.0046936013 0.054940652 0.060280588
000090 49 c9 3e bd 5f 01 12 bd 88 a7 c2 bd f3 da 5c bd
       -0.04657868 -0.03564584 -0.0950461 -0.053919744
0000a0 cc d5 91 3d b0 61 a0 bd bb 48 cc ba e1 c2 01 be
       0.07120857 -0.078311324 -0.001558564 -0.12671997
0000b0 14 e5 e6 bd 85 f9 0e 3d 27 ab 03 bc 1e f5 d1 bc
       -0.11274162 0.03490593 -0.008036411 -0.025629576
0000c0 cf 81 93 bd 22 3c 8d bc 33 a9 28 3d 43 3a ab bd
       -0.072024934 -0.017240588 0.041176986 -0.08360722
0000d0 a7 99 bd 3d ce a0 59 bd b4 f6 80 bd 35 31 4e bd
       0.092578225 -0.05313187 -0.06297055 -0.050339896
0000e0 61 c9 95 bd 07 15 44 bc 27 59 b5 bc a5 24 e0 bd
       -0.073138006 -0.011967904 -0.022137238 -0.109444894
0000f0 cb f0 ed bd fb d2 a1 3d 6e 66 4c bd 4d b0 40 bd
       -0.11618193 0.079015695 -0.049902372 -0.047043134
000100 ce b2 98 bd ee 41 c8 3d 2f 73 94 3d 31 1c 7c bc
       -0.07455979 0.097782 0.07248532 -0.015387581
000110 fa 72 17 3d cc 3b 48 bd 11 ff be 3d 82 0c 99 bc
       0.036974885 -0.04888515 0.09325994 -0.018682722
000120 35 81 f8 bc 7c 5e 58 3a 52 ac 05 bd f5 0b e2 bc
       -0.030335048 0.00082538254 -0.03263504 -0.027593592
000130 a3 84 a3 bd 26 b3 1d 3d d9 be 2c 3e 56 f7 91 bd
       -0.07984283 0.038500927 0.16869678 -0.07127254
000140 c3 f7 32 3d d4 d1 2a bd 72 b9 08 3c 3e d9 8a bd
       0.043693315 -0.041704014 0.008344995 -0.06779717
000150 95 58 78 3c 3e c6 35 ba ab 76 a0 3c 7b 91 9d bd
       0.015157838 -0.00069341424 0.019587835 -0.07693764
000160 01 c3 65 3d 5d 70 61 bd 5e fb ef 3d 51 c8 a6 bb
       0.056094173 -0.0550388 0.11717866 -0.0050897975
000170 7c c0 d9 bd 53 9e 08 bd 8a a9 03 be 41 a1 dc bc
       -0.106324166 -0.033354115 -0.12857643 -0.02693236
000180 e4 37 a0 3c ee 94 f5 3c a4 f0 fe bc c6 3a ce 3d
       0.0195579 0.029978242 -0.031120606 0.10069804
000190 64 97 bf 3b a5 86 85 bd 8c cf c0 bd d2 6a dd bb
       0.0058469046 -0.06519822 -0.094145864 -0.0067571187
0001a0 01 da 79 3d 24 82 8b bd fa 97 1c bd f3 c8 b8 bc
       0.06099892 -0.06811932 -0.038230874 -0.022556758
0001b0 b8 1c de 3d 05 ff 88 bd 0a 55 a5 bd 79 7d 21 bd
       0.108453214 -0.06689266 -0.080728605 -0.0394263
0001c0 74 15 fd bb 44 b8 d5 3b d8 79 f6 ba 80 77 02 3d
       -0.0077235047 0.0065222103 -0.0018804623 0.031852245
0001d0 63 af 3d 3d dd 7e 02 3d e1 d5 fe bc 49 51 06 3e
       0.04630984 0.031859268 -0.031107845 0.13116945
0001e0 82 5f da bb 6d a4 24 3e e7 72 a0 bc b9 89 ac bc
       -0.0066642174 0.16078348 -0.01958604 -0.021061765
0001f0 2e 2e 99 bb 21 01 77 bd d5 92 6e bd b7 55 7b 3d
       -0.0046746945 -0.06030381 -0.0582455 0.06136104
000200 c1 16 e9 bd 42 6f 02 3e dc bd f7 bc 81 f2 7f bd
       -0.11381293 0.12737754 -0.0302419 -0.06248713
000210 0e d8 b3 3d b9 64 b2 3c ff b4 2e 3e 90 48 c3 bd
       0.087814435 0.021776544 0.17061232 -0.095353246
000220 06 f5 1c 3e 22 48 81 bd 2f 6f b8 3d 4e 6e c4 3c
       0.15327844 -0.06312586 0.090055816 0.023978379
000230 29 30 26 be fe 55 96 3c 7a 2c ba 3d ac 1b ee 3c
       -0.16229309 0.018351551 0.090905145 0.02906593
000240 4b a5 e0 bc 2a 95 d9 3d da b5 c3 bc a0 8a bd 3d
       -0.027422568 0.10624154 -0.023890425 0.09254956
000250 74 e3 35 3d 67 28 d4 bd 97 96 1a be 3a 86 21 3d
       0.04440637 -0.10359269 -0.15096508 0.03943465
000260 37 9a 09 3d 8a ce 0e 3e 94 46 bc bd d9 bd 3f 3e
       0.033594336 0.13945976 -0.09193149 0.18724765
000270 18 05 31 bd ab ae 4e bc b6 de 1b 3e 2f 23 0b be
       -0.04321775 -0.012614886 0.15221676 -0.1358764
000280 73 77 ef 3d 0d 03 34 3c 6b 02 11 bd 8d 7d 54 3c
       0.11692705 0.0109870555 -0.035402697 0.012969387
000290 22 f0 db bc 20 2c 97 3d 3b fe 19 3c 58 f5 26 3e
       -0.026847903 0.07381463 0.009398992 0.16304529
0002a0 d2 eb 36 3d 7b d0 1f 3d c7 1b 8c bc 74 63 5b bb
       0.04465849 0.03901718 -0.017103089 -0.0033476027
0002b0 9a 06 6d 3d 6e 2f fc 3d e3 b9 62 3e a3 cd ee bc
       0.057867624 0.12313734 0.22141223 -0.02915079
0002c0 f4 91 43 bd 40 14 c0 bc f3 d5 19 bd c1 a3 c5 bc
       -0.047746614 -0.023447156 -0.037557553 -0.024125936
0002d0 e2 2b 24 bd f2 46 06 3e dd e0 3a 3e f1 c3 e2 3d
       -0.040080912 0.13113001 0.18249841 0.11072529
0002e0 01 df 0b 3d 08 6f 44 3d 11 4b 4b 3e 93 96 42 bd
       0.03414822 0.04795745 0.19852854 -0.04750688
0002f0 ee fc 71 bd c7 f5 23 3d f9 b2 0b 3e 38 3e 99 bd
       -0.059079103 0.040029313 0.13642491 -0.074825704
000300 3e 47 58 bd 24 1e 48 3e b6 a6 87 3d ec e4 75 bd
       -0.052802317 0.19542748 0.066235945 -0.06003277
000310 d2 8a e6 3d dc 3a c0 bd d8 b4 22 3e 03 63 98 3d
       0.112569466 -0.093862265 0.15889299 0.0744076
000320 9d 9a 93 bd 0b 8e 5f 3c 06 48 14 bb 07 cb 0a 3d
       -0.072072245 0.0136447055 -0.0022625937 0.03388503
000330 28 5d 48 3e a8 0a b2 3d a0 98 fd 3d e9 73 b6 ba
       0.19566786 0.08693439 0.123826265 -0.0013920042
000340 d7 f5 26 3d 57 32 d5 3d 56 51 0c 3d 93 ba a7 bc
       0.040761795 0.10409992 0.034257255 -0.020474708
000350 2b 0f ba bc 78 e9 08 3e e6 86 82 3d a5 02 12 3e
       -0.02271231 0.13370311 0.06373386 0.14258821
000360 4d e9 ea 3c 4f 26 20 ba 44 96 4b b9 c0 4d 83 3d
       0.0286757 -0.0006109224 -0.00019415567 0.06411314
000370 85 ba b7 3c b4 9e aa 3d 4b bc cf 3d ea 79 4a 3d
       0.022427807 0.083310515 0.10143336 0.049432673
000380 5d de bc bc f8 0e ee 3d ba aa b9 bd 2c 67 34 3e
       -0.02305525 0.11623949 -0.09065767 0.17617482
000390 5a 10 47 3d 0c a2 92 bc f9 96 fa 3d 4a 73 58 3d
       0.04859958 -0.017899536 0.12235827 0.052844323
0003a0 06 cf 81 3d 0a c6 e6 3d de 63 02 3e 1e 88 cc bc
       0.06338315 0.11268242 0.12733409 -0.02496725
0003b0 d1 71 06 3d b1 ae 33 3e 2c f2 f4 3d 93 10 6d bd
       0.032823388 0.17547108 0.11960253 -0.057877135
0003c0 4b d6 48 3e e1 bb 23 3e 5f 44 c8 3c ab d2 ba 3c
       0.19612996 0.15989639 0.024446664 0.022805532
0003d0 f5 2b 93 3d 1a a1 85 3d b5 dc 83 3d a6 33 9c 3d
       0.071861185 0.06524868 0.06438581 0.07627039
0003e0 f1 dc fc 3d 78 9b 94 3d d5 08 3d bc fa 44 24 bc
       0.12346829 0.07256216 -0.01153775 -0.010026211
0003f0 67 37 7e 3d 0c 68 1a bc 2a 83 1c 3d 49 0d 00 3d
       0.062064555 -0.009424221 0.038211025 0.03126267

lstm.bias_hh_l0 f4 [512]
000000 35 e0 11 bd e9 92 40 3c 78 35 6d 3b bf 67 86 bd
       -0.03561421 0.011753776 0.00361952 -0.06562757
000010 92 7a f7 3c ea 1b 5a bd c9 fc 3d bd 89 a0 c6 bd
       0.030209813 -0.053249277 -0.046383653 -0.096985884
000020 53 25 16 3e 17 a9 ff bd 90 71 cb 3b 50 69 89 bc
       0.14662676 -0.12483423 0.006208606 -0.01677385
000030 95 63 3a be 8c 79 04 be 44 12 7d bc 78 4d 05 be
       -0.1820205 -0.12936991 -0.015446249 -0.13017833
000040 7d ea 32 bd 9d a6 3a 3b 29 e9 7d 3d b9 b9 b5 bd
       -0.043680657 0.0028480657 0.061989937 -0.088733144
000050 72 17 ba 3d d7 e4 10 3d de 53 e8 bd 4a 0a de bc
       0.09086503 0.03537449 -0.113441214 -0.027104516
000060 49 78 e6 bd 17 f8 08 be df 3f 0f 3c e6 9c 8b 3d
       -0.11253411 -0.13375889 0.008743255 0.068170354
000070 2c 24 46 bd 70 7d 98 bc d6 b6 5e 3d e9 6d 28 be
       -0.04837434 -0.0186145 0.054373585 -0.16448177
000080 63 3a 9a 3c 0b 92 1b bd 84 fd 2b bc 08 75 56 bd
       0.01882667 -0.037981074 -0.010497455 -0.052357703
000090 b0 c8 1e bd 70 24 38 bd 50 94 73 bd 16 7a 44 3d
       -0.03876561 -0.044956625 -0.059467614 0.047967993
0000a0 65 f6 1d bd 24 ab 1c be 24 b0 bc 3d e6 d7 63 bc
       -0.03856506 -0.1529966 0.09213284 -0.013906455
0000b0 59 90 2b 3c da 60 53 bd 0a 7b d2 bc 95 7e b9 bd
       0.010471427 -0.051606037 -0.025693435 -0.09057347
0000c0 bd c9 82 bd ea af 6a bb a2 39 cc bb 23 ab 0e bd
       -0.06386135 -0.003581042 -0.0062324563 -0.034831177
0000d0 b0 b7 7c 3d ae 9c 28 bd c0 40 14 bd bf 7f 88 bd
       0.061698616 -0.041165046 -0.036194563 -0.06664991
0000e0 58 67 13 3d 33 3f a8 bd d0 95 91 3d f1 4c 6e bd
       0.03598723 -0.08215179 0.071086526 -0.058178846
0000f0 f5 a1 ca bc f7 cb 4f bd 98 ea de bd 57 e9 f4 bd
       -0.02473543 -0.050731625 -0.10884589 -0.119585685
000100 68 29 dd bd b3 e9 98 3d 66 e0 be 3d 95 04 6c bd
       -0.10798913 0.074664496 0.09320144 -0.057621557
000110 ec f6 c9 bc cf bd f3 bd 81 a6 01 bc 18 61 66 3c
       -0.024653874 -0.119014375 -0.007913233 0.014061235
000120 dc 5e 32 3c 84 f0 b0 3a 93 d9 fd bd 83 1c 80 3d
       0.010886874 0.0013499414 -0.123950146 0.06255438
000130 aa 8a 5c bd 08 3e 3b 3e b3 81 96 3c c2 bc f0 bc
       -0.053843178 0.18285382 0.018372392 -0.029386882
000140 b8 29 a3 bd ff 28 0c bd 24 8b 9f bd 41 47 ac 3d
       -0.079669416 -0.034218784 -0.07790211 0.08412028
000150 57 18 c7 bd 70 b5 d1 3d 47 f1 58 bd 16 70 fb bd
       -0.09721439 0.102396846 -0.052964475 -0.12277238
000160 b8 c9 88 bd bc 42 67 bd 7e ed 26 bc 32 cd 4f bd
       -0.066791 -0.056460127 -0.0101884585 -0.0507328
000170 c3 db b5 bc 1b a4 94 3d 10 f6 a9 bd 24 ab f8 3c
       -0.022199517 0.07257863 -0.08298886 0.030355044
000180 ed 10 fd 3b 18 29 9b bc f1 46 5d bc f8 b5 af bb
       0.007722965 -0.018940493 -0.013505683 -0.0053622685
000190 ad 50 66 bd 83 d4 ad bd a5 d8 46 bc c2 6e 8a bc
       -0.056229282 -0.08487799 -0.012136613 -0.016898517
0001a0 e1 5e e6 3d e3 e2 ed bd a2 33 84 3c 28 43 f3 bd
       0.112485655 -0.11615541 0.016137902 -0.118780434
0001b0 68 00 04 3d 0a af ce 38 34 9c 4e bd 31 22 62 3c
       0.03222695 9.855449e-05 -0.050441936 0.013802097
0001c0 86 f1 be bc de 39 de 3c ea ab af 3c 57 d5 64 3c
       -0.023308527 0.027127203 0.02144428 0.01396688
0001d0 17 e3 3e 3c ae ba 0b 3c 2d ed 1a 3d fc c4 a8 3d
       0.011650822 0.008528395 0.037823845 0.08240697
0001e0 aa bd b8 3a 06 db 9c b9 cd 43 96 bd d0 38 88 3d
       0.001409461 -0.00029917824 -0.07337151 0.06651461
0001f0 5c 34 9e bd 1c 18 1f be 87 28 6a bc 44 ff 80 3d
       -0.077248305 -0.15536541 -0.014291889 0.06298688
000200 74 69 ad bd c7 f2 88 3d 86 46 83 3d 1a b4 90 bd
       -0.08467379 0.06686931 0.06409936 -0.07065602
000210 e8 37 d6 bc 65 93 c9 3d 5f ad 4d 3e ba 50 d6 bd
       -0.026149705 0.098425664 0.20085667 -0.10464616
000220 b7 07 2c 3e 84 20 ce bc be d9 8c bd da 87 b1 bc
       0.16799818 -0.025161989 -0.068774685 -0.021671224
000230 60 17 0e be 3c 17 e0 bd 72 44 2a 3c 5a 8d 5c 3d
       -0.13876104 -0.109419316 0.010392295 0.05384574
000240 0c 5e 41 3c 3a 6a bb bc ee 60 a7 3d b7 25 8f bc
       0.011802208 -0.022877801 0.08172785 -0.017474039
000250 ef e1 50 3d 8b b8 a0 bd 02 84 ba bd f6 be fc 3c
       0.050996717 -0.07847699 -0.0910721 0.030852776
000260 ac 40 01 be ef 92 5f 3e 8d 6a f0 3c e2 da dd 3d
       -0.12622327 0.21833394 0.029347682 0.10832764
000270 99 41 c5 3b 47 25 ef 3c 2c d2 f9 3d d1 c3 0a be
       0.0060197827 0.02919258 0.1219829 -0.1355126
000280 d2 de 07 3d 59 51 3f bd e0 a6 fd bc 2c 8f 4d 3a
       0.033171482 -0.04670844 -0.030963361 0.00078414637
000290 54 16 47 bd 7b 05 3a bd 50 ca ed bd 24 54 02 3e
       -0.048605278 -0.045415383 -0.11610854 0.1272741
0002a0 a0 94 80 3d 32 d1 9b 3d ab 6f 32 3d 9d 75 73 bd
       0.06278348 0.0760826 0.043563526 -0.059438337
0002b0 42 fd ee 3b 43 5b 6b 3e 29 43 98 3d 05 de 9d bd
       0.0072933743 0.22984032 0.07434685 -0.077083625
0002c0 c7 08 97 3d e7 09 c0 bc 33 bc 47 3d 82 3e a2 bc
       0.07374721 -0.023442222 0.048763465 -0.019805197
0002d0 9f 98 64 bd 5e e3 c0 ba b0 a3 f8 3d 0a 40 05 3e
       -0.055809613 -0.0014716198 0.12140596 0.1301271
0002e0 b2 38 cb 3d b5 c7 32 3d 39 5d 74 3e 83 1d a8 bd
       0.09922923 0.043647487 0.23863687 -0.08208754
0002f0 26 48 99 3c 1c 3e 67 3d 34 21 a9 bc a7 47 ef bd
       0.01871116 0.056455716 -0.020645715 -0.116835885
000300 20 d3 8c bd 27 0b 00 3e 8e e7 de 3d f8 2a 67 bd
       -0.068762064 0.12504254 0.10884009 -0.056437463
000310 a9 62 ef 3d cb b8 a4 bd b3 01 1d 3d 92 1b 02 3e
       0.1168874 -0.08043059 0.0383317 0.1270583
000320 26 37 4a 3c 36 86 33 3e 95 06 f7 3c f0 d8 26 3e
       0.01234225 0.17531666 0.030154506 0.16293693
000330 04 c2 d9 3d 19 8d 4f 3e 85 45 2f 3e ca a4 a7 ba
       0.10632709 0.20268668 0.17116363 -0.00127902
000340 a6 1c 6d bd be c6 98 3d a9 51 1d 3e 9f 63 95 3c
       -0.05788865 0.07459782 0.15363182 0.01823598
000350 d2 3f c7 3c 7d 4c a5 3c c8 34 9a 3d 3e 06 14 3e
       0.024322424 0.020178074 0.075295985 0.14455506
000360 d3 cd d8 3d 9e 0f ea 3d 28 7f 43 bd 86 7d e9 3d
       0.10586133 0.1142876 -0.047728688 0.11400895
000370 e5 b3 55 3d 5b 52 52 3d cf 93 fd 3c de ee a6 3d
       0.052173514 0.05134807 0.03095427 0.08151029
000380 28 5e 47 bd 49 ff 68 3d 92 06 d6 bc ee 21 37 3d
       -0.04867378 0.056884084 -0.02612618 0.044710092
000390 37 d1 2e 3d cf 82 bb bb 90 f7 c3 3d 51 f8 db 3c
       0.04267999 -0.0057223807 0.09568703 0.026851805
0003a0 5e e7 c8 3c 1b 52 3f 3e e4 54 74 3c 88 33 bd bc
       0.024524387 0.18683665 0.014912818 -0.023095861
0003b0 e5 5e 86 3d a7 1b 2f 3e a7 c0 16 3e 08 7c 43 3d
       0.065610684 0.17100392 0.14721929 0.047725707
0003c0 3d 33 97 3d 66 f9 88 3d 1b 68 fa 3a f3 89 45 bd
       0.0738282 0.06688194 0.0019104512 -0.04822726
0003d0 87 9c 26 3e eb 6e 50 bd b8 e6 9c bc ba 85 83 ba
       0.16270648 -0.05088703 -0.019152984 -0.001003436
0003e0 d0 2c 51 bc d0 c4 4f 3e fb 09 51 3c 14 cf 79 bc
       -0.012767032 0.20289922 0.012758727 -0.015247125
0003f0 0a 9d 3b bc d8 60 07 3d 95 4e 04 3e 94 db 84 3d
       -0.011451015 0.03305134 0.12920602 0.06487194

fc1.weight f4 [64, 128]
000000 64 07 a3 3c bd 67 30 bd 7c 92 8a bd f1 ce d6 3c
       0.019900985 -0.043067683 -0.06766221 0.026221724
000010 f7 d9 fc 3d 41 05 46 3d 96 56 8c 3d e6 f0 29 be
       0.12346261 0.048344854 0.068524525 -0.16595802
000020 e6 a0 34 3d c9 9a 1e bd fd 25 68 bd d2 7b b9 3d
       0.044098757 -0.038721833 -0.056676853 0.0905682
000030 86 ff 89 3d 6e 9f 06 bd 70 23 93 bc 5c 16 dd 3d
       0.0673819 -0.032866888 -0.017961234 0.1079528
000040 6c 88 60 bc 88 32 77 3d d7 1e ab bd 66 f0 92 bc
       -0.0137044005 0.060350925 -0.083554916 -0.017936897
000050 33 2f 24 ba c8 a7 64 bd a1 2c 49 bc 21 cd 49 3d
       -0.0006263137 -0.05582407 -0.012278707 0.04926789
000060 8c bc 0b 3d 4a 16 c4 ba 2b d1 bb 3c 3b f6 a6 3c
       0.03411536 -0.0014960256 0.022926887 0.020381084
000070 52 05 d9 bd b7 fb ad bd 08 45 82 bd cf 78 44 3b
       -0.10596718 -0.084952764 -0.06360823 0.0029979234
000080 2a 48 63 3d 79 d8 59 3d c3 df 84 3d bc 29 ee 3c
       0.055488743 0.05318496 0.06487992 0.029072635
000090 8c 9e f1 3c 0e 24 fc 3d 8f a6 e1 bd 73 a6 46 3b
       0.029494546 0.123115644 -0.11018097 0.0030311614
0000a0 3d cc 82 3c 52 31 e8 bc 3b b1 da bc 2a 32 ee bc
       0.015966529 -0.02834383 -0.026695838 -0.029076654
0000b0 19 5f 0c 3e 15 c7 2c bd d6 85 5c 3d 35 55 01 bc
       0.13708152 -0.042182047 0.053838573 -0.00789385
0000c0 74 dd af bd b7 b7 56 3c e4 d1 c0 3a 91 04 5f 3d
       -0.08587161 0.0131053245 0.001471099 0.054447714
0000d0 36 24 b1 bd 06 9d 2c 3b 82 50 fc bd 81 16 93 3d
       -0.08649485 0.002633871 -0.12320043 0.07182027
0000e0 a9 e5 12 3d ed aa d1 bc 44 7a 80 bd 3f c9 97 3c
       0.035863552 -0.0255942 -0.0627332 0.018528579
0000f0 99 1e f1 3d 44 1c 76 3d c8 61 c2 bd 30 5b 79 bd
       0.11773414 0.06008555 -0.094913065 -0.06087798
000100 f8 b8 2b 3d 08 89 aa 3d 37 c5 63 bc f5 7f b1 3d
       0.041924447 0.08326918 -0.013902 0.08666984
000110 b4 6e 0f 3b 78 cb b9 bc 5f 78 9f 3d 17 0e 0d bd
       0.0021886053 -0.02268003 0.07786631 -0.034437265
000120 c7 82 da bc 45 59 09 be bd ab ed 3b e8 72 6f 3c
       -0.026673688 -0.1341296 0.007253139 0.014614798
000130 d3 b9 87 3d f4 9d 61 3d 03 91 18 bd d8 f7 d2 bc
       0.0662724 0.055082276 -0.03724767 -0.025752947
000140 52 ad 0a bd 4f e5 9a 3d a6 f9 76 3b 6e a9 b1 bb
       -0.033856697 0.075632684 0.0037685423 -0.005421809
000150 16 8b 86 3d a3 1e b3 bd 45 c3 5f bd c3 e9 27 bd
       0.06569497 -0.08746078 -0.054629583 -0.040994417
000160 d6 64 89 3d eb 79 bf 3c 8e 3c ff 3c 27 68 e2 3d
       0.06708686 0.023373565 0.031156804 0.11055022
000170 83 9b 86 bd 23 3c 2d 3d 9f 03 af bc 36 6e d5 3c
       -0.0657263 0.04229368 -0.021364031 0.02605353
000180 d1 34 09 be 05 d4 07 bd 8c fc 9b 3d d3 b2 87 3d
       -0.13399054 -0.033161182 0.07616529 0.06625905
000190 8c d1 74 3d 44 b9 ff b8 e8 62 ad bd 8d 8b 31 3d
       0.059770152 -0.00012193856 -0.084661305 0.043345977
0001a0 ce b5 1e 3d 50 d0 00 be 41 15 05 be dd e2 fd bd
       0.0387476 -0.12579465 -0.12996389 -0.12396786
0001b0 32 fb e7 3c 48 51 bd bc 1a 86 d9 bd b0 93 19 3d
       0.028318021 -0.023110047 -0.10621281 0.03749436
0001c0 3a 59 99 3d 75 02 b0 bc 21 67 64 3b b2 b5 66 bc
       0.07487722 -0.021485547 0.0034851509 -0.0140814055
0001d0 1f 3c de 3c 6c 07 34 3d ed 6e 40 3c 78 55 72 be
       0.027128277 0.04395239 0.011745197 -0.23665416
0001e0 16 74 f4 bd dd 27 ef bc 8c d3 d3 3d af 99 88 bb
       -0.11936204 -0.029193813 0.10343084 -0.004168711
0001f0 af 12 c1 3b 5c 7f e5 bd 94 81 3b 3d fb 8f ae bd
       0.00589212 -0.112059325 0.045777872 -0.08523556
000200 95 91 7e 3d 77 46 66 bd 5a 85 2b bd 81 1c 1f 3c
       0.062150557 -0.056219544 -0.04187522 0.009711386
000210 c7 d1 03 3d 2c 9e 91 3d 4f 29 db bc 21 fc 91 bd
       0.03218248 0.07110247 -0.026753096 -0.07128168
000220 81 2f 33 3d 23 f0 bd 3d 0c c8 c9 3d 60 6c 61 bd
       0.043746475 0.09274318 0.09852609 -0.055034995
000230 55 aa be 3c d2 76 6d bd 53 b5 53 ba ba bf 48 bc
       0.02327458 -0.057974644 -0.00080760306 -0.012252742
000240 a1 7a d3 bc 18 a8 04 be c0 b8 84 3d aa 77 14 bd
       -0.02581531 -0.12954748 0.06480551 -0.036246933
000250 2b a8 97 3d 9c f7 ff 3c 84 5d 88 3d 50 35 1d 3d
       0.07405122 0.031245999 0.06658462 0.03838092
000260 e9 28 d7 bc 3a 56 74 bd 4f 46 1a bd b6 15 01 3d
       -0.026264625 -0.059652545 -0.037664708 0.031514846
000270 e8 3b 15 bd 53 8a ab bd 70 35 f2 3d b3 e7 d8 3d
       -0.036434084 -0.083759926 0.11826599 0.10591068
000280 76 f4 3f 3d 57 b2 a5 bc 99 6b de bd 7b d2 83 bd
       0.046863995 -0.02022664 -0.108603664 -0.0643663
000290 93 fc 8a 3c dc 44 71 bd 29 7b fe 3b 8b 19 bc bd
       0.01696614 -0.05890356 0.0077661467 -0.091845594
0002a0 0b fc 9b bc d2 86 24 3d 8d a6 dc bd 20 d4 98 3d
       -0.019041082 0.040167637 -0.107739545 0.07462335
0002b0 29 90 01 bd a4 a5 4b bd 70 43 49 3e 9c 8b ae 3c
       -0.031631622 -0.049718514 0.19654632 0.021306805
0002c0 49 6f 42 3c 84 d3 8d bd b6 f6 07 3d 1c 74 fc bc
       0.011867353 -0.06925109 0.033194266 -0.030817084
0002d0 cd ae 12 bd 86 7d 2f 3e 2c db a9 3c f7 ca 6d 3d
       -0.035811234 0.17137727 0.020734392 0.05805489
0002e0 06 4a da bd c0 dd 2c bd 5d a9 97 bd 95 27 b2 bd
       -0.1065865 -0.042203665 -0.0740535 -0.08698956
0002f0 fa b6 b8 bc 39 87 30 39 97 a3 ea bc 11 4d 02 3d
       -0.022548188 0.00016835042 -0.028642459 0.031811778
000300 9b 34 ba 3d d5 74 24 3e 42 99 c8 bc cd 26 bf bd
       0.09092065 0.16060193 -0.024487142 -0.093335725
000310 a8 27 06 3d 34 26 1a 3e 8c 18 a1 bd d2 d5 74 bd
       0.032752663 0.15053636 -0.0786601 -0.059774227
000320 df 20 41 3a ee e2 05 3b 1c 3a 06 be 32 82 04 be
       0.0007367264 0.002042945 -0.13108104 -0.1294029
000330 8f 81 fd 3d fc da 83 bd a6 be 90 3e 26 7d 00 3b
       0.12378227 -0.06438252 0.28270453 0.0019605844
000340 09 2d 42 bc e8 43 b4 3c dd 77 99 3a c4 9d 3e 3d
       -0.0118515575 0.022005036 0.0011708696 0.046537176
000350 44 d4 d9 bc a7 ce d1 3c f2 4f 83 3d bc 24 ba 3d
       -0.026590474 0.025611235 0.06411733 0.09089038
000360 29 e4 26 bd 20 6b 84 bd 97 6f cf bd 20 45 db 3d
       -0.040744934 -0.06465745 -0.10128706 0.10706544
000370 ef e6 23 bc e5 c4 c5 3c 0f 44 31 3d 7f c5 ec 3b
       -0.010003789 0.024141738 0.043277796 0.007225692
000380 85 6d c1 3d 48 2c b7 bc c1 4e 93 3d 1c ef 14 3d
       0.09444717 -0.022359982 0.071927555 0.036360845
000390 6d 32 08 3e db a8 29 3d 9b 21 3b 3d c1 21 f4 3d
       0.13300486 0.0414208 0.045686346 0.119205005
0003a0 17 5a ab bd 1f 6d 39 3d 79 55 ad bd 8d cd bf 3b
       -0.08366793 0.04527008 -0.08463568 0.005853361
0003b0 8e 30 ed 3c 22 d9 39 bc 66 82 c4 3c 7c 42 f6 bc
       0.028953817 -0.011343272 0.02398796 -0.030061
0003c0 0e de 3e 3d de 88 ad bd 56 43 28 3d a4 d5 92 bc
       0.046598487 -0.08473371 0.04107984 -0.017924137
0003d0 9b 4f 3b bd 7b 8f 8c 3d b8 bf 0b be d1 39 36 be
       -0.045730215 0.06863304 -0.13647354 -0.17795493
0003e0 c4 b8 21 3d 18 b7 ac bc 1f e0 9f 3d ba b4 d8 3c
       0.039482847 -0.0210834 0.078064196 0.026453365
0003f0 bc 9e cf 3c b2 d1 d3 bd 6f e2 08 3d c1 d2 98 bd
       0.025344245 -0.103427306 0.03341907 -0.07462073

fc1.bias f4 [64]
000000 f5 37 11 bd de d3 59 bc fd 0a 59 bc 79 1e 50 3d
       -0.035453755 -0.013295142 -0.013247249 0.05081031
000010 08 48 10 3c d9 6f 85 bd 39 f1 bb 3d de 8a b3 bd
       0.008806236 -0.06515474 0.09176869 -0.08766721
000020 60 e1 c8 3d 86 11 40 bc dc 58 9b 3b b2 e2 40 bd
       0.09808612 -0.011722928 0.0047408175 -0.047091193
000030 13 0b 31 bd 69 9a 69 bc 32 1f bd 3d 8e 2f 05 3d
       -0.04322345 -0.014258006 0.09234466 0.032516055
000040 8c a9 4e bd 7a 50 c1 3c 4e 5f d2 3d bd 35 67 bb
       -0.05045466 0.023597945 0.10272084 -0.0035279833
000050 85 24 aa 3d c7 a7 18 bc c8 69 6a bd 9a 22 8f bc
       0.08307747 -0.009317345 -0.057229787 -0.017472554
000060 13 df 1c bd 89 ae df 3c 65 bf 80 bd 49 97 15 3c
       -0.038298678 0.027304905 -0.062865056 0.0091303075
000070 91 ac 74 3d 44 5e a0 bb 06 81 b5 bc e2 89 17 bd
       0.059734885 -0.00489405 -0.02215625 -0.03699673
000080 a4 34 5f bd 36 33 27 bd 65 45 5a 3d 4a d9 e4 3c
       -0.05449356 -0.040820323 0.053288836 0.027935643
000090 16 b7 77 bc 5f 46 cb bc 15 66 81 3d 40 d3 29 3d
       -0.015119335 -0.024813829 0.06318299 0.04146123
0000a0 c7 1f 0b 3d 26 65 75 bc d3 28 2f 3d b0 6a 73 3d
       0.033965852 -0.014977729 0.042763542 0.059427917
0000b0 b6 43 ae 3d be ec aa 3d c2 55 76 3d 77 d6 2f bd
       0.085090086 0.08345936 0.06014038 -0.04292914
0000c0 16 04 b6 bd af eb 83 bd e7 04 88 3c 0c 98 3d bd
       -0.08887498 -0.064414375 0.0166039 -0.04628758
0000d0 33 b9 97 bd 7a 6b 1b bd f4 52 8a 3d 74 fb 8f bc
       -0.07408371 -0.037944295 0.06754103 -0.017575957
0000e0 6b a8 92 3d 28 2b f0 bb da 69 58 3d 6e e3 7b bb
       0.071610294 -0.0073293634 0.052835323 -0.003843512
0000f0 52 f3 cb bd ed bd aa 3d 59 ef c0 3c 94 e4 c3 3d
       -0.09958519 0.08337007 0.02355163 0.09565082

bn1.weight f4 [64]
000000 4a ed 86 3f cf 33 8b 3f 15 d5 91 3f e9 d0 92 3f
       1.0541165 1.0875186 1.1393152 1.1470004
000010 e0 a9 8e 3f e1 83 9d 3f e3 6d 94 3f e1 fc 9d 3f
       1.1145592 1.2305871 1.1596035 1.2342798
000020 8b 71 87 3f d1 21 97 3f b3 c1 93 3f 75 1b 93 3f
       1.0581526 1.1807195 1.1543487 1.1492754
000030 2f 39 92 3f 99 61 8d 3f e0 7a 92 3f 3f de 95 3f
       1.1423701 1.104541 1.1443748 1.1708449
000040 28 63 96 3f 6c 72 90 3f 6a 1b 87 3f 93 27 8d 3f
       1.174901 1.1284919 1.0555241 1.1027702
000050 bc 1f 99 3f 8b 13 94 3f 42 02 a1 3f eb 41 a2 3f
       1.196281 1.1568464 1.2578814 1.2676367
000060 5d 45 9c 3f 99 5e 9d 3f f1 3e 97 3f f2 be 93 3f
       1.2208668 1.2294494 1.1816083 1.1542647
000070 b5 0c 91 3f 13 04 95 3f 50 c1 9a 3f 71 e0 9b 3f
       1.1332003 1.1641868 1.2090244 1.2177869
000080 07 18 86 3f 56 d2 7f 3f ef c9 84 3f 36 da 85 3f
       1.0476083 0.9993032 1.0374125 1.0457218
000090 5d ba 92 3f a1 19 9b 3f 24 7d 8e 3f fb 9e 8e 3f
       1.1463124 1.2117196 1.113194 1.1142267
0000a0 7b b0 8c 3f a8 8b 89 3f 1f fd 92 3f c3 2a 89 3f
       1.0991358 1.0745745 1.1483496 1.0716175
0000b0 3a 23 92 3f cc 2d 82 3f c2 c8 96 3f 03 e3 9c 3f
       1.1417 1.0170226 1.1780016 1.2256778
0000c0 99 7f 83 3f a4 b2 a0 3f e6 d0 8a 3f c1 ea 8f 3f
       1.0273315 1.2554517 1.0845001 1.1243516
0000d0 eb aa 8d 3f c4 86 a5 3f c0 07 9f 3f 0f f5 96 3f
       1.1067785 1.2931752 1.242424 1.1793536
0000e0 b9 77 8b 3f 83 47 93 3f d6 7b 97 3f 0c 70 9e 3f
       1.0895911 1.1506199 1.1834667 1.2377944
0000f0 dc aa 8b 3f cb 2d 88 3f 33 b1 95 3f fa 89 95 3f
       1.0911517 1.0638975 1.1694702 1.1682732

bn1.bias f4 [64]
000000 3c 88 1c 3e 4f fa 9b b9 5d 42 e0 3c 72 be 3b 3e
       0.15286344 -0.00029750398 0.027375394 0.18334368
000010 76 99 87 bb 94 10 6e 3e 03 d5 50 3e a1 61 83 3e
       -0.004138167 0.23248512 0.20393758 0.25660422
000020 68 15 0b 3e 38 0f b0 3e c3 b0 08 3b de b7 af 3c
       0.13582385 0.3438661 0.0020857311 0.02144998
000030 5a 74 76 3e 92 7f 8e bd 46 8b 88 3e 5f 59 39 3e
       0.24067822 -0.06957926 0.26668757 0.18100499
000040 56 c8 99 3e 40 19 32 3e 1b 1c fd bd bd c4 47 bd
       0.30035657 0.17392445 -0.12358876 -0.04877161
000050 3b 53 b3 3e d8 e3 6e 3e 53 d6 a7 3e 37 34 83 3e
       0.35024437 0.23329103 0.32780704 0.25625774
000060 3d 37 4d 3e 51 a4 18 3e 6d 4f 6d 3e c4 76 ac 3c
       0.20040603 0.14906432 0.2317483 0.021052726
000070 7a a0 01 3e d9 21 de 3d c2 2e ce 3d 67 83 1c 3d
       0.12658873 0.108463 0.10067512 0.038211253
000080 f9 98 2c bd ca 9b d3 bd 6a f9 4a be 1a a4 91 bd
       -0.042138074 -0.10332449 -0.19821706 -0.07111378
000090 c6 90 f9 3d 81 12 15 3e 6f 5c 2e 3d c6 b1 45 bd
       0.121858165 0.1455784 0.04256862 -0.04826524
0000a0 92 63 66 3e 69 91 37 3e a9 07 57 3e 16 bb 80 3e
       0.2249892 0.17926563 0.20999016 0.25142735
0000b0 a4 0a 7f 3e c6 4c 6f bd 14 e7 0a 3e c7 cf 83 3e
       0.24906403 -0.058422826 0.13564712 0.2574446
0000c0 8f 05 50 bd 4a 39 8b 3e c2 34 28 bd 78 a0 ad 3d
       -0.05078655 0.27192146 -0.04106594 0.084778726
0000d0 56 c5 38 3e 6c 2b de 3d 0f ff 62 3e 3d ef 45 3e
       0.18044028 0.10848126 0.2216761 0.19329543
0000e0 1c 96 a7 bc 14 fe 51 3e 1b 2b 71 3e 20 0e 5d 3e
       -0.02045732 0.2050708 0.235516 0.2158742
0000f0 8d 37 7f 3e 5f f2 8c bc e0 dd 78 3d 0e 84 90 3e
       0.24923535 -0.017205415 0.06075847 0.2822575

bn1.running_mean f4 [64]
000000 4c 93 52 3e 0d 17 38 be 3f 28 90 3e 8e 16 2f 3f
       0.20564002 -0.17977543 0.28155705 0.6839379
000010 9e 0f 0d bf 97 c1 98 3d 13 63 01 bb 46 bb 2f 3e
       -0.55101955 0.07458799 -0.001974289 0.17161283
000020 10 51 a7 3e 68 a1 d0 3e 17 bc a0 be e7 9b e1 3e
       0.32679033 0.40748143 -0.313935 0.44064257
000030 20 79 57 3e b0 32 0f 3e 9f 2a 4b 3e 13 99 4c 3f
       0.210423 0.1398418 0.19840477 0.7992107
000040 df 2d f8 3d b9 cf 9f be 72 d1 ea be f8 2a 08 bf
       0.12118124 -0.31213167 -0.4586292 -0.53190565
000050 c6 c2 a1 3e 6f 47 b6 be 66 4b 3c 3e c1 6c bd be
       0.31593913 -0.35601375 0.18388137 -0.36997035
000060 b8 47 29 be 6d c5 bd be 52 a8 cb 3e 59 93 25 3e
       -0.16531265 -0.37064686 0.39776856 0.1616949
000070 fc 3d 48 be 62 f7 cc be 49 03 dc 3e d1 77 15 3f
       -0.19554895 -0.40032488 0.42971256 0.5838595
000080 2d e4 24 bf 27 3f fb be ea a3 41 be 33 e3 b6 bd
       -0.6441067 -0.4907162 -0.18910185 -0.089300536
000090 fe 05 c2 be 50 fd 86 be f4 51 fd 3e 98 a5 a7 be
       -0.37895197 -0.26365137 0.49476588 -0.32743526
0000a0 b7 c7 6e bc bb ba 02 3d e9 d8 52 3e 18 bc c3 3c
       -0.014573983 0.03191636 0.20590557 0.023893401
0000b0 22 ee 0f 3e be 89 8a be a5 b6 85 be db aa 0e be
       0.14055684 -0.27058214 -0.2611591 -0.13932364
0000c0 25 5b 17 be e7 58 3a 3e dc 02 03 3e 68 2a 97 3e
       -0.14780863 0.18197976 0.1279406 0.2952454
0000d0 51 c5 9c 3e 08 00 f5 be f0 dd 55 be 55 ec a5 3e
       0.3061929 -0.47851586 -0.20885444 0.3240687
0000e0 6c f2 a4 3e e9 00 f2 3e 14 64 c6 3e e4 c9 e2 bd
       0.32216203 0.4726632 0.3874823 -0.11073664
0000f0 3a fe 86 bc 99 6d 30 bd 0d 6c 36 be 36 61 60 be
       -0.016478647 -0.04307327 -0.17814656 -0.21912083

bn1.running_var f4 [64]
000000 cd 37 0a 3e 09 4a 55 3e 42 fc 76 3e e6 8a 71 3e
       0.13497849 0.20829023 0.24119666 0.23588142
000010 01 4e dd 3e fd b7 2a 3e 6d 1a 0f 3e 03 34 00 3f
       0.43223575 0.16671748 0.13974924 0.50079364
000020 68 7c 89 3e 88 23 55 3e d0 38 93 3e c1 8e 56 3e
       0.26852727 0.20814335 0.28754282 0.20952894
000030 af cd 2a 3e 7e 09 86 3e d0 40 93 3e bc e5 80 3e
       0.16680025 0.26179117 0.28760386 0.25175273
000040 64 86 de 3e 84 05 73 3e df f1 af 3e 1e 74 92 3e
       0.43461907 0.23732573 0.3436422 0.28604215
000050 13 dd 6f 3e 43 eb 80 3e 3d be 8d 3e e7 57 6f 3e
       0.23424177 0.2517949 0.27684203 0.23373376
000060 27 2e 3f 3e 6a fa 2b 3e 1f 55 60 3e 57 3f e8 3e
       0.1866995 0.16794744 0.21907471 0.45360824
000070 a1 e1 1b 3e ab 11 1f 3e 70 66 88 3e 6c 9b b3 3e
       0.1522279 0.15534084 0.26640654 0.35079515
000080 bd 15 a0 3e bb 8d 28 3e f5 40 03 3e 34 8c 7f 3e
       0.31266585 0.16460316 0.12817748 0.24955827
000090 b6 f2 c9 3e c1 15 63 3e 7e af 87 3e c4 d3 c3 3e
       0.39442986 0.22176267 0.26501077 0.38247502
0000a0 80 c2 91 3e 99 e3 8f 3e 66 e2 69 3e 76 45 31 3e
       0.28468704 0.2810333 0.2284027 0.17311653
0000b0 06 91 76 3e 40 23 ac 3e ad a1 b2 3e 3f 86 49 3e
       0.2407876 0.33620644 0.34888974 0.19680117
0000c0 de 5b 46 3e ad 90 60 3e 7b f9 7b 3e 28 3c 77 3e
       0.19370982 0.2193019 0.24606888 0.24144042
0000d0 3f fb a0 3e fc fa c1 3e 2e 80 d9 3e f8 44 4d 3e
       0.31441686 0.37886798 0.42480606 0.2004584
0000e0 32 1c 3f 3e ec ad d0 3e 78 51 75 3e 3a be 57 3e
       0.186631 0.40757692 0.23956859 0.2106866
0000f0 65 ae 62 3e 78 cb af 3e 44 a1 3e 3e c1 32 85 3e
       0.22136839 0.34334922 0.18616205 0.26015285
