Models/model_new_whisk_final.pt (torch, 317423 bytes, 12 tensors)

lstm.weight_ih_l0 f4 [512, 6]
0.77681756 0.0966881 0.27125296 -0.14322424 -0.338412 -0.46291235 -0.38755357 0.18213573
-0.28873914 0.8046184 -0.84155595 0.6789121 0.7993354 -0.36240456 -0.38950667 1.1457328
0.11719719 0.802725 0.04678746 -0.13896877 0.47809407 0.42802337 0.70431113 0.7393282
-0.7358704 -0.80046344 0.20980737 -0.52781165 -0.7620518 0.15562002 -0.28798884 -0.13081361
0.10994211 0.47500095 -0.14429083 0.30371755 -0.16588436 -0.20410518 -0.059405334 -0.15292728
0.39728996 0.32030734 -0.44818196 0.1331583 -0.7320373 -0.49573758 -0.0118512 0.21483417
0.2903652 0.19064678 -0.05327884 -0.39822593 0.36714658 0.38763735 -0.03471811 -0.025828604
0.4901296 0.664378 -0.15290208 1.1817116 0.31884855 0.31893274 0.052694757 -0.19097747
0.43237773 -0.16448787 -0.10191849 -0.106745005 0.0047234013 -0.46216363 0.68842155 0.34778893
-0.05175564 -1.0660031 0.63035923 -0.17838916 -1.0554616 -1.2052293 0.17356795 0.9789739
-0.24381724 0.25417644 0.30531988 0.17213732 0.27845392 -0.2977066 0.5988783 0.86275464
-0.9032341 -0.37455297 -0.78074634 0.066259116 0.10638383 -0.29500356 0.021518027 -0.20206419
-0.22919063 0.10898406 0.05793286 -0.11000649 0.02823902 0.09166852 -0.7148312 -0.2891125
0.28566378 -0.9969561 0.37244695 -0.77009434 1.1128266 0.05786799 -0.15320541 -0.19712098
-0.2523234 -0.3090389 0.0067603868 0.024826111 -0.047926143 -0.93461597 -0.041488804 -0.43570253
0.6485517 -0.14309485 -0.1546164 -0.131719 0.21449503 -0.5945452 -0.05024474 0.3291804
0.4547552 0.49306813 -0.65373033 -0.67289585 -0.79975027 0.35769528 -0.6362211 -0.8716289
-0.019926168 0.9802075 0.3696548 -0.26007444 0.41913527 -0.19127366 -0.8761973 0.57862186
-0.07817202 -0.36244568 -0.68784505 0.01721243 0.13524911 -0.14985785 0.40936393 0.44393387
0.102244236 -0.17962457 0.5911861 -0.008175333 0.515414 0.0002316007 -0.04711838 -0.11277841
-0.056772847 0.24523482 0.75852627 0.10477415 -0.5436272 0.031335104 0.22989056 0.2818842
-0.5072708 -0.3860941 0.7749261 0.24382606 0.66432667 0.04747177 0.8048388 0.046133183
0.1595906 0.045618877 -0.2314793 0.22692418 0.1451275 0.13902529 0.22852671 -0.25340044
-0.34179077 0.043197166 -0.2728629 0.13176715 0.20599036 0.90114933 0.15072197 0.69736147
-0.66122234 -0.39677298 0.12285691 0.18872115 0.6407567 0.1917335 0.040347643 0.6395567
0.707541 -1.0252056 0.2888039 -0.13386025 -0.44354662 -0.029314334 -0.58330774 -0.7608531
-0.47182113 0.3576973 0.39080122 0.028738325 -0.08443693 -0.2664572 -0.039874528 -0.09004936
-0.56395376 -0.13443443 -0.07260276 0.33255923 0.36098486 0.69006425 -0.55721223 -0.5487424
-0.593103 0.040007625 0.37323967 0.49622515 -0.85047257 -0.60361737 0.046590265 -0.32943085
0.16007979 -0.66153055 0.00021026105 -0.04415137 -0.08128473 -0.3949494 -0.114805885 -0.15267321
0.27467036 -0.119522765 0.025032733 -0.304758 0.5487286 -0.1461213 -0.33634284 -0.64487296
0.29995725 0.84770787 -0.9626671 0.068565466 0.34576052 -0.4121966 0.07432497 1.4286547
00000000: 84dd 463f 6904 c63d abe1 8a3e 60a9 12be
00000010: 5644 adbe d902 edbe 6c6d c6be ca81 3a3e
00000020: 9ed5 93be 79fb 4d3f 3670 57bf 2fcd 2d3f
00000030: 3fa1 4c3f 178d b9be 6b6d c7be 5fa7 923f
00000040: 1505 f03d 637f 4d3f 35a4 3f3d d44d 0ebe
00000050: bfc8 f43e e125 db3e bc4d 343f 9d44 3d3f
00000060: 0162 3cbf 2ceb 4cbf bed7 563e aa1e 07bf
00000070: d415 43bf db5a 1f3e 4673 93be 01f4 05be
00000080: 5429 e13d 5333 f33e fac0 13be de80 9b3e
00000090: 97dd 29be f300 51be 0253 73bd f898 1cbe
000000a0: 9769 cb3e 53ff a33e 1b78 e5be a65a 083e
000000b0: cc66 3bbf 51d1 fdbe 892b 42bc 7dfd 5b3e
000000c0: bfaa 943e e938 433e ea3a 5abd 45e4 cbbe
000000d0: a3fa bb3e 6778 c63e 9434 0ebd 8296 d3bc
000000e0: 44f2 fa3e ad14 2a3f 5d92 1cbe 5342 973f
000000f0: 1e40 a33e 274b a33e 75d6 573d 998f 43be
00000100: 9d60 dd3e 826f 28be a4ba d0bd 209d dabd
00000110: c3c6 9a3b b6a0 ecbe 653c 303f 6411 b23e
00000120: b9fd 53bd ca72 88bf 395f 213f a6ab 36be
00000130: 5e19 87bf f444 9abf ccbb 313e 099e 7a3f
00000140: 3aab 79be 6a23 823e e352 9c3e c444 303e
00000150: 8391 8e3e 006d 98be 1750 193f 7ddd 5c3f
00000160: 5a3a 67bf 68c5 bfbe fede 47bf dcb2 873d
00000170: c4df d93d b50a 97be 9346 b03c eae9 4ebe
00000180: f3b0 6abe 0933 df3d 024b 6d3d 154b e1bd
00000190: 8455 e73c b4bc bb3d 2dff 36bf 8e06 94be
000001a0: 8642 923e 8438 7fbf 5eb1 be3e e724 45bf
000001b0: 1a71 8e3f fc06 6d3d e1e1 1cbe 15da 49be
000001c0: 8830 81be 593a 9ebe 3c86 dd3b 2160 cb3c
000001d0: 344e 44bd fe42 6fbf 2af0 29bd 6714 dfbe
000001e0: 7c07 263f 7587 12be c353 1ebe 58e1 06be
000001f0: 96a4 5b3e 1d34 18bf 6ecd 4dbd 558a a83e
00000200: acd5 e83e 6d73 fc3e df5a 27bf e742 2cbf
00000210: 6fbc 4cbf d623 b73e 63df 22bf 1223 5fbf
00000220: 343c a3bc e1ee 7a3f 6543 bd3e 7a28 85be
00000230: e698 d63e 3edd 43be 774e 60bf 9020 143f
00000240: a718 a0bd 7b92 b9be 9d16 30bf 1501 8d3c
00000250: be7e 0a3e 5674 19be 2698 d13e 4d4b e33e
00000260: 6d65 d13d 81ef 37be f957 173f d5f1 05bc
00000270: 2cf2 033f d7d9 7239 34ff 40bd 5ef8 e6bd
00000280: a58a 68bd d61e 7b3e c72e 423f d493 d63d
00000290: 272b 0bbf 3d59 003d 6e68 6b3e 2053 903e
000002a0: 80dc 01bf 20ae c5be 8f61 463f 8aad 793e
000002b0: 5011 2a3f c271 423d ea09 4e3f 26f6 3c3d
000002c0: b86b 233e dcda 3a3d e908 6dbe d05e 683e
000002d0: 4e9c 143e a55c 0e3e e802 6a3e b4bd 81be
000002e0: 33ff aebe 83ef 303d b0b4 8bbe f8ed 063e
000002f0: 23ef 523e b9b1 663f dc56 1a3e 4886 323f
00000300: de45 29bf d425 cbbe 679c fb3d 1e40 413e
00000310: a208 243f c955 443e 9243 253d fdb9 233f
00000320: 6821 353f f039 83bf 1bde 933e a912 09be
00000330: 8b18 e3be 9d24 f0bc a853 15bf 45c7 42bf
00000340: 8a92 f1be 1a24 b73e 1917 c83e a36c eb3c
00000350: 45ed acbd 146d 88be 7953 23bd cd6b b8bd
00000360: 465f 10bf 2ea9 09be c1b0 94bd 3445 aa3e
00000370: 02d3 b83e 0da8 303f 76a5 0ebf 627a 0cbf
00000380: 99d5 17bf 09df 233d 4519 bf3e 3911 fe3e
00000390: 92b8 59bf ab86 1abf 6fd5 3e3d 29ab a8be
000003a0: f5eb 233e 115a 29bf 8579 5c39 11d8 34bd
000003b0: 9c78 a6bd cf36 cabe 591f ebbd 5e56 1cbe
000003c0: 98a1 8c3e 5ac8 f4bd 7211 cd3c 3e09 9cbe
000003d0: 7a79 0c3f d2a0 15be 2135 acbe 6516 25bf
000003e0: ff93 993e 6203 593f 5a71 76bf 0d6c 8c3d
000003f0: 8607 b13e 6f0b d3be b137 983d 28de b63f

lstm.weight_hh_l0 f4 [512, 128]
0.31860617 0.14517023 0.36228916 -0.17051703 -0.28828794 0.34383205 0.06529842 -0.23687465
0.38931632 -0.093405835 -0.364362 -0.4352817 0.27923852 0.40764847 0.5161644 -0.19877726
-0.16510785 0.46825072 -0.020414187 -0.39986652 -0.42349327 -0.16890518 -0.48187536 0.21606225
-0.14294277 0.19596645 -0.11072514 0.3622929 0.5020917 -0.1771682 0.2640471 0.4021407
-0.31150547 0.28770274 -0.03525185 0.22882304 0.47244823 0.41069886 -0.077083774 -0.17068186
-0.6316578 0.5211112 -0.009824345 -0.31234145 -0.10380837 0.18504415 0.115125366 -7.1783164e-05
-0.06774213 -0.2701437 -0.32964358 0.58966666 -0.6194888 0.32171234 -0.31030345 0.75993705
-0.06268982 -0.4180726 0.3261466 0.5266716 -0.07854079 -0.620218 0.72907376 0.28093216
0.44339332 -0.6102698 0.39964667 -0.25218746 -0.007169461 -0.27089608 0.5304502 -0.26182705
0.3128674 -0.49444094 -0.302464 -0.049266167 -0.21022919 -0.15467545 0.27249008 -0.028350629
0.48117754 -0.15063407 0.23864946 0.22189648 0.51115155 0.43420225 -0.5295976 -0.45773175
0.5731049 0.03069914 0.81226605 0.19566317 0.4157938 0.25726122 -0.3232359 -0.33005962
0.68440115 -0.20771436 -0.08213004 0.49854484 0.37191954 -0.037825122 -0.5822121 -0.18603067
-0.30008873 0.6383504 0.39113352 0.63613176 -0.4988452 -0.18683822 0.10191001 0.14074397
-0.15466961 0.52290076 -0.38468498 0.01787666 -0.11035948 -0.33161733 -0.61465347 -0.57359624
0.13870934 0.2149065 0.53802544 -0.046651956 0.037978373 -0.12652409 0.33690068 -0.16460243
0.71848375 0.08690912 -0.52011156 0.39585072 0.43370098 -0.22154851 -0.21559301 0.3151312
0.50014126 -0.26508582 -0.37629914 -0.28030726 -0.26145214 0.41959098 -0.49848318 -0.78800935
-0.6229701 -0.08314188 0.19603361 0.41591337 -0.5638267 -0.90625536 0.66820043 -0.19881457
0.23055322 0.82370436 -0.28463662 0.29453513 0.3019143 -0.5952436 -0.4813755 0.037908725
-0.295998 0.41822746 -0.37130588 -0.2197688 0.013899548 0.025931992 -0.027503042 -0.11849579
-0.044075392 -0.87970054 -0.076396875 0.39567617 0.23238374 -0.37340432 -0.40203622 -0.017107997
-1.2316698 -0.25093958 -0.6704519 0.86004114 -0.18522538 0.32228673 -0.4342122 0.704384
-0.09714164 -0.25727305 0.41048172 -0.37451482 0.18382256 -0.45674217 0.14788026 0.5454941
-0.33596748 0.12847094 -0.29856724 -0.525237 -0.047519725 0.11226783 0.4111388 -0.08669495
0.3592019 -0.56071 -0.048198268 -0.34220865 0.4477619 -0.22493154 -0.208639 -0.0093973335
0.53859645 -0.09565436 0.2251314 0.4254854 0.33034116 -0.03869902 -0.8304449 -0.32156143
-0.28095964 -0.20653835 -0.36577666 0.074679345 -0.22511002 -0.38270715 0.0729504 -0.659042
0.019325828 -0.15731505 -0.44172093 0.007292351 -0.1487525 0.39528596 -0.19424398 -0.25802973
-0.8550247 0.0127115445 0.23041601 0.07442135 -0.21020705 0.346799 0.29702199 0.270941
1.3001602 0.31536332 -0.40509832 -0.0663411 0.6324024 -0.27443865 -0.5057206 -0.1217927
-0.46267065 -0.37923834 0.5184552 0.2650963 -0.90382713 0.011649245 0.8651447 -0.60388243
00000000: 5920 a33e 81a7 143e f77d b93e 049c 2ebe
00000010: 7a9a 93be c10a b03e 2ebb 853d 458f 72be
00000020: 7854 c73e 8f4b bfbd a88d babe 3edd debe
00000030: 5af8 8e3e 4db7 d03e 5a23 043f 448c 4bbe
00000040: 0812 29be 8fbe ef3e a73b a7bc 4ebb ccbe
00000050: 1cd4 d8be 7bf5 2cbe 5eb8 f6be 6c3f 5d3e
00000060: 975f 12be 6eab 483e ddc3 e2bd 747e b93e
00000070: 1589 003f 956b 35be 2e31 873e 63e5 cd3e
00000080: a57d 9fbe c64d 933e 3e64 10bd 9650 6a3e
00000090: bce4 f13e 1f47 d23e 19de 9dbd 3ac7 2ebe
000000a0: 53b4 21bf 8b67 053f 4af6 20bc 38eb 9fbe
000000b0: 7c99 d4bd 377c 3d3e d9c6 eb3d 4b8a 96b8
000000c0: 63bc 8abd 4650 8abe 0bc7 a8be 65f4 163f
000000d0: d196 1ebf 7bb7 a43e 18e0 9ebe 3c8b 423f
000000e0: 8563 80bd 9d0d d6be b0fc a63e f3d3 063f
000000f0: fed9 a0bd 9bc6 1ebf 94a4 3a3f 57d6 8f3e
00000100: 7304 e33e a43a 1cbf 7d9e cc3e b71e 81be
00000110: cced eabb e4b2 8abe 96cb 073f 320e 86be
00000120: 2830 a03e 5d27 fdbe 90dc 9abe 52cb 49bd
00000130: 5246 57be 3e63 1ebe d283 8b3e 943f e8bc
00000140: e75c f63e d13f 1abe 8660 743e d538 633e
00000150: d4da 023f c24f de3e b593 07bf d15b eabe
00000160: 01b7 123f c37c fb3c abf0 4f3f ed5b 483e
00000170: ede2 d43e beb7 833e 2d7f a5be 93fd a8be
00000180: ea34 2f3f 13b3 54be cb33 a8bd 4541 ff3e
00000190: 3d6c be3e 84ee 1abd da0b 15bf d37e 3ebe
000001a0: 3ba5 99be ef6a 233f a742 c83e 88d9 223f
000001b0: a368 ffbe 8552 3fbe 32b6 d03d 301f 103e
000001c0: b661 1ebe d3dc 053f 6ef5 c4be 1372 923c
000001d0: 2704 e2bd bfc9 a9be ee59 1dbf 34d7 12bf
000001e0: d209 0e3e 7310 5c3e 09bc 093f 1f16 3fbd
000001f0: 368f 1b3d 888f 01be 3f7e ac3e 8a8d 28be
00000200: 8dee 373f 69fd b13d 0826 05bf f2ac ca3e
00000210: 0e0e de3e 9ddd 62be 6ac4 5cbe e058 a13e
00000220: 4209 003f 54b9 87be 48aa c0be 6f84 8fbe
00000230: 0edd 85be a1d4 d63e 3039 ffbe fbba 49bf
00000240: f87a 1fbf 4a46 aabd 09bd 483e 99f2 d43e
00000250: f256 10bf 5a00 68bf 2f0f 2b3f 0c96 4bbe
00000260: 2516 6c3e 4ade 523f e4bb 91be 4fcd 963e
00000270: 8394 9a3e e261 18bf d976 f6be 2e46 1b3d
00000280: 0d8d 97be e921 d63e ce1b bebe 130b 61be
00000290: eeba 633c 546f d43c 0f4e e1bc ecad f2bd
000002a0: 6688 34bd 0e34 61bf f775 9cbd 1196 ca3e
000002b0: 01f6 6d3e da2e bfbe b1d7 cdbe 1226 8cbc
000002c0: 5ba7 9dbf 277b 80be bca2 2bbf a82b 5c3f
000002d0: b9ab 3dbe c402 a53e 1051 debe 8352 343f
000002e0: 32f2 c6bd 4bb9 83be a92a d23e 68c0 bfbe
000002f0: fb3b 3c3e 1cda e9be ec6d 173e 80a5 0b3f
00000300: ee03 acbe e38d 033e cedd 98be ef75 06bf
00000310: 0ba4 42bd adec e53d c980 d23e 1f8d b1bd
00000320: 50e9 b73e b18a 0fbf 8c6b 45bd f935 afbe
00000330: 0c41 e53e 7454 66be 76a5 55be 46f7 19bc
00000340: 75e1 093f 6fe6 c3bd d988 663e 39d9 d93e
00000350: 7a22 a93e dd82 1ebd 0998 54bf b3a3 a4be
00000360: f1d9 8fbe ca7e 53be 1447 bbbe 7cf1 983d
00000370: 3e83 66be 31f2 c3be 0567 953d fab6 28bf
00000380: 3351 9e3c 3217 21be 3f29 e2be adf4 ee3b
00000390: 9352 18be ec62 ca3e e5e7 46be 791c 84be
000003a0: e6e2 5abf 1544 503c 2df2 6b3e 396a 983d
000003b0: 8440 57be a38f b13e 4413 983e c7b8 8a3e
000003c0: a66b a63f 4d77 a13e 0c69 cfbe d8dd 87bd
000003d0: 20e5 213f 3983 8cbe e876 01bf 736e f9bd
000003e0: 2be3 ecbe 872b c2be 7bb9 043f b4ba 873e
000003f0: 3761 67bf 7adc 3e3c 207a 5d3f 0a98 1abf

lstm.bias_ih_l0 f4 [512]
-0.5565241 -0.47042722 -0.70559555 -0.6736977 -0.61321473 -0.6368371 -0.54196316 -0.19821665
-0.4742721 -0.5193296 -0.35379088 -0.56256336 -0.70450926 -0.6843272 -0.36018068 -0.90028006
-0.7519513 -0.25540027 -0.4102156 -0.51982886 -0.5439013 -0.58440846 -0.42341474 -0.19861081
-0.4163212 0.15520093 -0.5719306 -0.21486391 -0.29397693 -0.21615905 -0.8394457 -0.6239614
-0.3962466 0.09013725 -0.41562635 -0.4932108 -0.4577257 -0.37927738 -0.29443264 -0.6544397
-0.30947092 -0.5473178 -0.11075085 -0.3512213 -0.68553394 -0.113973975 -0.4917305 -0.86130464
-0.12708424 -0.7751752 -0.4241513 -0.28381217 -0.40595797 -0.6386381 -0.68717647 -0.270279
-0.23218451 -0.65223294 -0.28257722 -0.5079108 -0.6458927 -0.99630994 -0.1820441 0.15880568
-0.7338968 -0.3585685 -0.3055762 -0.6298486 -0.8335752 -0.7248446 -0.5516751 -0.52697706
-0.4673399 0.085285336 -0.4626712 -1.0055202 -0.053845443 -0.22784567 -0.786699 -0.6236958
-0.5933951 -0.567053 -0.41575763 -0.3878351 -0.78179973 -0.65069294 -0.21778172 -0.90058637
-0.44489482 -0.54309237 -0.38982955 -0.67451715 -0.1667435 -0.37741387 -0.42214075 -0.51041126
-0.8734082 -0.5235591 -0.8977635 -0.616978 -0.6937253 -0.7404341 -0.66608346 0.03417284
-0.84645265 -0.42711273 -0.5917143 -0.41867355 -0.353425 -0.90594274 -0.90076214 -0.93645376
-0.22995329 0.041816372 -0.292631 -0.47868142 -0.4624537 -0.09170048 0.4170445 -0.5726596
-0.60099095 -0.6048427 -0.64201444 -0.60457325 -0.40842104 -0.6195867 -0.84333205 -0.5075014
-0.5265552 0.77087486 -0.26417673 0.73390836 -0.31004107 -0.5518055 -0.076516464 -0.5394266
-0.052963696 -0.20272447 -0.4286978 -0.06532948 0.13528368 0.12718302 0.39357558 -0.16677089
-0.55456793 0.24398151 -0.29870933 0.13029817 -0.24791966 0.1473078 -0.56513333 -0.1483718
-0.17461196 -0.028826097 -0.52538776 -0.023825472 -0.07354484 -0.0471158 -0.22874986 -0.04046716
-0.029998343 0.3119803 0.104993805 0.09756105 -0.04823833 0.39437217 -0.13016483 -0.40965477
0.2945916 -0.05943894 -0.4188616 -0.042945266 0.4775626 -0.17517987 0.19059019 -0.07228198
0.19611141 -0.7123847 0.07424038 -0.370481 0.024413846 0.08022172 -0.58120835 0.1253472
0.3442942 -0.5376945 -0.4958665 -0.039663207 0.019507067 0.36039814 -0.16970006 0.29020894
0.013762622 0.017298402 -0.18640742 -0.6008942 0.38712573 -0.22082789 0.46542722 -0.065794185
-0.5143903 -0.08451571 -0.00011759241 -0.0071739685 -0.7236657 -0.0676644 -0.05681063 -0.8878145
0.35201815 0.19259728 0.3608193 -0.00052436686 -0.608078 -0.70394665 -0.21332672 -0.4076873
-0.36888674 0.036300555 -0.44057032 -0.87390727 0.16091679 0.028048791 -0.1538279 0.2986512
-0.53614306 -0.03691925 -0.29698953 0.42149028 0.10478854 0.015684914 -0.29638258 -0.02379397
-0.76443213 0.08339868 -0.29333246 -0.44068018 0.16848539 -0.41939119 -0.49650043 -0.534797
-0.41587105 0.08061348 -0.31331474 0.28237137 -0.29960996 -0.5151643 0.10479261 -0.19259259
-0.58736765 -0.015364427 -0.011525029 -0.2529743 -0.14958695 -0.37874147 -0.73628855 -0.35513854
00000000: 5d78 0ebf d6db f0be e9a1 34bf 7477 2cbf
00000010: a4fb 1cbf c207 23bf 19be 0abf 4ef9 4abe
00000020: cbd3 f2be c9f2 04bf 1424 b5be 2704 10bf
00000030: b85a 34bf 1130 2fbf 9a69 b8be c178 66bf
00000040: e17f 40bf d3c3 82be c707 d2be 8113 05bf
00000050: 1e3d 0bbf cb9b 15bf d1c9 d8be a260 4bbe
00000060: 0d28 d5be feec 1e3e 0b6a 12bf 4905 5cbe
00000070: 2584 96be cc58 5dbe eae5 56bf efbb 1fbf
00000080: d6e0 cabe e199 b83d facc d4be 2086 fcbe
00000090: 065b eabe a530 c2be e0bf 96be 5c89 27bf
000000a0: f972 9ebe 051d 0cbf 57d1 e2bd 47d3 b3be
000000b0: 277f 2fbf 306b e9bd 1ac4 fbbe 767e 5cbf
000000c0: 5f22 02be e271 46bf 5c2a d9be d44f 91be
000000d0: b9d9 cfbe c97d 23bf ccea 2fbf 0262 8abe
000000e0: c7c1 6dbe bdf8 26bf f6ad 90be 7106 02bf
000000f0: 3959 25bf 2b0e 7fbf c569 3abe f59d 223e
00000100: a9e0 3bbf 4a96 b7be 7c74 9cbe c23d 21bf
00000110: 2f65 55bf 6a8f 39bf 943a 0dbf f8e7 06bf
00000120: 2d47 efbe 14aa ae3d 3de3 ecbe e3b4 80bf
00000130: 0a8d 5cbd 6050 69be 1b65 49bf 87aa 1fbf
00000140: bee8 17bf 632a 11bf 2fde d4be 5292 c6be
00000150: 0724 48bf d093 26bf 2c02 5fbe d48c 66bf
00000160: 41c9 e3be 1a08 0bbf bd97 c7be 28ad 2cbf
00000170: cfbe 2abe 643c c1be d522 d8be 50aa 02bf
00000180: ae97 5fbf f807 06bf d4d3 65bf 45f2 1dbf
00000190: fb97 31bf 178d 3dbf 7284 2abf d2f8 0b3d
000001a0: 1fb1 58bf 85ae dabe 977a 17bf 615c d6be
000001b0: 1ff4 b4be ddeb 67bf 5998 66bf 6fbb 6fbf
000001c0: e078 6bbe a547 2b3d bbd3 95be bb15 f5be
000001d0: bbc6 ecbe 76cd bbbd db86 d53e d299 12bf
000001e0: 8bda 19bf f9d6 1abf 0f5b 24bf 50c5 1abf
000001f0: 901c d1be 3c9d 1ebf 9ce4 57bf 9deb 01bf
00000200: 52cc 06bf 0e58 453f 2c42 87be 6be1 3b3f
00000210: b4bd 9ebe 2043 0dbf aab4 9cbd dd17 0abf
00000220: 76f0 58bd 0197 4fbe 477e dbbe 76cb 85bd
00000230: ce87 0a3e 443c 023e bd82 c93e fdc5 2abe
00000240: 2af8 0dbf 4ad6 793e 6ef0 98be e26c 053e
00000250: a7de 7dbe dbd7 163e 94ac 10bf c7ee 17be
00000260: 7acd 32be b524 ecbc d07f 06bf a32d c3bc
00000270: ad9e 96bd 7ffc 40bd 673d 6abe e5c0 25bd
00000280: 16bf f5bc e2bb 9f3e fe06 d73d 16ce c73d
00000290: 8e95 45bd 26eb c93e ee49 05be 45be d1be
000002a0: b6d4 963e 3f76 73bd 0775 d6be 60e7 2fbd
000002b0: 1683 f43e 5a62 33be 132a 433e 9308 94bd
000002c0: 6ed1 483e d85e 36bf 570b 983d b0af bdbe
000002d0: 8cff c73c 494b a43d 12ca 14bf 045b 003e
000002e0: 5447 b03e 59a6 09bf 37e2 fdbe e375 22bd
000002f0: 49cd 9f3c 1b86 b83e dac5 2dbe 4496 943e
00000300: 9f7c 613c 61b5 8d3c 96e1 3ebe 34d4 19bf
00000310: 5835 c63e b520 62be 7a4c ee3e 1abf 86bd
00000320: 15af 03bf 9316 adbd f29b f6b8 9c13 ebbb
00000330: 2842 39bf a293 8abd 43b2 68bd d047 63bf
00000340: b93b b43e 3938 453e 4fbd b83e aa75 09ba
00000350: 00ab 1bbf d935 34bf 5272 5abe 64bc d0be
00000360: b9de bcbe e4af 143d 6f92 e1be 63b8 5fbf
00000370: 5fc7 243e 94c6 e53c 1085 1dbe cfe8 983e
00000380: ac40 09bf a438 17bd 030f 98be 93cd d73e
00000390: 609b d63d a67d 803c 75bf 97be 92eb c2bc
000003a0: d3b1 43bf edcc aa3d ac2f 96be d5a0 e1be
000003b0: 6f87 2c3e 71ba d6be 4e35 febe 75e8 08bf
000003c0: 0ded d4be ae18 a53d ca6a a0be fb92 903e
000003d0: 7a66 99be cfe1 03bf 829d d63d fe36 45be
000003e0: ba5d 16bf 14bb 7bbc 7ad3 3cbc d985 81be
000003f0: 522d 19be 67ea c1be 687d 3cbf b8d4 b5be

lstm.bias_hh_l0 f4 [512]
-0.54015553 -0.462318 -0.6496124 -0.5694278 -0.5104655 -0.555603 -0.5465434 -0.3161381
-0.44314238 -0.5578396 -0.3541619 -0.5707043 -0.7019678 -0.6628877 -0.39823842 -0.8399522
-0.8023406 -0.3707084 -0.34057721 -0.4650303 -0.4638481 -0.6704643 -0.38623774 -0.26339003
-0.4038306 0.20713833 -0.59395766 -0.13888437 -0.14809261 -0.24191467 -0.7495213 -0.75695413
-0.5197736 0.06453452 -0.39343682 -0.54079306 -0.36507428 -0.34503937 -0.37983775 -0.57607764
-0.16059111 -0.5716283 -0.0799237 -0.36531293 -0.63844365 -0.0644518 -0.50469846 -0.8292154
-0.1400468 -0.86581135 -0.4871775 -0.2638244 -0.44278073 -0.72091645 -0.62071806 -0.2114417
-0.37548947 -0.7894172 -0.2385385 -0.5942393 -0.6612949 -1.1259011 -0.093009144 0.15993403
-0.6739509 -0.3083851 -0.30562258 -0.5939912 -0.91982347 -0.66259533 -0.62194836 -0.43810466
-0.4935362 0.015486636 -0.5818186 -1.1081672 -0.06209725 -0.26024953 -0.8472845 -0.65710366
-0.61571586 -0.42717347 -0.29769662 -0.41477832 -0.6764162 -0.5602463 -0.25267556 -0.95992446
-0.40923354 -0.4165537 -0.3536864 -0.546176 -0.20621437 -0.42483297 -0.53500944 -0.3796466
-0.9347063 -0.6281232 -0.91522765 -0.6826339 -0.7043512 -0.8275643 -0.5942436 0.024590882
-0.767724 -0.50292695 -0.44187704 -0.4915146 -0.39501908 -0.95185584 -0.8484197 -1.0451734
-0.108771294 0.07020032 -0.29735234 -0.50048465 -0.5061559 -0.14005904 0.31195188 -0.51976514
-0.5509139 -0.70320433 -0.5940961 -0.6580746 -0.3262881 -0.62962615 -0.89029425 -0.47123763
-0.4388737 0.7871401 -0.18690619 0.8272052 -0.2583294 -0.4209888 -0.061795503 -0.5467967
-0.13035591 -0.20727213 -0.44346073 -0.14825386 0.038069155 -0.016488742 0.3733425 -0.22342397
-0.6690554 0.1808807 -0.38856745 0.12438662 -0.28364164 0.17490272 -0.49205768 -0.15815073
-0.19034457 0.07075674 -0.41857055 -0.10536179 -0.037937045 -0.10983921 -0.2554453 0.06996616
-0.1276217 0.2811542 0.052643415 0.08627209 -0.09038567 0.41266552 -0.17234802 -0.49322596
0.28796282 -0.002057267 -0.42116976 -0.03611816 0.5811292 -0.12660143 0.18387723 -0.12303034
0.2728979 -0.70042807 0.049168035 -0.48055595 0.033098347 0.10720116 -0.54870826 0.03151507
0.30013266 -0.62785417 -0.5300757 -0.02389618 0.030697078 0.29638633 -0.32855174 0.2999108
0.0432971 0.11652662 -0.26691028 -0.72919834 0.38327613 -0.22976288 0.46609563 0.022096256
-0.4716424 -0.040038146 0.124298945 -0.10269647 -0.80275965 0.01585156 0.0020441168 -0.88571453
0.38392085 0.055801347 0.38386276 -0.056317706 -0.545581 -0.68743885 -0.25749156 -0.48161605
-0.21596603 0.06399025 -0.31562585 -0.93956554 0.105471864 -0.03188912 -0.10229229 0.1784793
-0.5117152 -0.04210879 -0.18352167 0.34561807 0.05229908 -0.047573827 -0.15062337 -0.021487843
-0.77284604 0.2561806 -0.23746584 -0.47894758 0.26952663 -0.35008124 -0.36773223 -0.50044775
-0.30864525 0.0796871 -0.24666156 0.1593342 -0.17911653 -0.5600739 0.04711634 -0.3153088
-0.6616576 -0.027475417 -0.104732946 -0.3197557 -0.25663438 -0.37422603 -0.8667181 -0.28345376
00000000: a247 0abf f2b4 ecbe 004d 26bf 05c6 11bf
00000010: dead 02bf 003c 0ebf 45ea 0bbf dadc a1be
00000020: 8fe3 e2be 93ce 0ebf b554 b5be ad19 12bf
00000030: 29b4 33bf 02b3 29bf e8e5 cbbe 1b07 57bf
00000040: 3266 4dbf 7ecd bdbe 2360 aebe 7418 eebe
00000050: 807d edbe 8ca3 2bbf f4c0 c5be 0fdb 86be
00000060: e2c2 cebe 121c 543e 9c0d 18bf b437 0ebe
00000070: 97a5 17be 7bb8 77be a1e0 3fbf bfc7 41bf
00000080: e20f 05bf ad2a 843d 8d70 c9be 6a71 0abf
00000090: 04eb babe 00a9 b0be 187a c2be d379 13bf
000000a0: ff71 24be 3b56 12bf 09af a3bd 4c0a bbbe
000000b0: 0b71 23bf 4eff 83bd eb33 01bf 7647 54bf
000000c0: 6e68 0fbe d0a5 5dbf 546f f9be fe13 87be
000000d0: 28b4 e2be fb8d 38bf 61e7 1ebf 2c84 58be
000000e0: 2840 c0be 3f17 4abf 7043 74be 1120 18bf
000000f0: 9f4a 29bf 871d 90bf 947b bebd bfc5 233e
00000100: 0c88 2cbf a7e4 9dbe 907a 9cbe cf0f 18bf
00000110: 8d79 6bbf d99f 29bf 0238 1fbf 414f e0be
00000120: c7b0 fcbe a9bb 7d3c 10f2 14bf 6cd8 8dbf
00000130: b059 7ebd 6d3f 85be a3e7 58bf f237 28bf
00000140: 8e9f 1dbf 7bb6 dabe b16b 98be d35d d4be
00000150: 9d29 2dbf 4d6c 0fbf b15e 81be 9cbd 75bf
00000160: 0f87 d1be 8746 d5be 6216 b5be 31d2 0bbf
00000170: dc29 53be b583 d9be 61f6 08bf 0a61 c2be
00000180: e948 6fbf afcc 20bf 5c4c 6abf 18c1 2ebf
00000190: 5c50 34bf 41db 53bf 5920 18bf d172 c93c
000001a0: 8f89 44bf d2bf 00bf b53d e2be cda7 fbbe
000001b0: f13f cabe d3ac 73bf 0932 59bf 3ec8 85bf
000001c0: 7cc3 debd 2fc5 8f3d 913e 98be c31f 00bf
000001d0: 6f93 01bf a36b 0fbe 28b8 9f3e 540f 05bf
000001e0: b108 0dbf 3305 34bf af16 18bf 9477 28bf
000001f0: 3c0f a7be 2e2f 21bf 53ea 63bf 0f46 f1be
00000200: 0eb4 e0be 0382 493f 5664 3fbe b8c3 533f
00000210: c043 84be d88b d7be 481d 7dbd defa 0bbf
00000220: 057c 05be 253f 54be 490d e3be dccf 17be
00000230: 67ee 1b3d 6613 87bc c026 bf3e 41c9 64be
00000240: 3747 2bbf ca38 393e 50f2 c6be 6abe fe3d
00000250: 7a39 91be b319 333e fcee fbbe 44f2 21be
00000260: b0e9 42be e9e8 903d e14e d6be ecc7 d7bd
00000270: e063 1bbd 61f3 e0bd bac9 82be 6b4a 8f3d
00000280: 43af 02be 71f3 8f3e 9fa0 573d 6caf b03d
00000290: 1f1c b9bd e548 d33e 007c 30be 1d88 fcbe
000002a0: dd6f 933e 36d3 06bb 90a3 d7be a3f0 13bd
000002b0: e2c4 143f cea3 01be 504a 3c3e 55f7 fbbd
000002c0: 46b9 8b3e 414f 33bf 6c64 493d 6e0b f6be
000002d0: 2292 073d 488c db3d 2578 0cbf f215 013d
000002e0: fdaa 993e 0dbb 20bf 0bb3 07bf ecc1 c3bc
000002f0: 7078 fb3c f3bf 973e ef37 a8be e98d 993e
00000300: 4d58 313d 82a5 ee3d 77a8 88be beac 3abf
00000310: c53c c43e f646 6bbe 16a4 ee3e 3503 b53c
00000320: 1d7b f1be 0aff 23bd 7290 fe3d 8752 d2bd
00000330: a881 4dbf 21db 813c 97f6 053b 30be 62bf
00000340: 4691 c43e f48f 643d a989 c43e 65ad 66bd
00000350: 32ab 0bbf fefb 2fbf efd5 83be 6196 f6be
00000360: 3326 5dbe 520d 833d b699 a1be 5e87 70bf
00000370: a201 d83d 2a9e 02bd 9f7e d1bd 47c3 363e
00000380: c4ff 02bf 447a 2cbd 1bed 3bbe daf4 b03e
00000390: 8f37 563d c6dc 42bd 033d 1abe 4607 b0bc
000003a0: 3dd9 45bf 1b2a 833e 3f2a 73be 9e38 f5be
000003b0: 65ff 893e d93d b3be 6647 bcbe 581d 00bf
000003c0: c006 9ebe fe32 a33d d994 7cbe 8128 233e
000003d0: 536a 37be 0161 0fbf 10fd 403d 2870 a1be
000003e0: 6462 29bf 2014 e1bc 3a7e d6bd 05b7 a3be
000003f0: 9565 83be 8e9a bfbe 3de1 5dbf da20 91be

fc1.weight f4 [64, 128]
0.3480601 -0.43137702 -0.11760714 0.4434328 -0.28726962 0.51606476 -0.011849421 0.037117347
-0.05267225 -0.5296422 0.502005 -0.23948757 -0.2889383 0.020601206 -0.2729894 -0.2839453
-0.23640406 -0.33856553 0.6185778 0.035914503 0.0042105685 0.19802205 -0.17952454 0.7390767
-0.10690259 0.0023966054 0.06868725 -0.13875368 -0.12835366 -0.10441285 -0.32908976 -0.66018665
-0.6484019 -0.022428315 -0.28914464 0.19547352 -0.28129885 -0.6220654 -0.50666964 0.19650228
0.061305884 0.1951838 -0.9065202 -0.030327719 0.15129381 -0.22597902 -0.06867757 -0.24624594
-0.29465008 -0.19490531 -0.14412442 0.09335739 0.12173542 0.12387355 -0.5594919 0.43392837
0.03545566 0.3854477 0.13172932 0.9471424 -0.13487649 0.20144881 -0.28454787 -0.2580524
0.40336967 0.596136 0.055916958 0.19787766 0.48418593 -0.20164259 0.12734146 -0.5496196
0.34034035 -0.6091579 -0.102421865 0.021172717 -0.19469279 -0.3303744 -0.4013285 -0.2676814
0.76714534 -0.26594162 -0.1657086 0.33603463 0.01918486 0.22504362 0.21342964 -0.055998515
0.9000045 -0.32148665 -0.119380526 -0.12541698 0.1616889 -0.5937328 -0.14660984 0.14668256
0.3598959 0.35564443 -0.30956557 0.17566624 0.84492373 -0.1742219 -0.27684328 0.015285839
0.09347721 0.2851477 -0.2380504 -0.08081925 0.14664428 -0.28851154 -0.2692484 -0.032315724
0.123254046 -0.10884518 -0.022484642 -0.32863605 -0.037909128 0.37141347 0.16076331 0.26269978
0.5405754 -0.10572002 0.65944815 -0.19663253 0.16219419 0.08819001 0.22195385 -0.31593847
-0.47508675 -0.10031537 0.167857 0.2844782 0.47483036 -0.6111118 -0.04541614 0.036580835
-0.4264566 0.21529654 -0.16710491 -0.034865476 -0.24785225 0.5103172 -0.3833685 -0.025479414
0.11653905 0.05655485 0.27121165 0.1827917 0.102467984 0.3650609 0.0013762317 0.20372613
0.3508833 0.1662065 0.31882375 0.45842052 0.0898372 0.34415138 -0.048918974 0.31362993
0.5426209 0.4902986 -0.03117095 0.061325267 -0.09996554 1.2395982 0.15360492 -0.091598265
0.5452581 0.04033349 0.20774578 -0.016194185 -0.8134636 -0.54800355 0.32316697 -0.01904208
0.0746244 -0.08096396 -0.15127233 0.38883206 0.33257538 -0.13701266 0.065275334 -0.69192886
-0.20460738 0.07167227 -0.10561073 -0.7651503 0.16846861 0.27520236 0.20612998 0.1387356
0.3068664 0.15885691 0.44044894 0.024238793 0.1453166 -0.390108 -0.3223692 0.026978284
-0.00068789464 -0.24257459 -0.33562538 0.10613077 0.3055035 0.005274464 0.50506586 0.09076553
-0.2967277 0.31487483 -0.367347 0.2821085 0.34278774 -0.25417015 -0.1572971 -0.13909832
-0.36320612 -0.11931398 -0.07094534 0.42969745 0.12803331 0.039814275 0.13569629 0.026898148
0.21172968 0.101539366 -0.033221155 0.27794245 -0.5943296 0.11995238 0.11273291 0.4986964
0.09860728 0.30979356 0.16463329 0.07822797 -0.43788612 0.7941291 0.18949108 0.05049256
-0.20421061 0.08385971 -0.071353525 0.0523118 -0.05179 -0.41906977 0.2149723 0.4545805
-0.64241064 -0.06557037 0.049643308 0.1672413 -0.11771445 -0.13743077 -0.17126119 0.4794051
00000000: ef34 b23e 73dd dcbe 03dc f0bd a009 e33e
00000010: 0115 93be d21c 043f 1324 42bc 5c08 183d
00000020: dbbe 57bd a296 07bf 6683 003f 3b3c 75be
00000030: b9ef 93be dcc3 a83c 44c5 8bbe 4761 91be
00000040: e813 72be 7658 adbe 1d5b 1e3f 161b 133d
00000050: cff8 893b 4bc6 4a3e 48d5 37be 2134 3d3f
00000060: bfef dabd 5e10 1d3b e7ab 8c3d 7215 0ebe
00000070: 246f 03be 68d6 d5bd 747e a8be fe01 29bf
00000080: abfd 25bf 96bb b7bc c40a 94be 362a 483e
00000090: 6706 90be ae3f 1fbf 1ab5 01bf e537 493e
000000a0: e11b 7b3d 43de 473e b511 68bf d671 f8bc
000000b0: c4ec 1a3e 0b67 67be d3a6 8cbd e527 7cbe
000000c0: 60dc 96be 4295 47be 5a95 13be 2932 bf3d
000000d0: 6b50 f93d 6ab1 fd3d dc3a 0fbf dc2b de3e
000000e0: f439 113d 6759 c53e 0de4 063e ed77 723f
000000f0: 101d 0abe 9948 4e3e 42b0 91be 721f 84be
00000100: 7886 ce3e 5e9c 183f 2e09 653d 71a0 4a3e
00000110: 38e7 f73e 657b 4ebe cd65 023e dfb3 0cbf
00000120: 1741 ae3e c6f1 1bbf 8ec2 d1bd 6872 ad3c
00000130: 8c5d 47be d526 a9be ee7a cdbe 890d 89be
00000140: a363 443f 8029 88be 84af 29be bb0c ac3e
00000150: 9129 9d3c d671 663e 4d8d 5a3e b35e 65bd
00000160: b266 663f e699 a4be c77d f4bd 4f6d 00be
00000170: c691 253e dffe 17bf e420 16be f433 163e
00000180: 4744 b83e 0717 b63e 617f 9ebe dae1 333e
00000190: ec4c 583f 3a67 32be 67be 8dbe 7571 7a3c
000001a0: fb70 bf3d e1fe 913e 7cc3 73be 9084 a5bd
000001b0: eb29 163e c9b7 93be edda 89be 7e5d 04bd
000001c0: 9e6c fc3d 39ea debd b631 b8bc fc42 a8be
000001d0: 9a46 1bbd e829 be3e 239f 243e 9680 863e
000001e0: 2663 0a3f bd83 d8bd 98d1 283f 0a5a 49be
000001f0: 3c16 263e f79c b43d df47 633e b0c2 a1be
00000200: 923e f3be 2572 cdbd b5e2 2b3e 20a7 913e
00000210: f71c f33e d371 1cbf 4606 3abd c9d5 153d
00000220: 8558 dabe b276 5c3e 8d1d 2bbe 1acf 0ebd
00000230: fbcc 7dbe 26a4 023f e048 c4be 34ba d0bc
00000240: 07ac ee3d 0fa6 673d 41dc 8a3e bf2d 3b3e
00000250: bcda d13d 43e9 ba3e ac62 b43a 959d 503e
00000260: faa6 b33e 0932 2a3e de3c a33e 18b6 ea3e
00000270: 91fc b73d 9c34 b03e 435f 48bd 1a94 a03e
00000280: 34e9 0a3f 6b08 fb3e 385a ffbc 3430 7b3d
00000290: bcba ccbd 27ab 9e3f 9c4a 1d3e df97 bbbd
000002a0: 0996 0b3f bb34 253d 4fbb 543e aba9 84bc
000002b0: 273f 50bf f649 0cbf 2476 a53e 23fe 9bbc
000002c0: add4 983d 6fd0 a5bd 22e7 1abe ff14 c73e
000002d0: 5247 aa3e 0c4d 0cbe 13af 853d 4022 31bf
000002e0: 9984 51be e9c8 923d 704a d8bd e4e0 43bf
000002f0: 0983 2c3e 53e7 8c3e bd13 533e b510 0e3e
00000300: 981d 9d3e 63ab 223e 8682 e13e 6f90 c63c
00000310: e0cd 143e 3cbc c7be 930d a5be 9001 dd3c
00000320: d453 34ba 7965 78be 17d7 abbe 175b d93d
00000330: f46a 9c3e 69d5 ac3b ff4b 013f 47e3 b93d
00000340: b1ec 97be 4637 a13e e814 bcbe 8670 903e
00000350: e081 af3e 9722 82be 7e12 21be ca6f 0ebe
00000360: 27f6 b9be e35a f4bd ca4b 91bd 4e01 dc3e
00000370: 2a1b 033e 4b14 233d f8f3 0a3e 8159 dc3c
00000380: aacf 583e dff3 cf3d e812 08bd 794e 8e3e
00000390: fc25 18bf 98a9 f53d 83e0 e63d 2255 ff3e
000003a0: 9df2 c93d 439d 9e3e a195 283e fc35 a03d
000003b0: 9c32 e0be 0b4c 4b3f f309 423e 49d1 4e3d
000003c0: 961c 51be a4be ab3d cc21 92bd e644 563d
000003d0: c021 54bd 5090 d6be b321 5c3e c6be e83e
000003e0: 0675 24bf c249 86bd c856 4b3d 4e41 2b3e
000003f0: 4614 f1bd a7ba 0cbe 185f 2fbe 9674 f53e

fc1.bias f4 [64]
0.021124186 0.12142505 -0.07202622 0.008149071 0.02617549 0.0003609174 0.028410193 0.07722069
-0.051405657 0.08140283 0.010169008 0.094101824 -0.0028316493 -0.0390687 -0.012199143 0.0068562804
0.010300632 -0.035537917 0.014748224 -0.0035282348 0.021525612 -0.02047076 -0.06082094 0.041132975
-0.042271998 -0.008591996 -0.013757174 -0.039098192 -0.002583769 0.06921523 0.028139327 0.054635055
0.051388513 0.0072885933 0.0005762033 -0.0330623 0.0019723568 0.015300509 -0.009829482 0.056355163
0.048290294 0.041014306 0.026606819 0.104602195 0.076811716 -0.07651655 0.10109799 0.0059404653
0.1156204 -0.045673426 0.06468812 -0.056755796 -0.11552465 0.010473355 -0.04116526 0.042208638
-0.06384952 0.042571507 0.046909697 -0.034995053 0.09381342 -0.034532536 0.07999987 -0.036932345
00000000: a10c ad3c b2ad f83d 7c82 93bd ae83 053c
00000010: fb6d d63c 8339 bd39 7ebc e83c e225 9e3d
00000020: bd8e 52bd 87b6 a63d e99b 263c 75b8 c03d
00000030: 3193 39bb 8006 20bd eade 47bc a6aa e03b
00000040: fbc3 283c 3590 11bd 89a2 713c f539 67bb
00000050: 7b56 b03c 4cb2 a7bc 611f 79bd 0d7b 283d
00000060: 6725 2dbd 71c5 0cbc c565 61bc 6d25 20bd
00000070: 7354 29bb b7c0 8d3d 7284 e63c 02c9 5f3d
00000080: c37c 523d 27d5 ee3b 590c 173a 566c 07bd
00000090: a842 013b fcae 7a3c d60b 21bc acd4 663d
000000a0: 0bcc 453d 9efe 273d 8bf6 d93c ad39 d63d
000000b0: 764f 9d3d b5b4 9cbd 770c cf3d 3ca8 c23b
000000c0: 63ca ec3d 0f14 3bbd 347b 843d c478 68bd
000000d0: 3098 ecbd 6f98 2b3c e79c 28bd f7e2 2c3d
000000e0: 8ac3 82bd 765f 2e3d 6224 403d f956 0fbd
000000f0: 4021 c03d fd71 0dbd f9d6 a33d 5f46 17bd

bn1.weight f4 [64]
0.9594071 1.3161213 0.90465033 0.9568217 0.9636481 0.7791655 0.8290049 0.90918565
1.1064758 0.63703555 1.1721896 0.7716951 1.2908779 0.9218326 0.7420293 1.1181126
0.85163236 1.1951575 1.0113511 1.0056874 0.98893744 1.0865309 1.1466489 0.9353334
1.0961814 1.1458894 1.0560375 1.305676 1.0327712 0.99487215 1.274533 0.938154
1.3667923 0.9260585 1.4213113 1.0163714 1.1049008 0.90567994 1.0994661 1.0178415
0.83772963 1.089154 0.73518914 0.92279476 1.0043555 1.0075527 1.0389932 1.1410487
0.9735566 1.0299553 1.1584761 0.59237987 1.0518738 1.129883 1.0516455 0.8358221
1.1908238 0.86745083 1.032181 0.78750473 0.9131036 0.9970482 0.9720205 0.8778903
00000000: b49b 753f aa76 a83f 2a97 673f 44f2 743f
00000010: a4b1 763f 6477 473f aa39 543f 64c0 683f
00000020: 00a1 8d3f c314 233f 4f0a 963f cf8d 453f
00000030: 7d3b a53f 39fd 6b3f a2f5 3d3f 501e 8f3f
00000040: 9404 5a3f ecfa 983f f473 813f 5dba 803f
00000050: 012b 7d3f 7213 8b3f 64c5 923f 0272 6f3f
00000060: ac4f 8c3f 81ac 923f 3d2c 873f 6420 a73f
00000070: d931 843f f1af 7e3f e623 a33f dc2a 703f
00000080: 0df3 ae3f 2b12 6d3f 87ed b53f 7518 823f
00000090: 646d 8d3f a4da 673f 4ebb 8c3f a148 823f
000000a0: 7375 563f 6669 8b3f 5b35 3c3f 473c 6c3f
000000b0: b98e 803f 7df7 803f bbfd 843f e20d 923f
000000c0: 013b 793f 93d5 833f f248 943f 35a6 173f
000000d0: cda3 863f 02a0 903f 529c 863f 70f8 553f
000000e0: ea6c 983f 4211 5e3f 821e 843f e999 493f
000000f0: 28c1 693f 8d3e 7f3f 56d6 783f 6bbd 603f

bn1.bias f4 [64]
0.40150252 0.06350156 0.40511236 0.028162966 0.38200423 0.41360393 0.27545297 0.31188852
-0.22714728 0.361523 -0.060210038 0.54605275 0.26639935 0.28612635 0.4193028 -0.24799894
0.17456143 0.012949908 -0.25706524 0.29050118 -0.05935047 0.30498508 0.04448523 0.22450845
-0.27432635 -0.06080279 -0.27295104 -0.048113678 -0.09753562 0.3109706 0.059731502 -0.14922456
0.13155667 0.43116462 0.19754304 -0.1107638 0.33781576 -0.32690495 0.3367884 -0.013548535
-0.1117536 -0.028257135 0.56558067 0.19730328 0.0008803978 -0.16767868 -0.16079254 0.026371967
0.44405854 0.18473731 0.18075508 0.43083355 0.20397712 -0.32727516 -0.3632751 0.46169955
0.07585855 0.11816157 -0.17127769 0.37687075 -0.04640539 -0.23637418 -0.22934899 0.3950959
00000000: bd91 cd3e 1b0d 823d e36a cf3e 05b6 e63c
00000010: 0f96 c33e e5c3 d33e 2c08 8d3e daaf 9f3e
00000020: 4c99 68be 8b19 b93e cd9e 76bd 1dca 0b3f
00000030: 7f65 883e 277f 923e dbae d63e 6ff3 7dbe
00000040: 3bc0 323e da2b 543c 0e9e 83be 92bc 943e
00000050: 7a19 73bd 0127 9c3e 2536 363d 8be5 653e
00000060: 8174 8cbe 590c 79bd 3dc0 8bbe d912 45bd
00000070: c1c0 c7bd 8a37 9f3e 05a9 743d 53ce 18be
00000080: cbb6 063e 9cc1 dc3e b948 4a3e 22d8 e2bd
00000090: 30f6 ac3e 1660 a7be 876f ac3e adfa 5dbc
000000a0: 12df e4bd 827b e7bc e5c9 103f df09 4a3e
000000b0: 7fca 663a f6b3 2bbe cda6 24be 060a d83c
000000c0: a45b e33e c72b 3d3e dc17 393e 3796 dc3e
000000d0: 61df 503e 9c90 a7be 32ff b9be e263 ec3e
000000e0: ba5b 9b3d b1fe f13d 6b63 2fbe 34f5 c03e
000000f0: 9413 3ebd 130c 72be 76da 6abe 034a ca3e

bn1.running_mean f4 [64]
0.39106664 0.016698161 0.08315573 0.20502307 -0.8148904 -0.1662956 -0.013484306 0.044718556
0.7198557 -0.2550189 0.62119615 0.26339096 0.0068423636 -0.42363816 -0.6988618 0.4622374
0.10215633 0.6205179 0.6898468 -0.08129173 1.1896406 -0.2413324 0.4828388 -0.8341588
0.63728976 0.6735392 0.42337456 0.5587733 0.00058211497 0.07846032 -0.086082205 0.46303472
0.8798426 -0.7901579 0.6448994 0.69031435 0.173269 0.46730796 -0.76122236 0.22217093
0.33016557 0.8063961 -0.19453098 -0.40835068 0.82968783 0.062240217 0.6131321 0.15685575
-0.5216749 -0.13232437 0.28309253 -0.17061433 -0.021162916 0.9271827 0.6861118 -0.52653
0.7639071 0.06551373 0.47656345 -0.44543612 0.71981084 1.1374822 0.46142757 -0.31433126
00000000: e339 c83e 95ca 883c 8d4d aa3d 91f1 513e
00000010: a89c 50bf 6549 2abe 47ed 5cbc ce2a 373d
00000020: 7748 383f d691 82be b606 1f3f 2edb 863e
00000030: e835 e03b 1ae7 d8be 9be8 32bf 61aa ec3e
00000040: 5737 d13d 43da 1e3f cd99 303f 477c a6bd
00000050: 2546 983f d71f 77be a636 f73e 6e8b 55bf
00000060: 6c25 233f 116d 2c3f 8dc4 d83e c40b 0f3f
00000070: 1399 183a ceaf a03d de4b b0bd e312 ed3e
00000080: 5d3d 613f ca47 4abf 2118 253f 71b8 303f
00000090: 6e6d 313e fd42 ef3e 78df 42bf c780 633e
000000a0: 760b a93e fa6f 4e3f 2133 47be 5713 d1be
000000b0: 6c66 543f 99ef 7e3d 3af6 1c3f cb9e 203e
000000c0: 7c8c 05bf 0a80 07be 81f1 903e 86b5 2ebe
000000d0: da5d adbc d85b 6d3f 06a5 2f3f acca 06bf
000000e0: 6a8f 433f 102c 863d 2000 f43e 3410 e4be
000000f0: 8645 383f 0499 913f 3c40 ec3e 07f0 a0be

bn1.running_var f4 [64]
4.406616 3.292717 2.7927618 1.7115104 3.471235 2.9814696 2.2211072 1.7110603
3.7683504 3.2139063 2.9107358 2.73989 3.4531996 1.8219446 3.406539 3.0252347
1.9561496 3.065935 3.333392 3.3700273 2.488965 3.2834074 2.1488671 2.2090096
2.9529984 2.3792965 2.5064063 2.9248009 3.52832 3.6166935 3.282096 1.8846985
4.4091196 1.9011036 2.6815042 1.828423 2.715274 2.2786922 3.4288516 3.6360257
4.05134 3.7821743 2.2035325 2.4632902 3.4712894 5.0929227 2.257377 2.8569355
4.0196214 2.4028907 3.7632115 2.4860747 2.7936475 3.4373844 5.5408206 4.259348
2.6506574 2.2340398 4.433746 3.6143577 2.4922616 4.2621713 2.2475379 3.7676713
00000000: 0003 8d40 e0bb 5240 9cbc 3240 c612 db3f
00000010: b728 5e40 66d0 3e40 9f26 0e40 0604 db3f
00000020: a72c 7140 a4b0 4d40 7f49 3a40 5c5a 2f40
00000030: 3901 5d40 7b35 e93f bc04 5a40 729d 4140
00000040: 1c63 fa3f 4738 4440 4b56 5540 87ae 5740
00000050: 344b 1f40 5923 5240 0a87 0940 6a60 0d40
00000060: edfd 3c40 6546 1840 f668 2040 f02f 3b40
00000070: ffcf 6140 e877 6740 dc0d 5240 cd3d f13f
00000080: 8217 8d40 5d57 f33f c49d 2b40 c409 ea3f
00000090: 0dc7 2d40 18d6 1140 4e72 5b40 a5b4 6840
000000a0: 94a4 8140 250f 7240 ad06 0d40 8ca6 1d40
000000b0: 9b29 5e40 39f9 a240 dd78 1040 08d8 3640
000000c0: bda0 8040 f6c8 1940 75d8 7040 d91b 1f40
000000d0: 1fcb 3240 1bfe 5b40 674e b140 944c 8840
000000e0: 5fa4 2940 82fa 0e40 3fe1 8d40 a351 6740
000000f0: 3781 1f40 b563 8840 a9d7 0f40 8721 7140

fc2.weight f4 [4, 64]
-0.06813267 0.022090014 0.03970772 0.055243 0.329475 0.015171472 0.17673095 0.18820228
-0.37728813 0.16562937 0.1088821 0.43201753 -0.05684352 0.13725087 0.14359389 -0.1463238
0.11340182 0.12847403 0.03845123 0.30857584 -0.17066695 0.12323284 0.0250282 0.15071245
-0.34151247 -0.42263803 -0.2735621 0.16628955 0.19029734 0.03303326 0.35344732 -0.10122658
-0.05829454 0.26727802 -0.14729527 -0.10431556 0.09598114 -0.16355719 0.35857007 0.06056712
0.0540591 -0.11294511 0.19082157 -0.023854569 0.11782494 -0.15144907 -0.2235659 -0.040264986
0.3622152 0.23144174 0.08918999 0.0049483934 0.111102596 -0.37333137 -0.09370832 0.23593447
-0.12398989 0.08781779 -0.18876834 0.1923491 -0.0049723405 -0.035157725 -0.2626379 0.24192302
-0.7547439 0.340058 0.3637394 -0.52325857 -0.45525274 -1.3215842 -0.6050603 -0.56112164
0.28715336 -1.4451444 0.3343468 -0.31721163 0.42759386 -0.8582579 0.036516305 0.26381376
-0.5755433 -1.5417289 -0.63182265 -0.31047702 -0.60494715 -1.0290785 -1.2334049 -1.4019319
0.24299504 0.31193122 0.13407129 0.38295797 0.05379374 -0.96250534 -1.213952 0.38002956
-0.80178195 -0.5345 -0.34975353 -1.231411 -0.9494433 -0.5939192 -0.57163036 -0.3361244
-0.96571 -0.8124889 -0.7933704 -0.8338346 -0.7014013 0.032731336 0.08795594 0.37164298
-0.62655514 -0.18811904 0.3327682 -0.6888497 -1.1833007 0.27585644 0.35817325 -0.030255593
0.1489208 -0.8350726 0.34623742 -0.38785806 -0.83558875 -0.7844737 0.10637821 -0.66720074
-0.32888404 -0.34645364 -0.3339738 0.21535017 -0.021896353 0.1975243 -0.18965249 -0.18112889
0.062052596 0.22637723 -0.7645674 -0.18576434 -0.19749063 -0.38506204 -0.32363057 -0.70033276
0.12676112 0.25003073 -0.86291194 -0.092704855 0.19308048 -0.022581007 0.3313159 -0.27931607
0.18056217 0.24233188 0.16262254 -0.65084994 -0.42182818 0.23232785 -0.027669596 0.13374119
-1.5216935 -0.046288524 -0.83641326 0.2843827 0.11710174 0.3073547 -0.17371853 -0.9667324
-0.5556234 -0.3564899 -0.2564443 -0.5344506 -0.89841837 0.35329854 0.21638677 -0.5801168
-0.046090636 -0.23420754 -0.4961093 -0.34781745 0.31853533 -0.009469068 -0.72128236 -0.10435414
-0.9504644 0.21128014 -0.2986153 -0.15716396 0.21299866 -0.75513834 0.11879519 -0.09418059
0.34735218 -1.0044013 -0.7627472 -1.7189221 -0.57467806 -0.6879548 -0.100055836 0.099789314
-1.5139968 -0.57048017 -0.49646795 -0.546817 -1.302108 0.30366006 -0.8446734 0.34703848
-1.510819 -0.8316802 0.2656914 -0.5138359 0.5284663 -1.0532888 -0.60395557 0.21765722
-1.6425664 0.1791488 -1.0329196 -0.9889743 -0.5106983 -1.039654 -1.1039805 -1.2569844
0.3768518 -0.40842223 0.5541693 0.38297135 -1.7482382 -0.5011914 -0.27462602 0.3169704
0.15880102 0.2701289 0.44106686 0.25954616 0.17827718 -1.992153 -0.49079743 -0.9000041
-0.93327886 -0.7468676 -1.0743178 0.1226446 -1.2616837 0.37224063 0.07394761 -0.60808706
0.38912573 -0.9333722 0.23570098 -0.46955687 0.25723732 0.2828668 -0.9662219 -0.32639173
00000000: 2489 8bbd 1ef6 b43c 90a4 223d 7c46 623d
00000010: f2b0 a83e c491 783c f5f8 343e 19b8 403e
00000020: e92b c1be bf9a 293e 94fd de3d 6731 dd3e
00000030: c0d4 68bd 7e8b 0c3e 470a 133e e8d5 15be
00000040: 373f e83d b28e 033e 097f 1d3d a7fd 9d3e
00000050: 51c3 2ebe 8061 fc3d f107 cd3c 5d54 1a3e
00000060: b9da aebe 0364 d8be 5510 8cbe cf47 2a3e
00000070: 4edd 423e e24d 073d 0cf7 b43e e24f cfbd
00000080: 41c6 6ebd aad8 883e 92d4 16be 65a3 d5bd
00000090: c391 c43d 897b 27be 7f96 b73e 3a15 783d
000000a0: 136d 5d3d c44f e7bd bb66 433e a86a c3bc
000000b0: 344e f13d 7715 1bbe 76ee 64be e6ec 24bd
000000c0: 4574 b93e 10ff 6c3e 3ea9 b63d 2226 a23b
000000d0: c289 e33d 4a25 bfbe 26ea bfbd ce98 713e
000000e0: 69ee fdbd d0d9 b33d 7d4c 41be 2af7 443e
000000f0: 04ef a2bb 8c01 10bd 7a78 86be abba 773e
00000100: e536 41bf 151c ae3e 0d3c ba3e 46f4 05bf
00000110: e316 e9be ac29 a9bf 3be5 1abf aba5 0fbf
00000120: c405 933e 7efa b8bf 812f ab3e 9069 a2be
00000130: 95ed da3e cab6 5bbf 1f92 153d 9912 873e
00000140: ce56 13bf 5f57 c5bf 21bf 21bf d8f6 9ebe
00000150: d1dd 1abf d8b8 83bf 36e0 9dbf 8172 b3bf
00000160: b1d3 783e 73b5 9f3e fc49 093e 1113 c43e
00000170: d356 5c3d c066 76bf c762 9bbf 3c93 c23e
00000180: 9541 4dbf fed4 08bf e512 b3be e09e 9dbf
00000190: b70e 73bf 170b 18bf 5e56 12bf 7f18 acbe
000001a0: c538 77bf 46ff 4fbf 531a 4bbf 2f76 55bf
000001b0: 098f 33bf 4b11 063d 3e22 b43d fd47 be3e
000001c0: eb65 20bf 47a2 40be 9860 aa3e 7458 30bf
000001d0: 6676 97bf 0e3d 8d3e 7c62 b73e 94da f7bc
000001e0: b27e 183e 51c7 55bf 0846 b13e 5595 c6be
000001f0: 25e9 55bf 45d3 48bf d2dc d93d abcd 2abf
00000200: 7d63 a8be 5f62 b1be 9dfe aabe c184 5c3e
00000210: fb5f b3bc cf43 4a3e 4334 42be da79 39be
00000220: dd2a 7e3d 6fcf 673e b0ba 43bf 0239 3ebe
00000230: fc3a 4abe da26 c5be e8b2 a5be 0249 33bf
00000240: abcd 013e 0704 803e cce7 5cbf 0bdc bdbd
00000250: e4b6 453e cefb b8bc 3da2 a93e 8402 8fbe
00000260: 4ae5 383e d925 783e 8686 263e 1a9e 26bf
00000270: ddf9 d7be 5ae7 6d3e 59ab e2bc 73f3 083e
00000280: dac6 c2bf 0999 3dbd 2e1f 56bf 9c9a 913e
00000290: 09d3 ef3d 985d 9d3e 45e3 31be c67b 77bf
000002a0: 563d 0ebf d885 b6be ab4c 83be c1d1 08bf
000002b0: bffe 65bf 8ce3 b43e 7e94 5d3e 8982 14bf
000002c0: 89c9 3cbd 1ad4 6fbe 0a02 febe 2115 b2be
000002d0: 1017 a33e 2624 1bbc f6a5 38bf a0b7 d5bd
000002e0: a351 73bf d259 583e 1be4 98be 97ef 20be
000002f0: 521c 5a3e bf50 41bf e44a f33d c1e1 c0bd
00000300: 25d8 b13e 3990 80bf 6743 43bf a405 dcbf
00000310: 1a1e 13bf ce1d 30bf 13ea ccbd 575e cc3d
00000320: a6ca c1bf fd0a 12bf 0c31 febe 33fc 0bbf
00000330: 7aab a6bf 5579 9b3e 843c 58bf 07af b13e
00000340: 8462 c1bf fee8 54bf b408 883e c08a 03bf
00000350: 9149 073f 2bd2 86bf d59c 1abf 89e1 5e3e
00000360: 9e3f d2bf c872 373e b636 84bf 6b2d 7dbf
00000370: 20bd 02bf 6213 85bf 3c4f 8dbf dde4 a0bf
00000380: b8f2 c03e b81c d1be 0ade 0d3f d214 c43e
00000390: 45c6 dfbf 144e 00bf c89b 8cbe f249 a23e
000003a0: bc9c 223e 564e 8a3e 84d3 e13e 3ce3 843e
000003b0: 4b8e 363e dffe febf cd49 fbbe ab66 66bf
000003c0: 5deb 6ebf b732 3fbf 3f83 89bf 182d fb3d
000003d0: da7e a1bf 5396 be3e d871 973d 98ab 1bbf
000003e0: 7d3b c73e 7bf1 6ebf 995b 713e c269 f0be
000003f0: 9cb4 833e ebd3 903e 525a 77bf d11c a7be

fc2.bias f4 [4]
0.10357675 -0.02576239 -0.1735354 -0.19425792
00000000: 0c20 d43d a60b d3bc 44b3 31be 8ceb 46be
