Models/model_new_whisk.pt (torch, 317351 bytes, 12 tensors)

lstm.weight_ih_l0 f4 [512, 6]
0.4347392 0.1786193 0.014051674 -0.2252644 -0.20123166 -0.16223115 -0.45431325 0.13077207
-0.24729009 0.89122486 -0.76055807 0.40219456 0.3012613 -0.3382673 -0.10462079 0.5348356
0.29332846 0.5564565 0.057087913 -0.19205071 0.29296148 0.5860185 0.30923995 0.64280164
-0.56034505 -0.51632684 0.22925213 -0.5051072 -0.56850284 0.30062616 -0.32649025 0.04229315
0.07334486 0.31574777 0.1095219 0.13161814 -0.38172603 -0.16816834 0.15081194 -0.06253865
0.1967208 0.3987169 -0.15100026 0.03419034 -0.48613772 -0.011308788 -0.22556888 0.3063909
0.3145669 0.08154898 -0.06226923 -0.3015248 0.37543142 -0.0381328 0.06715581 -0.2074184
0.20702781 0.577026 0.0035535616 0.96332324 0.0304588 0.14874671 0.17153841 -0.06668754
0.11542662 -0.1577066 -0.039757952 0.20245591 0.06611265 -0.3486879 0.43538392 0.359611
-0.26588863 -0.8963943 0.5108147 -0.14657861 -1.076666 -1.0067307 0.15204719 0.9878219
-0.11714174 -0.06434082 0.29780293 -0.088162154 0.029881364 -0.37507328 0.62897414 0.6630195
-0.47813478 -0.046730164 -0.55593985 -0.14343774 0.115933396 -0.655587 0.043107804 -0.17018518
-0.15423289 0.15415356 -0.1375209 -0.3213802 0.12757984 -0.2397453 -0.56895477 -0.29133683
0.19730504 -0.9380414 0.039742656 -0.78843814 0.7845722 0.007122453 -0.26610413 -0.11380852
-0.502463 -0.022303743 -0.026226368 -0.00040815538 -0.036513083 -0.6734565 -0.19806151 -0.28436795
0.5081374 -0.069590464 -0.28819254 -0.20377302 0.23557642 -0.42934972 -0.11194845 0.103272684
0.59723514 0.24914204 -0.2813888 -0.7883148 -0.54686075 0.17175268 -0.4013639 -0.63607895
0.09455407 0.96463335 0.26660877 -0.29243037 0.4890848 -0.41416496 -0.6636393 0.4308405
-0.13632664 -0.45692298 -0.56250036 -0.147871 0.03136246 -0.2255721 0.16941145 0.3427221
0.031834196 -0.11514534 0.3155582 0.0033766509 0.26861396 0.08954165 -0.09960949 0.1769088
-0.135919 0.29467556 0.39875945 0.044646922 -0.16833568 -0.067795105 0.091147125 0.31595176
-0.14667082 -0.3853765 0.8229487 0.4395185 0.06882608 0.042937532 0.4081781 -0.03270949
0.07305654 -0.009303837 -0.14111118 0.2741374 0.033191185 0.12805256 0.15838544 -0.43882263
-0.10017263 0.12775658 -0.0634363 0.22956839 -0.0777539 0.9077393 0.3754534 0.7799218
-0.18749881 -0.2436895 0.10708019 0.33973464 0.25574714 0.1735525 -0.020495107 0.5782045
0.5234998 -0.77051026 0.41646054 -0.2076487 -0.38122115 0.13175274 -0.39108682 -0.5262024
-0.20081344 -0.07436635 0.15191957 -0.354802 -0.036071047 -0.4575188 0.3433583 0.011367596
-0.33165818 -0.05314605 0.069648854 0.18544336 0.3885001 0.60392636 -0.4435954 -0.51914424
-0.3924761 0.081298605 0.11209446 0.64359564 -0.44538197 -0.42416593 -0.07646625 -0.1885837
-0.22157331 -0.75637776 0.014538881 0.21471582 -0.11410653 -0.30939806 -0.09483428 0.017672595
0.3012888 -0.2742416 0.068134874 -0.15294194 -0.07403899 0.029951243 -0.21899208 -0.3789705
0.2928817 0.62443185 -0.72650844 0.014336213 0.2776052 -0.17658056 0.18134025 1.0669662
00000000: 2396 de3e fae7 363e fe38 663c b6ab 66be
00000010: ac0f 4ebe ec1f 26be bf9b e8be 1de9 053e
00000020: 9d39 7dbe 5027 643f efb3 42bf 72ec cd3e
00000030: ec3e 9a3e 5f31 adbe 6d43 d6bd fcea 083f
00000040: 262f 963e ef73 0e3f 04d5 693d f1a8 44be
00000050: 0cff 953e 4f05 163f b354 9e3e a68e 243f
00000060: c672 0fbf ff2d 04bf 12c1 6a3e b54e 01bf
00000070: 6789 11bf aceb 993e bb29 a7be 953b 2d3d
00000080: d435 963d b1a9 a13e 054d e03d e8c6 063e
00000090: 9871 c3be 5234 2cbe 726e 1a3e 4414 80bd
000000a0: 2d71 493e 9f24 cc3e d09f 1abe 2c0b 0c3d
000000b0: 0be7 f8be 7f48 39bc 87fb 66be 45df 9c3e
000000c0: ea0e a13e 2703 a73d 050e 7fbd 7561 9abe
000000d0: 8c38 c03e 2431 1cbd fc88 893d 7d65 54be
000000e0: 19ff 533e fab7 133f dfe2 683b 5a9c 763f
000000f0: bc84 f93c 0f51 183e c4a7 2f3e 7a93 88bd
00000100: cb64 ec3d d77d 21be 3cd9 22bd 9a50 4f3e
00000110: 1266 873d 3887 b2be a4ea de3e ef1e b83e
00000120: 8e22 88be 197a 65bf c1c4 023f b418 16be
00000130: 31d0 89bf 8ddc 80bf 42b2 1b3e e5e1 7c3f
00000140: 02e8 efbd 1fc5 83bd a079 983e 5c8e b4bd
00000150: c3c9 f43c 9b09 c0be 7304 213f a5bb 293f
00000160: 15ce f4be 2168 3fbd 1352 0ebf 58e1 12be
00000170: 7d6e ed3d 8dd4 27bf cf91 303d 0645 2ebe
00000180: 3aef 1dbe 6eda 1d3e 47d2 0cbe f28b a4be
00000190: 4aa4 023e cb7f 75be 05a7 11bf 1a2a 95be
000001a0: 550a 4a3e 7b23 70bf 32c9 223d 15d7 49bf
000001b0: b9d9 483f 7763 e93b cd3e 88be 7114 e9bd
000001c0: 6aa1 00bf 57b6 b6bc aed8 d6bc b0fd d5b9
000001d0: be8e 15bd a567 2cbf a3d0 4abe ad98 91be
000001e0: 4b15 023f 7285 8ebd f98d 93be e0a9 50be
000001f0: f23a 713e bad3 dbbe 3b45 e5bd a180 d33d
00000200: 67e4 183f 171f 7f3e 3112 90be 00cf 49bf
00000210: 11ff 0bbf efdf 2f3e 927f cdbe 12d6 22bf
00000220: 90a5 c13d 36f2 763f f280 883e 6fb9 95be
00000230: 5369 fa3e 6e0d d4be 44e4 29bf 2097 dc3e
00000240: 3699 0bbe cff1 e9be 0600 10bf 7f6b 17be
00000250: ec75 003d 5ffc 66be 327a 2d3e 4579 af3e
00000260: 9364 023d 52d1 ebbd d890 a13e cd4a 5d3b
00000270: c587 893e 9d61 b73d 0f00 ccbd 9527 353e
00000280: 5a2e 0bbe b7df 963e 332a cc3e b1df 363d
00000290: 3060 2cbe 29d8 8abd 58ab ba3d 6ec4 a13e
000002a0: e030 16be 1250 c5be c4ac 523f 9208 e13e
000002b0: b0f4 8c3d 44df 2f3d b8fc d03e 63fa 05bd
000002c0: ab9e 953d 1f6f 18bc 737f 10be bd5b 8c3e
000002d0: 7bf3 073d 3620 033e cb2f 223e 5cad e0be
000002e0: 4f27 cdbd 9fd2 023e e4ea 81bd fa13 6b3e
000002f0: 703d 9fbd 9a61 683f 6e3b c03e f5a8 473f
00000300: b0ff 3fbe be89 79be dc4c db3d b3f1 ad3e
00000310: 4af1 823e bfb7 313e 5be5 a7bc 3605 143f
00000320: 1504 063f 2940 45bf 513a d53e dca1 54be
00000330: 6b2f c3be 31ea 063e 883c c8be 33b5 06bf
00000340: 0aa2 4dbe 634d 98bd ce90 1b3e 9ca8 b5be
00000350: 3cbf 13bd e73f eabe a9cc af3e 273f 3a3c
00000360: 1acf a9be acaf 59bd 0fa4 8e3d dde4 3d3e
00000370: 7ce9 c63e eb9a 1a3f f01e e3be a3e6 04bf
00000380: a1f2 c8be e27f a63d c891 e53d afc2 243f
00000390: 1b09 e4be 472c d9be 569a 9cbd 161c 41be
000003a0: 1de4 62be f9a1 41bf 7d34 6e3c 77de 5b3e
000003b0: afb0 e9bd 6c69 9ebe 7a38 c2bd 1ec6 903c
000003c0: 8742 9a3e 6569 8cbe 4c8a 8b3d d09c 1cbe
000003d0: c1a1 97bd 4f5c f53c 763f 60be 6c08 c2be
000003e0: 97f4 953e c4da 1f3f 75fc 39bf 6fe2 6a3c
000003f0: 4522 8e3e 89d1 34be 42b1 393e 5992 883f

lstm.weight_hh_l0 f4 [512, 128]
0.20978682 0.17449467 0.21681753 -0.1524994 0.00078384794 0.14273033 -0.065577544 -0.070137165
0.22559324 -0.097121894 -0.14346625 -0.05901401 0.103624865 0.032656122 -0.025587827 -0.15073034
0.04439823 0.3015267 0.045092985 -0.23271298 -0.088398434 -0.038614325 -0.102060564 -0.0290742
0.007327016 0.22068802 -0.11830879 0.1525605 0.36538935 -0.027579626 0.26335397 0.3103035
-0.17676544 0.3127512 -0.18742436 0.12383393 0.045207225 0.11690429 -0.17099924 -0.12983645
-0.11236406 0.14235559 -0.06899441 -0.10772109 0.044356108 -0.24759111 -0.043750376 0.0857141
-0.06994164 0.014737749 -0.31125653 0.2530473 -0.2464339 0.26197103 -0.32025138 0.33632484
-0.14829442 -0.16284387 0.057927012 0.15402707 0.04953175 -0.4559022 0.3700938 0.12290703
0.33375105 -0.14341597 0.0066140816 -0.2665428 0.12029355 0.036904346 0.3160604 -0.08168968
0.09430881 -0.2843912 0.008416475 -0.123713255 -0.020233331 -0.3177725 0.14314887 -0.04868011
0.16470014 0.19513087 0.038563065 0.27592486 0.27437362 0.005248497 -0.323428 -0.24474801
0.23084785 -0.040115375 0.36183813 -0.028144047 0.10664241 0.020834668 -0.30297518 -0.057890058
0.34875846 -0.11211625 -0.0040791812 0.22927526 0.1909332 0.036958046 -0.2985297 -0.14011155
-0.22523902 0.27148455 0.3889221 0.28525823 -0.32057893 0.024992859 0.15824625 0.06536848
-0.03973663 0.354996 -0.12946267 0.0463487 0.044177577 -0.047450386 -0.47132608 -0.12825163
0.19592665 -0.009836122 0.20949234 0.19351609 0.010364622 0.20218824 0.04082831 -0.3080683
0.45408648 -0.38280424 -0.5979977 -0.074032746 0.42619845 -0.21405691 -0.20120509 0.6648428
0.29255316 -0.09692207 -0.5205884 -0.095080905 -0.28281292 0.48100734 -0.43728128 -0.5873047
-0.83622694 -0.009273265 0.32316422 0.26512185 -0.11384357 -0.78584737 0.6015594 0.04186166
-0.25889283 0.5456899 -0.1567445 0.22789674 0.36211297 -0.70509183 -0.13879222 0.13761877
-0.23203267 0.37344056 -0.1363019 -0.16597007 0.012956948 0.31783763 -0.17488316 -0.04658018
-0.24061874 -1.0017679 -0.035770793 0.37512192 -0.13184707 -0.3699588 -0.20115307 -0.08665285
-0.9290355 -0.22031571 -0.32376465 0.4645527 0.048536483 0.13004741 -0.43126136 0.5539431
0.046542987 -0.25555083 0.043213375 -0.3438473 0.07949574 -0.11835856 0.6822119 0.118638664
-0.09921309 0.24848458 -0.19571431 -0.42806074 -0.10381488 -0.139095 0.61322874 0.09510111
0.6974565 -0.44732094 0.0010620581 -0.16204463 0.13134845 -0.5589282 -0.14571656 0.053280212
0.38721392 -0.24847116 0.08479123 0.31991947 0.36476097 -0.028358614 -0.4239346 -0.14556846
-0.33910608 0.101596616 -0.064125404 0.22821586 0.17745073 -0.22015439 0.10775311 -0.4648198
-0.06647434 -0.34978867 -0.27235934 -0.038543426 0.14668997 0.5622257 -0.38310018 -0.037336398
-0.8532915 0.061052736 0.7728213 0.20642874 -0.25407463 -0.03772573 0.150498 0.459241
1.1322532 0.25115025 -0.16235058 0.13730511 0.64476365 0.13500096 -0.36222893 -0.3235513
-0.50035805 -0.26178953 0.59339195 0.056275085 -0.99984866 0.50729424 0.6256462 -0.45793715
00000000: 5bd2 563e bbae 323e 6a05 5e3e cd28 1cbe
00000010: 257b 4d3a e627 123e 854d 86bd 13a4 8fbd
00000020: ea01 673e d8e7 c6bd d1e8 12be adb8 71bd
00000030: 4639 d43d 6dc2 053d 909d d1bc 0e59 1abe
00000040: ebda 353d b561 9a3e 6cb3 383d 504c 6ebe
00000050: 3d0a b5bd 0e2a 1ebd 2105 d1bd 042d eebc
00000060: 7717 f03b 0afc 613e e14b f2bd d238 1c3e
00000070: 5014 bb3e abee e1bc 55d6 863e 1ae0 9e3e
00000080: 0002 35be ed20 a03e 2cec 3fbe a59c fd3d
00000090: 362b 393d 846b ef3d 6d1a 2fbe d9f3 04be
000000a0: 211f e6bd aac5 113e f14c 8dbd e09c dcbd
000000b0: c0ae 353d 8688 7dbe 9833 33bd e08a af3d
000000c0: 903d 8fbd 9976 713c 045d 9fbe 6a8f 813e
000000d0: 2b59 7cbe 1121 863e fdf7 a3be c532 ac3e
000000e0: 7eda 17be 8bc0 26be e044 6d3d 46b9 1d3e
000000f0: cee1 4a3d 036c e9be ef7c bd3e aeb6 fb3d
00000100: 6be1 aa3e a3db 12be f0ba d83b 4c78 88be
00000110: 775c f63d 0329 173d abd2 a13e eb4c a7bd
00000120: fa24 c13d b99b 91be 41e5 093c 605d fdbd
00000130: 5fc0 a5bc 14b3 a2be 9e95 123e cc64 47bd
00000140: 27a7 283e 63d0 473e 4ef4 1d3d 0646 8d3e
00000150: b37a 8c3e 95fb ab3b 5b98 a5be 399f 7abe
00000160: 6163 6c3e 0550 24bd d942 b93e 588e e6bc
00000170: 5667 da3d 77ad aa3c 901f 9bbe 201e 6dbd
00000180: 7890 b23e 349d e5bd a7aa 85bb 22c7 6a3e
00000190: fe83 433e 5261 173d e3d8 98be 6779 0fbe
000001a0: 0fa5 66be 0600 8b3e cc20 c73e 5e0d 923e
000001b0: ec22 a4be d3bd cc3c 4e0b 223e e9df 853d
000001c0: e0c2 22bd 09c2 b53e dd91 04be 22d8 3d3d
000001d0: 8cf3 343d 565b 42bd a751 f1be 6554 03be
000001e0: ffa0 483e b027 21bc 2985 563e 1529 463e
000001f0: 60d0 293c 6f0a 4f3e 963b 273d 21bb 9dbe
00000200: 067e e83e ebfe c3be 6116 19bf 7b9e 97bd
00000210: af36 da3e bc31 5bbe b508 4ebe 2333 2a3f
00000220: 87c9 953e 147f c6bd 4845 05bf c7b9 c2bd
00000230: dbcc 90be 9846 f63e 55e3 dfbe 9a59 16bf
00000240: f812 56bf e4ee 17bc c875 a53e 0dbe 873e
00000250: d126 e9bd 4b2d 49bf ccff 193f 2277 2b3d
00000260: 9a8d 84be 55b2 0b3f a181 20be c35d 693e
00000270: df66 b93e e680 34bf 8c1f 0ebe efeb 0c3e
00000280: f999 6dbe 9a33 bf3e ba92 0bbe 0ff4 29be
00000290: 6149 543c 9dbb a23e 9214 33be dcca 3ebd
000002a0: c264 76be ee39 80bf 6584 12bd fb0f c03e
000002b0: eb02 07be 3d6b bdbe 12fb 4dbe 0d77 b1bd
000002c0: 45d5 6dbf 719a 61be 7bc4 a5be dad9 ed3e
000002d0: 31ce 463d 262b 053e 4ace dcbe 37cf 0d3f
000002e0: dca3 3e3d 8fd7 82be 8200 313d c10c b0be
000002f0: aace a23d f965 f2bd 70a5 2e3f d4f8 f23d
00000300: 3c30 cbbd be72 7e3e 5569 48be c72a dbbe
00000310: e59c d4bd eb6e 0ebe 8ffc 1c3f 5fc4 c23d
00000320: 828c 323f 4007 e5be c234 8b3a 07ef 25be
00000330: 3580 063e eb15 0fbf b936 15be 5a3c 5a3d
00000340: e740 c63e 396f 7ebe 06a7 ad3d 7ccc a33e
00000350: f3c1 ba3e 5350 e8bc f50d d9be e60f 15be
00000360: 509f adbe e311 d03d 2e54 83bd 6bb1 693e
00000370: a5b5 353e 2770 61be aaad dc3d dcfc edbe
00000380: b323 88bd 8017 b3be af72 8bbe b6df 1dbd
00000390: e535 163e 06ee 0f3f b525 c4be 0dee 18bd
000003a0: 5071 5abf 6f12 7a3d 9ed7 453f 0e62 533e
000003b0: 1216 82be 4c86 1abd 261c 1a3e a321 eb3e
000003c0: aced 903f c496 803e 3b3f 26be b699 0c3e
000003d0: 3b0f 253f b13d 0a3e 1276 b9be 84a8 a5be
000003e0: 7717 00bf 4709 86be 89e8 173f b480 663d
000003f0: 15f6 7fbf 09de 013f 592a 203f bd76 eabe

lstm.bias_ih_l0 f4 [512]
-0.13103153 -0.36371142 -0.66983485 -0.44188276 -0.5264744 -0.6613597 -0.44737196 -0.06052567
-0.11331813 -0.31240407 -0.17850058 -0.29621816 -0.45916197 -0.54600066 -0.28951445 -0.72940016
-0.30857706 -0.21855131 -0.3706707 -0.44304308 -0.32495427 -0.33648974 -0.30983248 -0.20687549
-0.25152415 -0.10549256 -0.156265 -0.22871508 -0.19911988 -0.16814382 -0.56374663 -0.26927716
-0.44458297 -0.06833339 -0.25507244 -0.31687656 -0.3240448 -0.28548133 -0.14691602 -0.53274626
-0.17986651 -0.5828536 -0.375883 -0.37699613 -0.5024907 -0.08601229 -0.3374572 -0.46231976
-0.017759912 -0.5697744 -0.26503325 0.14631584 -0.15479836 -0.508387 -0.54179543 -0.17998564
-0.22205499 -0.3710456 -0.170968 -0.30611363 -0.42444465 -0.68349123 -0.041609522 0.14502366
-0.4419219 -0.087884 -0.27264604 -0.5474771 -0.6713886 -0.49881107 -0.5232303 -0.40578938
-0.37184343 -0.105313405 -0.1509675 -0.4658489 -0.15449333 -0.06059154 -0.35740346 -0.47096956
-0.7336712 -0.3503509 -0.3287676 -0.36603686 -0.58991987 -0.2991357 -0.0661908 -0.5519871
-0.47920507 -0.11253794 -0.28697994 -0.562096 -0.00071713707 -0.4119834 -0.24485426 -0.570113
-0.47572178 -0.4193002 -0.63229215 -0.48390988 -0.5641717 -0.3378206 -0.50667083 -0.010656699
-0.36166283 -0.09887324 -0.29962155 -0.2779975 -0.09474841 -0.61656564 -0.5848248 -0.50633836
-0.0011786544 -0.053388726 -0.4906089 -0.37023863 -0.21341334 -0.06924539 0.37314883 -0.3556808
-0.6291939 -0.42294112 -0.040702313 -0.43009913 -0.17579609 -0.46996704 -0.52111703 -0.38660315
-0.25711033 0.8222237 -0.2706582 0.555293 -0.32987803 -0.4739757 -0.08128358 -0.31113702
0.28764755 -0.013085581 -0.14430505 -0.071952924 0.12919468 0.2639269 0.19802257 -0.15009442
-0.34418312 0.08657867 -0.10246585 0.005483728 0.10129276 -0.051824372 -0.6562912 0.03431539
-0.12806992 0.32563338 -0.2561677 -0.08332181 -0.17193934 -0.039288074 -0.11490692 0.20907325
-0.14124623 0.14763322 0.10416216 -0.10735408 0.23539351 0.24949816 -0.08791599 -0.3155483
0.35597035 -0.17212482 -0.36881614 -0.029657513 0.2685932 -0.115596496 0.15266089 0.052744284
0.19362254 -0.31068125 0.17987667 0.1671228 -0.019121025 0.22043298 -0.3933005 -0.0040157866
0.16717748 -0.21581867 -0.168944 -0.068663314 -0.06738413 0.4010609 -0.26626936 0.19121146
0.091593504 -0.05583399 -0.14559713 -0.28268978 0.26657894 -0.12502576 0.35908964 -0.17701185
-0.64030266 -0.16710664 0.12286766 0.2043373 -0.43496126 -0.040414616 0.010383924 -0.38488826
0.26901788 0.21894476 0.25450847 0.0027518456 -0.3591033 -0.2460785 0.10120871 -0.03292149
-0.36514872 0.28000075 -0.22831719 -0.51350564 0.057796873 -0.07035937 -0.1852712 0.13385762
-0.43162766 -0.21490565 -0.41144043 0.30325404 0.16939563 0.3279089 0.15718286 -0.037897762
-0.31069505 0.19103146 -0.25569916 -0.28484702 -0.0019926073 -0.3067663 -0.341836 -0.316198
-0.14856339 0.07972169 -0.36380348 0.15857852 -0.31423843 -0.33820596 0.13778438 0.0028694542
-0.40544537 0.062196963 0.06646721 -0.17486155 -0.0842538 -0.35494056 -0.3522479 -0.19599268
00000000: 212d 06be 6238 babe 4c7a 2bbf 753e e2be
00000010: 07c7 06bf df4e 29bf f00d e5be c4e9 77bd
00000020: 5613 e8bd 6df3 9fbe dbc8 36be e8a9 97be
00000030: 4717 ebbe b3c6 0bbf 3d3b 94be f8b9 3abf
00000040: d0fd 9dbe eacb 5fbe 8dc8 bdbe 8bd6 e2be
00000050: 6860 a6be 6248 acbe 5da2 9ebe 2bd7 53be
00000060: c6c7 80be 7c0c d8bd ef03 20be 4934 6abe
00000070: 15e6 4bbe e52d 2cbe b351 10bf b2de 89be
00000080: 61a0 e3be 60f2 8bbd db98 82be a53d a2be
00000090: 33e9 a5be 9c2a 92be 2771 16be 0f62 08bf
000000a0: ed2e 38be e535 15bf bd73 c0be a305 c1be
000000b0: 3ba3 00bf 3627 b0bd 31c7 acbe 2db5 ecbe
000000c0: 3c7d 91bc bcdc 11bf 70b2 87be d2d3 153e
000000d0: 7683 1ebe a725 02bf 1bb3 0abf 284e 38be
000000e0: 6262 63be b0f9 bdbe 3c12 2fbe edba 9cbe
000000f0: cf50 d9be 48f9 2ebf bf6e 2abd 1581 143e
00000100: 9643 e2be 87fc b3bd 4398 8bbe 7627 0cbf
00000110: 20e0 2bbf 2a64 ffbe 6cf2 05bf a0c3 cfbe
00000120: 4362 bebe 8eae d7bd 3997 1abe bf83 eebe
00000130: 8033 1ebe d62e 78bd 96fd b6be ec22 f1be
00000140: e0d1 3bbf 3161 b3be 3a54 a8be 2f69 bbbe
00000150: fd04 17bf 5128 99be 0b8f 87bd 074f 0dbf
00000160: 5e5a f5be 4b7a e6bd 09ef 92be 86e5 0fbf
00000170: 41fe 3bba 7def d2be 13bb 7abe edf2 11bf
00000180: ce91 f3be 84ae d6be e6dd 21bf 09c3 f7be
00000190: 8e6d 10bf d2f6 acbe 2eb5 01bf 6f99 2ebc
000001a0: df2b b9be 0e7e cabd ff67 99be b055 8ebe
000001b0: 740b c2bd 3fd7 1dbf 14b7 15bf 649f 01bf
000001c0: 147d 9aba 23ae 5abd 1731 fbbe eb8f bdbe
000001d0: 0789 5abe 87d0 8dbd 5d0d bf3e cb1b b6be
000001e0: da12 21bf bd8b d8be 78b7 26bd f435 dcbe
000001f0: e403 34be 859f f0be ed67 05bf d9f0 c5be
00000200: f7a3 83be 417d 523f b693 8abe af27 0e3f
00000210: c6e5 a8be f1ac f2be 0178 a6bd 5a4d 9fbe
00000220: 8a46 933e e864 56bc b4c4 13be 0e5c 93bd
00000230: 9c4b 043e 6d21 873e 6ec6 4a3e 5ab2 19be
00000240: c538 b0be 2850 b13d 9ed9 d1bd d8b0 b33b
00000250: 9472 cf3d cb45 54bd b302 28bf 4b8e 0c3d
00000260: c324 03be 6bb9 a63e 6a28 83be a0a4 aabd
00000270: de10 30be 88ec 20bd 5254 ebbd 4c17 563e
00000280: daa2 10be 2a2d 173e f852 d53d 75dc dbbd
00000290: ff0a 713e 727c 7f3e 4c0d b4bd 8c8f a1be
000002a0: bf41 b63e 7d41 30be 78d5 bcbe 50f4 f2bc
000002b0: 0c85 893e dbbd ecbd 2353 1c3e 640a 583d
000002c0: fd44 463e 9d11 9fbe 9731 383e 3d22 2b3e
000002d0: b2a3 9cbc 2fb9 613e af5e c9be dc96 83bb
000002e0: 9330 2b3e 92ff 5cbe a8ff 2cbe 5a9f 8cbd
000002f0: b100 8abd db57 cd3e 7554 88be f0cc 433e
00000300: 6095 bb3d 2fb2 64bd 6a17 15be b7bc 90be
00000310: 097d 883e c106 00be 99da b73e 9842 35be
00000320: e0ea 23bf 011e 2bbe 0aa2 fb3d cc3d 513e
00000330: 3eb3 debe cc89 25bd 5521 2a3c 1310 c5be
00000340: b6bc 893e 0e33 603e ef4e 823e 4f58 343b
00000350: 63dc b7be 01fc 7bbe 8346 cf3d afd8 06bd
00000360: c6f4 babe 425c 8f3e fbcb 69be 1b75 03bf
00000370: 6abc 6c3d 9318 90bd bcb7 3dbe f911 093e
00000380: 4dfe dcbe 3a10 5cbe 52a8 d2be 1d44 9b3e
00000390: 0c76 2d3e ade3 a73e 8bf4 203e af3a 1bbd
000003a0: 6c13 9fbe c09d 433e 00eb 82be 78d7 91be
000003b0: 6796 02bb 7910 9dbe 2105 afbe b4e4 a1be
000003c0: 0021 18be 2045 a33d 7344 babe 6862 223e
000003d0: dce3 a0be 5529 adbe 5917 0d3e 740d 3c3b
000003e0: 8996 cfbe 3ec2 7e3d f61f 883d e80e 33be
000003f0: 428d acbd c5ba b5be d659 b4be 4eb2 48be

lstm.bias_hh_l0 f4 [512]
-0.11466293 -0.35560215 -0.6138517 -0.33761212 -0.4237253 -0.5801255 -0.45195234 -0.17844702
-0.08218822 -0.35091448 -0.17887159 -0.3043591 -0.45662057 -0.52456117 -0.32757214 -0.669072
-0.35896635 -0.33385956 -0.30103233 -0.38824415 -0.2449016 -0.42254582 -0.2726555 -0.2716547
-0.23903354 -0.053555436 -0.17829207 -0.15273538 -0.05323582 -0.1938994 -0.47382215 -0.4022697
-0.5681112 -0.09393617 -0.23288293 -0.36445883 -0.2313931 -0.25124297 -0.23232184 -0.45438325
-0.03098645 -0.6071641 -0.34505597 -0.39108777 -0.45540076 -0.036490552 -0.35042498 -0.4302306
-0.030722542 -0.6604104 -0.3280594 0.16630374 -0.191621 -0.59066606 -0.4753376 -0.12114866
-0.36535928 -0.5082292 -0.12692945 -0.39244196 -0.43984675 -0.8130805 0.04742545 0.14615197
-0.38197598 -0.037700582 -0.2726924 -0.5116204 -0.7576369 -0.43656185 -0.59350365 -0.31691763
-0.3980401 -0.1751121 -0.27011496 -0.5684956 -0.16274518 -0.09299522 -0.41798943 -0.5043773
-0.75599194 -0.21047139 -0.21070634 -0.3929801 -0.48453707 -0.20868908 -0.101084635 -0.6113252
-0.44354376 0.014001307 -0.2508371 -0.43375498 -0.04018793 -0.45940238 -0.35772282 -0.43934807
-0.5370195 -0.5238646 -0.6497563 -0.5495661 -0.5747976 -0.42495072 -0.43483037 -0.020238642
-0.2829341 -0.17468682 -0.14978465 -0.35083836 -0.13634259 -0.6624788 -0.5324824 -0.6150577
0.120003566 -0.0250048 -0.49533015 -0.39204186 -0.25711536 -0.11760414 0.2680562 -0.30278644
-0.57911676 -0.52130336 0.0072155413 -0.4836006 -0.09366292 -0.48000687 -0.56807995 -0.35033944
-0.16943006 0.83848894 -0.19338778 0.64858985 -0.27816635 -0.3431596 -0.06656276 -0.318507
0.2102555 -0.017633226 -0.15906796 -0.15487736 0.03197967 0.12025498 0.17778921 -0.20674707
-0.4586703 0.02347816 -0.19232415 -0.00042781734 0.065571025 -0.024229402 -0.58321565 0.024536515
-0.14380261 0.42521623 -0.14935155 -0.1648578 -0.13633159 -0.10201184 -0.14160205 0.3195064
-0.23886965 0.11680707 0.051811602 -0.11864303 0.19324608 0.26779163 -0.13009924 -0.399119
0.34934163 -0.114743076 -0.3711243 -0.022830298 0.37215978 -0.067018256 0.14594802 0.0019955684
0.27040946 -0.29872444 0.15480429 0.057047743 -0.010436393 0.24741249 -0.36080056 -0.09784831
0.12301642 -0.30597797 -0.20315246 -0.05289627 -0.056194033 0.3370491 -0.42512113 0.20091334
0.12112778 0.043394372 -0.22610036 -0.41099352 0.2627294 -0.13396081 0.35975805 -0.08912172
-0.59755504 -0.12262913 0.24728441 0.10881457 -0.51405555 0.043101333 0.06923865 -0.3827883
0.30092075 0.08214927 0.27755192 -0.053041313 -0.2966057 -0.2295706 0.057044037 -0.10685029
-0.21222812 0.30769035 -0.10337204 -0.5791643 0.0023524223 -0.13029745 -0.13373531 0.013685599
-0.40720007 -0.22009525 -0.29797274 0.22738187 0.1169062 0.2646502 0.30294234 -0.0355916
-0.31910905 0.36381397 -0.19983223 -0.32311448 0.09904859 -0.23745632 -0.21306871 -0.2818492
-0.041337628 0.07879529 -0.29714996 0.03554129 -0.19374508 -0.38311523 0.08010831 -0.11984613
-0.4797358 0.050085884 -0.026740622 -0.24164318 -0.19130152 -0.35042572 -0.48267746 -0.12430793
00000000: 66d4 eabd 7c11 b6be 6325 1dbf 7fdb acbe
00000010: 86f2 d8be 1b83 14bf 4c66 e7be d1ba 36be
00000020: 4c52 a8bd 10ab b3be 1d2a 37be f5d4 9bbe
00000030: 2cca e9be a449 06bf 89b7 a7be 4d48 2bbf
00000040: 70ca b7be a4ef aabe e920 9abe f0c7 c6be
00000050: 7cc7 7abe ed57 d8be 8099 8bbe 5316 8bbe
00000060: 35c5 74be f25c 5bbd 3292 36be aa66 1cbe
00000070: ce0d 5abd 908d 46be d198 f2be 4bf6 cdbe
00000080: bc6f 11bf 9b61 c0bd dd78 6ebe 599a babe
00000090: 50f2 6cbe eba2 80be c7e5 6dbe eca4 e8be
000000a0: 4cd7 fdbc 1b6f 1bbf 2dab b0be a83c c8be
000000b0: 4a2a e9be 1e77 15bd e76a b3be 2f47 dcbe
000000c0: d7ad fbbc a810 29bf 67f7 a7be 874b 2a3e
000000d0: 4c38 44be e435 17bf 735f f3be ca1c f8bd
000000e0: 5f10 bbbe 4f1b 02bf cbf9 01be 27ee c8be
000000f0: 9833 e1be 0b26 50bf 3041 423d dda8 153e
00000100: 5b92 c3be ed6b 1abd 579e 8bbe 8ef9 02bf
00000110: 7ef4 41bf 0985 dfbe dbef 17bf 0743 a2be
00000120: e9cb cbbe 9650 33be 824c 8abe ed88 11bf
00000130: aca6 26be 4774 bebd b602 d6be df1e 01bf
00000140: b088 41bf d085 57be 67c3 57be b034 c9be
00000150: 3e15 f8be 97b2 55be 7605 cfbd cf7f 1cbf
00000160: 2b18 e3be bd65 653c b86d 80be 2215 debe
00000170: 199c 24bd ca36 ebbe 7227 b7be 3bf2 e0be
00000180: 1c7a 09bf fe1b 06bf 6e56 26bf 5db0 0cbf
00000190: ef25 13bf 2493 d9be 16a2 debe 82cb a5bc
000001a0: bddc 90be 1ae1 32be 2661 19be 16a1 b3be
000001b0: 649d 0bbe 3698 29bf c450 08bf 6c74 1dbf
000001c0: 6ec4 f53d ded6 ccbc ea9b fdbe b6b9 c8be
000001d0: a0a4 83be 70da f0bd aa3e 893e d306 9bbe
000001e0: ff40 14bf 2374 05bf 5970 ec3b 7f9a f7be
000001f0: 58d2 bfbd 76c3 f5be b06d 11bf b15f b3be
00000200: 137f 2dbe 36a7 563f 7207 46be fc09 263f
00000210: d26b 8ebe 9db2 afbe 0e52 88bd 5913 a3be
00000220: 384d 573e 8e73 90bc b6e2 22be 2c98 1ebe
00000230: 1dfd 023d 3e48 f63d 600e 363e 81b5 53be
00000240: d5d6 eabe 4555 c03c 9ff0 44be ac4c e0b9
00000250: 1a4a 863d bd7c c6bc 9f4d 15bf cd00 c93c
00000260: fe40 13be f1b5 d93e 9def 18be 7cd0 28be
00000270: 829a 0bbe 95eb d0bd 2100 11be 5896 a33e
00000280: 3f9a 74be 8c38 ef3d 6738 543d 1efb f2bd
00000290: 4de2 453e fc1b 893e bc38 05be 5359 ccbe
000002a0: e8dc b23e 6bfe eabd 0104 bebe 9b06 bbbc
000002b0: ba8b be3e de40 89bd 6673 153e 15c8 023b
000002c0: 1c73 8a3e 69f2 98be 0485 1e3e e5aa 693d
000002d0: 68fd 2abc b359 7d3e daba b8be b264 c8bd
000002e0: 08f0 fb3d 25a9 9cbe 3307 50be c2a9 58bd
000002f0: b72b 66bd b391 ac3e 7aa9 d9be 3abc 4d3e
00000300: d711 f83d 4cbe 313d da86 67be be6d d2be
00000310: 7884 863e 062d 09be 3532 b83e 7385 b6bd
00000320: 5ef9 18bf fb24 fbbd 2038 7d3e 2cda de3d
00000330: 2599 03bf 068b 303d fecc 8d3d d4fc c3be
00000340: 4912 9a3e e03d a83d 491b 8e3e d941 59bd
00000350: b4dc 97be 8e14 6bbe 02a7 693d 53d4 dabd
00000360: 5452 59be 9789 9d3e b8b4 d3bd 1d44 14bf
00000370: 192b 1a3b b26c 05be e9f1 08be 9039 603c
00000380: 877c d0be a660 61be e28f 98be cbd6 683e
00000390: 856c ef3d 3b80 873e 421b 9b3e 7fc8 11bd
000003a0: 4362 a3be d345 ba3e d2a0 4cbe 436f a5be
000003b0: fdd9 ca3d c027 73be af2e 5abe 8a4e 90be
000003c0: a551 29bd 6d5f a13d 0a24 98be be93 113d
000003d0: 1c65 46be ae27 c4be d30f a43d e371 f5bd
000003e0: ee9f f5be db26 4d3d 260f dbbc 4f71 77be
000003f0: 8ce4 43be 006b b3be 8021 f7be 2895 febd

fc1.weight f4 [64, 128]
0.16353735 -0.4067308 -0.023824899 0.29108348 -0.0061380123 -0.07810644 -0.03172274 -0.107415974
0.034025986 -0.30381384 0.48408347 -0.07599084 -0.13493091 -0.16325174 0.06719473 -0.09888715
-0.23277989 -0.14838393 0.24021569 -0.16115645 0.10561343 0.24703486 -0.20403719 0.5993088
-0.033701267 0.23781517 -0.03529043 -0.049882885 -0.07732991 -0.036158375 -0.14212996 -0.4405158
-0.20650469 0.19049531 -0.37442777 0.017830748 -0.18939234 -0.6097169 -0.46335217 -0.055818737
-0.020816762 0.114593595 -0.64942926 0.054899376 0.117619224 -0.26943764 -0.009330898 -0.038531058
0.001813554 0.057007093 -0.19454044 -0.0053616595 0.15520824 0.020509886 -0.27191383 0.26577494
0.08395174 0.21947543 0.29259983 0.3990083 -0.05021482 0.05987522 -0.18080947 -0.24815457
0.22623308 0.2924721 0.12826253 -0.03311462 0.24266137 0.035594095 0.060029615 -0.23587435
0.39832062 -0.3286392 0.0068690833 0.036456622 -0.54123026 -0.16464856 -0.07342565 -0.08514194
0.5377323 -0.06014833 -0.10438643 0.17780778 0.028391283 -0.0498938 0.04349114 0.08727211
0.3736867 -0.2789244 -0.12798478 -0.017345224 0.24121916 -0.22231603 0.0794465 0.44760823
0.24466942 0.043029953 -0.05024589 -0.08600971 0.43786335 -0.34333146 -0.22327134 -0.0029551848
0.001847618 0.18218158 -0.20401043 -0.060328417 0.34014294 -0.059532642 -0.33804867 -0.11546266
-0.11810591 0.09775594 -0.07871377 -0.29899973 -0.24857394 0.13667616 0.1078279 0.2653319
0.2710028 -0.22446524 0.48334506 0.044150986 0.2630668 -0.14109893 0.029839924 -0.18578452
-0.2832375 -0.11797956 0.36011168 0.48151222 0.20895399 -0.1603102 0.040635988 0.07364201
-0.2609171 0.14055452 -0.19549848 -0.011106014 -0.39103594 0.557712 -0.42225203 -0.22712567
0.081780836 0.15891299 0.25748938 -0.1191681 0.30129012 0.48729917 -0.017508997 -0.034979165
0.037472956 0.11876248 0.16016203 0.00902916 0.023946097 -0.082573846 -0.3653839 -0.14342846
0.13948901 0.011850941 -0.09327964 -0.07375869 -0.10070035 0.5715107 -0.15820175 0.016431326
0.23539305 -0.1198939 0.17177689 0.1427434 -0.43518388 -0.31830338 0.2854001 -0.05276551
-0.06119394 -0.073108606 -0.093999214 0.036245164 0.26338318 -0.25285095 -0.37603188 -0.21135902
-0.18413295 -0.07134052 0.0026265827 -0.21221316 0.09586301 0.25903627 0.05082882 -0.06798329
0.0996775 0.065591514 -0.05659353 -0.086078435 -0.12767535 -0.2584764 -0.18560052 -0.089960545
0.06775473 -0.2419355 -0.08241394 0.008713182 0.018871693 0.13874201 0.15950783 0.06768409
-0.5173752 0.45857242 -0.31950724 0.25609863 0.08245476 0.020058671 -0.14666437 -0.036629096
0.2901655 -0.1540104 -0.022098478 0.09483264 0.1802929 -0.20436071 0.03401446 0.042983502
0.028453477 0.30447498 0.09465553 0.29214785 -0.34246442 0.16183579 0.2492961 -0.08691735
0.15521961 0.28409162 -0.039161652 -0.055421017 -0.11990757 0.23884945 0.111057535 -0.06280542
-0.056347728 0.004892764 0.08966679 -0.1146395 0.14430615 -0.061554223 0.22440207 0.43807378
-0.11978823 0.062269144 -0.15897776 0.1521963 0.023726149 -0.38205287 -0.22831668 0.36274472
00000000: 5676 273e 053f d0be 6f2c c3bc e508 953e
00000010: 6121 c9bb 45f6 9fbd b4ef 01bd e8fc dbbd
00000020: d55e 0b3d 7d8d 9bbe cad9 f73e 16a1 9bbd
00000030: 542b 0abe 772b 27be 649d 893d 5985 cabd
00000040: da5d 6ebe f5f1 17be 1afb 753e 3206 25be
00000050: db4b d83d b5f6 7c3e 20ef 50be 4d6c 193f
00000060: 570a 0abd d285 733e b38c 10bd ff51 4cbd
00000070: 255f 9ebd ce1a 14bd 848a 11be 498b e1be
00000080: f775 53be 3411 433e ffb4 bfbe ca11 923c
00000090: 11f0 41be 6816 1cbf 7f3c edbe 30a2 64bd
000000a0: ea87 aabc 0cb0 ea3d ff40 26bf 2bde 603d
000000b0: 59e2 f03d bbf3 89be 9fe0 18bc bed2 1dbd
000000c0: c6b4 ed3a 4580 693d 9c35 47be dcb0 afbb
000000d0: e9ee 1e3e 5904 a83c 4a38 8bbe a713 883e
000000e0: e4ee ab3d 2bbe 603e a5cf 953e d14a cc3e
000000f0: 0eae 4dbd b83f 753d 1e26 39be 3b1c 7ebe
00000100: a5a9 673e e7be 953e 4157 033e 32a3 07bd
00000110: 397c 783e 1dcb 113d 9de1 753d 0c89 71be
00000120: aef0 cb3e 6643 a8be 0c16 e13b 8a53 153d
00000130: 118e 0abf a299 28be 3060 96bd e65e aebd
00000140: d3a8 093f 185e 76bd 8dc8 d5bd 3e13 363e
00000150: d694 e83c 715d 4cbd c423 323d b8bb b23d
00000160: dd53 bf3e 2ecf 8ebe 710e 03be 9217 8ebc
00000170: 2802 773e d0a6 63be d9b4 a23d e82c e53e
00000180: 9f8a 7a3e 2d40 303d a2ce 4dbd dc25 b0bd
00000190: a02f e03e 24c9 afbe 3ea1 64be c6ab 41bb
000001a0: c62b f23a cf8d 3a3e 1ce8 50be ee1a 77bd
000001b0: 3727 ae3e 80d8 73bd b714 adbe b077 ecbd
000001c0: 83e1 f1bd 4434 c83d af34 a1bd 7e16 99be
000001d0: 2b8a 7ebe d6f4 0b3e e0d4 dc3d 95d9 873e
000001e0: e1c0 8a3e 37da 65be 0179 f73e aad7 343d
000001f0: b1b0 863e 3d7c 10be db72 f43c 4c3e 3ebe
00000200: 8104 91be 449f f1bd 8f60 b83e c588 f63e
00000210: 09f8 553e 5b28 24be ec71 263d 9fd1 963d
00000220: ed96 85be 86ed 0f3e c130 48be 00f6 35bc
00000230: dd35 c8be 37c6 0e3f 6b31 d8be a293 68be
00000240: b67c a73d 16ba 223e a6d5 833e 680e f4bd
00000250: b342 9a3e 477f f93e 076f 8fbc 5046 0fbd
00000260: 3e7d 193d be39 f33d 8401 243e 0bef 133c
00000270: 9b2a c43c 7a1c a9bd 9913 bbbe e9de 12be
00000280: 35d6 0e3e 732a 423c 6509 bfbd cc0e 97bd
00000290: fc3b cebd 864e 123f a4ff 21be fd9a 863c
000002a0: e00a 713e ef8a f5bd 48e6 2f3e 532b 123e
000002b0: 6cd0 debe a9f8 a2be f61f 923e a620 58bd
000002c0: 7fa6 7abd f7b9 95bd a982 c0bd cf75 143d
000002d0: 29da 863e ae75 81be 4087 c0be 806e 58be
000002e0: 598d 3cbe fb1a 92bd bf22 2c3b 684e 59be
000002f0: d353 c43d 67a0 843e e131 503d d33a 8bbd
00000300: b823 cc3d d854 863d 9ece 67bd e449 b0bd
00000310: 54bd 02be 0557 84be 100e 3ebe 3c3d b8bd
00000320: fec2 8a3d f1bd 77be a4c8 a8bd bcc1 0e3c
00000330: cf98 9a3c 6312 0e3e 0556 233e f59d 8a3d
00000340: b372 04bf 01ca ea3e 7496 a3be 5c1f 833e
00000350: 0bde a83d 1552 a43c 2f2f 16be 6408 16bd
00000360: 9390 943e e7b4 1dbe de07 b5bc 9d37 c23d
00000370: b49e 383e ef43 51be bf52 0b3d 780f 303d
00000380: 4417 e93c 25e4 9b3e c2da c13d 6794 953e
00000390: 7f57 afbe 48b8 253e 7a47 7f3e b901 b2bd
000003a0: e4f1 1e3e 7574 913e f867 20bd 2601 63bd
000003b0: 1a92 f5bd f394 743e 2272 e33d 21a0 80bd
000003c0: e0cc 66bd 7b53 a03b 39a3 b73d 1dc8 eabd
000003d0: fec4 133e 4820 7cbd a8c9 653e 354b e03e
000003e0: 8853 f5bd ee0d 7f3d 11cb 22be 59d9 1b3e
000003f0: 575d c23c 6f9c c3be d9cb 69be adb9 b93e

fc1.bias f4 [64]
0.042146936 0.111783326 -0.060963657 0.025420258 0.048528817 -0.0019833322 0.03905486 0.07615914
-0.051682826 0.081131786 0.006197613 0.06828954 0.0025683665 -0.014825515 0.000527629 0.021035496
0.03060611 -0.045344394 0.0009810706 0.008603139 0.0031583987 0.0066324305 -0.054411013 0.055701677
-0.044173345 0.0012600669 -0.013166546 -0.01075566 -0.036820646 0.09956137 0.038212623 0.071908265
0.043524567 0.009824994 0.007531733 -0.017757848 -0.038928535 -0.008971577 0.0023522463 0.04551726
0.034825902 0.028919674 0.00041598303 0.09623586 0.074951395 -0.084603205 0.1046417 -0.006386393
0.113440126 -0.060547866 0.047101118 -0.045235295 -0.09161391 -0.0034454532 -0.04479716 0.038274545
-0.06321363 0.047408734 0.059279196 -0.038723264 0.122411035 -0.028084269 0.08773927 -0.0414686
00000000: 44a2 2c3d a8ee e43d 07b5 79bd 253e d03c
00000010: 27c6 463d cbfa 01bb fdf7 1f3d 53f9 9b3d
00000020: 5fb1 53bd 6c28 a63d 5915 cb3b 63db 8b3d
00000030: 0a52 283b b8e6 72bc 9550 0a3a a252 ac3c
00000040: aab9 fa3c 0bbb 39bd 4497 803a 2ef4 0c3c
00000050: 23fd 4e3b dc54 d93b 15de 5ebd 7127 643d
00000060: 1cef 34bd d428 a53a 7fb8 57bc 8238 30bc
00000070: 3fd1 16bd d5e6 cb3d d784 1c3d a444 933d
00000080: d146 323d 03f9 203c c1cc f63b e878 91bc
00000090: 8773 1fbd 85fd 12bc 2528 1a3b 4e70 3a3d
000000a0: 9ba5 0e3d f4e8 ec3c 4c18 da39 4e17 c53d
000000b0: 1e80 993d 7244 adbd 634e d63d f344 d1bb
000000c0: 4c53 e83d 0a01 78bd 1aed 403d a548 39bd
000000d0: 13a0 bbbd 1dcd 61bb 3a7d 37bd c5c5 1c3d
000000e0: 2676 81bd a92f 423d bece 723d 499c 1ebd
000000f0: a3b2 fa3d fb10 e6bc a5b0 b33d fbda 29bd

bn1.weight f4 [64]
1.1044449 1.306765 0.8231701 0.99369735 1.007792 0.77521753 0.88927776 0.880039
1.1577729 0.8095366 1.0477127 0.8322833 1.1523008 0.81597745 0.94132215 1.1064533
1.1804522 1.2754388 1.034746 0.8627676 1.0750277 0.98064965 1.071974 1.1536231
0.99747765 0.99481535 1.0903534 1.2068152 1.163758 0.8608815 0.9680845 0.89267236
1.1824166 0.74305546 1.2177635 1.0878131 1.0838048 0.8637654 0.9525946 1.2076032
1.0292063 1.2527531 0.7951213 0.89853364 1.1480052 1.026573 1.1063659 0.92692053
0.88754964 0.89374787 1.2201313 0.5926986 1.0214796 1.1543871 1.1574771 0.8789428
1.1573654 1.0390599 1.0714023 0.89652246 1.0108265 1.2723972 1.0641387 0.8862233
00000000: 735e 8d3f 1344 a73f 47bb 523f f362 7e3f
00000010: 54ff 803f a874 463f b5a7 633f 3c4a 613f
00000020: e731 943f ca3d 4f3f 731b 863f 8510 553f
00000030: 987e 933f e6e3 503f 7dfa 703f 43a0 8d3f
00000040: 0f19 973f 9441 a33f 8f72 843f 56de 5c3f
00000050: 829a 893f db0b 7b3f 7236 893f eca9 933f
00000060: b25a 7f3f 38ac 7e3f b390 8b3f ec78 9a3f
00000070: 06f6 943f bb62 5c3f 63d4 773f 2d86 643f
00000080: 6d59 973f e238 3e3f addf 9b3f 763d 8b3f
00000090: 1eba 8a3f bb1f 5d3f 3ddd 733f be92 9a3f
000000a0: 08bd 833f 375a a03f 128d 4b3f 4d06 663f
000000b0: d6f1 923f be66 833f 669d 8d3f aa4a 6d3f
000000c0: 7436 633f a9cc 643f 432d 9c3f 18bb 173f
000000d0: d8bf 823f f5c2 933f 3628 943f 6502 613f
000000e0: 8d24 943f eaff 843f b623 893f 7f82 653f
000000f0: c362 813f e9dd a23f b235 883f 88df 623f

bn1.bias f4 [64]
0.3377134 0.2797582 0.47094688 0.12611665 0.3325581 0.3301245 0.31246617 0.42278358
-0.12824155 0.28325057 0.24022844 0.3360383 0.25984186 0.2152175 0.40747285 -0.27678108
0.32109144 0.297736 -0.23077568 0.44280854 -0.06332793 0.35075235 0.28275913 0.21893406
-0.32291228 -0.21532369 -0.22762814 0.012513237 -0.05697727 0.38906 0.40412048 0.07388554
-0.0856997 0.45022017 -0.06202688 0.09080961 0.3706914 -0.29821786 0.39126894 0.047637936
0.023710972 0.2469325 0.4088406 0.14757226 -0.057695877 -0.20040151 -0.04598346 0.048848733
0.30764398 0.46750566 0.11271798 0.5657651 0.12862436 -0.08636929 -0.15150015 0.5296892
-0.066303246 0.25392923 -0.14889373 0.34642088 -0.047544163 0.120267406 -0.19112323 0.23889963
00000000: c5e8 ac3e 773c 8f3e f31f f13e b924 013e
00000010: 0e45 aa3e 1406 a93e 91fb 9f3e 1777 d83e
00000020: c151 03be 3806 913e 72fe 753e 360d ac3e
00000030: fe09 853e fa61 5c3e 48a0 d03e 40b6 8dbe
00000040: 1966 a43e da70 983e 7650 6cbe cdb7 e23e
00000050: 13b2 81bd d095 b33e cec5 903e 4030 603e
00000060: c254 a5be d07d 5cbe 5a17 69be 5204 4d3c
00000070: ff60 69bd df32 c73e e1e8 ce3e 4d51 973d
00000080: 5383 afbd 4283 e63e e60f 7ebd 64fa b93d
00000090: 43cb bd3e 03b0 98be 6754 c83e ff1f 433d
000000a0: 833d c23c e0db 7c3e 8e53 d13e 2f1d 173e
000000b0: 8352 6cbd 0e36 4dbe 2759 3cbd 9c15 483d
000000c0: 8383 9d3e e75c ef3e afd8 e63d fbd5 103f
000000d0: 1bb6 033e 62e2 b0bd db22 1bbe b699 073f
000000e0: ffc9 87bd 0303 823e 9977 18be 145e b13e
000000f0: abbd 42bd c24e f63d cfb5 43be 1ba2 743e

bn1.running_mean f4 [64]
1.0930282 -0.35884416 -0.6739102 0.1745793 -0.22636348 -0.43651304 0.076868534 -0.5618553
0.14675243 -0.39776418 0.5590203 0.13667671 0.04757312 -0.50451475 -0.21953401 0.5786213
0.413954 0.34071413 0.621789 0.10253042 0.75355387 -0.22617917 0.07918352 -1.0303394
0.09480575 0.7137007 0.23492809 -0.31691703 0.23241049 -0.67943835 0.17831516 0.2587688
0.7678668 -0.7866604 1.3198245 0.46044433 0.61449766 0.15673769 -0.5819093 -0.04415086
0.3160116 0.54041827 -0.634282 -0.6139434 0.44947246 0.031588566 0.29915634 -0.46519312
-0.36253208 -0.9262215 0.21980889 -0.40399116 0.12221112 0.4279366 0.5783628 -0.72628045
0.8505269 0.06745047 0.5345196 -0.62834674 0.4366904 0.16779709 0.17722166 0.25766408
00000000: 59e8 8b3f 6cba b7be 6185 2cbf ebc4 323e
00000010: d4cb 67be a37e dfbe 406d 9d3d c0d5 0fbf
00000020: 4546 163e bfa7 cbbe f41b 0f3f fbf4 0b3e
00000030: 08dc 423d e127 01bf 86cd 60be 8720 143f
00000040: c7f1 d33e 1572 ae3e 902d 1f3f 78fb d13d
00000050: e8e8 403f 839b 67be f82a a23d 29e2 83bf
00000060: 8429 c23d 17b5 363f fd90 703e f342 a2be
00000070: 04fd 6d3e acef 2dbf 4098 363e 587d 843e
00000080: eb92 443f 9362 49bf 02f0 a83f 5cbf eb3e
00000090: b84f 1d3f d87f 203e 02f8 14bf 88d7 34bd
000000a0: 46cc a13e da58 0a3f 4e60 22bf 652b 1dbf
000000b0: 4121 e63e 0363 013d 052b 993e cb2d eebe
000000c0: ce9d b9be da1c 6dbf 9515 613e eed7 cebe
000000d0: d349 fa3d 821a db3e 960f 143f 84ed 39bf
000000e0: 22bc 593f 7923 8a3d 47d6 083f 55db 20bf
000000f0: e295 df3e 00d3 2b3e 9879 353e 8cec 833e

bn1.running_var f4 [64]
2.6128228 1.5597428 1.9306246 2.1875763 2.6655507 2.0399172 1.4527905 1.3136643
2.3626697 1.7939801 2.0016751 2.0185528 2.8265257 2.5527694 2.4869766 2.0054834
1.3277651 1.4474928 1.6584079 3.4629102 1.7890196 1.3485239 1.565698 1.0742401
2.6674361 1.9823694 1.0925344 1.4616688 2.4235032 2.2690458 1.0621029 1.717935
1.9591206 1.7236269 1.9608052 1.5804819 2.176492 1.7174822 1.6991757 2.3108943
2.7046804 1.2081504 1.2527703 1.809262 1.7028874 1.5867897 1.7790606 1.7132592
0.9398729 1.5425459 1.7903134 1.9756746 1.4157308 2.2367575 3.3460708 1.9610198
1.5867712 1.5809183 1.3025749 2.6926498 0.94695574 2.1417923 1.0233983 1.2164711
00000000: 7d38 2740 a7a5 c73f b51e f73f 4001 0c40
00000010: 6298 2a40 018e 0240 0af5 b93f 2726 a83f
00000020: fb35 1740 24a1 e53f 721b 0040 f82f 0140
00000030: cce5 3440 9360 2340 a02a 1f40 d759 0040
00000040: 35f4 a93f 7247 b93f b646 d43f 52a0 5d40
00000050: 98fe e43f 6e9c ac3f cb68 c83f b380 893f
00000060: 46b7 2a40 48be fd3f 2bd8 8b3f f717 bb3f
00000070: ad1a 1b40 0c38 1140 fdf2 873f 4be5 db3f
00000080: 77c4 fa3f ce9f dc3f aafb fa3f 3b4d ca3f
00000090: a54b 0b40 75d6 db3f 977e d93f b1e5 1340
000000a0: 7c19 2d40 aca4 9a3f c75a a03f e695 e73f
000000b0: 37f8 d93f ed1b cb3f 42b8 e33f 144c db3f
000000c0: 839b 703f 2572 c53f fd28 e53f e8e2 fc3f
000000d0: ab36 b53f 0927 0f40 0626 5640 b202 fb3f
000000e0: 521b cb3f 885b ca3f c6ba a63f 6054 2c40
000000f0: b16b 723f 2013 0940 b7fe 823f 53b5 9b3f

fc2.weight f4 [4, 64]
0.09415072 0.08851118 0.132253 0.06981155 0.29528788 0.06315363 0.20997655 0.24357247
-0.19418229 0.13890928 0.075884536 0.23570473 0.09712858 0.19676271 0.10338585 -0.16639447
0.12474368 0.097242944 0.054601625 0.26094338 -0.20216376 0.11786483 0.08783633 0.13661109
-0.12085589 -0.19080643 -0.2364981 0.23188715 0.10026987 0.077881195 0.18642601 0.04825762
-0.0021821514 0.21700083 -0.026919203 -0.052828506 0.06719478 -0.100505196 0.28818455 0.14605786
-0.0009810586 -0.06877429 0.16153215 0.104827836 0.16978694 -0.15044004 -0.18211183 -0.026429921
0.24157639 0.25701958 0.057535976 0.061896905 0.11684409 -0.30686858 -0.13789588 0.3097925
-0.07865953 0.09390735 -0.09350287 0.16543564 0.044840634 0.0704726 -0.09832788 0.15211503
-0.47382393 0.34848422 0.18426596 -0.30905765 -0.039515074 -0.50981575 -0.22485827 -0.3487798
0.09968723 -0.34063408 0.28186986 -0.045801006 0.31732872 -0.3527835 0.2169733 0.17186047
-0.60166645 -0.5363184 -0.27872032 0.083336405 -0.31579548 -0.41318408 -0.40271538 -0.4790689
0.22069177 0.17430697 0.14691609 0.2306473 0.30326077 -0.3401217 -0.44547224 0.09963996
-0.5058075 -0.20878887 -0.25686193 -0.7256746 -0.46339476 -0.21999802 -0.20518608 -0.37303007
-0.24026372 -0.43231276 -0.15646188 -0.4055501 -0.3242522 0.15200043 0.07027523 0.17515753
-0.117356345 -0.20819537 0.27924895 -0.27952522 -0.45899323 0.29304236 0.16250758 -0.08194785
0.116309255 -0.5469878 0.22294503 -0.09796723 -0.53530186 -0.48599136 0.07569631 -0.16102366
-0.33141878 -0.28303778 -0.20332071 0.1630746 0.06967873 0.11653949 -0.17270514 -0.11202292
0.020584438 0.23733391 -0.2214978 0.043196592 -0.1598347 -0.11780872 -0.23220515 -0.25021425
0.14130424 0.26010558 -0.3801877 -0.15071677 0.2387232 -0.019207984 0.24146792 -0.28726038
-0.025888586 0.069773465 0.14746216 -0.36192185 -0.2895261 0.16988632 0.1617318 0.17191263
-0.36719936 -0.029309569 -0.38965183 0.19118671 0.10994876 0.16459839 -0.0669072 -0.41743106
-0.35765672 -0.28993183 -0.15005316 -0.26925632 -0.5595449 0.23964314 0.24078095 -0.29006848
0.03061639 -0.04610489 -0.22728239 -0.32819486 0.27838463 0.051411837 -0.27548975 -0.10125932
-0.4317923 0.21356767 -0.2930397 -0.1938024 0.18268903 -0.47898167 0.10760191 -0.070288844
0.17225067 -0.4089441 -0.36830944 -0.71773154 -0.20885369 -0.3521803 -0.07986026 -0.08049111
-0.9122063 -0.16690661 -0.39424855 -0.114684634 -0.4172608 0.14778076 -0.4419341 0.26691097
-0.61920476 -0.4372667 0.23208934 -0.18163966 0.26939318 -0.38906762 -0.42799073 0.27990478
-0.49838513 -0.053088997 -0.5706251 -0.40775636 -0.270121 -0.584362 -0.3990204 -0.6599306
0.19221064 -0.23159079 0.27540627 0.31173375 -0.6774224 -0.2183261 -0.15486693 0.2650046
0.24454106 0.24638006 0.2491248 0.04718897 0.17665885 -0.40574202 -0.477465 -0.41903386
-0.200942 -0.39249763 -0.47846323 0.06740994 -0.36505985 0.22300275 0.13235794 -0.32456216
0.24965046 -0.39933264 0.15636016 -0.22220872 0.1755307 0.22327843 -0.88910574 -0.10561121
00000000: 18d2 c03d 5945 b53d 556d 073e 5cf9 8e3d
00000010: f92f 973e b156 813d 1804 573e 106b 793e
00000020: b9d7 46be 3c3e 0e3e 5a69 9b3d 955c 713e
00000030: 59eb c63d 2a7c 493e f6bb d33d 5063 2abe
00000040: 9d79 ff3d 4f27 c73d f4a5 5f3d 5f9a 853e
00000050: 0404 4fbe 1e63 f13d 89e3 b33d c7e3 0b3e
00000060: 4b83 f7bd c362 43be 8f2c 72be d373 6d3e
00000070: 4a5a cd3d 2d80 9f3d 76e6 3e3e c8a9 453d
00000080: 6d02 0fbb 7735 5e3e a985 dcbc b462 58bd
00000090: 6b9d 893d abd5 cdbd ed8c 933e 3190 153e
000000a0: dd96 80ba 89d9 8cbd af68 253e faaf d63d
000000b0: a1dc 2d3e f40c 1abe 867b 3abe 9083 d8bc
000000c0: cd5f 773e 1298 833e d8aa 6b3d 9c87 7d3d
000000d0: f44b ef3d e11d 9dbe 9434 0dbe 1f9d 9e3e
000000e0: 3f18 a1bd 7f52 c03d 6f7e bfbd f667 293e
000000f0: d0aa 373d f053 903d 2160 c9bd 0bc4 1b3e
00000100: 0d99 f2be 866c b23e 37b0 3c3e ce3c 9ebe
00000110: 8fda 21bd 4983 02bf 3f41 66be 4493 b2be
00000120: d228 cc3d 9767 aebe 3f51 903e d699 3bbd
00000130: e978 a23e 0aa0 b4be 402e 5e3e 31fc 2f3e
00000140: d006 1abf 2a4c 09bf 6eb4 8ebe 47ac aa3d
00000150: f2af a1be dd8c d3be b630 cebe 8548 f5be
00000160: 06fd 613e 877d 323e 2c71 163e ce2e 6c3e
00000170: ff44 9b3e 6e24 aebe f014 e4be 0910 cc3d
00000180: 9a7c 01bf c0cc 55be 6883 83be d0c5 39bf
00000190: 1442 edbe 2947 61be 4d1c 52be ccfd bebe
000001a0: b107 76be 1958 ddbe 8b37 20be 43a4 cfbe
000001b0: 6204 a6be 00a6 1b3e 76ec 8f3d 7f5c 333e
000001c0: 8658 f0bd 2b31 55be b8f9 8e3e ee1d 8fbe
000001d0: 2901 ebbe a609 963e 6368 263e 46d4 a7bd
000001e0: 8c33 ee3d 6407 0cbf b44b 643e 0ba3 c8bd
000001f0: 8b09 09bf dcd3 f8be ab06 9b3d 63e3 24be
00000200: b9af a9be 54ea 90be 4e33 50be 07fd 263e
00000210: b9b3 8e3d 42ac ee3d 9ed9 30be 466c e5bd
00000220: b2a0 a83c a907 733e 52d0 62be e9ee 303d
00000230: b5ab 23be b345 f1bd 30c7 6dbe 151c 80be
00000240: 0fb2 103e 8f2c 853e f6a7 c2be 7f55 1abe
00000250: db73 743e 105a 9dbc 5e43 773e cb13 93be
00000260: 4d14 d4bc 64e5 8e3d 5200 173e d24d b9be
00000270: c43c 94be aef6 2d3e 059d 253e dd09 303e
00000280: 8e01 bcbe 9f1a f0bc 7280 c7be 73c6 433e
00000290: d12c e13d 7b8c 283e a406 89bd 86b9 d5be
000002a0: c81e b7be f271 94be 89a7 19be f7db 89be
000002b0: 563e 0fbf 0365 753e 488f 763e db83 94be
000002c0: 39cf fa3c 7bd8 3cbd b7bc 68be 2809 a8be
000002d0: 6e88 8e3e 3895 523d fe0c 8dbe 0c61 cfbd
000002e0: e113 ddbe 7cb1 5a3e 4d09 96be 2374 46be
000002f0: d512 3b3e 163d f5be 645e dc3d 99f3 8fbd
00000300: 7b62 303e 1f61 d1be 0e93 bcbe 41bd 37bf
00000310: bedd 55be fa50 b4be c78d a3bd 86d8 a4bd
00000320: 5a86 69bf 91e9 2abe f2da c9be c7df eabd
00000330: 35a3 d5be d753 173e 3045 e2be 8ea8 883e
00000340: 3484 1ebf 6ce1 dfbe d4a8 6d3e bfff 39be
00000350: e7ed 893e df33 c7be 9a21 dbbe ae4f 8f3e
00000360: 562c ffbe d973 59bd 7d14 12bf 71c5 d0be
00000370: 4d4d 8abe bf98 15bf 674c ccbe 36f1 28bf
00000380: ded2 443e 2326 6dbe 0d02 8d3e 919b 9f3e
00000390: 8e6b 2dbf e190 5fbe 7095 1ebe afae 873e
000003a0: f968 7a3e 0e4b 7c3e 921a 7f3e 3949 413d
000003b0: 0fe6 343e 6bbd cfbe 4b76 f4be 9b8b d6be
000003c0: bdc3 4dbe 73f5 c8be 22f9 f4be 390e 8a3d
000003d0: 20e9 babe d55a 643e d788 073e 032d a6be
000003e0: 5fa4 7f3e 5475 ccbe e11c 203e af8a 63be
000003f0: 52be 333e 1aa3 643e 6f9c 63bf b14a d8bd

fc2.bias f4 [4]
0.13088182 -0.11258132 -0.00068703486 -0.4492146
00000000: e205 063e 0991 e6bd 211a 34ba 75ff e5be
