Models/model_many_to_many.pt (torch, 317387 bytes, 12 tensors)

lstm.weight_ih_l0 f4 [512, 6]
00000000: 2eb6 d33e d6f8 53be 9047 8e3e beae 6e3e
00000010: 9844 2c3e 1fba 283e 8510 cbbe b05c 0fbe
00000020: aff9 4d3e fe16 cb3d 8494 71be e9ff 7dbf
00000030: 10fe 3dbe ed45 783d 405a eabd de51 453e
00000040: 1d14 64be 6e45 31bf 44f8 d2be 5675 49bc
00000050: 0a9d d6be d5d3 73be 1d93 b3be 2734 553e
00000060: ed8e 5fbe 8f17 43be 8141 0f3e 2e27 62be
00000070: 6303 be3e fbd4 29bd 26b4 8d3a a128 8bbe
00000080: d502 a6bd 3366 17bf ed3c a0bf c620 8b3e
00000090: 3562 a8bf 176b c7be c641 733e b16b 693f
000000a0: c0bb edbd cf67 6ebe f908 e9be 5fb1 b3be
000000b0: ee68 8cbd 1bd3 9abe 62ed 80be d410 ff3c
000000c0: 9c9d 27be baba 66be e894 1ebf b70f 8b3d
000000d0: 6dbc bf3e bd12 a0bf 6f52 fabe b95a e2be
000000e0: 44a1 b1bd 3de2 0fbe 739c 88be 7888 943d
000000f0: 2235 6bbe 74a4 cabe d790 83be 8edc 403f
00000100: 4440 013d 721a f93e d621 0e3f ec3f 8bbe
00000110: 17da a03e ce95 5c3f d13e a9bd 617c 0a3f
00000120: 73b0 d5be ac90 58bf 0e21 84bc 81ba 6cbd
00000130: db07 77bf 5951 fdbe 7587 d63e 4a4e 87be
00000140: 2d71 7a3f 79a0 7cbe 5496 c53e 9e1d 17be
00000150: 5322 c33e ae0e 30be 097c 263e 3518 2f3f
00000160: d3b3 39be f000 933e bb0d e0be 8758 873e
00000170: 121e 283c c49a 4b3e 0c5b 10be 72e1 bdbe
00000180: 27dd d23e a58d 9fbe 61b0 723b 2feb d1be
00000190: b77a eebe 1e74 973c 0afd d0bd 5e22 2f3d
000001a0: 9e1d fabc 05ed 90be a313 bebe 4767 4c3f
000001b0: a341 06bf 9531 a5be f9fa 063e 73ea 013f
000001c0: 8f6e eabe f65d 833d 39db 71bd bbcf 293e
000001d0: 3b78 043e 528e 363e c579 4b3c 02f6 34be
000001e0: 9304 aa3e 8ecc 003c 01e9 11bf 2572 223f
000001f0: 7056 353e 05c4 f13d 2a29 ac3d a155 03bf
00000200: 3831 4a3c 0771 42bd ca20 6ebe 7252 6e3e
00000210: 258a 7cbc e9d3 293c 4a86 57bd 5999 d03e
00000220: 4025 87be a60e 12be 9c6b 2bbe c218 02bf
00000230: c269 2b3e 8ae7 03be d224 cdbd 72aa 25bd
00000240: 1f0c 403e 6dcc 87be 029a 3cbd 30d8 0bbf
00000250: 4c85 0ebf 2f49 3a3f ca03 65bd b021 0abf
00000260: df87 fcbd 6f33 10be 85af e1bd 320b 71be
00000270: 1752 2ebf 750d 653e 0630 fcbb f3d5 1fbe
00000280: 4fea b3be 5a1b 8dbe a459 fc3e 575f bcbd
00000290: 358e e13d 3fd4 533e fca3 8b3d c903 90bd
000002a0: 1b5f 04be 87f9 aabe 612e 583d 1e4b 03bd
000002b0: a9e3 253d 4395 203e fb43 72be 97b8 cebd
000002c0: 8d6d 18bb acf7 413e 4c8b 5bbd df81 da3e
000002d0: f4a1 37be 1c0d 05be 47f1 2cbe b19b 4fbd
000002e0: 8036 ffbd a1d7 06be b7a9 62be e724 963e
000002f0: 9403 243e 4b46 16bf 3d82 4d3e 0239 59bf
00000300: 64eb fdbd 3869 673e d410 91be dc3b e6be
00000310: 3ec4 ecbe b8de 4b3e 3615 eabd 8b33 dbbe
00000320: 1f06 413d 70d5 8fbb 56d1 49bf 1d90 6c3f
00000330: 6102 42bf 2627 49bf 94e5 273e 391f cf3e
00000340: 49f4 97be 5713 253f 24b7 d33e 94b3 9abe
00000350: 3fea 853e 3756 a5be 40ad b1be 0e09 4e3d
00000360: 5958 3abe 1923 cb3e 2786 be3e ac77 0abf
00000370: cd39 8abe b98b 543e 8de9 ecbe d5d5 11bd
00000380: 668d 57be 269a 94be 7e4a 02be b444 9e3e
00000390: 64bb 5b3e b1e4 76be a75c aa3d 857e a23d
000003a0: 3eca 91be 024e 25be 5795 28bd c361 c8be
000003b0: d131 62be 23c8 323e 2ac0 8ebe db8c d83d
000003c0: ed76 e23e 1105 39bf 936b 26be cdf4 eb3d
000003d0: 6830 d13c 9c62 3b3f 69ad a33e 5bac edbd
000003e0: 3b1d 513e 67ab 47be c274 bebe 1fdd 2e3e
000003f0: 34ca 52bf 9772 963d dc04 b53c 5d44 46bf
0.4134993 -0.20700392 0.27788973 0.23308846 0.16823041 0.1647725 -0.3966104 -0.14000201
0.20114778 0.09916495 -0.2359181 -0.9921861 -0.18553948 0.06061356 -0.11442995 0.19269511
-0.22273298 -0.69246566 -0.41205037 -0.0122960415 -0.41916686 -0.23811276 -0.35073176 0.20820676
-0.21831866 -0.19051956 0.13989832 -0.22085258 0.3711196 -0.04146288 0.0010811135 -0.27179435
-0.08106009 -0.5914032 -1.2518593 0.27173442 -1.315497 -0.3894889 0.2375556 0.9117995
-0.11608076 -0.23281787 -0.45514658 -0.3509626 -0.06855951 -0.30239186 -0.2518111 0.031135954
-0.16368717 -0.22532168 -0.6194596 0.06790107 0.37448445 -1.2505718 -0.48891017 -0.4420984
-0.08673337 -0.14051147 -0.2668186 0.07252592 -0.22969487 -0.39578593 -0.25696442 0.7533654
0.03155543 0.4865299 0.5552038 -0.27197206 0.3141639 0.86166084 -0.082639344 0.5409604
-0.41736183 -0.8459575 -0.016129043 -0.05779505 -0.9649636 -0.49476126 0.4190022 -0.26426917
0.9782894 -0.2467059 0.38591254 -0.14757392 0.38112125 -0.171931 0.16258253 0.6839631
-0.18135004 0.28711653 -0.43760476 0.26434729 0.010261076 0.19883257 -0.14097232 -0.37086064
0.4118435 -0.31162754 0.00370314 -0.40999743 -0.46578 0.018487986 -0.10204513 0.042757384
-0.0305317 -0.28305832 -0.37124357 0.7984509 -0.52443904 -0.3226439 0.13181676 0.50748366
-0.45787475 0.06414406 -0.059046958 0.16583149 0.1293649 0.17827728 0.012419169 -0.1767197
0.33206615 0.00786127 -0.5699616 0.6345542 0.17708755 0.11804966 0.08406289 -0.51302534
0.012340836 -0.047471073 -0.23254696 0.23273638 -0.015413796 0.010365465 -0.052618302 0.40741995
-0.26395607 -0.142634 -0.16740268 -0.5081903 0.16739562 -0.12881294 -0.100167885 -0.040445752
0.18754624 -0.26523152 -0.04604531 -0.5462675 -0.55672145 0.7276792 -0.055911817 -0.53957653
-0.12330603 -0.1408212 -0.11019806 -0.23539427 -0.6809401 0.22368415 -0.0076961545 -0.15608959
-0.351397 -0.2755993 0.4928714 -0.09197872 0.11013452 0.20686434 0.06818387 -0.07031972
-0.12926905 -0.333935 0.052778605 -0.03205406 0.040500317 0.15681939 -0.23658745 -0.100938015
-0.0023258657 0.18942136 -0.05359964 0.4267721 -0.17932874 -0.12993282 -0.16888915 -0.05068559
-0.12461567 -0.13168193 -0.22135054 0.2932503 0.1601699 -0.5870101 0.20069213 -0.8485261
-0.12398413 0.22598732 -0.2833315 -0.44967544 -0.4624347 0.19909179 -0.11429827 -0.42812762
0.04712498 -0.0043894574 -0.78835046 0.924074 -0.7578488 -0.7857536 0.16396171 0.40453508
-0.29678562 0.64482635 0.41350663 -0.30215132 0.26155278 -0.3229234 -0.34702492 0.050301604
-0.18197764 0.39675215 0.37211725 -0.54088855 -0.26997223 0.20756425 -0.46271935 -0.035604317
-0.21050033 -0.29023856 -0.12723729 0.3091179 0.21458203 -0.24110676 0.08318453 0.07934288
-0.2847461 -0.16143039 -0.041158047 -0.39137086 -0.22089316 0.17459159 -0.27880985 0.10573741
0.44231358 -0.72273356 -0.16251974 0.115213014 0.025535777 0.7319734 0.3196824 -0.1160514
0.20421307 -0.19498979 -0.37198454 0.17076539 -0.8233979 0.07346075 0.022097044 -0.77448064

lstm.weight_hh_l0 f4 [512, 128]
00000000: ddbe 27be 0834 06be bb44 0e3e 8a38 99be
00000010: 745d 783d ba5b 03be 60cf 193e 951a 78bc
00000020: 23bb d4bd b824 a6bd 288c 4ebe 6613 6dbe
00000030: 2fa0 a3be 5eb0 26be 3f28 d83a 0ca1 81be
00000040: c907 6abd 97f8 43bd 5f4c 913e 8a97 debd
00000050: fb2f dbbe 23de 8e3e b771 85bd 8a9a a1be
00000060: c0e2 56bd bd85 3abe 6bf6 663d 05bc 7dbe
00000070: 5d19 dd3d 96ef 86bd f5e9 7bbe 47e8 45be
00000080: e41c 043d d230 303e 44c5 9e3e 4568 9cbd
00000090: 5f9b 623e 5513 9a3d bea5 083b 89a4 86bd
000000a0: 7d95 893e 6bc2 ba3d 6835 44be 347b 93be
000000b0: 7ea0 5e3e 9e36 77be 72d3 023e f52a 86be
000000c0: de36 cb3b 07ec b2bd 0764 67be e1a3 2dbe
000000d0: db2c bf3c e92e 3fbd ab49 343d d447 46be
000000e0: 0a0f 043e 4f8c a13e 6f9e 3e3e 5bf8 b7bc
000000f0: 3be6 46bd da5c 763e eacc 90be 2bb4 9f3d
00000100: 176c 513e 3d8a 2dbe e732 a2bd 45b4 213e
00000110: 9dcb 5f3e 8d55 143e 7481 a73d a3f5 9cbe
00000120: a010 14be fb7a 3a3c b4e5 c4be a1f5 ff3d
00000130: b634 a93d f961 45be 3350 2dbd 0d97 bd3d
00000140: 9b67 db3d 5c15 f43d be30 9bbe cd5b 0dbe
00000150: be4f cebd 45ec 393e c24c d1bb 4326 9cbd
00000160: 79b8 f1bc 9eda 81be 231b 29be 487d c73c
00000170: 02ec 2dbd 9bae 8a3e 07da debd fb5c 203e
00000180: e464 ca3d eb82 4c3e e03e a03d 9c70 f7bd
00000190: 157e 863e 322f 333e 7fc8 5dbe 810c 9cbc
000001a0: ff8f 673e eb76 b83d 270f 67be 50cc d13c
000001b0: 03f4 76be f787 cdbd 383e 083e e373 36bc
000001c0: 4c7f 003d 7809 9b3d 9995 363c fa5c 753e
000001d0: 6f71 debd 4a4f f7bd 9882 edbc 9009 373e
000001e0: b447 a23e 1340 9cbd 6066 cb39 1270 e1bd
000001f0: 9865 6d3e f354 4bbe 6896 703e ab39 573e
00000200: 3762 203e 3509 9d3a 2512 e3bd ce6a a53e
00000210: 9049 973e 19c2 6ebe 5de5 ae3e 69a6 863e
00000220: 619d 1bb9 6f79 a4be a6da 32be af62 bcbb
00000230: 1d0e 293e 6278 b9bc 9445 77bc 14f8 3f3d
00000240: a3a9 013e 5ab5 d2be ff22 c6be 83de d43d
00000250: b7e5 e7be c64a 8ebe 44bd 0b3c 2d95 b03e
00000260: 0da0 b13d 68ef 943e 68f7 2cbe d952 823d
00000270: 70d5 263e 1b2e b9be dc55 4b3e f17b 663d
00000280: a14d a33e c28b bebd ee08 b8be d5d0 493e
00000290: ca84 893e a2a1 17be 2b61 73be 89de 9d3d
000002a0: 648d 7d3e 1ac2 26bd 3f56 00be a411 74be
000002b0: 6358 c6bd 203c e23d 86af 743e ab4f 453e
000002c0: bedf 04be 4e5c 713e b318 5d3e b75d 383d
000002d0: b7f6 c1be b3b6 4f3e c464 a3bd 8dcd ab3b
000002e0: 8ffa 79be 96cf 44be a320 92bd f73c 04bf
000002f0: 0323 9b3e 1c55 103e 8a09 503d 6382 b1bd
00000300: e6c6 95bc 5e7f 783d 3f65 e0bb dda6 a83d
00000310: 1b13 98be 518e 0ebe 4d01 01be 22de 163e
00000320: 296b 9e3a 7f45 933d cac6 483d e1e0 3b3c
00000330: 7366 c33e 1fea 2d3e 83c0 283e d3fc a5be
00000340: d1d7 19bb a8ef 7d3d 0797 8cbd 9e8f 1a3e
00000350: ea2a 3ebe 2ae8 54be d21e bbbd 0d4e 833e
00000360: af46 1abd 915a be3e a233 a63c be1e 333e
00000370: fabc 7c3e a7c5 b3bd 20e5 3bbe b13f 563e
00000380: c044 8c3e 8446 bc3e 6d17 8cbe da88 0a3e
00000390: 54d0 9abd 9157 efbe 5555 973e 0b27 74be
000003a0: 6308 e7bd d196 dbbd 4cc7 d4bd 0c68 c1be
000003b0: 942f da3d e9d5 113e 40e7 8fbe b2c6 dd39
000003c0: ca8f b4be d24f 9bbe 929c aebe b2dc c9bd
000003d0: fd3e e5bd 74ee 0abe 000c 9e3e 9ef3 73bc
000003e0: 1de1 1e3e f8d7 573b 54cb 863e 6e66 1d3e
000003f0: 4acc 06be 3bed d13c 79dd 353e 0d96 45be
-0.16381402 -0.13105786 0.13893406 -0.29925948 0.060636 -0.1282796 0.15020514 -0.015143056
-0.10387256 -0.08112472 -0.20170653 -0.23151931 -0.31958148 -0.16278216 0.0016491486 -0.25318182
-0.05713633 -0.047844496 0.2837858 -0.108687475 -0.42810044 0.27903852 -0.0651583 -0.31563216
-0.05246234 -0.1821508 0.056387346 -0.24778755 0.10795853 -0.06588666 -0.24600966 -0.19326888
0.032254115 0.17206123 0.31009877 -0.07637075 0.22129582 0.075232185 0.0020850743 -0.06574351
0.26871863 0.091191135 -0.19160998 -0.28804934 0.2174091 -0.24141929 0.12775972 -0.2620465
0.006201609 -0.08736425 -0.22596751 -0.16957046 0.023336818 -0.046675596 0.044015568 -0.19363338
0.12896362 0.3155236 0.18615125 -0.022457292 -0.04855941 0.24058858 -0.28281337 0.07798036
0.20451389 -0.16947265 -0.07919865 0.15791424 0.21855016 0.1448576 0.08178988 -0.30656156
-0.14459467 0.01138186 -0.384565 0.12498022 0.08262007 -0.19275655 -0.042312812 0.09257326
0.107131205 0.119181365 -0.30310625 -0.1380455 -0.10073803 0.18156536 -0.006387324 -0.07624485
-0.029506909 -0.25362104 -0.16514258 0.024351731 -0.042461403 0.27086338 -0.10881429 0.15660469
0.098825246 0.19971816 0.078244925 -0.120820254 0.26268068 0.17498472 -0.21658514 -0.019048931
0.22613524 0.09007057 -0.22564374 0.02561012 -0.2411652 -0.10035699 0.13304985 -0.011136028
0.0313714 0.075701654 0.011144065 0.23961249 -0.108614795 -0.1207567 -0.028992936 0.17874742
0.3169533 -0.07629409 0.00038795453 -0.11007704 0.23183286 -0.19856624 0.23494875 0.21018092
0.15662466 0.0011980893 -0.11087445 0.32308048 0.2954831 -0.2331623 0.34159365 0.26298836
-0.0001484058 -0.32123896 -0.1746622 -0.0057490687 0.1650929 -0.02264041 -0.015092272 0.046867445
0.12662368 -0.41153985 -0.38698575 0.10394003 -0.45292446 -0.27791423 0.008529011 0.34488812
0.086731054 0.29088902 -0.16891253 0.06363458 0.16292357 -0.36167988 0.19856972 0.056270543
0.31895164 -0.093040004 -0.35944313 0.1970857 0.26859123 -0.14807752 -0.23767535 0.07708461
0.24760967 -0.040712453 -0.125329 -0.23834854 -0.09684827 0.11046624 0.23895082 0.19268672
-0.12975976 0.23570368 0.21591453 0.04501125 -0.3788354 0.20284538 -0.07978204 0.0052430094
-0.24411987 -0.19219813 -0.07135131 -0.51655525 0.3030015 0.14094967 0.050790347 -0.086674474
-0.018283319 0.06066834 -0.006848007 0.08234952 -0.29702076 -0.13921477 -0.12598152 0.14733174
0.001208638 0.0719099 0.049017705 0.0114671895 0.381641 0.16983841 0.16479687 -0.32419452
-0.0023474584 0.061996132 -0.06864744 0.15093848 -0.18571058 -0.20791689 -0.09136738 0.25645486
-0.037665065 0.37178472 0.020288292 0.17492196 0.24681464 -0.087779336 -0.18349123 0.20922734
0.27396202 0.3677255 -0.27361622 0.13528767 -0.07559267 -0.46746495 0.2955729 -0.23843019
-0.112808965 -0.10722125 -0.10389575 -0.37774694 0.10653606 0.14241756 -0.28106117 0.00042300444
-0.35265952 -0.30334336 -0.3410383 -0.098565474 -0.11193655 -0.13567525 0.3086853 -0.014889626
0.15515561 0.0032935124 0.26327002 0.15371105 -0.13163868 0.025625816 0.17760266 -0.19295521

lstm.bias_ih_l0 f4 [512]
00000000: 2a74 e63d 9927 36be 015f f2bd dc3c 8c3d
00000010: 5b4c c6bd 142d 4fbe a397 9fbc c4e7 77be
00000020: 5e21 863d 3683 10be 0754 11be b4a6 71be
00000030: c147 72be 130c 31be bdda 6a3e 22a8 d8be
00000040: 6648 4abe 09e6 b2be f4c8 bcbe 43c6 b2be
00000050: 4dab e43b 0830 2abe 2b3e 7dbe bd0c bdbc
00000060: 739b 85be 041b a9be f9c5 16be be81 8f3d
00000070: f321 0dbd 4c8d 00be 499d 25be aba4 26be
00000080: 5a72 59bc 485d 89be 2c5a 28be c034 39be
00000090: 8822 d4bd ea10 3bbe 4246 5ebe 3a67 79be
000000a0: 69c1 83be 73af 85be b1fa 94be 4bf2 1cbe
000000b0: bd44 91be a838 53be a31b 4dbe e238 83be
000000c0: b8e1 faba d3f6 94be 744e d2bd bd04 e9bd
000000d0: 2e27 29be 676e a0be a823 27be 4875 483c
000000e0: acf7 c3bd 0fd4 8abd 403a bebd 2a58 60be
000000f0: 021a 2cbe e2bc 8cbd ca01 96bd 5f80 debc
00000100: b69a b0be ab41 eb3d 2994 85be 6639 1dbe
00000110: d24e ccbd c37e 95be 740c fabd 425c 2bbe
00000120: 92ff dbbd 590e 93bd 36c3 89be c722 8ebe
00000130: fb1b 38be 811f 61bc aa77 abbe d5cb 0abe
00000140: 4bbd 37be 72c3 eb38 3d61 5ebe d3aa 5fbe
00000150: 22aa 343d eaee 43be 98fa 423c 3c3a 733d
00000160: 6fed bcbd a257 62be da1d 0dbc c2a4 a43c
00000170: 3278 d13c 0af9 14be e779 ee3d b658 a4be
00000180: 5512 073e d342 11be b097 cabe e823 86bd
00000190: 2f4c 5fbd 6167 01be 56e6 8abe be4f 4bbd
000001a0: 0d52 0d3f d581 44bd 29c5 cebd 1c70 46bd
000001b0: cb04 10be 6af0 c8bd bfb1 2abe 2469 8dbd
000001c0: 94cb 9fbe dee4 133d 0be4 57bd e95f 92be
000001d0: cee6 62be 94fc 933e 7150 3f3d 8e2f 9abe
000001e0: cfe8 82be f997 99be f2d2 f1bd e2d5 27be
000001f0: 0eb8 f3bd fa38 dbbd 68f8 b8bd 1eb6 92be
00000200: 7e06 703e 490d c8bd 0e8f 823d 09e4 7dbe
00000210: a983 63be 4c1b 6ebd bfeb f03b 1260 04bc
00000220: 4187 9b3d bff2 bd3e 01ac 383d a128 bcbe
00000230: 70d7 8abd 0831 823e 3900 aa3e 7853 febd
00000240: ac2a edbc 1183 92be 874b 27be 2dd4 95be
00000250: b168 033f 56d1 153d 1cd7 32be 7bed 82bd
00000260: d185 4bbd 0509 ef3c ace9 093e b91e 703e
00000270: 9793 213d b0be b1bd ed69 b0bd 9064 8b3d
00000280: 75b2 4dbe ac9b fe3c 9f1e 353e 632b 42be
00000290: 4e15 603d 02da 50be 1585 bf3e ed4f 483e
000002a0: dfa8 e0bd 3586 07be 0c3c 9ebd 64b0 253e
000002b0: 2411 88be f2b0 723e 75f4 643d 98d8 4a3e
000002c0: c137 b73d 4be7 79be 94f7 8a3e 6852 22bd
000002d0: 50e9 f53c a91d 4b3c bdb0 d5bd cb7d f1bc
000002e0: 93c0 47be d5ec f4bd 68dc c4bd ccec 00be
000002f0: 2728 9b3d ee99 9d3d 8972 f13c 5bb1 903e
00000300: fb94 c73a 2c04 dbbd 12ba 45be b0e0 06bc
00000310: 920f a33d a5f5 093e 95d0 8cbc 8c5f 2bbe
00000320: b92a 653e 54bb 64be 402d 2ebe bc21 0fbe
00000330: 23c5 ab3e ad4c aabe 067b 5abe 57c5 803e
00000340: e527 35be 1b60 41be d864 12bc 9a6e 8c3d
00000350: 0023 66be ab15 8b3d 0940 9f3e a2e4 f53d
00000360: 87c4 afbd 5e53 39be 57c0 f83e 7cc7 94bd
00000370: 26d5 b13d 2ce5 99bd b3dc fabd 0ae7 5cbd
00000380: ac0a 32bc 63f2 b83d 3998 25be ec33 ea3c
00000390: 3336 133e 7a74 66bd b48c 393e 799c 333e
000003a0: f23f e13c de9d 8abe 9076 403e e822 bebd
000003b0: 4471 95be d60b 973e dbaf 163e 89bd acbd
000003c0: 9628 d6be 7180 aabd ea64 aa3c a2ea c3bc
000003d0: 686c e73c ecf6 313e 0822 ae3e 4ea2 a9be
000003e0: e228 cebe 9a69 b0be 32d1 3f3e a67d 173e
000003f0: 759f 253e 33dd c6bd 4406 73bc 4729 05be
0.11252625 -0.17788543 -0.11834527 0.068475455 -0.096825324 -0.2023204 -0.019481486 -0.24209505
0.06549333 -0.14112553 -0.1419221 -0.23598748 -0.23660184 -0.17289762 0.22935005 -0.42315775
-0.1975418 -0.34941128 -0.36872065 -0.34916887 0.0069784285 -0.16619885 -0.24730746 -0.023077363
-0.2609516 -0.33028424 -0.14723958 0.07007168 -0.034456205 -0.125539 -0.16173281 -0.16273753
-0.013271892 -0.2682898 -0.16440648 -0.18086529 -0.10358149 -0.18268171 -0.21706489 -0.24355784
-0.25733498 -0.2611042 -0.29097512 -0.15326802 -0.28372756 -0.20627081 -0.20030074 -0.25629336
-0.0019140756 -0.29094562 -0.1026887 -0.11377857 -0.16518852 -0.3133423 -0.16322196 0.012234993
-0.09568724 -0.06778728 -0.09288454 -0.21908632 -0.16806796 -0.06871964 -0.0732456 -0.027160821
-0.34493035 0.114871345 -0.260896 -0.15353927 -0.09975971 -0.29198274 -0.122094065 -0.16734412
-0.107421055 -0.07180471 -0.26906747 -0.27760908 -0.17979424 -0.013740421 -0.33489734 -0.13554318
-0.17943303 0.00011242078 -0.21716781 -0.21842508 0.044107564 -0.19134107 0.0119005665 0.05938171
-0.09224974 -0.22103742 -0.008613074 0.020098094 0.025570009 -0.14548126 0.11644345 -0.3209893
0.13190587 -0.14185648 -0.39568853 -0.06549817 -0.054516014 -0.12637092 -0.27128857 -0.049636595
0.55203325 -0.04797538 -0.10096199 -0.04844676 -0.14064328 -0.0981148 -0.16669367 -0.069048196
-0.31210005 0.036106937 -0.052707713 -0.285888 -0.22158358 0.2890364 0.046707574 -0.30114406
-0.25568244 -0.29998758 -0.11807813 -0.16390184 -0.1190034 -0.10704227 -0.09031755 -0.2865457
0.23439977 -0.09768159 0.06374942 -0.2479402 -0.22218193 -0.0581315 0.007352322 -0.008079546
0.07594157 0.37099263 0.04508591 -0.36749747 -0.06779373 0.25428033 0.33203295 -0.12418264
-0.028951012 -0.2861562 -0.16337405 -0.2926344 0.5133162 0.03657659 -0.1746487 -0.06392952
-0.049688164 0.029179106 0.13468045 0.2344922 0.039447393 -0.08678949 -0.08613954 0.0680629
-0.20087607 0.03108009 0.17687462 -0.18961863 0.054707818 -0.20395663 0.3740622 0.1956174
-0.109697096 -0.1323479 -0.07726297 0.16180569 -0.26575577 0.23700312 0.055897195 0.19809186
0.08946181 -0.24404638 0.27142012 -0.03962937 0.030018479 0.012397208 -0.10434101 -0.029478928
-0.19507055 -0.119592346 -0.09612352 -0.12590331 0.07576018 0.076953754 0.02947356 0.2826031
0.0015226895 -0.10694155 -0.19309261 -0.008232281 0.07961954 0.13472612 -0.017189303 -0.16735667
0.22379579 -0.22337085 -0.17009449 -0.13977712 0.3354884 -0.33261624 -0.21335992 0.25150558
-0.17691 -0.18884318 -0.008935176 0.06857033 -0.22474289 0.06791242 0.31103542 0.12006499
-0.085824065 -0.18098208 0.48584244 -0.07264611 0.08683233 -0.07514414 -0.12249126 -0.053931274
-0.010866802 0.090306066 -0.1617135 0.028589211 0.14376144 -0.056263424 0.1812008 0.17540158
0.027496312 -0.27073568 0.18795228 -0.092840016 -0.29187977 0.29501218 0.14715521 -0.084345885
-0.4182784 -0.083252795 0.020800073 -0.023915593 0.028249934 0.1737935 0.3401034 -0.3313164
-0.40265566 -0.34455568 0.18732145 0.14794025 0.1617411 -0.09710159 -0.014833037 -0.13004027

lstm.bias_hh_l0 f4 [512]
00000000: bdfb 8d3e f727 91be de87 32be daf5 453e
00000010: b65a 4f3b a347 d0bd 05bf 9ebc b215 1cbe
00000020: de19 2d3e b826 e7bd 46fe 8ebd 65c1 45be
00000030: 603c 24be a74b a1bd 07df af3e d1be adbe
00000040: 55f3 4ebe 07bd 81be 02db 9dbe 2cef d4be
00000050: 830a 77bd 2e52 47bd e128 82be e60c 40bd
00000060: e31b 43be c7f1 b0be 8595 18be 5fbf 283a
00000070: 75a3 93bd c32b 1cbd d9d3 55be c47d 07be
00000080: d05c bdbd c0cf 20be b5de 12be 7ba0 8dbd
00000090: b303 04be 91a2 4abe 805e 4dbe bd1b 66be
000000a0: dc36 20be 96f3 41be db8c 4fbe eb85 babd
000000b0: 0670 9fbe 7c9b 34be 003d 16be 3d84 43be
000000c0: 19af 463c 85f8 a4be 62b2 5bbe 1042 c6bd
000000d0: e34f 95be dc69 a1be d97f 2cbd 2942 0dbd
000000e0: 1f4c 7abe aa6f 13be e4af e4bd 204a 71be
000000f0: 99e2 c1bd eb27 923c 5d90 573d 3c49 873d
00000100: 2897 a9be eabf 013d 7aa3 9dbe 702a 85be
00000110: 6a8d 41be 3f06 44be 9fab 2bbd 5f19 9cbd
00000120: b285 31bd b71e 30be 160b 53be 97c1 86be
00000130: d969 03be 5bac 3abd 487e 63be 08b0 83bd
00000140: a7de 62be c046 bfbc 6bdc 7dbe 872b 45be
00000150: 0d0a 0fbc 6de0 c8bd e3b0 b1bd 5450 46bd
00000160: 21b2 13be e8a8 4cbe 1d74 19be c9b4 3f3d
00000170: 1b4c e9bd 536d a9bd 0890 4dbc 34ea aebe
00000180: c564 f43c d5d0 3bbe 5ce0 abbe c077 99bc
00000190: 4338 3bbe cb14 5fbe 14d2 91be f9de 89bd
000001a0: 9963 e93e 1765 10be fef1 ddbb e357 cf3c
000001b0: 2425 14be 6ec1 ddbd 89de 1dbe b54b fabd
000001c0: 4d0f 80be 5608 e9bd daa5 4a3c 9743 99be
000001d0: ce86 60be 9d91 843e f954 0a3e 0157 8dbe
000001e0: 0b0a 90be e37f 87be 321f 08be 3784 57be
000001f0: e1d4 bdbd 4d84 33be 7ffb 21bd 7b70 91be
00000200: 332a 823e f499 d7bd 8ed3 c0bc c1f4 66be
00000210: 6e58 29be 0772 56bd 671c a73d 6e72 c93d
00000220: b4f9 7f3d 03fe 8a3e bce1 8b3d ad8c 9ebe
00000230: 74eb 9ebd f2e6 5f3e 02ce 983e c3e9 59be
00000240: ba33 1fbe bbe0 a1be c499 f4bd 58ca 70be
00000250: 4373 d03e 79a2 e3bc c1d2 4fbe 1843 c2bd
00000260: dd96 92bd 38e5 df3d b275 f03d 36cb 463e
00000270: 804a dbbc a94a 16be ed68 85be ea68 9f3d
00000280: 82e8 07be 5948 1a3c 35cb dc3c 1fed 6abe
00000290: 5c02 e33d a354 d9bd 4551 b43e 9bbe 783e
000002a0: 3055 adbd 8723 72be ac5d 55bd fbcc a03e
000002b0: 29e1 22be 9fbc e33d b90a d23d 4bc6 8b3e
000002c0: 1c9e 0f3e 6cf6 71be 2b93 a03e 4a63 6dbd
000002d0: 9725 353d 772d e2bc 86d3 f2bd 85be 28bd
000002e0: bc6d aebe 7722 3dbe e59b 60bd fc9c 41be
000002f0: 3d73 993c a246 3a3e 8fdf 93bd f7c5 573e
00000300: 0059 48bd 6788 c53c 38f1 5ebe 2432 44bc
00000310: f158 80bd a2b4 b03d 4536 db3d 2b66 81be
00000320: d323 ad3e 83df 8abe 588f 8ebe ab0f c6bd
00000330: d0a8 613e db0d babe cf9b 3cbe 2e43 943e
00000340: 8e93 31be 2751 75be 032b 67bd d96f cf3c
00000350: f7fb a0be 0fca 493b 11da 5e3e a3dc 8c3d
00000360: 598e 09bc a884 42be a440 b13e 96b1 debd
00000370: 772c 1abd 91d5 acbd a2f3 99bd f3ee 3fbe
00000380: 56a9 363d 03bd 7d3d 92d6 a2bd d8f0 d73d
00000390: dcec adbb 445f 22bd ddbd 7c3e ec60 3c3e
000003a0: 30d1 993d a3ff 22be 8397 0a3e 2580 abbd
000003b0: fa70 74be e685 783e b921 603e aa2c c4bc
000003c0: d1a1 b5be 9186 a0bd 65c6 33bd f84d e7bd
000003d0: 288a 1f3d b6aa d93d 1f84 a63e eff0 a2be
000003e0: 1f4d 9bbe a914 98be e446 343e 4095 3d3d
000003f0: 0e65 493e faca 30be 7afe f5bd e208 fabd
0.27731124 -0.28350803 -0.17434642 0.19332066 0.0031639761 -0.101699136 -0.019378195 -0.15242651
0.16904399 -0.11286682 -0.069820926 -0.19312055 -0.16038656 -0.07875758 0.34349844 -0.33934644
-0.20210011 -0.2533953 -0.30831152 -0.41588724 -0.06031276 -0.048662357 -0.25421813 -0.0468873
-0.19053607 -0.3455946 -0.14900787 0.0006437208 -0.07208911 -0.038127672 -0.20881595 -0.1323157
-0.09246218 -0.1570425 -0.14342768 -0.06915375 -0.12892036 -0.19788577 -0.2005558 -0.22471519
-0.15645927 -0.18940577 -0.20268576 -0.09107574 -0.31140155 -0.17637438 -0.14671707 -0.19093414
0.0121267075 -0.32220855 -0.21454766 -0.09680569 -0.2916251 -0.31526077 -0.042114113 -0.034486923
-0.244431 -0.14398065 -0.11166361 -0.23563433 -0.09467048 0.0178413 0.05262791 0.06605765
-0.33123136 0.031677164 -0.30788785 -0.2600894 -0.18901601 -0.19143008 -0.041911718 -0.07622027
-0.043340392 -0.17199217 -0.20609698 -0.26319572 -0.12833346 -0.045574527 -0.22216141 -0.0643006
-0.22155248 -0.023349166 -0.24791114 -0.19254886 -0.008730424 -0.09808431 -0.086763166 -0.04841645
-0.1442342 -0.19986308 -0.149857 0.04680327 -0.11391469 -0.08272805 -0.012546547 -0.34163058
0.029833207 -0.18341382 -0.3356961 -0.018733859 -0.18283181 -0.21785276 -0.2848059 -0.06731982
0.455838 -0.14101063 -0.0067732325 0.025310462 -0.14467293 -0.108279094 -0.15416922 -0.12221471
-0.25011674 -0.11378543 0.012368644 -0.2993438 -0.21926424 0.25892344 0.13508977 -0.2760544
-0.28132662 -0.26464757 -0.1329315 -0.2104653 -0.09269119 -0.17530937 -0.039546486 -0.28406128
0.2542282 -0.10527411 -0.023538377 -0.22554304 -0.1653764 -0.05235484 0.08159714 0.09836279
0.062493995 0.2714692 0.06830165 -0.30966702 -0.07759753 0.21865442 0.2984467 -0.2128058
-0.15547076 -0.31616768 -0.11943391 -0.23514688 0.40712938 -0.027787434 -0.2029524 -0.09485453
-0.07157681 0.10932392 0.117411986 0.19413456 -0.026768923 -0.14676918 -0.26056615 0.07783683
-0.13272288 0.009416663 0.026952365 -0.22942017 0.110844344 -0.10611846 0.35218254 0.2429146
-0.08463514 -0.23646365 -0.052091286 0.31406388 -0.15906204 0.11119961 0.102559514 0.27299723
0.14025158 -0.23629159 0.3136228 -0.057956018 0.0442253 -0.02760957 -0.11856751 -0.04119732
-0.34068096 -0.18470179 -0.054836173 -0.18907541 0.018731708 0.18191007 -0.07220375 0.21071611
-0.048913002 0.024112893 -0.21771705 -0.011974845 -0.06266964 0.08628203 0.107037105 -0.2527326
0.33816394 -0.2712365 -0.27843738 -0.09670957 0.22037053 -0.36338696 -0.18418811 0.28957504
-0.17341444 -0.23956738 -0.056437504 0.025321888 -0.31442234 0.0030790602 0.21762873 0.068780206
-0.008395755 -0.18995917 0.3461963 -0.108737156 -0.03764006 -0.08439172 -0.075171724 -0.18743496
0.044595085 0.061947834 -0.07951082 0.10543984 -0.005307777 -0.039641634 0.24681802 0.18396348
0.075106025 -0.1591783 0.1353436 -0.08374051 -0.23871222 0.24269828 0.21887864 -0.023947079
-0.3547502 -0.078381665 -0.043890376 -0.11294168 0.038950115 0.10628264 0.32522675 -0.31824443
-0.30332276 -0.29703262 0.17605168 0.046284914 0.19667456 -0.1726493 -0.12011428 -0.122087255

fc1.weight f4 [64, 128]
00000000: 65ab efbd 575b b43e 8e4a d3be a787 91be
00000010: 2afe 373e e912 b33d 477a c5bd dcc0 5dbc
00000020: 74f3 6d3e 2af0 663d e146 c6bc 660f 08be
00000030: 8bdd b93c 0f3a 19bf 6946 cb3e 02e8 80bd
00000040: b880 053d bab6 0b3e bda4 d83e 07ed 09bd
00000050: c24b 413f 5302 d33c 98b5 f03d 4a4c b4bd
00000060: e9c5 32bd e663 9cba 77c1 883b d383 b13d
00000070: 1460 3cbe e7fd 923d b7f3 2dbc 9bbe 2bbf
00000080: 2b5a 36be 6998 f23d a4c0 4a3e ae62 7bbe
00000090: 52bf 143e cf2e b93d b15f 53be 944d da3d
000000a0: ed61 febe d85c d5bb 8348 6cbe 4649 d43d
000000b0: 5907 8c3e b0cd 663e 7914 a93e 151d 12bf
000000c0: c2d7 bfbd d043 1abe d6ab 7e3d cc5c d53d
000000d0: 1cc0 9b3d 861b fd3d 8675 cdbe cbbd 2e3e
000000e0: 8d6c 6c3e 1719 1a3e 9617 893d 781e 70be
000000f0: 5a71 a03d 00d6 dabe 234f 0cbc 9bf2 00be
00000100: 360c 46bc 7c90 0abe c84f 07bf 80ef 0b3e
00000110: 9285 623e 21e9 19bd cbf4 c63c 21ba 8dbe
00000120: 4fa7 eabe bfd2 94bc e4f3 01bf f6c8 a23e
00000130: 2a80 1c3b 94ce f9bc 1eaa 54be 7404 22be
00000140: 11be 58bd a45f 95bd ad5e ddbe 3ba2 a63d
00000150: cbd1 02bf f6bd 1c3e 4670 93be 73bf 06bf
00000160: 095a 28be 1fe6 03be ae8c c43e 6a66 22be
00000170: f2df 31bf edf2 dd3d fee9 0dbe b6e7 bd3e
00000180: 4324 933e 5e72 f5be 7fdc 173f 76e7 9e3d
00000190: bb00 31bd 8aed 313f b23b 2cbe 0317 d6bd
000001a0: bf93 99be ca6c 623e b026 393e 7798 cc3d
000001b0: 426c d5bd 2d14 163d b98d 5c3e b4b6 d03e
000001c0: 628e 953e 8f40 6b3d f56c dd3a 8918 10bd
000001d0: 91a6 be3e dc5d cf3e 48e0 8bbe 8e69 6b3e
000001e0: 1617 023f 0aec 9a3e a323 003d cd88 283e
000001f0: 9235 503d 2b2d f5bd 7ac4 25bd 1028 8c3d
00000200: f995 b9bd ad2b 4f3e 0eff c53d ea7b a63e
00000210: f010 fabd 55c8 10be 9e94 613e 1100 153e
00000220: 2010 0cbe db6d 85be b5e2 fdbd 1567 a23e
00000230: 0a7d a03e 4f49 e63d 0de5 c23d b502 f6bd
00000240: 99a1 95bd 636f 08be 8a63 d8be 289d 7cbe
00000250: eee5 223e 090f 78be 2254 c5bd b578 6abd
00000260: a24d 783d eb64 203d 2b61 96be 1914 193e
00000270: 8855 8f3d b855 5ebe f1c8 a63d 4ef0 113c
00000280: 80ef ccbd 3a5c 0b3e d38a f8bd dec8 023d
00000290: e0e6 d3bd b123 9f3d dc59 babc c37c ac3d
000002a0: 34cb 23bd f808 393d c914 a4bd 980e b8bc
000002b0: 6f0b 77be 53b5 073e fedd 01bf 449f 8f3e
000002c0: f35b bb3d ab5b 01bd 04e2 243e 7942 bfbe
000002d0: 6640 7cbe d839 973d 4be0 a6bd 6e8c c43e
000002e0: 02f9 2bbd e697 7b3e 26d7 27bd 1e9f 123f
000002f0: 20a5 123f acb2 b3bd 4140 85bd 74ed a5bc
00000300: 1349 853e 62c0 dd3d c28e b63c b7e1 82be
00000310: ed18 42be e113 eabd 8e6f 0e3e 2a5b a0be
00000320: 5a2a 623f bc77 223e b3c0 d3bc 3fa0 4b3d
00000330: de58 843d 7fd0 f7bd 3752 9ebe a3e6 25be
00000340: c2d2 a0bc 52e9 1d3e 7d45 e13e f17d 093e
00000350: 6fc1 6e3e c238 aabe 7f6e 363d 8559 47be
00000360: 24fc 03bd 06e6 ef3d 3577 cb3d e673 2e3d
00000370: d6f7 c63e b1e5 b93e 7532 a83e e370 acbd
00000380: fa44 98be c96c 74be 5939 0abf 2221 bebd
00000390: 94e3 31be 87ad b9bd 1c38 ca3d bf1f 89bb
000003a0: 668d 0c3e 03b4 963e b012 9a3e cbfd 7dbe
000003b0: fce8 303e 19eb 293d 880f 85be 5262 7a3d
000003c0: 8b4e febd eeef 963d d006 acbd 1d56 863e
000003d0: 3a5f ccbe 8918 a2be 134b 663c 2510 a2be
000003e0: 77d5 2fbe 965d 303d eda5 b5bd 9605 333e
000003f0: ad1f 943d 8a77 453c 3df0 273e b51f aabe
-0.11702613 0.35225937 -0.41267818 -0.28423807 0.1796805 0.08743841 -0.09642463 -0.013534751
0.23237401 0.056381382 -0.02420372 -0.13287124 0.022688648 -0.59854215 0.39702156 -0.06294252
0.03259346 0.13643923 0.42313185 -0.033673313 0.7550622 0.025757944 0.11753386 -0.088036135
-0.043645773 -0.0011931628 0.0041734534 0.086677216 -0.18396026 0.07177334 -0.010617188 -0.67087716
-0.17807834 0.11845476 0.19800049 -0.24549362 0.14526108 0.09042131 -0.20641972 0.10659328
-0.49684086 -0.006511312 -0.23074536 0.10365538 0.27349356 0.22539401 0.33023432 -0.57075626
-0.093673244 -0.15064931 0.062175594 0.1041809 0.07605001 0.12358765 -0.40128726 0.17064588
0.23088284 0.15048634 0.06693952 -0.23449123 0.0783412 -0.42741394 -0.00856379 -0.12592547
-0.012087872 -0.13531679 -0.5285611 0.13665581 0.22121266 -0.037575845 0.024286648 -0.27681068
-0.4583077 -0.018166898 -0.5076277 0.31793946 0.0023880103 -0.030494012 -0.2076802 -0.15822011
-0.052915636 -0.072936326 -0.43236294 0.08136412 -0.5110137 0.1530684 -0.28796595 -0.5263588
-0.16440596 -0.12880753 0.3838858 -0.1585938 -0.6948234 0.1083735 -0.13858792 0.37090844
0.28738603 -0.47938818 0.59320825 0.077589914 -0.043213587 0.6950308 -0.16819647 -0.10453608
-0.29995534 0.22111812 0.18081164 0.09990018 -0.10421039 0.036640335 0.21538438 0.4076439
0.29210192 0.057434615 0.0016893434 -0.03517965 0.37236455 0.40501297 -0.2731955 0.22989485
0.50816476 0.3025821 0.031283986 0.16458435 0.05083234 -0.11971506 -0.040470578 0.06843579
-0.09061808 0.20231505 0.096677884 0.32516414 -0.12210262 -0.1413892 0.22029349 0.14550807
-0.13678026 -0.26060376 -0.123967566 0.3171927 0.31345397 0.11244451 0.09516344 -0.12012235
-0.07306213 -0.1332374 -0.42263442 -0.24669325 0.15908024 -0.24224485 -0.09635188 -0.05724402
0.06062091 0.039158743 -0.29371008 0.14949073 0.06998736 -0.21712387 0.08143795 0.008907391
-0.100066185 0.136094 -0.121358536 0.031929843 -0.1034677 0.077704795 -0.022747926 0.08422234
-0.03998871 0.04517457 -0.08011777 -0.022467896 -0.24125455 0.13252763 -0.5072936 0.28051198
0.09148397 -0.031581562 0.16101843 -0.37355402 -0.24633941 0.0738408 -0.08148249 0.3838839
-0.04198552 0.24569663 -0.040976666 0.57274044 0.5728321 -0.08774313 -0.06506396 -0.020254828
0.26032314 0.1082771 0.02228487 -0.25562832 -0.18954821 -0.11429573 0.13909742 -0.31319553
0.88345873 0.15865988 -0.025848722 0.04971337 0.064622626 -0.12100314 -0.309221 -0.16201262
-0.019631747 0.15421036 0.43998328 0.13426949 0.23315977 -0.33246428 0.04453897 -0.19467743
-0.032222882 0.11713795 0.09934846 0.042590998 0.3886096 0.36308053 0.32850996 -0.08419969
-0.29740125 -0.23869623 -0.53993756 -0.09283663 -0.1737197 -0.09066301 0.09873983 -0.0041846926
0.13725814 0.29434213 0.30092382 -0.24803846 0.17276376 0.041483972 -0.25988412 0.06112892
-0.12417325 0.07369982 -0.08399737 0.26237574 -0.39916402 -0.31659344 0.014055985 -0.31652942
-0.17171274 0.043058 -0.088695385 0.174826 0.07232604 0.012052426 0.16400237 -0.33227316

fc1.bias f4 [64]
00000000: 974c 973d 273c e6bd cd9a d03d b390 9b3c
00000010: b868 563e db65 ba3d a003 073d dfca 983d
00000020: 1509 f5bc f969 bf3c 7e6f d33d dbb1 b93d
00000030: d9ee bb3d edcc 9d3d f2bb 5a3e 2496 f73c
00000040: 08e3 5e3d 2787 c33d 3525 eb3d 80cb 533d
00000050: 86fb 093e b1be e33d d414 cb3d 163b ad3d
00000060: fa11 bb3d 9caa 1bbe f48a 2b3d fab4 873c
00000070: e21d 213e 4510 493e f66c 84bd 4b51 f6bd
00000080: 92a1 913b b73f 1ebe b190 883d 540d 523e
00000090: ace9 c23d 4081 0cbc d307 8c38 6340 8dbd
000000a0: 92b6 0ebe bea7 b23d f80f 07bd a02e 073e
000000b0: 2352 853c 5147 d1bd 7390 6cbd c423 493d
000000c0: 64f5 d5bc ec3a 0a3e 9e8c d33d 0ecd 55bc
000000d0: ae04 f53d a134 b73d 63fb ae3d 3c47 e63d
000000e0: c40c e13d 9df6 35ba c5dc 333d 866b 2c3e
000000f0: 2f9e cc3d 8d9e 093d 23e6 cdbd c14d a43d
0.07387655 -0.11241942 0.10185776 0.018989896 0.20938385 0.09101459 0.03296244 0.074605696
-0.029911557 0.023365961 0.10324 0.09067126 0.09176416 0.07705102 0.21360758 0.03022296
0.054415733 0.09547263 0.11481706 0.051707745 0.13474855 0.11120356 0.09916082 0.084585354
0.09134288 -0.15201801 0.041880563 0.016565789 0.15734056 0.19635113 -0.06466095 -0.12027224
0.0044443095 -0.15453993 0.06668223 0.20512897 0.095172256 -0.0085757375 6.6771776e-05 -0.068970464
-0.13936833 0.087234005 -0.032974213 0.1320138 0.016274517 -0.10218681 -0.057754945 0.049106374
-0.026117988 0.1349904 0.10329555 -0.013049377 0.11963783 0.08945585 0.08544042 0.11244056
0.10988763 -0.00069413503 0.043911714 0.16837892 0.099911086 0.03359847 -0.10053661 0.08022643

bn1.weight f4 [64]
00000000: 0000 803f 0000 803f 0000 803f 0000 803f
00000010: 0000 803f 0000 803f 0000 803f 0000 803f
00000020: 0000 803f 0000 803f 0000 803f 0000 803f
00000030: 0000 803f 0000 803f 0000 803f 0000 803f
00000040: 0000 803f 0000 803f 0000 803f 0000 803f
00000050: 0000 803f 0000 803f 0000 803f 0000 803f
00000060: 0000 803f 0000 803f 0000 803f 0000 803f
00000070: 0000 803f 0000 803f 0000 803f 0000 803f
00000080: 0000 803f 0000 803f 0000 803f 0000 803f
00000090: 0000 803f 0000 803f 0000 803f 0000 803f
000000a0: 0000 803f 0000 803f 0000 803f 0000 803f
000000b0: 0000 803f 0000 803f 0000 803f 0000 803f
000000c0: 0000 803f 0000 803f 0000 803f 0000 803f
000000d0: 0000 803f 0000 803f 0000 803f 0000 803f
000000e0: 0000 803f 0000 803f 0000 803f 0000 803f
000000f0: 0000 803f 0000 803f 0000 803f 0000 803f
1.0 1.0 1.0 1.0 1.0 1.0 1.0 1.0
1.0 1.0 1.0 1.0 1.0 1.0 1.0 1.0
1.0 1.0 1.0 1.0 1.0 1.0 1.0 1.0
1.0 1.0 1.0 1.0 1.0 1.0 1.0 1.0
1.0 1.0 1.0 1.0 1.0 1.0 1.0 1.0
1.0 1.0 1.0 1.0 1.0 1.0 1.0 1.0
1.0 1.0 1.0 1.0 1.0 1.0 1.0 1.0
1.0 1.0 1.0 1.0 1.0 1.0 1.0 1.0

bn1.bias f4 [64]
00000000: 0000 0000 0000 0000 0000 0000 0000 0000
00000010: 0000 0000 0000 0000 0000 0000 0000 0000
00000020: 0000 0000 0000 0000 0000 0000 0000 0000
00000030: 0000 0000 0000 0000 0000 0000 0000 0000
00000040: 0000 0000 0000 0000 0000 0000 0000 0000
00000050: 0000 0000 0000 0000 0000 0000 0000 0000
00000060: 0000 0000 0000 0000 0000 0000 0000 0000
00000070: 0000 0000 0000 0000 0000 0000 0000 0000
00000080: 0000 0000 0000 0000 0000 0000 0000 0000
00000090: 0000 0000 0000 0000 0000 0000 0000 0000
000000a0: 0000 0000 0000 0000 0000 0000 0000 0000
000000b0: 0000 0000 0000 0000 0000 0000 0000 0000
000000c0: 0000 0000 0000 0000 0000 0000 0000 0000
000000d0: 0000 0000 0000 0000 0000 0000 0000 0000
000000e0: 0000 0000 0000 0000 0000 0000 0000 0000
000000f0: 0000 0000 0000 0000 0000 0000 0000 0000
0.0 0.0 0.0 0.0 0.0 0.0 0.0 0.0
0.0 0.0 0.0 0.0 0.0 0.0 0.0 0.0
0.0 0.0 0.0 0.0 0.0 0.0 0.0 0.0
0.0 0.0 0.0 0.0 0.0 0.0 0.0 0.0
0.0 0.0 0.0 0.0 0.0 0.0 0.0 0.0
0.0 0.0 0.0 0.0 0.0 0.0 0.0 0.0
0.0 0.0 0.0 0.0 0.0 0.0 0.0 0.0
0.0 0.0 0.0 0.0 0.0 0.0 0.0 0.0

bn1.running_mean f4 [64]
00000000: 0000 0000 0000 0000 0000 0000 0000 0000
00000010: 0000 0000 0000 0000 0000 0000 0000 0000
00000020: 0000 0000 0000 0000 0000 0000 0000 0000
00000030: 0000 0000 0000 0000 0000 0000 0000 0000
00000040: 0000 0000 0000 0000 0000 0000 0000 0000
00000050: 0000 0000 0000 0000 0000 0000 0000 0000
00000060: 0000 0000 0000 0000 0000 0000 0000 0000
00000070: 0000 0000 0000 0000 0000 0000 0000 0000
00000080: 0000 0000 0000 0000 0000 0000 0000 0000
00000090: 0000 0000 0000 0000 0000 0000 0000 0000
000000a0: 0000 0000 0000 0000 0000 0000 0000 0000
000000b0: 0000 0000 0000 0000 0000 0000 0000 0000
000000c0: 0000 0000 0000 0000 0000 0000 0000 0000
000000d0: 0000 0000 0000 0000 0000 0000 0000 0000
000000e0: 0000 0000 0000 0000 0000 0000 0000 0000
000000f0: 0000 0000 0000 0000 0000 0000 0000 0000
0.0 0.0 0.0 0.0 0.0 0.0 0.0 0.0
0.0 0.0 0.0 0.0 0.0 0.0 0.0 0.0
0.0 0.0 0.0 0.0 0.0 0.0 0.0 0.0
0.0 0.0 0.0 0.0 0.0 0.0 0.0 0.0
0.0 0.0 0.0 0.0 0.0 0.0 0.0 0.0
0.0 0.0 0.0 0.0 0.0 0.0 0.0 0.0
0.0 0.0 0.0 0.0 0.0 0.0 0.0 0.0
0.0 0.0 0.0 0.0 0.0 0.0 0.0 0.0

bn1.running_var f4 [64]
00000000: 0000 803f 0000 803f 0000 803f 0000 803f
00000010: 0000 803f 0000 803f 0000 803f 0000 803f
00000020: 0000 803f 0000 803f 0000 803f 0000 803f
00000030: 0000 803f 0000 803f 0000 803f 0000 803f
00000040: 0000 803f 0000 803f 0000 803f 0000 803f
00000050: 0000 803f 0000 803f 0000 803f 0000 803f
00000060: 0000 803f 0000 803f 0000 803f 0000 803f
00000070: 0000 803f 0000 803f 0000 803f 0000 803f
00000080: 0000 803f 0000 803f 0000 803f 0000 803f
00000090: 0000 803f 0000 803f 0000 803f 0000 803f
000000a0: 0000 803f 0000 803f 0000 803f 0000 803f
000000b0: 0000 803f 0000 803f 0000 803f 0000 803f
000000c0: 0000 803f 0000 803f 0000 803f 0000 803f
000000d0: 0000 803f 0000 803f 0000 803f 0000 803f
000000e0: 0000 803f 0000 803f 0000 803f 0000 803f
000000f0: 0000 803f 0000 803f 0000 803f 0000 803f
1.0 1.0 1.0 1.0 1.0 1.0 1.0 1.0
1.0 1.0 1.0 1.0 1.0 1.0 1.0 1.0
1.0 1.0 1.0 1.0 1.0 1.0 1.0 1.0
1.0 1.0 1.0 1.0 1.0 1.0 1.0 1.0
1.0 1.0 1.0 1.0 1.0 1.0 1.0 1.0
1.0 1.0 1.0 1.0 1.0 1.0 1.0 1.0
1.0 1.0 1.0 1.0 1.0 1.0 1.0 1.0
1.0 1.0 1.0 1.0 1.0 1.0 1.0 1.0

fc2.weight f4 [4, 64]
00000000: e14c 97be 2459 71be 0621 443e 9203 b6be
00000010: 745d 80bd ba4a fdbd c84f 03be d2dd 82be
00000020: 91f8 2a3e 2dae 243e 25de 7e3e 66a7 26bd
00000030: 6747 943e 5793 13bd a6ad cfbc f0e7 7fbe
00000040: 16e6 763e 5875 2f3e c4ec 593e 2820 743e
00000050: 579b 383e ea30 633d e4b0 2c3c fa9f 60be
00000060: 2452 543e bbf2 4dbe 9b5e e83d f68a 31be
00000070: 9324 e03d 3921 f23c 643d b5be 127a debe
00000080: ab71 12be d9df b0be f3ad 2fbe f3cb 45be
00000090: 7d10 c2be 2803 a5be 4e16 e2be 7096 c9be
000000a0: 9837 f2be fb4b 653e 3907 31be b824 763e
000000b0: b571 febc 7491 07bf 91e2 543e faf2 113e
000000c0: 4a8c 46be b4e2 3d3e ce02 443e 7346 d6be
000000d0: 81c5 593d c31c 9cbd 8a7f 94be 933c 813e
000000e0: 6c29 dc3d 0e5e 123e 1bc9 f3bc 26d0 69be
000000f0: e870 99be 7a8c 923d 3a2e bdbe 5402 353e
00000100: bba7 433e a657 a1be 79f4 5bbe 75dc 40bf
00000110: a1bf 43be d17e 0d3e 55a4 aebe e140 883d
00000120: e7f1 8fbe c0a3 28be ad5f 3abe 0a19 ea3d
00000130: d2f3 48be 8595 b63d 8943 14bf ee45 c2be
00000140: 68b2 00be ee13 81be 4487 56be 2477 0dbe
00000150: 5e20 82bd 61b9 efbe d5ec c3be f51e 7fbf
00000160: 9028 6bbd 687a 36bf 065a c9be bcce 36bf
00000170: 039b 7dbe c9f7 9c3d 40e4 08bf 9a0b de3e
00000180: 9b87 c8be e6d3 9f3e 6721 42be a449 673d
00000190: ea25 033e be3d 4bbf 9fe6 033f 6ae5 b53e
000001a0: 85cf cabe 1c7f 3abe 1e9e 3ebf 6667 11be
000001b0: e8a6 49bf c467 033f 7720 8dbe bfb2 b3be
000001c0: 0c0e 5dbf 7d5a a0bd b077 71be 3e8e 04bf
000001d0: 152f a13d 610e 07bf b344 ac3c b1d6 3cbe
000001e0: b750 d2be d080 c4be f599 b43d 4149 833e
000001f0: 80d6 dcbe 02e5 d5be 15a7 af3e 1cea 6dbe
00000200: 0bf5 1ebd eac4 36bf 9356 0dbe 2745 b03e
00000210: 0f76 62bf 4604 b5be a2d4 87bf b1b2 cc3d
00000220: 4b57 9ebe 15d9 1bbe 1ec4 6fbe 3179 d8be
00000230: 9334 84be 539a acbe 45d8 163e 3bb6 2cbf
00000240: 138c 51be ecbe 01be f0ea 49be 064a 84be
00000250: 5a3b 8dbe 510a c43d 7433 08bf 1542 473e
00000260: 1612 6dbe 5fc2 98bf c2eb 33be e0a0 59bf
00000270: 221b 16bd ca29 e5be 075e e53e 7e48 19bf
00000280: d3c0 8cbf 3fdd 0abf 626c 2dbf 50d2 863d
00000290: 3911 2b3e 8e5c a33e df5c 56be c749 00bf
000002a0: 9792 043f d81a 9dbe b62e 33bf 20d5 44be
000002b0: b0cb 563e 48de 23be d48f 83be 429c 89bd
000002c0: 7129 0fbf 86de 98be d01c 8cbe a0c8 c03e
000002d0: c7ee debe 687a 19bf f4e6 363e 2236 62be
000002e0: bcfd 81be 8b38 64be efa6 eabe 8736 43bf
000002f0: 4f62 b53e 0340 cfbe 36d5 efbe 6ca6 33be
00000300: abea c9bf e756 943e 54cf 28be 3055 1c3e
00000310: 4346 ab3d 2862 0fbf 6d22 143e eaa6 a7bf
00000320: 6ca2 c7bd 004f 23be 8877 42be 1e00 cfbe
00000330: cfaa 4fbe f3bc 0bbf 138f d4be 0290 983e
00000340: 3d75 6cbe 6b18 23be 2601 1fbe 80c3 4abe
00000350: db46 33be 72bf b0be 4c7d 603d 24ab fa3d
00000360: 9839 4ebe 3d63 773e 83a5 84bd b840 443e
00000370: 2c51 2cbe e4d9 aebe fe83 ecbe e543 4fbe
00000380: 001f 253e a203 cbbe 1b67 703e af5b a6bf
00000390: dcb2 91bf b80e 003e 76f4 b93e a7f1 ccbe
000003a0: c15b 81bf ec32 1fbe 0384 3f3e d977 40be
000003b0: 006c 66bf b26e 99be 23db f5bd dac1 dabd
000003c0: 592d 6b3e 479f 52be 7a94 f4bd 3f5b aa3d
000003d0: 3d4e 90be cb39 b73d b036 bcbf 518c 49be
000003e0: a573 a3bc f5c1 b9bd e48c febe 3949 163e
000003f0: 8d46 53bf 34da 82bc ee75 2dbf 59c7 f0bd
-0.2955084 -0.2356916 0.19153222 -0.355496 -0.06267825 -0.123677686 -0.12823403 -0.2555986
0.16696383 0.16082068 0.24889429 -0.040686987 0.28960726 -0.036029186 -0.025351357 -0.24990821
0.24111208 0.17134607 0.21281725 0.23840392 0.18028007 0.05546657 0.010540221 -0.21936026
0.20734459 -0.20112126 0.113461696 -0.17338166 0.10944476 0.029556857 -0.353984 -0.43452507
-0.14301173 -0.34545782 -0.171562 -0.19316082 -0.37903205 -0.3222897 -0.44157642 -0.39372587
-0.4730804 0.22392265 -0.17287911 0.24037445 -0.03106008 -0.5295632 0.20789553 0.14252844
-0.19389454 0.18543512 0.19141695 -0.41850623 0.05316687 -0.07622673 -0.29003555 0.25241527
0.10750088 0.14293692 -0.02975898 -0.22833309 -0.29968953 0.071557 -0.3694933 0.1767667
0.19106953 -0.31512183 -0.21479978 -0.7533639 -0.1911607 0.13817908 -0.3410975 0.06653
-0.28114244 -0.16468716 -0.1820056 0.11430557 -0.1962426 0.08915237 -0.5791555 -0.37943977
-0.12568057 -0.25210518 -0.20950037 -0.1381498 -0.0635383 -0.4682112 -0.38266626 -0.9965661
-0.05741173 -0.7128053 -0.39326495 -0.714092 -0.24766164 0.07664449 -0.5347328 0.43368226
-0.3916596 0.31216353 -0.18958054 0.056466714 0.12807432 -0.79391086 0.51523775 0.35526592
-0.3961145 -0.18212551 -0.7446002 -0.141996 -0.78770304 0.5133021 -0.2756383 -0.3509731
-0.8634956 -0.07829759 -0.23580813 -0.51779544 0.07870308 -0.52756315 0.021028852 -0.18441273
-0.41077206 -0.38379526 0.088184275 0.25641826 -0.431324 -0.41776282 0.3430716 -0.23233837
-0.03880791 -0.71394217 -0.13802557 0.3442776 -0.88461393 -0.35354823 -1.0611765 0.0999502
-0.30925974 -0.15219529 -0.23414657 -0.42279962 -0.2582136 -0.3371149 0.14730938 -0.6746556
-0.2046359 -0.12670487 -0.19718528 -0.25837725 -0.27584344 0.0957228 -0.5320351 0.19458802
-0.2315143 -1.1934317 -0.17570403 -0.850111 -0.03664697 -0.44758445 0.447983 -0.5987624
-1.0996345 -0.54243845 -0.67743504 0.06583083 0.16705789 0.3190655 -0.20933865 -0.50112575
0.5178618 -0.30684543 -0.6999315 -0.19221926 0.20976138 -0.16002762 -0.2569567 -0.06719257
-0.5592261 -0.29857272 -0.27365732 0.37653065 -0.43541548 -0.599524 0.17861539 -0.22090963
-0.25388896 -0.22287194 -0.45830485 -0.7625508 0.35426566 -0.40478525 -0.46842355 -0.17543954
-1.577474 0.2897255 -0.1648534 0.15266871 0.08363011 -0.5600915 0.14466257 -1.3097813
-0.097477764 -0.15948105 -0.1899091 -0.40429777 -0.20280002 -0.5458519 -0.41515407 0.2979737
-0.23091598 -0.15927283 -0.15527782 -0.1980114 -0.17507498 -0.3452106 0.054806992 0.12239674
-0.20139158 0.2415895 -0.06476881 0.19165313 -0.1682784 -0.34150612 -0.46194452 -0.20240743
0.16125107 -0.3965121 0.23476832 -1.299673 -1.1382709 0.12505615 0.3631932 -0.40028116
-1.0106126 -0.15546769 0.18702702 -0.18795718 -0.90008545 -0.29967266 -0.12004688 -0.106815055
0.22966518 -0.20568572 -0.11942382 0.08318185 -0.2818469 0.0894657 -1.4704189 -0.19682433
-0.019952605 -0.090701975 -0.49716866 0.1467637 -0.82529527 -0.015973188 -0.6775807 -0.117567725

fc2.bias f4 [4]
00000000: 2833 953e 9deb b7be 3b48 f1be 8e07 1dbf
0.29140592 -0.35921946 -0.4712542 -0.6133965
