Models/model_nopreproc_fin_40.pt (torch, 317499 bytes, 12 tensors)

lstm.weight_ih_l0 f4 [512, 6]
-0.24252234 0.4058884 -0.23645072 0.563422 0.40826166 0.18334629 0.14269203 0.07139249
-0.08584603 -0.06356692 0.19256085 -0.12415436 -0.41730726 -0.22719458 0.101564 -0.14643022
0.10352347 -0.042189874 0.13095792 -0.3090565 -0.18861309 0.39373752 0.21355194 0.7231606
0.38453984 -0.12482291 0.24952242 0.034089178 0.040951703 0.06467593 -0.3350524 0.50144625
0.17593205 -0.49837443 -0.06659867 -0.1585179 0.06832961 0.077841215 0.16209437 -0.25101736
0.11271723 -0.107158616 0.14835906 0.50185794 0.16422963 0.26950485 -0.38300264 0.072379254
-0.017142009 0.24305874 -0.3345513 -0.14769025 0.007590642 -0.11469037 -0.40902406 -0.2908756
0.39660352 -0.58582944 -0.0649473 0.37702712 0.38082433 -0.12736544 -0.12918198 0.30369106
-0.19173945 0.16395102 0.15192623 -0.13159499 0.6008 0.27525267 -0.15844798 -0.2551544
0.5029087 0.0029459067 0.29594126 -0.11896622 -1.028941 -0.10151376 -0.13783751 0.22092395
0.054453425 0.30065733 0.41512758 0.21406855 -0.35579142 -0.022444673 0.047303 -0.2824996
-0.2114922 0.15651807 -0.025541652 -1.0489867 0.1112961 0.27079123 -0.83239734 0.85587245
0.31966904 0.053543694 0.13880669 0.27349678 0.0373233 -0.25195217 0.17026253 -0.2672002
-0.025637465 0.12679368 0.06619181 0.87128806 -0.23863757 0.39761844 -0.051077552 0.2752425
0.21699157 0.41472772 0.15119463 0.19740196 0.05939334 0.0060144733 0.08098093 0.3206011
-0.01900516 0.35956007 0.45725617 0.12512003 0.35700962 0.3130486 0.11142384 0.13440822
-0.4654117 0.4291703 -0.7008083 -0.20260173 0.076093875 -0.046379406 -0.045583382 0.0004616146
0.4176291 0.3989109 -0.1338234 -0.041361935 -0.042143434 0.23494112 0.25821328 -0.005718612
0.043456674 -0.28779405 -0.020988539 0.13855581 0.15625563 0.016120749 -0.14745508 0.12875311
0.0020374055 -0.24347621 -0.1437699 0.10703553 0.09613528 0.27675995 -0.29433554 -0.4654328
0.010451533 0.10654476 -0.46515918 0.31945696 -0.092652105 0.26244625 -0.4280293 0.21962562
-0.026679529 0.005618024 -0.007263619 0.46292034 -0.20952804 0.30519646 -0.049489193 -0.09208633
-0.042191863 -0.6371867 0.12408779 0.399771 -0.06753509 -0.0879057 0.032368805 -0.1515938
0.003163899 0.018299738 0.31967074 0.724186 0.11526376 0.37354228 0.15567617 0.22795038
0.11514667 0.03742078 0.0071260724 -0.5469944 0.22539975 -0.009938066 -0.34623218 -0.35779506
0.33534047 -0.17443009 -0.22138228 -0.26886016 -0.28501603 -0.16534069 0.26190487 0.32537612
0.37546754 -0.40967777 -0.21055587 0.25489166 0.004040875 -0.08548213 -0.25834686 -0.3923469
0.17680049 0.8194481 0.36093378 0.5021718 0.087875724 0.8921416 -0.0583105 -0.19471276
0.008791167 -0.05829528 -0.33009705 -0.01623677 0.38155347 0.11944431 -0.14962697 0.47792035
0.032641664 -0.5274046 -0.0543958 0.43042508 0.15763336 0.16839464 0.14535318 0.24893393
-0.2834863 -0.07396934 -0.35035375 0.49462506 0.17200805 0.43820384 -0.19892435 0.092010364
-0.20307082 0.48260364 -0.42813894 -0.10067475 0.0039029454 0.16317603 -0.14438121 -0.28180122
00000000: c757 78be 9bd0 cf3e 2320 72be 6d3c 103f
00000010: ac07 d13e 21bf 3b3e dc1d 123e 3a36 923d
00000020: 0bd0 afbd 602f 82bd ac2e 453e a444 febd
00000030: 4ca9 d5be b2a5 68be c900 d03d cef1 15be
00000040: 1d04 d43d 4acf 2cbd d519 063e a73c 9ebe
00000050: ca23 41be f797 c93e 5cad 5a3e 0e21 393f
00000060: 68e2 c43e 27a3 ffbd ce82 7f3e 18a1 0b3d
00000070: f9bc 273d d074 843d fd8b abbe c85e 003f
00000080: 8827 343e ef2a ffbe e264 88bd 8452 22be
00000090: 65f0 8b3d 376b 9f3d 11fc 253e 5985 80be
000000a0: 4bd8 e63d fa75 dbbd 70eb 173e c379 003f
000000b0: d02b 283e 8afc 893e ec18 c4be 933b 943d
000000c0: 666d 8cbc 64e4 783e 4f4a abbe 1d3c 17be
000000d0: ecba f83b c9e2 eabd 9a6b d1be a6ed 94be
000000e0: 9e0f cb3e ebf8 15bf 1703 85bd b309 c13e
000000f0: 68fb c23e 166c 02be 4848 04be 657d 9b3e
00000100: 5957 44be c7e2 273e 8d92 1b3e d6c0 06be
00000110: 07ce 193f ebed 8c3e 3040 22be 99a3 82be
00000120: a0be 003f 1d10 413b 9d85 973e 90a4 f3bd
00000130: 57b4 83bf 72e6 cfbd 4725 0dbe e339 623e
00000140: 8e0a 5f3d c2ef 993e 9a8b d43e c934 5b3e
00000150: 4b2a b6be e4dd b7bc cac0 413d caa3 90be
00000160: 6991 58be 4646 203e ba3c d1bc 3245 86bf
00000170: 36ef e33d 26a5 8a3e fe17 55bf 751a 5b3f
00000180: a9ab a33e a250 5b3d 5723 0e3e c507 8c3e
00000190: 51e0 183d e0ff 80be 4d59 2e3e 77ce 88be
000001a0: a905 d2bc 34d6 013e 928f 873d bc0c 5f3f
000001b0: 685d 74be a594 cb3e b236 51bd 96ec 8c3e
000001c0: 0a33 5e3e 3157 d43e c4d2 1a3e bd23 4a3e
000001d0: 6e46 733d 0f15 c53b 54d9 a53d d425 a43e
000001e0: b6b0 9bbc 4218 b83e 7b1d ea3e 771f 003e
000001f0: f7c9 b63e e847 a03e 2f32 e43d 4fa2 093e
00000200: 714a eebe 36bc db3e 2c68 33bf d476 4fbe
00000210: 1bd7 9b3d 55f8 3dbd a4b5 3abd dd04 f239
00000220: 7bd3 d53e 0d3e cc3e 0009 09be 226b 29bd
00000230: 989e 2cbd 6894 703e 8834 843e 3263 bbbb
00000240: a0ff 313d be59 93be 28f0 abbc 93e1 0d3e
00000250: 7a01 203e a90f 843c 77fe 16be dbd7 033e
00000260: fe85 053b d451 79be 6b38 13be 7235 db3d
00000270: 93e2 c43d 7bb3 8d3e 26b3 96be 354d eebe
00000280: e83c 2b3c 2434 da3d 5829 eebe dd8f a33e
00000290: 63c0 bdbd 5b5f 863e a826 dbbe 8ae5 603e
000002a0: 078f dabc 6717 b83b a703 eebb e503 ed3e
000002b0: 858e 56be b642 9c3e 2eb5 4abd c297 bcbd
000002c0: 60d1 2cbd ab1e 23bf bd21 fe3d c9ae cc3e
000002d0: d64f 8abd e707 b4bd 2795 043d 683b 1bbe
000002e0: 6b59 4f3b 55e9 953c e2ab a33e 4164 393f
000002f0: 680f ec3d ef40 bf3e 9369 1f3e d36b 693e
00000300: 04d2 eb3d 8846 193d d481 e93b d307 0cbf
00000310: 31cf 663e 45d3 22bc 5845 b1be ea30 b7be
00000320: bfb1 ab3e cd9d 32be 09b2 62be 0aa8 89be
00000330: 9fed 91be 124f 29be 6518 863e b397 a63e
00000340: 483d c03e 49c1 d1be f59b 57be 2981 823e
00000350: 5169 843b 4111 afbd 0a46 84be b1e1 c8be
00000360: 300b 353e 5ac7 513f 50cc b83e 558e 003f
00000370: 30f8 b33d 6463 643f fed6 6ebd c862 47be
00000380: d408 103c 08c7 6ebd 7b02 a9be fa02 85bc
00000390: fa5a c33e 389f f43d d037 19be fab1 f43e
000003a0: 44b3 053d fd03 07bf 21ce 5ebd ad60 dc3e
000003b0: a46a 213e a56f 2c3e 77d7 143e 89e8 7e3e
000003c0: 1e25 91be 3d7d 97bd 9161 b3be 7f3f fd3e
000003d0: e122 303e 415c e03e d3b2 4bbe ee6f bc3d
000003e0: ccf1 4fbe d317 f73e 0735 dbbe 902e cebd
000003f0: 8fc8 7f3b 9e17 273e abd8 13be 4048 90be

lstm.weight_hh_l0 f4 [512, 128]
0.073729314 0.054158393 0.18615179 -0.07490201 0.20781842 0.04202708 0.031954534 -0.23231079
-0.14537776 -0.09610689 0.019181143 -0.10184917 -0.35194296 0.013358759 0.2235117 0.1883596
0.09899194 -0.013625838 -0.054710254 0.09561549 -0.17683685 -0.0008353287 -0.0001421002 -0.29483762
-0.1808443 -0.36856547 -0.058021206 0.28622 0.16775513 0.29280818 0.07355469 -0.061653584
0.099910565 -0.01211403 0.13914035 -0.07264837 -0.011859393 0.018133232 0.3120063 -0.06468533
-0.008774448 0.16333352 0.11985446 -0.31536946 0.008142284 -0.2109613 0.07606608 -0.052903473
0.40412724 0.014052454 0.015384139 0.028346373 0.2115193 0.10645327 -0.10983336 -0.187486
0.08721244 -0.30714846 -0.16865537 -0.20568897 0.18915145 0.09523226 -0.20090829 -0.2827075
-0.19727664 0.14745083 -0.073789306 0.2372124 -0.0943081 -0.10362247 0.15564877 -0.0642908
0.29768476 -0.24000563 0.06556736 0.07664564 -0.25744042 -0.1114905 -0.09422616 -0.044513218
0.5122889 0.12927704 0.2288662 -0.057559114 -0.12971152 0.21452299 0.026510838 -0.14701675
-0.10733978 -0.18589157 -0.20242599 -0.46205845 -0.04577053 0.09684691 0.10985287 -0.019855313
-0.19022465 -0.21685678 0.017330727 -0.069914475 0.040664494 0.11724143 -0.40483612 -0.074506275
-0.048276972 0.04257851 -0.019441605 0.045792785 0.26285738 0.17356956 -0.09288803 -0.22308406
-0.046509422 -0.3110399 0.070117645 -0.01756704 -0.2677368 0.106995136 0.11612172 -0.07808185
-0.016648285 0.17832851 0.33037183 0.23876826 0.037481483 -0.021092089 0.030203147 -0.1895071
-0.13414808 -0.28047487 0.21577954 0.031504363 0.18105109 -0.16994552 -0.27795672 -0.03096707
-0.04490782 -0.22285567 -0.041237123 -0.1646193 -0.24968384 -0.0031856585 0.07098209 0.055898752
-0.22664453 0.16134246 -0.2298789 -0.048175998 -0.12713794 -0.1749592 0.26474294 0.1570897
0.12580706 0.0018307811 0.029767837 -0.079003744 -0.071812876 0.22256778 -0.14967248 -0.05029766
-0.0044480744 0.11759173 -0.021376887 0.07845918 -0.37207305 -0.09542858 -0.11454687 0.41533735
-0.16748357 -0.17126353 -0.083201654 -0.08443119 -0.11090747 -0.33754674 -0.2037554 0.03288617
-0.093094744 0.09775573 0.31850606 0.29384786 0.065116875 -0.20280606 -0.26857692 -0.48854998
0.07957097 0.11391781 -0.019292172 -0.20229764 0.117186315 -0.028549796 -0.2506539 -0.14409451
-0.12821043 -0.0519191 0.032194432 -0.07486746 0.071548514 -0.2808537 0.07329061 -0.029200263
-0.041053586 -0.18611374 0.23599075 -0.11952163 -0.11728572 -0.048741892 -0.16768537 0.2887213
0.21441925 0.10448224 0.08606357 -0.049771782 0.28874037 -0.06374097 -0.42272606 0.15325125
-0.046300337 -0.027560445 -0.04709006 0.011064108 0.1322891 -0.094213225 0.24462698 0.06024848
0.18922344 -0.33635187 -0.30347115 -0.038378026 0.36198547 -0.17250736 -0.17907523 0.063795015
-0.24129947 -0.04632154 -0.061104402 0.031636078 -0.25531235 -0.11299601 0.44256806 -0.18042858
0.053406794 -0.019599937 0.0023851926 -0.11671158 -0.00967131 0.070077345 -0.093421966 -0.15185805
-0.18486485 0.1354778 0.0017033806 0.356359 0.11426109 0.26113027 0.050498553 0.01993633
00000000: 65ff 963d 31d5 5d3d 939e 3e3e 3a66 99bd
00000010: 5ace 543e 9624 2c3d c2e2 023d e1e2 6dbe
00000020: e8dd 14be b0d3 c4bd c621 9d3c 4c96 d0bd
00000030: de31 b4be b2de 5a3c 40e0 643e 57e1 403e
00000040: 49bc ca3d e83e 5fbc dc17 60bd 0ed2 c33d
00000050: b814 35be f6f9 5aba bb00 15b9 f5f4 96be
00000060: 402f 39be 9db4 bcbe a5a7 6dbd 6e8b 923e
00000070: 00c8 2b3e f4ea 953e d7a3 963d 7888 7cbd
00000080: e99d cc3d ed79 46bc cf7a 0e3e abc8 94bd
00000090: e64d 42bc 258c 943c 4abf 9f3e be79 84bd
000000a0: b4c2 0fbc e740 273e 4176 f53d 1b78 a1be
000000b0: 3767 053c 3d06 58be 88c8 9b3d 50b1 58bd
000000c0: c4e9 ce3e 443c 663c c10d 7c3c a736 e83c
000000d0: 8498 583e 2c04 da3d 50f0 e0bd 54fc 3fbe
000000e0: 709c b23d 9042 9dbe feb3 2cbe 21a0 52be
000000f0: ebb0 413e 2209 c33d e7ba 4dbe 0abf 90be
00000100: e302 4abe 5afd 163e d91e 97bd cfe7 723e
00000110: 9b24 c1bd 0438 d4bd 6462 1f3e e5aa 83bd
00000120: 236a 983e 09c4 75be 2e48 863d 64f8 9c3d
00000130: 3bcf 83be 2255 e4bd a5f9 c0bd 7e53 36bd
00000140: 5e25 033f 3361 043e e75b 6a3e 1bc3 6bbd
00000150: 19d3 04be eaab 5b3e 422d d93c 8f8b 16be
00000160: f5d4 dbbd 5c5a 3ebe c248 4fbe ed92 ecbe
00000170: e179 3bbd ac57 c63d 8bfa e03d 9ca7 a2bc
00000180: 40ca 42be b40f 5ebe 2bf9 8d3c 522f 8fbd
00000190: d08f 263d 461c f03d ae46 cfbe bf96 98bd
000001a0: 13be 45bd ce66 2e3d 0044 9fbc 3791 3b3d
000001b0: 3e95 863e 38bc 313e 143c bebd 2670 64be
000001c0: aa80 3ebd 9f40 9fbe d799 8f3d c1e8 8fbc
000001d0: cc14 89be 4420 db3d 39d1 ed3d 61e9 9fbd
000001e0: fc61 88bc c09b 363e 7f26 a93e ab7f 743e
000001f0: 2f86 193d 51c9 acbc 976c f73c 260e 42be
00000200: 1d5e 09be 679a 8fbe 50f5 5c3e b80a 013d
00000210: 7565 393e 3306 2ebe 5850 8ebe a7ae fdbc
00000220: 43f1 37bd 4734 64be 42e8 28bd f691 28be
00000230: 1fad 7fbe 7bc6 50bb 0f5f 913d 17f6 643d
00000240: 8115 68be f536 253e 6065 6bbe 3254 45bd
00000250: 7330 02be 8128 33be 638c 873e 1fdc 203e
00000260: 91d3 003e d2f6 ef3a aedb f33c b7cc a1bd
00000270: a112 93bd cfe8 633e be43 19be eb04 4ebd
00000280: 27c1 91bb efd3 f03d 951e afbc 35af a03d
00000290: 5c80 bebe 0f70 c3bd 8d97 eabd 19a7 d43e
000002a0: d080 2bbe b55f 2fbe a165 aabd 42ea acbd
000002b0: 7523 e3bd edd2 acbe 41a5 50be a6b3 063d
000002c0: 75a8 bebd 2834 c83d 3a13 a33e 3a73 963e
000002d0: ff5b 853d 64ac 4fbe ea82 89be 3923 fabe
000002e0: 1bf6 a23d be4d e93d 9e0a 9ebc 1d27 4fbe
000002f0: 61ff ef3d 43e1 e9bc b555 80be 838d 13be
00000300: 9849 03be 1fa9 54bd 4fde 033d 1c54 99bd
00000310: 0788 923d 0ecc 8fbe 6319 963d 6435 efbc
00000320: ce27 28bd 9a94 3ebe 8fa7 713e c2c7 f4bd
00000330: 7f33 f0bd 94a5 47bd b7b5 2bbe 47d3 933e
00000340: b890 5b3e c9fa d53d 1942 b03d 7fdd 4bbd
00000350: c7d5 933e a08a 82bd 8d6f d8be e5ed 1c3e
00000360: 6ca5 3dbd 71c6 e1bc 82e1 40bd 3c46 353c
00000370: cb76 073e ddf2 c0bd 7f7f 7a3e 1cc7 763d
00000380: cac3 413e 5036 acbe 9260 9bbe 4732 1dbd
00000390: 2956 b93e c5a5 30be 7f5f 37be f6a6 823d
000003a0: 3517 77be a8bb 3dbd 9c48 7abd d594 013d
000003b0: 4db8 82be 746a e7bd 4898 e23e 45c2 38be
000003c0: 15c1 5a3d 0c90 a0bc e450 1c3b 7b06 efbd
000003d0: 6a74 1ebc b684 8f3d 0454 bfbd ad80 1bbe
000003e0: 364d 3dbe b1ba 0a3e f843 df3a b074 b63e
000003f0: b801 ea3d deb2 853e 92d7 4e3d 8451 a33c

lstm.bias_ih_l0 f4 [512]
-0.123806715 -0.26101422 -0.23693106 -0.49690774 -0.3937067 -0.25721553 -0.25309297 -0.2789434
-0.2996944 -0.61922705 -0.36231974 -0.49961025 -0.10278599 -0.22888765 -0.036951933 -0.4264821
-0.47677743 -0.23847729 -0.2062328 -0.13866442 -0.3646036 -0.32058957 -0.112808205 -0.4508084
-0.29706714 -0.15542878 -0.13050368 -0.24731115 -0.15006225 -0.26308945 -0.34885734 -0.06808139
-0.020462671 -0.4553108 -0.20671771 -0.32501814 -0.4108002 -0.45519996 -0.23659243 -0.06933436
-0.29213327 -0.3549265 -0.25481662 0.0647541 -0.47520226 -0.31136417 -0.2461119 0.13285127
-0.20477746 -0.38473278 -0.12659611 -0.13023622 -0.24990593 -0.105144896 0.09632003 -0.2919813
-0.3211803 -0.27750418 -0.15203395 -0.2345878 -0.42548096 -0.24056786 -0.12538671 -0.3447114
-0.279727 -0.43002424 -0.320403 -0.1453687 -0.045022294 0.18011509 -0.17975894 -0.18196006
0.025540486 -0.4054731 -0.16927992 -0.2985383 -0.11504948 -0.18304628 -0.19243404 -0.06947327
-0.24725488 -0.45596337 -0.11760332 -0.22297893 -0.06649219 -0.54897606 -0.39807633 -0.5042906
-0.2375466 -0.19966382 -0.23755608 -0.16841975 -0.52977633 -0.40528518 -0.14522763 -0.19362867
-0.14597882 -0.22747545 -0.07585916 -0.41135868 -0.25377533 -0.19597316 -0.118995965 -0.19032328
-0.21675745 -0.4598677 -0.3336997 -0.40894538 -0.17911536 -0.51341414 -0.35380417 -0.19355246
-0.1733665 -0.23094934 -0.19334234 -0.11136377 -0.24554616 -0.30454242 -0.19050889 -0.099239595
-0.25146738 -0.11082995 -0.35041252 -0.2672268 -0.024950545 -0.3853475 -0.071317606 -0.02618633
-0.27123502 -0.24726847 -0.13451862 0.061603967 0.0006907488 0.107811935 -0.15430818 -0.19143339
-0.27478787 0.33486375 -0.21614687 -0.052356485 0.15091379 -0.10233543 -0.2318238 0.36469626
-0.2734568 -0.20228946 -0.077867106 -0.016052468 -0.041723426 -0.20755187 -0.006997088 -0.003493094
-0.14025861 -0.18103379 -0.050649703 -0.06922135 -0.23738693 -0.19402987 -0.3989946 -0.05414786
-0.081048645 -0.08571855 -0.25821778 -0.16843688 0.32618865 -0.19522282 -0.14839728 -0.084158316
0.005195839 -0.32387802 -0.0935443 0.040692054 0.5458514 -0.06521232 -0.035200987 0.050237164
0.19260833 -0.20704213 0.07625834 -0.13063891 0.052792896 0.3158974 0.11269906 -0.20731404
-0.16229764 -0.13283871 -0.05931781 -0.13804354 -0.22695556 -0.38145736 -0.15267767 0.3131449
-0.00042717086 -0.37026763 -0.48429707 -0.108060636 -0.059077024 0.018284984 0.015152527 0.32346296
0.39595276 -0.1525524 -0.16875271 -0.13669968 -0.16596918 0.029048758 -0.19220145 -0.03914796
0.5388389 -0.20117307 -0.35467577 -0.043283734 -0.17562921 -0.32241535 -0.06954598 0.0025169859
0.16642623 -0.1415989 -0.06413735 0.31789258 -0.28317836 -0.33031535 0.060701873 0.014591636
-0.032283787 -0.15689684 -0.124144286 -0.51753294 -0.39173087 -0.06359023 0.28695714 -0.07493326
-0.4381969 -0.18778951 -0.21234785 -0.08206161 -0.38850275 -0.33120313 0.16730142 -0.11627738
-0.05660453 0.05149896 0.29274675 -0.16102147 0.06882098 -0.43199816 -0.10934637 -0.17539999
-0.21342757 -0.12842938 -0.07458173 -0.15986717 -0.23471165 -0.15035269 0.13472392 0.06138617
00000000: 608e fdbd a8a3 85be 0e9e 72be b16a febe
00000010: ed93 c9be c1b1 83be 6795 81be abd1 8ebe
00000020: 8b71 99be aa85 1ebf f981 b9be eacc ffbe
00000030: 7681 d2bd 8661 6abe e95a 17bd dd5b dabe
00000040: 2c1c f4be 6433 74be b12e 53be 0cfe 0dbe
00000050: 53ad babe 5124 a4be fd07 e7bd 5cd0 e6be
00000060: 2f19 98be b928 1fbe c2a2 05be 223f 7dbe
00000070: eba9 19be a9b3 86be 6e9d b2be 416e 8bbd
00000080: 55a1 a7bc 7f1e e9be cfad 53be c768 a6be
00000090: 6754 d2be f80f e9be 4945 72be 2cff 8dbd
000000a0: 7e92 95be edb8 b5be 5377 82be cc9d 843d
000000b0: b64d f3be 206b 9fbe c204 7cbe 2a0a 083e
000000c0: 2fb1 51be b2fb c4be 69a2 01be a55c 05be
000000d0: 57e7 7fbe 3556 d7bd 7043 c53d 937e 95be
000000e0: bf71 a4be 0715 8ebe caae 1bbe c937 70be
000000f0: a4d8 d9be 6c57 76be 6065 00be 037e b0be
00000100: 6138 8fbe 232c dcbe dd0b a4be 88db 14be
00000110: 4c69 38bd 1770 383e ba12 38be bd53 3abe
00000120: 483a d13c 2c9a cfbe b757 2dbe 03da 98be
00000130: 109f ebbd 7c70 3bbe 6e0d 45be 0048 8ebd
00000140: 6230 7dbe 0874 e9be 02da f0bd 9754 64be
00000150: 0f2d 88bd b289 0cbf a9d0 cbbe 3019 01bf
00000160: 6a3f 73be ac74 4cbe e741 73be 3a76 2cbe
00000170: 6c9f 07bf 8a81 cfbe 8db6 14be 9846 46be
00000180: 797b 15be 53ef 68be 0c5c 9bbd 9b9d d2be
00000190: d7ee 81be 30ad 48be 28b4 f3bd 1be4 42be
000001a0: aaf5 5dbe c773 ebbe b0da aabe 4a61 d1be
000001b0: 046a 37be 1c6f 03bf d225 b5be 9e32 46be
000001c0: fd86 31be fc7d 6cbe 89fb 45be b012 e4bd
000001d0: 7470 7bbe fcec 9bbe c314 43be 213e cbbd
000001e0: 55c0 80be d0fa e2bd 4569 b3be f3d1 88be
000001f0: 1665 ccbc 444c c5be f70e 92bd b784 d6bc
00000200: 51df 8abe f233 7dbe 40bf 09be 7154 7c3d
00000210: 5e13 353a 81cc dc3d f702 1ebe 1d07 44be
00000220: ffb0 8cbe 4373 ab3e 9b55 5dbe c173 56bd
00000230: 2589 1a3e 3d95 d1bd 3863 6dbe 78b9 ba3e
00000240: 8802 8cbe f824 4fbe ca78 9fbd 7780 83bc
00000250: 2fe6 2abd 7a88 54be d447 e5bb 64ec 64bb
00000260: f49f 0fbe ec60 39be 1076 4fbd ecc3 8dbd
00000270: 8f15 73be c4af 46be 0549 ccbe 25ca 5dbd
00000280: d5fc a5bd 358d afbd 1f35 84be b87a 2cbe
00000290: 3302 a73e 7ee8 47be 75f5 17be 325b acbd
000002a0: db41 aa3b 57d3 a5be 2794 bfbd b6ac 263d
000002b0: ebbc 0b3f 098e 85bd e92e 10bd 7cc5 4d3d
000002c0: 1e3b 453e da02 54be 552d 9c3d 35c6 05be
000002d0: 5d3d 583d 4ebd a13e c4ce e63d 224a 54be
000002e0: 5a31 26be df06 08be 3bf7 72bd 495b 0dbe
000002f0: 0a67 68be 614e c3be 8957 1cbe 8754 a03e
00000300: e7f5 dfb9 b893 bdbe c9f5 f7be e54e ddbd
00000310: c0fa 71bd 64ca 953c 4e42 783c f09c a53e
00000320: 52ba ca3e b236 1cbe 83cd 2cbe 00fb 0bbe
00000330: d3f3 29be a9f7 ed3c 75d0 44be 9c59 20bd
00000340: 59f1 093f 5000 4ebe 1098 b5be 494a 31bd
00000350: 25d8 33be a013 a5be 1f6e 8ebd 04f4 243b
00000360: a36b 2a3e 4dff 10be 715a 83bd d1c2 a23e
00000370: c1fc 90be 181f a9be 87a2 783d c211 6f3c
00000380: 013c 04bd 91a9 20be 5c3f febd 0a7d 04bf
00000390: f390 c8be 983b 82bd 0cec 923e 9c76 99bd
000003a0: 585b e0be e54b 40be b771 59be eb0f a8bd
000003b0: d5e9 c6be 7593 a9be 1051 2b3e d622 eebd
000003c0: 27da 67bd 93f0 523d e7e2 953e d0e2 24be
000003d0: 04f2 8c3d dd2e ddbe fdf0 dfbd 0e9c 33be
000003e0: c28c 5abe fe82 03be 4ebe 98bd 38b4 23be
000003f0: 4058 70be 0ef6 19be 11f5 093e 1170 7b3d

lstm.bias_hh_l0 f4 [512]
-0.10682244 -0.1841308 -0.18876779 -0.3626889 -0.32145825 -0.18834397 -0.33152482 -0.40169236
-0.29541576 -0.50354254 -0.28868595 -0.46990502 -0.021437364 -0.17073996 -0.12556331 -0.42081207
-0.4951388 -0.19486743 -0.30480114 -0.06864998 -0.37844947 -0.3560064 -0.14577624 -0.43976757
-0.20037757 -0.022403328 -0.053780798 -0.35575914 -0.24173118 -0.30388498 -0.3124555 0.097370304
-0.11020689 -0.33843082 -0.12723367 -0.333386 -0.36021402 -0.43115526 -0.30371782 -0.102589555
-0.3482422 -0.41348082 -0.27859446 -0.06557274 -0.4460608 -0.38107607 -0.25263503 0.013743847
-0.13165987 -0.35673028 -0.092565075 -0.09781836 -0.20004714 -0.055127032 -0.032848228 -0.27466476
-0.26341453 -0.26378524 -0.22981547 -0.29041657 -0.36329585 -0.23151627 -0.21868388 -0.33156648
-0.12179866 -0.45650893 -0.41101006 -0.13579679 -0.06136382 0.17858626 -0.2004094 -0.09688412
-0.09363716 -0.3930944 -0.19364087 -0.3958587 -0.0075726607 -0.11740827 -0.28066462 -0.11795952
-0.1776068 -0.31562316 -0.22919925 -0.20733868 -0.023444774 -0.45233944 -0.38038412 -0.5196208
-0.21675228 -0.22761413 -0.21461535 -0.29665506 -0.5976982 -0.32332852 -0.04251679 -0.22472693
-0.17767887 -0.09261215 -0.041589137 -0.54978865 -0.3098311 -0.18453929 0.008494595 -0.2802895
-0.2811639 -0.53961104 -0.17249508 -0.477228 -0.15098009 -0.4131696 -0.45374444 -0.1160838
-0.03143951 -0.159078 -0.10814824 -0.17125775 -0.18108673 -0.33725655 -0.23293394 -0.23131222
-0.28780302 -0.21606262 -0.25782233 -0.34382105 -0.15548751 -0.336293 -0.07532401 0.09007997
-0.21228339 -0.23771462 -0.26009506 -0.0011525375 0.0036757907 -0.026959646 -0.09856787 -0.19387114
-0.23611897 0.18478884 -0.2928659 0.054344393 0.27790475 -0.052808706 -0.16891506 0.43662223
-0.31905144 -0.124002405 -0.15112005 -0.036110524 -0.017425925 -0.19811623 -0.051793866 -0.09317298
-0.23664883 -0.12508965 0.1058216 -0.2083103 -0.1310484 -0.15355621 -0.31145895 -0.06070912
-0.012838558 -0.09546269 -0.14764556 -0.038326878 0.27129596 -0.16546042 -0.14275199 0.0102152685
-0.033587966 -0.21796924 -0.058224063 -0.04804015 0.57601553 -0.1552607 -0.065199286 -0.025727542
0.13051708 -0.27416444 0.18139015 -0.16007037 0.02745067 0.20872293 0.16259722 -0.2243531
-0.073830046 -0.14146368 -0.10331188 -0.049683776 -0.33740532 -0.38174015 -0.10063338 0.21891725
-0.048158314 -0.3569601 -0.49302623 -0.1493082 -0.18603307 0.09564021 -0.00032900734 0.39803493
0.40884188 -0.19184257 -0.15350987 -0.115955226 -0.19677284 -0.08313202 -0.11854503 0.03200698
0.5161 -0.26026902 -0.29455692 0.048519295 -0.100295894 -0.330096 -0.0025272814 0.05659058
0.18788671 -0.13211727 0.023220407 0.3820296 -0.30182028 -0.39270943 0.029976139 0.070459604
-0.0262556 -0.13023435 -0.09842716 -0.5253599 -0.23356181 0.034258105 0.33486697 -0.0712351
-0.38298592 -0.18579252 -0.3686208 -0.015431461 -0.44595885 -0.21239159 0.20567934 -0.10433276
-0.21961707 -0.060180385 0.16397278 -0.1408231 0.041761365 -0.4376032 -0.00023268232 -0.060856964
-0.24266003 -0.09167796 -0.07070498 -0.16379271 -0.31591615 -0.043759927 0.083467156 -0.028989747
00000000: b9c5 dabd c98c 3cbe 584c 41be 5cb2 b9be
00000010: 2d96 a4be 3edd 40be 9fbd a9be 9faa cdbe
00000020: bc40 97be 2ae8 00bf a5ce 93be 6497 f0be
00000030: 699d afbc 75d6 2ebe ab93 00be ae74 d7be
00000040: d582 fdbe 548b 47be e50e 9cbe 5c98 8cbd
00000050: 21c4 c1be 7946 b6be 5e46 15be 3729 e1be
00000060: c72f 4dbe 2f87 b7bc 4149 5cbd 1026 b6be
00000070: 6188 77be d096 9bbe 2bfa 9fbe 156a c73d
00000080: 26b4 e1bd ce46 adbe 8b49 02be 92b1 aabe
00000090: f96d b8be 62c0 dcbe e780 9bbe 791a d2bd
000000a0: cd4c b2be c2b3 d3be efa3 8ebe 004b 86bd
000000b0: 1562 e4be 671c c3be 6159 81be df2d 613c
000000c0: d8d1 06be 5aa5 b6be c292 bdbd fe54 c8bd
000000d0: 28d9 4cbe e2cc 61bd dd8b 06bd dca0 8cbe
000000e0: 45de 86be dc0e 87be bf54 6bbe 7bb1 94be
000000f0: ea01 babe 9a12 6dbe abee 5fbe 15c3 a9be
00000100: 9371 f9bd 8abb e9be e96f d2be 500e 0bbe
00000110: a158 7bbd 51df 363e 1f38 4dbe 2e6b c6bd
00000120: d7c4 bfbd ab43 c9be cb49 46be fead cabe
00000130: 1524 f8bb bf73 f0bd 46b3 8fbe c394 f1bd
00000140: 8fde 35be 5c99 a1be 35b3 6abe 9750 54be
00000150: 410f c0bc 0999 e7be b5c1 c2be de05 05bf
00000160: 4ff4 5dbe ae13 69be 20c4 5bbe 2ce3 97be
00000170: c002 19bf 518b a5be 1626 2ebd d11e 66be
00000180: 73f1 35be 70ab bdbd 5f59 2abd f3be 0cbf
00000190: 2fa2 9ebe def7 3cbe ea2c 0b3c 1b82 8fbe
000001a0: b7f4 8fbe f323 0abf 8da2 30be 3a57 f4be
000001b0: 869a 1abe f78a d3be 3151 e8be 58bd edbd
000001c0: b7c6 00bd 58e5 22be d37c ddbd 315e 2fbe
000001d0: cd6e 39be e4ac acbe 3c86 6ebe 1cdd 6cbe
000001e0: eb5a 93be 853f 5dbe 4a01 84be 5009 b0be
000001f0: 1e38 1fbe 992e acbe 7943 9abd d97b b83d
00000200: d160 59be 766b 73be 2e2b 85be be10 97ba
00000210: 89e5 703b 7ada dcbc f4dd c9bd 2886 46be
00000220: 2cc9 71be 4939 3d3e 85f2 95be 3a98 5e3d
00000230: 8849 8e3e f14d 58bd 12f8 2cbe f38c df3e
00000240: b65a a3be f9f4 fdbd 37bf 1abe a1e8 13bd
00000250: d0c0 8ebc fbde 4abe ce25 54bd 7ad1 bebd
00000260: 1254 72be 8017 00be ffb8 d83d 4c4f 55be
00000270: 8d31 06be d73d 1dbe 8c77 9fbe 20aa 78bd
00000280: d158 52bc f181 c3bd 6630 17be a5fc 1cbd
00000290: 4ee7 8a3e 756e 29be 942d 12be f15d 273c
000002a0: 8993 09bd 5433 5fbe 5b7c 6ebd c0c5 44bd
000002b0: c175 133f a9fc 1ebe 3487 85bd 91c2 d2bc
000002c0: 45a6 053e 485f 8cbe 57be 393e 7de9 23be
000002d0: 3ae0 e03c 77bb 553e e37f 263e d2bc 65be
000002e0: 3534 97bd dbdb 10be 2e95 d3bd 3781 4bbd
000002f0: 64c0 acbe 7273 c3be e018 cebd d82b 603e
00000300: a741 45bd 79c3 b6be ef6d fcbe 40e4 18be
00000310: 747f 3ebe 04df c33d 9e7e acb9 3ccb cb3e
00000320: b953 d13e 6172 44be b131 1dbe ef79 edbd
00000330: d27e 49be 1f41 aabd bdc7 f2bd c019 033d
00000340: 211f 043f fb41 85be 2ad0 96be 2bbc 463d
00000350: ef67 cdbd 5802 a9be bfa0 25bb 86cb 673d
00000360: 6065 403e c049 07be b938 be3c 6299 c33e
00000370: 3088 9abe 3611 c9be 8590 f53c 204d 903d
00000380: fc15 d7bc 275c 05be 2e94 c9bd fd7d 06bf
00000390: d42a 6fbe 3a52 0c3d af73 ab3e b5e3 91bd
000003a0: bb16 c4be 6540 3ebe debb bcbe 3dd4 7cbc
000003b0: b854 e4be 2e7d 59be 9b9d 523e 6aac d5bd
000003c0: 4ce3 60be b57f 76bd 7be8 273e ee33 10be
000003d0: f70d 2b3d 870d e0be 2ffc 73b9 2745 79bd
000003e0: df7b 78be a7c1 bbbd c6cd 90bd 47b9 27be
000003f0: c3bf a1be 9c3d 33bd d4f0 aa3d e87b edbc

fc1.weight f4 [64, 128]
-0.014831962 -0.17242722 -0.104343355 -0.20447698 -0.101958275 -0.3092947 0.03253172 0.09708974
-0.0007274616 -0.18432572 0.09715634 0.010897988 -0.24622759 0.13853139 -0.011580684 -0.003385922
0.038868718 0.10661281 0.0940899 0.018572781 0.04597327 -0.10313839 -0.058948167 0.046756644
0.058943868 0.0472618 0.04264674 0.14905699 0.049583323 0.010436413 -0.06097249 -0.14932513
-0.030435523 0.036520924 0.07729687 0.068512596 0.080030374 0.10028649 0.07697361 0.17164332
0.1945556 -0.10692347 0.11653627 -0.020076105 -0.3360631 -0.10044414 0.09361851 -0.025209725
-0.05548797 -0.030007105 0.1765357 -0.148744 0.066846006 0.15463448 0.046942096 0.04321351
0.011763061 -0.049780272 0.060219288 -0.13459645 -0.028603861 -0.06750253 -0.19787796 -0.031517267
-0.034144532 -0.033214744 0.14859784 0.041961536 0.005957568 -0.24268724 0.008173391 0.20649411
0.15238442 -0.22428177 -0.27992052 -0.058492966 -0.06476158 -0.121805236 0.09303605 -0.003052165
0.29172963 -0.24931222 -0.20327564 0.03991651 0.029680943 0.041838855 -0.22936335 -0.1843044
0.069842964 -0.020254081 -0.09158979 -0.25457326 0.032279003 0.08384654 0.008653115 -0.097435035
0.04421631 -0.037198283 -0.2815205 0.017875617 -0.19917771 -0.06733124 0.10705467 0.054808155
-0.12919961 0.061583173 -0.018250303 0.048505977 -0.037981115 0.044649735 0.30865347 -0.039995413
0.08565571 -0.057710685 0.11611962 0.04842521 -0.012726825 -0.03215529 -0.098564096 0.015286616
-0.08502659 -0.195521 0.24565488 0.041335136 -0.16007821 0.1161221 0.18720616 0.31793344
-0.04607977 0.10614946 -0.08362439 -0.030837731 0.0028350588 0.239311 -0.25023124 0.02472379
-0.05658506 0.14374042 0.17942178 0.10231572 0.50071055 0.0028347082 -0.040849883 0.6484602
-0.021019582 -0.1517747 -0.00028092862 0.010804485 -0.021409139 0.12732495 -0.25718063 0.1114079
0.09123051 -0.07485599 0.11659134 -0.037731815 -0.016396059 0.15049638 0.05932249 0.1308486
0.10442642 0.13682503 -0.0037415144 -0.2609967 -0.0764513 -0.048228107 0.054149833 0.11290965
0.27814594 0.16421424 0.018892322 -0.22304209 0.17656663 0.053708557 0.14644879 0.04743487
-0.22165553 -0.02602207 -0.15130037 -0.13694043 0.06407661 -0.2558629 0.05695704 0.26114553
0.20240256 -0.07105689 0.28048894 0.24041212 0.036925085 0.15804034 0.044056833 -0.05616158
-0.04995677 -0.051348954 0.10407905 -0.003246459 0.161097 0.07833276 -0.0682176 0.0019336597
-0.041799348 0.096027754 0.19067034 0.07709368 0.13661614 0.033878665 -0.016197119 -0.28105664
0.01595904 -0.10579722 -0.34252092 0.27400106 0.080629684 -0.29885367 0.48580074 0.28087378
0.04857315 0.0089881 -0.16868448 0.018715544 0.2335679 0.0072358754 -0.104874656 0.11124636
0.04684672 0.08570048 -0.08373618 -0.012893034 0.10812229 0.23073743 -0.077851735 0.20438336
0.4030514 0.048042182 -0.2109987 0.10251233 -0.19012523 0.030892288 0.09534311 -0.11025909
-0.09540767 -0.008534758 -0.12128561 -0.31975752 -0.10040322 -0.06981162 0.036031265 -0.038357694
0.030739369 0.020605924 -0.0063462625 -0.023770474 0.076804556 0.009698351 -0.28915736 0.2797607
00000000: c201 73bc c390 30be f8b1 d5bd 6a62 51be
00000010: 80cf d0bd e05b 9ebe fb3f 053d fcd6 c63d
00000020: 1fb3 3eba e2bf 3cbe e7f9 c63d 7a8d 323c
00000030: 1623 7cbe 2cdb 0d3e e9bc 3dbc 58e6 5dbb
00000040: ce34 1f3d d157 da3d 35b2 c03d f225 983c
00000050: 784e 3c3d 383a d3bd a273 71bd e583 3f3d
00000060: 206f 713d 9795 413d 59ae 2e3d 65a2 183e
00000070: e217 4b3d 7dfd 2a3c 4abe 79bd b0e8 18be
00000080: eb53 f9bc f796 153d d24d 9e3d 5550 8c3d
00000090: f7e6 a33d 0163 cd3d 57a4 9d3d 44c3 2f3e
000000a0: 9539 473e b1fa dabd 91aa ee3d a576 a4bc
000000b0: 7610 acbe a8b5 cdbd 10bb bf3d a084 cebc
000000c0: 5b47 63bd 76d1 f5bc c6c5 343e 5950 18be
000000d0: 8fe6 883d 8058 1e3e 5b46 403d a600 313d
000000e0: dbb9 403c 66e6 4bbd 80a8 763d a7d3 09be
000000f0: a552 eabc c43e 8abd 85a0 4abe 4018 01bd
00000100: 23db 0bbd 2f0c 08bd 082a 183e dcdf 2b3d
00000110: b437 c33b 0183 78be b0e9 053c 3173 533e
00000120: a90a 1c3e 1faa 65be be51 8fbe 5296 6fbd
00000130: b8a1 84bd 0675 f9bd af89 be3d d506 48bb
00000140: 965d 953e b44b 7fbe 7d27 50be 7f7f 233d
00000150: 7325 f33c 385f 2b3d 3ade 6abe 4bba 3cbe
00000160: d409 8f3d e3eb a5bc 6e93 bbbd 6d57 82be
00000170: fd36 043d bcb7 ab3d cbc5 0d3c 058c c7bd
00000180: 291c 353d 3a5d 18bd 7423 90be e36f 923c
00000190: 3ef5 4bbe f6e4 89bd 7b3f db3d 847e 603d
000001a0: e74c 04be a33e 7c3d a981 95bc 34ae 463d
000001b0: 1692 1bbd a4e2 363d d407 9e3e 3bd2 23bd
000001c0: 436c af3d 0a62 6cbd 20d0 ed3d 8359 463d
000001d0: 2c84 50bc 44b5 03bd f9db c9bd b774 7a3c
000001e0: 6c22 aebd a836 48be f48c 7b3e 084f 293d
000001f0: 8beb 23be 6cd1 ed3d f9b2 3f3e 2cc8 a23e
00000200: 24be 3cbd e364 d93d 4443 abbd 699f fcbc
00000210: 65cc 393b f10d 753e 4f1e 80be 8c89 ca3c
00000220: bcc5 67bd b030 133e 58ba 373e e78a d13d
00000230: 912e 003f 83c6 393b 3552 27bd 7d01 263f
00000240: 4231 acbc d46a 1bbe 9a49 93b9 4b05 313c
00000250: 3862 afbc 7961 023e 2ead 83be d329 e43d
00000260: 10d7 ba3d 194e 99bd 71c7 ee3d ad8c 1abd
00000270: 0751 86bc b91b 1a3e 24fc 723d 2dfd 053e
00000280: 85dd d53d dc1b 0c3e 3234 75bb 5ca1 85be
00000290: 8092 9cbd d68a 45bd 37cc 5d3d 2d3d e73d
000002a0: 2569 8e3e c727 283e 12c4 9a3c 2565 64be
000002b0: e2cd 343e 81fd 5b3d acf6 153e 114b 423d
000002c0: abf9 62be 3c2c d5bc 7cee 1abe 1d3a 0cbe
000002d0: 993a 833d 7600 83be c94b 693d deb4 853e
000002e0: 9e42 4f3e 4686 91bd 3f9c 8f3e 982e 763e
000002f0: c23e 173d 54d5 213e f074 343d af09 66bd
00000300: 789f 4cbd 4853 52bd 6627 d53d 8bc2 54bb
00000310: 9df6 243e ed6c a03d abb5 8bbd da72 fd3a
00000320: cb35 2bbd 33aa c43d 163f 433e 4be3 9d3d
00000330: 1ae5 0b3e 5bc4 0a3d d2af 84bc a8e6 8fbe
00000340: 88bc 823c 36ac d8bd e75e afbe de49 8c3e
00000350: 2d21 a53d 5903 99be e0ba f83e b0ce 8f3e
00000360: a4f4 463d d342 133c a0bb 2cbe 5751 993c
00000370: 6c2c 6f3e ec1a ed3b 86c8 d6bd 22d5 e33d
00000380: 59e2 3f3d bc83 af3d e07d abbd 4e3d 53bc
00000390: 386f dd3d 6f46 6c3e bb70 9fbd df49 513e
000003a0: c15c ce3e e1c7 443d 0b10 58be fcf1 d13d
000003b0: 30b0 42be d311 fd3c 4043 c33d 85cf e1bd
000003c0: 1965 c3bd 5fd5 0bbc 9764 f8bd 42b7 a3be
000003d0: 34a0 cdbd 65f9 8ebd 8595 133d f51c 1dbd
000003e0: 21d1 fb3c c1cd a83c 4ff4 cfbb 4cba c2bc
000003f0: b54b 9d3d d5e5 1e3c 6f0c 94be cb3c 8f3e

fc1.bias f4 [64]
0.07396797 0.035851214 0.020093339 -0.08100354 -0.069844946 -0.014335507 -0.03342296 -0.08538743
-0.099491045 0.01018363 -0.08480593 0.03584612 -0.014307978 0.0118487 0.03907686 -0.10279608
0.06836884 -0.08286077 -0.015381144 0.056563634 0.051722493 -0.0068179304 0.019818107 0.097772546
-0.035095513 -0.089024305 0.007524779 0.073341526 -0.025429675 0.059776574 0.034467317 0.023367833
-0.027792448 0.0027396206 -0.0185876 -0.02583939 0.017853372 -0.026227953 -0.08726018 0.047618303
-0.023898698 -0.042108715 0.022667347 -0.04129386 0.01610403 -0.0046902886 -0.04087565 0.011869944
-0.025207784 0.05535911 -0.00541819 0.027927293 0.0696863 0.006779462 -0.03415037 0.0880583
-0.03636325 0.0364051 -0.02806154 0.0068074064 0.07061491 0.08773245 -0.06565851 0.030804208
00000000: 857c 973d b9d8 123d c99a a43c 2fe5 a5bd
00000010: de0a 8fbd 79df 6abc 84e6 08bd 9bdf aebd
00000020: f6c1 cbbd 3dd9 263c bbae adbd 62d3 123d
00000030: 026c 6abc 0d21 423c 0f0f 203d c086 d2bd
00000040: f604 8c3d e8b2 a9bd 3201 7cbc 45af 673d
00000050: f7da 533d f268 dfbb 9559 a23c f93c c83d
00000060: 50c0 0fbd 6052 b6bd 6c92 f63b 1534 963d
00000070: e551 d0bc 48d8 743d 9a2d 0d3d e66d bf3c
00000080: fdac e3bc 358b 333b 0645 98bc 21ad d3bc
00000090: 3c41 923c 01dc d6bc 77b5 b2bd 690b 433d
000000a0: 34c7 c3bc 307a 2cbd dfb0 b93c c023 29bd
000000b0: 99ec 833c feb0 99bb 3a6d 27bd 277a 423c
000000c0: 8e80 cebc 3cc0 623d 128b b1bb c7c7 e43c
000000d0: b1b7 8e3d 4026 de3b 42e1 0bbd e957 b43d
000000e0: a2f1 14bd 841d 153d 51e1 e5bc aa10 df3b
000000f0: 8d9e 903d 12ad b33d f877 86bd 1b59 fc3c

bn1.weight f4 [64]
0.933309 1.1269379 0.89123535 1.0914311 1.0766435 0.9235334 1.0918314 1.1848862
1.0160884 1.2149191 1.3577418 1.2192473 1.0983319 1.3231508 1.2259288 1.1658838
1.0783406 1.2830151 1.138169 1.197641 1.1429541 1.3640714 1.1597394 0.90939134
0.9544228 1.1294975 1.1055509 1.0137616 0.97945845 1.0080489 1.1835684 1.033374
1.1799954 1.1209108 1.164458 1.0789977 1.2705559 1.1415516 1.1127433 1.4009656
1.0977188 0.7869422 1.1234362 1.1098347 1.1555692 1.1580143 1.0444982 1.3010236
1.0974032 1.1067905 1.1083862 1.2845126 1.2712644 1.0892456 1.1455408 1.1286881
0.99205095 1.1442852 1.0167497 0.9905511 1.010273 1.2082859 1.1803278 1.0268689
00000000: 57ed 6e3f 803f 903f 0028 643f 04b4 8b3f
00000010: 74cf 893f af6c 6c3f 22c1 8b3f 5aaa 973f
00000020: 2f0f 823f 7882 9b3f 7cca ad3f 4c10 9c3f
00000030: 2496 8c3f 015d a93f 3ceb 9c3f ae3b 953f
00000040: 1107 8a3f d739 a43f 86af 913f 4d4c 993f
00000050: 524c 923f e499 ae3f 5772 943f dfcd 683f
00000060: 0d55 743f 6093 903f b182 8d3f f1c2 813f
00000070: cabd 7a3f bf07 813f 2b7f 973f 9945 843f
00000080: 170a 973f 017a 8f3f f60c 953f 991c 8a3f
00000090: 93a1 a23f 5d1e 923f 5f6e 8e3f d752 b33f
000000a0: 0d82 8c3f 0b75 493f c2cc 8f3f 100f 8e3f
000000b0: b1e9 933f d039 943f 1eb2 853f f187 a63f
000000c0: b577 8c3f 50ab 8d3f 99df 8d3f e96a a43f
000000d0: cbb8 a23f 666c 8b3f 15a1 923f da78 903f
000000e0: 0df7 7d3f f077 923f db24 823f c294 7d3f
000000f0: a050 813f 1da9 9a3f fb14 973f 7170 833f

bn1.bias f4 [64]
0.33899078 -0.12706034 0.35233834 0.31156614 0.35448137 0.16307123 0.31331417 0.29595008
0.22460842 0.05178592 0.3426483 -0.09776146 -0.13517752 0.334686 -0.15776339 0.12766215
0.2721822 -0.037500005 -0.30050284 0.24557987 -0.21397787 0.4135559 0.059903603 0.4845221
0.36259133 0.0045160158 0.36759183 0.32213986 -0.23617369 0.3636054 0.19802807 0.37607682
0.30918 -0.2380976 -0.23078594 -0.13667044 0.15332434 0.27884042 -0.3568348 0.36062726
0.26548797 0.32954165 0.220667 0.42902637 -0.23811986 -0.12151234 0.46977136 0.39597744
-0.27157435 0.24875593 -0.14943847 0.053494353 -0.10575075 0.37967744 0.36929792 -0.042226635
0.3555389 0.0036806273 0.26344225 0.25451207 0.2520803 0.23115481 -0.082198575 0.21608305
00000000: 3390 ad3e 1b1c 02be b165 b43e 9985 9f3e
00000010: 957e b53e 25fc 263e b76a a03e c586 973e
00000020: c0ff 653e 791d 543d 996f af3e 2937 c8bd
00000030: fa6b 0abe f75b ab3e ba8c 21be deb9 023e
00000040: 775b 8b3e 9b99 19bd 82db 99be 4a79 7b3e
00000050: 041d 5bbe 99bd d33e 7b5d 753d 4813 f83e
00000060: 92a5 b93e 16fb 933b ff34 bc3e 84ef a43e
00000070: 84d7 71be 7d2a ba3e dfc7 4a3e 248d c03e
00000080: d74c 9e3e dbcf 73be 2653 6cbe 56f3 0bbe
00000090: 0e01 1d3e 2cc4 8e3e 0db3 b6be 23a4 b83e
000000a0: 0aee 873e afb9 a83e 88f6 613e 58a9 db3e
000000b0: b1d5 73be 76db f8bd df85 f03e 8ebd ca3e
000000c0: cb0b 8bbe e0b9 7e3e 6606 19be e51c 5b3d
000000d0: d993 d8bd 1565 c23e 9e14 bd3e d6f5 2cbd
000000e0: 3209 b63e ae36 713b e7e1 863e 684f 823e
000000f0: ab10 813e d9b3 6c3e ba57 a8bd e044 5d3e

bn1.running_mean f4 [64]
0.18954444 0.2730846 -0.54544824 -0.09623235 -0.47169486 -0.53540576 -0.48361284 -0.31208482
-0.54082614 0.10709618 -0.68866444 -0.13021193 0.31940252 -0.061561666 0.31847876 0.28698218
0.14856562 0.503865 -0.12446017 -0.5201898 0.37064472 -0.43675604 0.10400102 -0.07346219
-0.4369109 0.41282645 -0.18935803 -0.22245643 -0.11460921 0.15790136 -0.11543453 -0.18706802
-0.70202696 0.16736491 0.017592112 0.043906797 0.5961644 0.3022108 -0.04128037 0.4408775
-0.38608256 -0.025117198 -0.00045348506 -0.7552704 0.25486165 0.5840591 -0.006422666 0.09839667
0.22206637 -0.20075089 -0.0011530688 0.13775499 0.24241394 -0.32812908 -0.08889815 0.1582036
0.13232863 -0.64122355 -0.07372369 0.12643403 -0.04345016 0.34319386 -0.24748084 0.308529
00000000: f017 423e bfd1 8b3e 7fa2 0bbf 7715 c5bd
00000010: fd81 f1be 5a10 09bf 1a9c f7be 95c9 9fbe
00000020: 9573 0abf 3e55 db3d 504c 30bf 4756 05be
00000030: ba88 a33e 1628 7cbd a60f a33e 54ef 923e
00000040: 9621 183e 4cfd 003f f9e4 febd 292b 05bf
00000050: 25c5 bd3e 7d9e dfbe 7dfe d43d 5873 96bd
00000060: c9b2 dfbe fd5d d33e 12e7 41be 9ecb 63be
00000070: 3cb8 eabd e5b0 213e f068 ecbd c28e 3fbe
00000080: 0ab8 33bf b561 2b3e 551d 903c 9dd7 333d
00000090: 3b9e 183f 60bb 9a3e 9b15 29bd b2ba e13e
000000a0: 9dac c5be 95c2 cdbc bcc1 edb9 6759 41bf
000000b0: 3a7d 823e e684 153f 3a75 d2bb 3184 c93d
000000c0: 5e65 633e a491 4dbe 9222 97ba a50f 0d3e
000000d0: 5c3b 783e 8900 a8be 3c10 b6bd 2000 223e
000000e0: 2881 073e 3a27 24bf 72fc 96bd ec77 013e
000000f0: ccf8 31bd 1bb7 af3e 9e6b 7dbe 83f7 9d3e

bn1.running_var f4 [64]
0.6639995 1.5981785 0.8002343 0.73216534 1.7949623 1.0560749 0.8640752 1.5143145
1.3249301 3.184258 1.1660408 1.0196307 1.3843724 1.4701153 1.8758764 0.912049
1.4582993 1.2052878 0.655598 1.0937408 1.6853304 1.0716056 1.9659266 1.6663928
0.8563207 1.4348297 1.6143113 0.6992707 0.9744655 1.1168554 1.1189404 1.2155628
0.58002776 1.8119518 1.2601093 0.9293235 2.9729524 1.610785 1.1126069 1.4899384
0.8623195 1.11021 1.7784333 1.419567 1.1664562 1.6283445 1.608081 1.626317
1.9164937 1.6814446 1.0938307 1.4941225 2.3271275 1.461532 3.343731 1.9192711
1.3252544 1.4068248 0.9629812 1.4836417 1.2917804 1.1838322 2.244775 1.0919496
00000000: dffb 293f 1d91 cc3f 28dc 4c3f 306f 3b3f
00000010: 53c1 e53f 762d 873f 0834 5d3f 0fd5 c13f
00000020: 4f97 a93f e2ca 4b40 d340 953f 4283 823f
00000030: 1d33 b13f bd2c bc3f b81c f03f 0b7c 693f
00000040: 8da9 ba3f df46 9a3f 45d5 273f b3ff 8b3f
00000050: e8b8 d73f 5f2a 893f 7ca3 fb3f 5c4c d53f
00000060: d537 5b3f 80a8 b73f c1a1 ce3f 6803 333f
00000070: 9276 793f 1ef5 8e3f 7039 8f3f 9097 9b3f
00000080: b37c 143f 09ee e73f 434b a13f 25e8 6d3f
00000090: da44 3e40 342e ce3f e769 8e3f 4db6 be3f
000000a0: f9c0 5c3f 5c1b 8e3f b4a3 e33f 5fb4 b53f
000000b0: 704e 953f 986d d03f 99d5 cd3f 282b d03f
000000c0: aa4f f53f 9439 d73f a502 8c3f 683f bf3f
000000d0: a8ef 1440 7b13 bb3f b0ff 5540 adaa f53f
000000e0: f0a1 a93f d612 b43f f085 763f f9e7 bd3f
000000f0: 0f59 a53f d087 973f 65aa 0f40 01c5 8b3f

fc2.weight f4 [4, 64]
0.23205237 -0.12943794 0.13488847 0.27914205 0.1942375 0.08828365 0.24880214 0.12623484
0.22566284 0.10778206 0.10618547 0.036578223 0.0013909432 0.14061901 -0.38298234 0.06876125
0.21265024 0.14594874 -0.010544242 0.16724622 -0.29973355 -0.005129913 0.056699075 0.2946146
0.20629348 -0.009187719 0.10573015 0.15446648 -0.12302134 0.12464393 -0.034092754 0.2841817
0.28704906 -0.23500633 -0.102764994 -0.12813368 0.12688813 0.04812731 -0.30323467 0.08218364
0.22202897 0.106622815 -0.036138594 0.106659815 -0.17722529 0.025641749 0.3199308 0.11067472
-0.11651671 0.27171454 -0.01865773 0.07256403 -0.14576511 0.09303428 0.06293074 -0.15000874
0.2863191 0.2178664 0.20050794 0.022427298 0.24320799 0.109631926 -0.08952756 -0.01926514
-0.19820744 0.18870705 -0.16591327 -0.3574195 -0.30608928 -0.14787328 -0.15438452 -0.33318982
-0.15935677 -0.37672076 0.20438161 -0.47185865 -0.37156284 0.15786844 0.12023863 -0.3335361
-0.33440286 -0.23305406 0.2918375 0.26924804 0.16014272 0.35155854 -0.17550328 -0.025275772
0.034285754 -0.27613282 -0.3940489 -0.29488668 -0.22745089 -0.18350159 0.34567368 -0.23183346
0.020348959 -0.19979313 0.20088287 0.12667738 -0.40573043 -0.30580032 0.15616882 -0.24176326
-0.21774621 -0.20222606 0.16894662 0.18751128 0.27387488 -0.32563838 -0.25460058 -0.31592867
-0.37015963 -0.2003892 -0.06810135 -0.25006482 0.11312375 -0.4015089 0.24293448 0.20908046
0.015526033 -0.044013474 0.055687945 0.124199815 -0.11199356 -0.2390814 0.17812814 -0.3191602
-0.09354097 -0.31669217 -0.29866937 -0.05224096 -0.16805108 -0.25788158 -0.15788352 -0.39637208
-0.20778207 -0.55539507 -0.34695387 -0.47970006 -0.25588447 -0.39998567 0.056492582 0.27588984
0.19924524 0.23204388 -0.21465506 -0.40881014 0.116179526 -0.33586544 -0.3638778 -0.0975002
-0.28125188 0.26854157 -0.42225376 0.04566387 0.2527859 0.099821925 -0.37170288 -0.08238216
-0.4408044 0.20769762 -0.2831454 -0.30239475 -0.20146017 -0.2779696 0.08313379 0.22785158
-0.1968903 -0.052177627 0.08456669 -0.5952742 -0.18106426 0.20274353 0.11169666 0.21675941
0.11609148 0.008495281 0.16298705 0.2820876 0.16588356 -0.23923677 -0.17721334 0.118608125
0.04725715 -0.4434513 -0.107168294 -0.30384704 -0.22633806 0.24922116 0.16037096 0.20700517
-0.20563577 0.20619127 -0.0095695015 -0.16421378 0.24661356 0.01417411 -0.32246083 0.26906693
0.0367145 0.19403069 -0.4753712 0.19540532 0.17756246 -0.4487986 0.27084616 -0.14406742
-0.23227474 -0.44946656 -0.09179484 -0.28185233 0.1129686 -0.50370175 0.17052847 -0.27605835
-0.19541644 0.21166456 0.2103207 -0.20071533 0.103189245 -0.33143917 -0.2052669 -0.07161168
-0.08706117 0.11012626 0.23603655 0.13579543 0.22487386 0.3054342 -0.17912821 -0.5655428
-0.0115075465 -0.0632908 -0.6301206 -0.24150054 0.20478599 0.2610583 -0.13167869 -0.5527725
0.045189053 -0.060428586 -0.49613312 -0.32044497 -0.45287365 0.24041535 -0.3575859 -0.49193162
-0.07134852 -0.16329207 -0.41069984 -0.2546866 -0.09573921 -0.36399162 -0.3447587 0.00663288
00000000: 239f 6d3e 618b 04be 3420 0a3e b5eb 8e3e
00000010: 32e6 463e 0fce b43d fdc5 7e3e b543 013e
00000020: 2914 673e d7bc dc3d c577 d93d 0cd3 153d
00000030: 4f50 b63a 6efe 0f3e 4316 c4be b3d2 8c3d
00000040: fcc0 593e 9673 153e c2c1 2cbc 9842 2b3e
00000050: ad76 99be d418 a8bb 4a3d 683d bad7 963e
00000060: 993e 533e 1688 16bc 0d89 d83d 762c 1e3e
00000070: 9df2 fbbd 5145 ff3d d8a4 0bbd 4480 913e
00000080: 18f8 923e 80a5 70be 7476 d2bd 7a35 03be
00000090: f6ee 013e 2421 453d 9341 9bbe e54f a83d
000000a0: 905b 633e 105d da3d 1006 14bd 7670 da3d
000000b0: 8c7a 35be a50e d23c f8cd a33e 6da9 e23d
000000c0: 50a0 eebd 2b1e 8b3e 19d8 98bc 739c 943d
000000d0: 7343 15be c288 be3d d5e1 803d e49b 19be
000000e0: 6b98 923e 5f18 5f3e f451 4d3e 74b9 b73c
000000f0: 840b 793e b486 e03d 3a5a b7bd edd1 9dbc
00000100: e4f6 4abe 6c3c 413e 2be5 29be b0ff b6be
00000110: bcb7 9cbe 186c 17be fa16 1ebe db97 aabe
00000120: 6c2e 23be 8be1 c0be 6a49 513e 7597 f1be
00000130: 7c3d bebe 44a8 213e ac3f f63d 3ec5 aabe
00000140: da36 abbe b9a5 6ebe ba6b 953e e1da 893e
00000150: 74fc 233e 7bff b33e 22b7 33be 230f cfbc
00000160: 386f 0c3d 4861 8dbe c7c0 c9be 63fb 96be
00000170: e3e8 68be d7e7 3bbe 24fc b03e c065 6dbe
00000180: dcb2 a63c 9296 4cbe 3db4 4d3e b7b7 013e
00000190: e6bb cfbe dc91 9cbe b8ea 1f3e ca90 77be
000001a0: ddf8 5ebe 5914 4fbe 5800 2d3e f502 403e
000001b0: 5439 8c3e 13ba a6be 025b 82be 67c1 a1be
000001c0: 9085 bdbe d432 4dbe b878 8bbd 7f08 80be
000001d0: 6dad e73d 9392 cdbe d1c3 783e 3019 563e
000001e0: e760 7e3c 7947 34bd 0b19 643d 795c fe3d
000001f0: e15c e5bd c1d1 74be 3967 363e f768 a3be
00000200: 6892 bfbd 7a25 a2be 31eb 98be 9efa 55bd
00000210: 9515 2cbe 0e09 84be 38ac 21be 48f1 cabe
00000220: d3c4 54be 5f2e 0ebf f0a3 b1be 3f9b f5be
00000230: 4a03 83be ecca ccbe c464 673d 6f41 8d3e
00000240: f206 4c3e e99c 6d3e 89ce 5bbe 904f d1be
00000250: 88ef ed3d 8ef6 abbe 314e babe 2fae c7bd
00000260: 3f00 90be 487e 893e a531 d8be 0a0a 3b3d
00000270: 276d 813e 706f cc3d d74f bebe fab7 a8bd
00000280: 1db1 e1be afae 543e 6ff8 90be 7cd3 9abe
00000290: 934b 4ebe 0852 8ebe 0c42 aa3d ed51 693e
000002a0: 9c9d 49be 35b8 55bd 4d31 ad3d e463 18bf
000002b0: e968 39be 009c 4f3e 38c1 e43d 2ef6 5d3e
000002c0: 5fc1 ed3d cb2f 0b3c 14e6 263e c96d 903e
000002d0: 61dd 293e 7cfa 74be 6a77 35be d1e8 f23d
000002e0: b790 413d 0c0c e3be 0d7b dbbd d791 9bbe
000002f0: 2ac5 67be d533 7f3e 4938 243e 2af9 533e
00000300: 2f92 52be ce23 533e 66c9 1cbc a827 28be
00000310: 4488 7c3e 873a 683c 9619 a5be 24c3 893e
00000320: f261 163d fbaf 463e db63 f3be 5518 483e
00000330: efd2 353e eec8 e5be 59ac 8a3e 6986 13be
00000340: 6ed9 6dbe 7b20 e6be effe bbbd f34e 90be
00000350: 155c e73d 99f2 00bf 049f 2e3e 8557 8dbe
00000360: 3f1b 48be 98be 583e 4f5e 573e 5288 4dbe
00000370: e254 d33d 65b2 a9be 7c31 52be 25a9 92bd
00000380: 204d b2bd e089 e13d 91b3 713e f50d 0b3e
00000390: 5545 663e df61 9c3e 636d 37be 6ac7 10bf
000003a0: 268a 3cbc 9b9e 81bd 954f 21bf eb4b 77be
000003b0: 6bb3 513e 6fa9 853e c7d6 06be 8082 0dbf
000003c0: 2818 393d f783 77bd 2905 febe 5d11 a4be
000003d0: 0edf e7be 712f 763e 8015 b7be 76de fbbe
000003e0: 2c1f 92bd 0936 27be 4047 d2be 4866 82be
000003f0: eb12 c4bd 1c5d babe 3684 b0be a158 d93b

fc2.bias f4 [4]
0.3027184 -0.02079541 -0.23950183 -0.32526472
00000000: e8fd 9a3e 235b aabc f83f 75be 1989 a6be
