Models/model_25_recs_earlystop.pt (torch, 952397 bytes, 32 tensors)

lstm.weight_ih_l0 f4 [512, 6]
0	0x3eaf8e21	0.34288123
1	0xbe83f606	-0.25773638
2	0x3debf636	0.115215704
3	0xbea493f5	-0.32144132
4	0x3dc56d3e	0.09639977
5	0x3e399b5f	0.18125676
6	0x3e78f76c	0.24313134
7	0xbd93cc03	-0.072166465
8	0x3e8a7ca1	0.2704821
9	0x3ebc1980	0.36738205
10	0xbf1fb911	-0.62391764
11	0xbe81b92c	-0.25336587
12	0x3d649b4b	0.05581216
13	0x3ecf4996	0.4048583
14	0xbf051ec0	-0.52000046
15	0x3e89ed33	0.2693878
16	0xbdf5c1d6	-0.11999862
17	0xbedb4d71	-0.4283252
18	0x3e06d4fb	0.13167183
19	0xbea307ce	-0.31841892
20	0xbdd9143f	-0.10599565
21	0x3d851aa3	0.06499221
22	0xbdfa5924	-0.122240335
23	0xbe1191c1	-0.14215757
24	0xbe3cf51a	-0.18452874
25	0x3a5155cc	0.0007985502
26	0xbe02e2ad	-0.12781782
27	0xbd2b6d0a	-0.041852035
28	0xbeacfa39	-0.33784655
29	0xbe91f235	-0.28505102
30	0x3ea64484	0.32474148
31	0xbe214cbb	-0.15751927
32	0xbcead5fd	-0.02866649
33	0x3e7a5699	0.24447097
34	0xbd29ff6e	-0.041503362
35	0xbebddd15	-0.37082735
36	0x3ec79f30	0.38988638
37	0xbd1ba62d	-0.038000274
38	0xbd4fef7b	-0.050765496
39	0x3eca9718	0.395684
40	0xbe2a2cf1	-0.16618706
41	0x3ef5e3dd	0.48025408
42	0x3e34cbf8	0.17655933
43	0x3e539ed2	0.20666054
44	0xbe2809c6	-0.16409978
45	0xbd8296b1	-0.06376398
46	0x3ce441a9	0.02786334
47	0xbdd74d88	-0.10512835
48	0xbd8e671f	-0.069532625
49	0x3e3cc3bf	0.18434046
50	0x3c119b4c	0.008887123
51	0xbe66b17b	-0.22528641
52	0xbec22814	-0.37921202
53	0xbe559e67	-0.20861207
54	0xbe72eca5	-0.23723085
55	0xbdfe2c3f	-0.12410783
56	0xbe125d70	-0.14293456
57	0x3d172562	0.036900885
58	0x3e2163cf	0.1576073
59	0xbe3d1f94	-0.18469077
60	0xbda276be	-0.079328045
61	0x3e8aa588	0.27079415
62	0xbe373515	-0.17891343
63	0x3e8da54a	0.27665168
64	0xbe25cf71	-0.16192414
65	0xbe6b30ee	-0.22967884
66	0xbed83acb	-0.42232355
67	0xbe8828a9	-0.2659352
68	0x3e80af92	0.2513395
69	0xbf62e2e6	-0.8862747
70	0xbe1d2fdb	-0.15350287
71	0x3f5a0ae3	0.8517286
72	0x3e0f4bdd	0.13993783
73	0x3e4d21e8	0.20032465
74	0xbea0c701	-0.31401828
75	0x3d9173a3	0.07102134
76	0xbd960377	-0.073248796
77	0x3d533beb	0.051570814
78	0xbe851d80	-0.2599907
79	0x3e17cb57	0.14823662
80	0x3e7ef08e	0.24896452
81	0x3cc11f63	0.023574537
82	0xbdf433fb	-0.11923977
83	0x3de92722	0.11384417
84	0x3edce40a	0.4314273
85	0x3e77036d	0.241224
86	0x3e1c2fd2	0.15252617
87	0x3f04b162	0.51833165
88	0xbe4a0771	-0.19729401
89	0xbe0f20a8	-0.13977301
90	0xbde38b23	-0.111105226
91	0xbecea2d5	-0.40358606
92	0xbe35898b	-0.1772825
93	0x3e97fbd9	0.29684332
94	0x3d6c50f6	0.057694398
95	0x3e886f31	0.26647332
96	0xbe67cc77	-0.22636591
97	0x3f045bdd	0.5170267
98	0xbe417fc6	-0.18896398
99	0x3e85b925	0.26117817
100	0x3d4f04b2	0.050541587
101	0xbeadaf5a	-0.33922845
102	0x3e15da87	0.14634143
103	0xbe35b797	-0.17745815
104	0x3de6eb0a	0.11275299
105	0x3e6262f3	0.22108059
106	0xbd9bbaf7	-0.0760402
107	0xbd79c1e3	-0.06097592
108	0x3e83ca04	0.25740063
109	0x3ec62302	0.38698584
110	0xbe0c43fc	-0.13697809
111	0x3eb77c87	0.35837194
112	0xbe818413	-0.25296077
113	0x3e515e68	0.2044617
114	0x3e84b3d7	0.25918457
115	0xbc3b8052	-0.011444168
116	0xbe5f1128	-0.21783888
117	0xbca0d8aa	-0.019634563
118	0xbe376545	-0.17909725
119	0xbe6cd666	-0.23128662
120	0x3ea48de8	0.32139516
121	0x3f05aa67	0.5221314
122	0xbe3454ef	-0.17610525
123	0x3ebc7bd5	0.36813226
124	0xbeec00d9	-0.46094397
125	0x3e57b82c	0.2106635
126	0x3d26e8d2	0.04074938
127	0xbda2d3d7	-0.079505615
128	0x3db6133a	0.08890386
129	0x3d0ff50a	0.035145797
130	0xbdd13897	-0.10215872
131	0x3dff28a6	0.12458925
132	0xbe21f3e3	-0.15815692
133	0x3e44efe5	0.19232138
134	0x3cf8d810	0.030376464
135	0xbd4a88e4	-0.049446955
136	0x3d50e672	0.05100102
137	0xbe5b67fc	-0.21426386
138	0x3c297a0f	0.010344042
139	0xbdd591f0	-0.10428226
140	0x3e161513	0.14656477
141	0x3f476497	0.7788786
142	0xbdf36e15	-0.11886231
143	0xbe184841	-0.14871313
144	0x3c22e791	0.009942905
145	0xbdfddf17	-0.12396067
146	0x3d8d5bbc	0.069022626
147	0x3def52eb	0.11685737
148	0xbe383aa2	-0.17991117
149	0x3eb8e37c	0.36111057
150	0xbe4b7546	-0.19868955
151	0x3c93652a	0.017992575
152	0xbe30933f	-0.1724367
153	0xbb868543	-0.0041052415
154	0x3e3908c9	0.18069758
155	0x3d94ed8c	0.07271871
156	0x3eb5f394	0.35537398
157	0x3d7e1abd	0.06203722
158	0xbdfaf791	-0.12254251
159	0x3cd3dfd2	0.025863562
160	0xbda8ec4d	-0.08248196
161	0xbe7e8de9	-0.24858822
162	0x3de17e3c	0.110104054
163	0xbd1ceeed	-0.038313795
164	0xbded7f0c	-0.11596498
165	0xbbea661a	-0.0071532847
166	0xbe472d3d	-0.19450851
167	0x3dd947ba	0.10609384
168	0x3e805750	0.25066614
169	0x3dd9ad6b	0.1062878
170	0x3df9a8bb	0.12190386
171	0xbe084acb	-0.13309781
172	0xbe72bc9d	-0.23704763
173	0x3ed7ea4a	0.42170936
174	0x3e47a512	0.19496563
175	0x3ec492fd	0.38393393
176	0x3ec91eb4	0.39281237
177	0x3eab5cea	0.33469325
178	0xbe11567c	-0.14193147
179	0xbe58488d	-0.21121426
180	0xbe5df94d	-0.21677132
181	0xbe94dc5f	-0.2907438
182	0x3f1f87e0	0.62316704
183	0xbe51ee37	-0.20501028
184	0xbdc20e03	-0.09475329
185	0xbf4c41d0	-0.7978792
186	0x3e1c4d3e	0.1526384
187	0xbe3ddb27	-0.18540631
188	0x3e215619	0.157555
189	0x3cfcfc64	0.030882068
190	0xbe516130	-0.2044723
191	0x3eaffdd1	0.34373334
192	0x3ecc741d	0.39932337
193	0x3e91584e	0.28387684
194	0xbe15ad2f	-0.14616846
195	0x3e84bb1f	0.25924012
196	0xbe5b68e4	-0.21426731
197	0xbdf508f4	-0.11964598
198	0xbebaa31a	-0.36452562
199	0xbd4a54c7	-0.049397256
200	0x3d67ca61	0.056589488
201	0xbd2494c3	-0.040180933
202	0xbecb45b6	-0.39701623
203	0xbd9ffa23	-0.07811382
204	0xbd5e4734	-0.054267123
205	0xbe2b7628	-0.16744292
206	0xbe16cf6e	-0.14727566
207	0x3e75377b	0.23946945
208	0xbe90b9f0	-0.2826686
209	0xbd900c8d	-0.07033644
210	0xbbaec818	-0.0053339116
211	0xbe42cbb7	-0.19023024
212	0xbf0f698b	-0.5602042
213	0xbeb84903	-0.35993204
214	0x3e4c9de3	0.19982104
215	0xbe6a686a	-0.22891393
216	0x3e69536c	0.22785729
217	0x3d957466	0.07297592
218	0xbf484626	-0.7823204
219	0x3ea63e96	0.32469624
220	0xbf230593	-0.6368038
221	0x3fb21e76	1.3915546
222	0x3d94d80a	0.07267769
223	0x3ea94efd	0.33068076
224	0xbe76e93d	-0.24112411
225	0x3e7882ea	0.2426869
226	0x3cc252a5	0.023721049
227	0x3e0e51c1	0.13898374
228	0x3dcf2c97	0.10115927
229	0xbe89e485	-0.2693216
230	0x3f0c6c65	0.54852897
231	0xbf05c6be	-0.5225638
232	0xbea762a3	-0.3269244
233	0x3c471d42	0.012152972
234	0x3cc7a27e	0.024369475
235	0x3f3d5fff	0.73974603
236	0xbcd2ace6	-0.02571721
237	0x3d680701	0.056647304
238	0xbd2a4b94	-0.041575983
239	0xbd2d802d	-0.042358566
240	0x3e347c70	0.17625594
241	0x3e8491fc	0.25892627
242	0x3dc669de	0.09688161
243	0x3e2c42cf	0.1682236
244	0xbf11b393	-0.56914634
245	0x3eaa9414	0.333161
246	0x3ea19516	0.31559056
247	0x3e898c94	0.26865065
248	0xbd84e33f	-0.06488656
249	0x3da8ad88	0.082362235
250	0xbe97c058	-0.29638934
251	0xbe638d9e	-0.22221991
252	0x3c3c7cd2	0.011504369
253	0xbb6700f1	-0.0035248364
254	0xbe8e8502	-0.27835852
255	0xbe4112bd	-0.18854804

lstm.weight_hh_l0 f4 [512, 128]
0	0xbe41270d	-0.18862553
1	0x3e5c58c8	0.21518242
2	0x3c358ccd	0.011080933
3	0xbe2754cb	-0.1634094
4	0xbdb9d325	-0.09073476
5	0x3e84d708	0.25945306
6	0x3ca2e994	0.01988677
7	0x3e1e1c78	0.15440547
8	0x3d90ff64	0.07079962
9	0xbd55739a	-0.0521122
10	0x3e4e43db	0.20143072
11	0x3b88b1b8	0.0041715764
12	0x3df84d68	0.12124139
13	0x3c4b6518	0.012414239
14	0x3de449c5	0.11146883
15	0xbe477a18	-0.19480169
16	0x3e6794d1	0.22615363
17	0x3c7df320	0.01549986
18	0x3e21e63c	0.15810484
19	0x3e1de91f	0.1542096
20	0x3eae4f3a	0.3404482
21	0x3dc29390	0.095008016
22	0x3e07a65d	0.13247056
23	0x3dea131d	0.11429427
24	0x3cef7c93	0.029234206
25	0xbe24f501	-0.16109087
26	0xbe5e4559	-0.21706142
27	0xbe91b325	-0.2845699
28	0xbf02a589	-0.51033837
29	0x3ef2e990	0.4744382
30	0xbedc7986	-0.43061465
31	0xbe570339	-0.20997323
32	0xbe503336	-0.20332035
33	0xbe07f38f	-0.13276504
34	0x3dae2c3b	0.0850453
35	0x3e00f7f5	0.12594588
36	0x3ebd2de9	0.3694909
37	0x3e5e0cad	0.21684523
38	0xbe886f45	-0.26647392
39	0x3ddade59	0.10686941
40	0xbe612dfd	-0.219902
41	0x3df44c1a	0.11928578
42	0xbc87c2d2	-0.01657239
43	0xbde77598	-0.11301726
44	0xbd6f8633	-0.05847759
45	0x3cf19653	0.029490625
46	0xbdd38c84	-0.103295356
47	0x3dc42d71	0.0957898
48	0xbe6db529	-0.23213638
49	0xbda0ddcd	-0.07854805
50	0xbd95fc9a	-0.073235705
51	0xbeac9e00	-0.33714294
52	0x3e26b6f7	0.16280733
53	0xbcf775c0	-0.030207515
54	0x3dc00d30	0.09377515
55	0x3e91324e	0.28358692
56	0xbe79055d	-0.24318452
57	0x3eb54a50	0.35408258
58	0x3e3dbfe3	0.1853023
59	0x3e32d197	0.17462765
60	0x3e16e71a	0.14736596
61	0xbea67c34	-0.32516634
62	0x3e07fd06	0.13280115
63	0xbe6a939f	-0.22907875
64	0xbd9716f0	-0.07377422
65	0xbd99a9df	-0.075031035
66	0x3ea65c74	0.3249241
67	0x3dd8a844	0.10578969
68	0xbe786334	-0.24256593
69	0x3e0c21eb	0.13684814
70	0xbdea8bbf	-0.11452436
71	0xbe81806f	-0.252933
72	0xbe8b6c6c	-0.27231157
73	0xb946b410	-0.0001894983
74	0x3e0ae608	0.13564312
75	0xbea749eb	-0.32673582
76	0xbeac3f38	-0.33641982
77	0xbe3b706c	-0.18304604
78	0x3dec57f6	0.11540215
79	0x3d76bc1f	0.060238
80	0x3e52fe70	0.20604873
81	0x3d08a5f0	0.033361375
82	0x3e6d5301	0.23176195
83	0xbe07b859	-0.13253917
84	0x3deae39f	0.114691965
85	0xbdf6a72e	-0.12043606
86	0xbe28ec6a	-0.16496435
87	0xbe8dc2cf	-0.2768769
88	0x3d58a7cb	0.052894395
89	0xbb17b57b	-0.0023148942
90	0xbe6190f9	-0.22027959
91	0xbd8c7ed7	-0.0686013
92	0x3d21387e	0.039360516
93	0x3e1fb280	0.15595436
94	0x3da32301	0.07965661
95	0x3dcb70c0	0.09933615
96	0x3ca02ab7	0.019551618
97	0xbdede716	-0.11616342
98	0xbec062db	-0.3757542
99	0x3db4bd05	0.08825115
100	0xbed54e5e	-0.41661352
101	0xbe465059	-0.19366588
102	0x3df95315	0.1217405
103	0x3e99ddcb	0.30052027
104	0x3c5fbd53	0.013655978
105	0x3dfeaca5	0.12435273
106	0x3e94223d	0.28932372
107	0x3c947dbc	0.018126361
108	0xbdcc4c2e	-0.099754676
109	0x3c9961e9	0.018723445
110	0x3ea9f8ba	0.33197576
111	0x3e6102b2	0.21973684
112	0x3d052d62	0.032513984
113	0x3cff03d6	0.031129759
114	0x3dd7a9c4	0.10530427
115	0x3cb3303b	0.021873584
116	0x3d1f2d5b	0.038861614
117	0xbc758cb7	-0.014987162
118	0x3dc26c1d	0.09493277
119	0xbe63677b	-0.22207443
120	0x3e009148	0.1255542
121	0xbe17f7a0	-0.14840555
122	0xbe523715	-0.20528825
123	0x3ec275b4	0.37980425
124	0xbd93f514	-0.07224479
125	0xbe66b855	-0.22531255
126	0x3b33cddc	0.0027435934
127	0xbe21d25c	-0.15802902
128	0x3ed0356a	0.40665752
129	0x3e0c9f30	0.137326
130	0x3e91577f	0.28387067
131	0xbe09bc4b	-0.13450734
132	0xbc38eb89	-0.011286625
133	0xbd00f415	-0.031482775
134	0xbe0c266b	-0.1368653
135	0x3e0f1972	0.1397455
136	0x3ebfe024	0.37475693
137	0xbb33fa97	-0.0027462596
138	0xbbd56da0	-0.0065133125
139	0xbe47ca77	-0.19510828
140	0xbca8f542	-0.02062476
141	0xbd757ac4	-0.05993153
142	0x3da86524	0.08222416
143	0x3da62b25	0.08113698
144	0x3eae0fb9	0.3399637
145	0xbe43fd32	-0.19139555
146	0x3e3498fc	0.17636484
147	0x3db2970c	0.08720216
148	0x3c0c6e73	0.008571255
149	0x3e8e83ca	0.27834922
150	0x3e5b485a	0.21414319
151	0xbde6e31e	-0.11273788
152	0x3e21058e	0.15724775
153	0x3bef08df	0.0072947587
154	0xbcecaaf7	-0.028890116
155	0x3d8b9ed7	0.06817406
156	0xbdbe41e8	-0.09289914
157	0x3e1a496e	0.15067074
158	0x3ea4f787	0.32220098
159	0xbf190676	-0.59775484
160	0xbde2510d	-0.110506155
161	0x3d8f4aec	0.06996712
162	0x3d1006dc	0.03516279
163	0xbed50686	-0.4160654
164	0x3d9a7327	0.07541495
165	0x3c002d7e	0.007823346
166	0xbdc63111	-0.096773274
167	0xbddf85dc	-0.109142035
168	0x3db2a98c	0.08723745
169	0x3df6df49	0.12054307
170	0x3e93cf7f	0.28869244
171	0x3cf3b5b4	0.029749729
172	0xbd34590a	-0.044030227
173	0xbddd2699	-0.107983775
174	0xbdc316f5	-0.09525863
175	0xbd8d2e49	-0.06893594
176	0x3e2eb010	0.1705935
177	0x3d9730be	0.07382344
178	0x3ceb2aee	0.028706994
179	0xbe233a46	-0.15940198
180	0x3b3d547d	0.002888947
181	0x3e4e1b9d	0.20127721
182	0xbd71f1f8	-0.05906865
183	0x3dfcbc9e	0.123406634
184	0x3e0def4a	0.13860813
185	0x3e14d9cd	0.1453621
186	0x3df11088	0.11770731
187	0x3e4f7879	0.202608
188	0x3d667f25	0.0562736
189	0x3d402479	0.046909783
190	0x3c968cda	0.01837771
191	0xbe8670c5	-0.2625791
192	0x3ea33524	0.3187648
193	0xbe4d1fa2	-0.20031598
194	0x3e9508f1	0.29108384
195	0x3e1618e7	0.14657937
196	0x3e602de0	0.218925
197	0xbd481450	-0.048847497
198	0xbdf455ab	-0.11930402
199	0xbe8777db	-0.2645863
200	0xbd947ef2	-0.072507754
201	0xbf1d3839	-0.61413914
202	0x3e9c4e16	0.30528325
203	0x3e5036c6	0.20333394
204	0xbc192d77	-0.009349219
205	0xbda3fb19	-0.080068775
206	0x3c8541a7	0.016266657
207	0x3d214f73	0.03938241
208	0xbe18fc17	-0.14939915
209	0x3acb0df9	0.0015491835
210	0x3f0b15f6	0.54330385
211	0x3eb4361b	0.3519753
212	0xbea0989b	-0.3136643
213	0x3ea2d35d	0.31801882
214	0xbe9329e8	-0.2874291
215	0xbd782deb	-0.060590666
216	0xbc080377	-0.008301607
217	0xbb618fd8	-0.0034418013
218	0xbec9443f	-0.3930988
219	0x3d461e75	0.04836889
220	0x3e4907c4	0.19631869
221	0xbe02acd1	-0.12761237
222	0x3e84ca85	0.2593576
223	0x3d6c65b2	0.05771417
224	0x3e03f55b	0.12886564
225	0x3e47f90b	0.19528596
226	0xbccfe357	-0.025376959
227	0x3e05e292	0.13074711
228	0x3d318054	0.043335274
229	0xbe454a63	-0.19266658
230	0x3ef11561	0.47086623
231	0x3e5dd616	0.21663699
232	0x3c227343	0.009915176
233	0xbd92938d	-0.07157049
234	0xbebccbbe	-0.36874193
235	0xbdda894d	-0.10670719
236	0xbd5ed0ef	-0.054398473
237	0x3dd9d20b	0.10635766
238	0x3e0a5afb	0.13511269
239	0x3dd5d5bf	0.104411595
240	0xbd3e91ad	-0.046525646
241	0xbe8740d2	-0.2641664
242	0xbd0c98e1	-0.034325484
243	0xbee18c3b	-0.440523
244	0x3e3c4c4a	0.18388477
245	0x3dd7eac0	0.10542822
246	0xbe4196c9	-0.18905176
247	0xbe9b6547	-0.30350706
248	0x3d990a77	0.07472699
249	0x3bedb3c6	0.0072540967
250	0xbe607d55	-0.2192281
251	0x3d77ed19	0.06052885
252	0x3d0e3353	0.034716915
253	0x3d3bd61d	0.04585849
254	0xbe2274fe	-0.15864941
255	0xbd22cf64	-0.039748564

lstm.bias_ih_l0 f4 [512]
0	0xbe5e1a28	-0.21689665
1	0xbdf6420c	-0.12024316
2	0xbe09dbc5	-0.13462742
3	0xbde5ba27	-0.11217146
4	0xbe3cf1de	-0.1845164
5	0xbe4f138a	-0.20222297
6	0xbe705045	-0.2346812
7	0xbe7f40c8	-0.24927056
8	0xbd97da2c	-0.0741466
9	0xbe811a1a	-0.25215226
10	0x3d708ea5	0.058729786
11	0xbed27475	-0.41104475
12	0x3d013f5c	0.031554565
13	0xbe2d90e2	-0.169498
14	0xbe337ae9	-0.17527355
15	0xbe9aa1a8	-0.3020146
16	0xbe3c6469	-0.18397678
17	0xbea10595	-0.3144957
18	0xbcc692ce	-0.024239924
19	0xbdc7dbaa	-0.097586945
20	0xbe8c014c	-0.2734474
21	0xbd9cfc8b	-0.07665356
22	0xbe7886b3	-0.24270134
23	0xbdb2e60f	-0.087352864
24	0xbe14b387	-0.14521609
25	0xbe1ea4c8	-0.15492547
26	0xbe1f0e8b	-0.15532891
27	0xbe411811	-0.18856837
28	0xbdf5a9b3	-0.11995258
29	0xbe63b0ff	-0.22235487
30	0xbe3ae1cd	-0.18250199
31	0xbe3ad3c6	-0.18244848
32	0xbd93cc1e	-0.07216667
33	0xbda8b230	-0.082371116
34	0xbd99c481	-0.07508183
35	0x3d87587f	0.06608676
36	0xbe863930	-0.26215506
37	0xbd8a0a56	-0.06740253
38	0xbe2a2ab8	-0.16617858
39	0xbe5ad468	-0.21370089
40	0xbeb4238f	-0.3518338
41	0xbe5dd386	-0.21662721
42	0xbe492c8d	-0.19645901
43	0xbe8258b3	-0.25458297
44	0x3def340d	0.1167985
45	0xbeae2abd	-0.34016982
46	0xbd9ea8bf	-0.077470295
47	0xbdb54a5a	-0.08852072
48	0xbe470372	-0.19434908
49	0xbe8ab945	-0.27094474
50	0xbb6acc08	-0.0035827179
51	0xbcef1503	-0.029184824
52	0xbdb54297	-0.08850592
53	0xbe1192be	-0.14216134
54	0x3dd788dc	0.10524151
55	0xbda35675	-0.07975475
56	0xbdd8c83f	-0.10585069
57	0x3d9393d9	0.07205934
58	0xbcb90b41	-0.022588374
59	0xbea60fdc	-0.32433975
60	0xbe545614	-0.20735961
61	0xbeb38e03	-0.35069284
62	0xbe1037cf	-0.1408379
63	0xbe5f0202	-0.2177811
64	0xbeca6cf3	-0.39536247
65	0xbd291791	-0.04128224
66	0xbdebb94d	-0.11509953
67	0xbe442057	-0.19152962
68	0xbe6a5bca	-0.22886577
69	0xbe200a6c	-0.15628976
70	0xbe94e096	-0.29077595
71	0xbe969f45	-0.29418388
72	0xbda426fe	-0.0801525
73	0xbe9d88f6	-0.30768555
74	0xbdd7e02a	-0.10540803
75	0xbe5b56c1	-0.21419813
76	0xbe415518	-0.18880117
77	0xbe4a0b5c	-0.19730896
78	0xbd880b4c	-0.0664278
79	0xbdaba92d	-0.08381877
80	0xbe4300aa	-0.19043222
81	0xbcbe158d	-0.023203636
82	0x3e1464e1	0.14491607
83	0xbe81c914	-0.25348723
84	0xbdebc3ca	-0.11511953
85	0xbe4cc7f3	-0.1999815
86	0xbd6bb1ef	-0.057542738
87	0xbc1b4551	-0.009476976
88	0xbe0bb5e8	-0.1364361
89	0xbe38bbcf	-0.18040393
90	0x3e4cbbb8	0.19993484
91	0xbea9cf49	-0.3316596
92	0xbdd05abc	-0.10173556
93	0x3dbeca4d	0.093159296
94	0xbdc2a9c4	-0.095050365
95	0xbe58b2e4	-0.21161991
96	0xbe6875e2	-0.22701219
97	0xbd50b0af	-0.05094975
98	0xbd9111b4	-0.07083455
99	0xbeb0daeb	-0.3454202
100	0xbd5a16eb	-0.053244513
101	0xbeb717e9	-0.3576043
102	0xbe92e761	-0.28692153
103	0xbe3b72aa	-0.1830546
104	0xbe271fd2	-0.16320732
105	0xbebb7f9e	-0.36620802
106	0xbdc31589	-0.09525592
107	0xbe09f6f8	-0.13473117
108	0xbe4a56fa	-0.19759741
109	0xbe1ca94b	-0.15298955
110	0xbe32bf6e	-0.17455837
111	0xbe21817e	-0.15772054
112	0x3dfe0f0e	0.12405215
113	0x3dcb7ac9	0.09935529
114	0xbe08b398	-0.1334976
115	0xbee113b3	-0.43960342
116	0xbe952780	-0.291317
117	0xbe8bd1f8	-0.2730863
118	0xbe2d3e4d	-0.16918297
119	0xbe6026b0	-0.21889758
120	0xbe847822	-0.25872904
121	0xbdefcf6b	-0.11709484
122	0xbe246cf6	-0.1605719
123	0xbea4572b	-0.32097754
124	0xbe1506ab	-0.14553325
125	0xbebdb720	-0.37053776
126	0xbe44ad6e	-0.19206783
127	0xbe8578d6	-0.26068753
128	0x3e0dc1b8	0.13843429
129	0xbe93c766	-0.28863066
130	0xbe41ddf4	-0.18932325
131	0xbe29bbe0	-0.16575575
132	0xbe33694c	-0.17520636
133	0xbc35ae57	-0.011088929
134	0xbe6ed426	-0.23323116
135	0xbde1c3cf	-0.11023676
136	0xbe8a292d	-0.2698454
137	0xbead7695	-0.33879533
138	0xbd843927	-0.064562134
139	0xbee47eb1	-0.44627908
140	0xbd2f6226	-0.04281821
141	0xbc39089d	-0.0112935575
142	0xbea33571	-0.3187671
143	0xbe22d512	-0.15901592
144	0xbe32081e	-0.17385909
145	0xbe32eb5b	-0.17472593
146	0x3e9db75a	0.3080395
147	0x3d6cbda7	0.057798054
148	0x3e6a5884	0.22885329
149	0xbe263221	-0.1623006
150	0x3d8b603b	0.06805464
151	0xbe0264bd	-0.12733741
152	0xbd979f40	-0.074034214
153	0xbe32b4a5	-0.17451723
154	0x3da59789	0.08085544
155	0x3ce3936a	0.027780253
156	0xbdaa3bac	-0.08312163
157	0xbea2d78d	-0.31805077
158	0xbe417536	-0.18892369
159	0xbd969528	-0.07352668
160	0x3db3441c	0.08753225
161	0xbe0ac606	-0.13552102
162	0xbd3fbb83	-0.046809684
163	0xbde9385a	-0.11387701
164	0x3e8de287	0.2771189
165	0xbcbc62e9	-0.022996383
166	0xbe13881a	-0.14407387
167	0xbe014cd8	-0.1262697
168	0xbe99c6d7	-0.30034515
169	0x3da3e5da	0.08002825
170	0xbc8bd9f4	-0.017071702
171	0xbd93effa	-0.07223506
172	0x3c213dc8	0.00984139
173	0x3ebfc8ba	0.3745783
174	0x3e581312	0.21101025
175	0xbdf024fc	-0.11725804
176	0xbd97141e	-0.07376884
177	0xbea6fede	-0.32616323
178	0x3ce6451c	0.028109126
179	0x3c601964	0.013677929
180	0xbd43e6fa	-0.0478277
181	0x3d11cca1	0.03559554
182	0x3d39c2f7	0.04535195
183	0xbe96c746	-0.2944891
184	0xbde8c75c	-0.1136615
185	0x3e51496a	0.20438161
186	0x3ea1dc0d	0.31613198
187	0x3e659ea8	0.22423804
188	0xbe00cf65	-0.12579115
189	0xbe5fadc0	-0.21843624
190	0xbdac0e80	-0.08401203
191	0xbdc44738	-0.095838964
192	0x3b2d15af	0.002641063
193	0xbe1bb4ed	-0.15205736
194	0x3e8e9c4e	0.27853626
195	0xbdf30762	-0.118666425
196	0xbe687b6c	-0.22703332
197	0xbe2f8a30	-0.17142558
198	0xbde1e4b6	-0.11029951
199	0xbe1dd295	-0.15412362
200	0x3e27d2a1	0.16388942
201	0x3eeada79	0.45869806
202	0xbe1bf78d	-0.15231152
203	0xbe1f5925	-0.1556135
204	0xbe3aaa94	-0.18229133
205	0xbe917a97	-0.2841384
206	0xbe197b4a	-0.14988437
207	0xbddac7ea	-0.10682662
208	0xbd87f5df	-0.06638693
209	0x3eb66ce5	0.35629955
210	0xbe52fbd7	-0.20603882
211	0xbde4e0c7	-0.111756854
212	0xbdbe3135	-0.09286729
213	0x3d9ef354	0.07761255
214	0xbdb27068	-0.08712846
215	0x3e8fd2f8	0.28090644
216	0x3c88f245	0.016717086
217	0xbe4a5d4d	-0.19762154
218	0x3e8798e0	0.26483822
219	0xbeb7a7f8	-0.35870337
220	0xbd9a9cdd	-0.075494505
221	0x3c3c6f43	0.011501136
222	0x3aa9fe55	0.0012969474
223	0xbd9e2a90	-0.07722962
224	0xbe8ec4c5	-0.27884498
225	0xbe70bcba	-0.23509493
226	0x3cba2d05	0.022726545
227	0xbecc3bbe	-0.3988933
228	0x3ed8e08e	0.42358822
229	0xbe9569f1	-0.2918239
230	0x3d4b82fe	0.04968547
231	0xbd86c0fc	-0.065797776
232	0xbd8ea7cc	-0.069655985
233	0x3ebc825f	0.36818215
234	0x3d13de6f	0.0361008
235	0xbcce701a	-0.025199939
236	0xbe5876ed	-0.21139117
237	0x3aa7f642	0.0012814479
238	0xbbef7ad0	-0.0073083416
239	0xbea3a603	-0.31962594
240	0xbd500d67	-0.05079403
241	0x3e29b5f5	0.16573317
242	0xbd7c2c17	-0.061565485
243	0x3d96152f	0.07328259
244	0x3e35e37d	0.17762561
245	0xbde85c0a	-0.1134568
246	0x3e8818c4	0.26581395
247	0xbdaa0b0b	-0.083028875
248	0xbe154638	-0.14577568
249	0x3dbba753	0.09162774
250	0xbdf0c003	-0.11755373
251	0x3d775243	0.060381185
252	0xbd02576f	-0.031821664
253	0x3eb6d57e	0.35709757
254	0x3b31dc9d	0.0027139552
255	0xbe96c549	-0.29447392

lstm.bias_hh_l0 f4 [512]
0	0xbe18f46b	-0.14936988
1	0xbdcdc541	-0.10047389
2	0xbd220913	-0.039559435
3	0xbe2c047c	-0.16798586
4	0xbe6ac68b	-0.229273
5	0xbe267c44	-0.16258341
6	0xbe44e9d9	-0.19229831
7	0xbe6792ab	-0.22614543
8	0xbd736f44	-0.059432283
9	0xbeba17a3	-0.36346158
10	0xbcde3a27	-0.027127339
11	0xbeea6932	-0.45783383
12	0x3d2437b8	0.0400922
13	0xbe80c81f	-0.2515268
14	0xbe63d27e	-0.22248265
15	0xbe8310fc	-0.25598896
16	0xbe99d3a5	-0.30044284
17	0xbebdbd23	-0.37058362
18	0xbdca8e8a	-0.098904684
19	0xbe110481	-0.14161874
20	0xbea6c5f4	-0.325729
21	0xbdec9082	-0.11551
22	0xbe0cbd09	-0.13743986
23	0xbd87994d	-0.06621037
24	0xbe4c9baa	-0.19981256
25	0xbe34587f	-0.17611884
26	0xbcd6e77c	-0.026233427
27	0xbe10382e	-0.14083931
28	0xbc5285ea	-0.01284931
29	0xbe3efaeb	-0.18650405
30	0xbe0b562b	-0.13607089
31	0xbe2beccc	-0.1678955
32	0xbe1935c1	-0.14961912
33	0xbe6b4c22	-0.22978261
34	0xbe1bbded	-0.1520917
35	0x3e294af6	0.16532502
36	0xbeb996f7	-0.3624799
37	0xbdb2f2fb	-0.08737751
38	0xbe7e6314	-0.24842483
39	0xbd88cf71	-0.06680191
40	0xbe91763e	-0.28410524
41	0xbe1ff75a	-0.15621701
42	0xbdbe339d	-0.09287188
43	0xbea3558a	-0.319012
44	0xbc7cf888	-0.015440114
45	0xbed0c39d	-0.4077424
46	0xbc848e8d	-0.016181255
47	0xbe0248ae	-0.12723038
48	0xbdb322b5	-0.08746854
49	0xbe7b145b	-0.24519484
50	0x3d801605	0.062542
51	0xbdd6c869	-0.10487444
52	0xbe1853ad	-0.1487567
53	0xbe39b9e2	-0.18137315
54	0x3dcf18dc	0.101121634
55	0xbe16630f	-0.14686225
56	0xbe5c324e	-0.21503565
57	0x3cd096b6	0.02546249
58	0xbe1df85f	-0.15426777
59	0xbe798edb	-0.24370901
60	0xbe1d393a	-0.15353861
61	0xbeadf0d2	-0.33972794
62	0xbde45c6b	-0.1115044
63	0xbe7daa67	-0.24772035
64	0xbece2628	-0.40263486
65	0xbde99c19	-0.114067264
66	0xbdc7035a	-0.09717436
67	0xbe1012a0	-0.14069605
68	0xbe65c200	-0.22437286
69	0xbd9a3110	-0.07528889
70	0xbe1b5f67	-0.15173112
71	0xbe10892e	-0.1411483
72	0xbd0c8e8b	-0.034315627
73	0xbe85817b	-0.26075348
74	0xbcb46871	-0.022022458
75	0xbe590dcb	-0.21196668
76	0xbe792a8b	-0.24332635
77	0xbe6ffbde	-0.23435923
78	0xbd8f1f25	-0.06988362
79	0xbc1db230	-0.009625003
80	0xbe3dd859	-0.18539561
81	0xbd856dc1	-0.065150745
82	0x3e540ed3	0.2070878
83	0xbe3a5eb8	-0.18200195
84	0xbe30e8a6	-0.17276248
85	0xbea0a03a	-0.31372243
86	0xbe3c2539	-0.18373574
87	0xbde544f9	-0.11194796
88	0xbdf28d0e	-0.1184331
89	0xbe107cb3	-0.14110069
90	0x3e881553	0.2657877
91	0xbeddfa85	-0.43355194
92	0xbd43f88d	-0.04784446
93	0xbc04ba6c	-0.008101087
94	0xbe408ce5	-0.18803747
95	0xbe662ad9	-0.22477283
96	0xbe3bc92b	-0.18338458
97	0xbd595401	-0.053058628
98	0xbcd33628	-0.02578266
99	0xbec619bb	-0.38691506
100	0xbe60043f	-0.2187662
101	0xbe98fb86	-0.29879397
102	0xbe662f8f	-0.2247908
103	0xbeacc1a2	-0.3374148
104	0xbe391f9f	-0.18078469
105	0xbeb7118e	-0.3575558
106	0xbe6efdf9	-0.2333907
107	0xbd63db34	-0.05562897
108	0xbdbd525f	-0.09244227
109	0xbdb5b2f8	-0.08872026
110	0xbe52203e	-0.20520112
111	0xbe8824ea	-0.26590663
112	0x3e2d6a0a	0.16934982
113	0x3e1e2352	0.15443161
114	0xbe07bf90	-0.13256669
115	0xbec004ff	-0.37503812
116	0xbe9f4856	-0.31109875
117	0xbe5cbd16	-0.21556506
118	0xbe4eb42c	-0.20185918
119	0xbe7382ab	-0.23780315
120	0xbe30326b	-0.17206733
121	0xbe5c5592	-0.21517017
122	0xbe3ea487	-0.1861745
123	0xbe9caa75	-0.30598798
124	0xbcb2bf80	-0.02181983
125	0xbe9ccdec	-0.30625856
126	0xbe0f464d	-0.13991661
127	0xbeba0229	-0.36329773
128	0x3ddb0d78	0.10695928
129	0xbe8f66d7	-0.28008148
130	0xbdc6f72d	-0.09715114
131	0xbe4ff908	-0.20309842
132	0xbe06d5a1	-0.1316743
133	0xbdcf3b92	-0.10118784
134	0xbe6bc7ee	-0.23025486
135	0xbdfb7987	-0.12279039
136	0xbe496386	-0.19666871
137	0xbed41ef6	-0.4142987
138	0x3d393999	0.045220945
139	0xbea23ec4	-0.3168851
140	0xba21e105	-0.0006175193
141	0x3dbba9a7	0.09163218
142	0xbe922d19	-0.28550032
143	0x3a5c7c17	0.0008410825
144	0xbe5dd073	-0.21661548
145	0xbe4e267f	-0.20131873
146	0x3e4a21d0	0.19739461
147	0x3d83b96c	0.06431851
148	0x3e825724	0.25457108
149	0xbdbddffb	-0.092712365
150	0xbbbb0c5b	-0.00570826
151	0xbe8327ef	-0.25616404
152	0xbdb850a7	-0.08999758
153	0xbe187478	-0.1488818
154	0x3dd66158	0.104677856
155	0xbd577344	-0.05260016
156	0xbe0f429a	-0.1399025
157	0xbe96d645	-0.2946035
158	0xbe811336	-0.2520997
159	0xbe2f8de8	-0.17143977
160	0x3e0f95b1	0.14021946
161	0xbd563d81	-0.05230475
162	0x3cfc16e5	0.030772636
163	0xbe49c772	-0.19704989
164	0x3ea6e2d0	0.3259492
165	0x3d454667	0.048162844
166	0xbe45e111	-0.19324137
167	0xbdd04984	-0.10170272
168	0xbe62892f	-0.22122644
169	0x3d97ce76	0.07412426
170	0x3bc27041	0.005933792
171	0xbe45e16f	-0.19324277
172	0x3dbc8d5e	0.09206651
173	0x3f0949c5	0.5362819
174	0x3e441bfc	0.191513
175	0xbe18b6a2	-0.14913419
176	0xbe5fbfc4	-0.21850497
177	0xbe7bf231	-0.24604107
178	0x3dace6e0	0.084424734
179	0xbce43300	-0.02785635
180	0xbc71780c	-0.014738094
181	0xbd9b9268	-0.07596284
182	0x3dc0b63c	0.094097584
183	0xbea1b199	-0.3158081
184	0xbe32ab14	-0.17448074
185	0x3e5d12bb	0.21589176
186	0x3ea43045	0.32068077
187	0x3dfd2d5a	0.12362166
188	0xbd6e3153	-0.058152508
189	0xbe3e2c64	-0.18571621
190	0xbe150d48	-0.14555848
191	0xbe014a94	-0.12626106
192	0xbe176199	-0.14783324
193	0xbda5fa64	-0.08104399
194	0x3e3b57d8	0.18295228
195	0xbd67e045	-0.056610364
196	0xbe054ece	-0.13018343
197	0xbe1d5c23	-0.15367179
198	0xbda8227a	-0.08209701
199	0xbcc5ba8c	-0.024136804
200	0x3dbae78c	0.09126195
201	0x3ebb659a	0.36600953
202	0xbe1abe2e	-0.1511161
203	0xbde82763	-0.113356374
204	0xbe42d7b9	-0.19027604
205	0xbe9c351b	-0.30509266
206	0xbdc4882b	-0.095962845
207	0xbde5db8c	-0.11223516
208	0xbe451324	-0.19245583
209	0x3eafa5bc	0.34306133
210	0xbe6c09cf	-0.23050617
211	0xbe72a3f2	-0.23695353
212	0xbd32e5e5	-0.043676276
213	0x3ddbd2f4	0.107335955
214	0xbe138515	-0.14406236
215	0x3eaea18a	0.3410762
216	0xbd99f2da	-0.075170234
217	0xbe67a58b	-0.22621743
218	0x3e016fc1	0.12640287
219	0xbe80e669	-0.2517579
220	0xbd8064fd	-0.06269262
221	0xbc31e0e0	-0.010856837
222	0x3cbaa8b2	0.022785518
223	0xbd024af4	-0.031809762
224	0xbe3683b2	-0.17823675
225	0xbe98b135	-0.29822698
226	0xbc855946	-0.01627792
227	0xbed976d3	-0.42473468
228	0x3ec3f12b	0.38269934
229	0xbe302d91	-0.17204882
230	0x3dbd62e6	0.09247379
231	0xbd7efd0a	-0.062253036
232	0xbd83141c	-0.0640032
233	0x3ec5894f	0.3858132
234	0xbdf8a116	-0.121401
235	0xbe03d9a2	-0.12875989
236	0xbdd50de2	-0.104030386
237	0xbd8c61b4	-0.06854573
238	0xbe0f6a25	-0.14005335
239	0xbe33585a	-0.17514172
240	0x3c373fc2	0.011184635
241	0x3e0479cb	0.12937085
242	0xbce081a2	-0.027405564
243	0x3d615434	0.055011943
244	0x3df5b6dc	0.11997768
245	0xbe381edd	-0.17980523
246	0x3e85208d	0.26001397
247	0xbdbf2e88	-0.09335047
248	0xbcabe215	-0.020981828
249	0xbc16e463	-0.009209725
250	0xbd563cb3	-0.05230398
251	0x3c8e1472	0.017343733
252	0x3c86ee71	0.01647112
253	0x3eaa45e5	0.3325645
254	0xbc8174e6	-0.015802812
255	0xbe73b40a	-0.23799148

fc1.weight f4 [64, 128]
0	0xbd8f58fe	-0.06999396
1	0x3e6dea27	0.23233853
2	0x3e018010	0.12646508
3	0x3dcaae96	0.09896581
4	0xbdbcaa62	-0.092121854
5	0x3db7bef2	0.08971967
6	0xbe18ab1a	-0.1490902
7	0xbda0ff95	-0.078612484
8	0xbbda91db	-0.0066702194
9	0xbe168f2a	-0.1470305
10	0x3e177f68	0.14794695
11	0x3d769981	0.060204986
12	0x3d8e7ad2	0.0695702
13	0x3d1e0c5d	0.03858601
14	0x3e9d2ab3	0.3069664
15	0x3add1c9d	0.0016869489
16	0x3e17b5bd	0.14815421
17	0x3dc3afe7	0.09555035
18	0x3ea10d38	0.31455398
19	0xbddc132f	-0.107458465
20	0x3e8a6e88	0.27037454
21	0x3dc63fa2	0.09680106
22	0x3da1b23c	0.07895324
23	0xbf046f38	-0.51732206
24	0x3c9193b1	0.01777062
25	0xbd101862	-0.035179503
26	0x3d06e103	0.03292943
27	0x3dad2582	0.0845442
28	0xbe517955	-0.20456441
29	0x3e35ddb3	0.17760353
30	0x3d60be63	0.054869067
31	0x3ec95885	0.39325348
32	0xbd90a1fb	-0.07062145
33	0x3dad6c33	0.08467903
34	0xbea520a0	-0.32251453
35	0x3dc324ad	0.0952848
36	0x3e52efc8	0.20599282
37	0x3e002814	0.12515289
38	0xbe6660da	-0.22497883
39	0x3db0a137	0.08624499
40	0xbc24849c	-0.010041382
41	0x3c72476f	0.014787539
42	0x3ccd0cfd	0.025030607
43	0xbccda993	-0.025105273
44	0x3d49ffdb	0.04931627
45	0x3e976a5a	0.29573327
46	0x3d88c08f	0.06677353
47	0xbdd9e40f	-0.10639202
48	0xbd6c9212	-0.05775649
49	0xbe3f9e17	-0.1871265
50	0x3e34a140	0.17639637
51	0xbe32e04f	-0.1746838
52	0x3e1c6179	0.15271558
53	0xbdf2f995	-0.1186401
54	0x3db41ecc	0.087949365
55	0x3e0a23d5	0.13490231
56	0xbd4d730f	-0.050158557
57	0xbd09e660	-0.03366697
58	0xbca04bd4	-0.019567408
59	0x3d551df4	0.05203052
60	0xbdb0bb97	-0.0862953
61	0xbe6b1892	-0.22958592
62	0x3ca5e21a	0.020249415
63	0x3ce7f79f	0.028316317
64	0xbe518ccf	-0.2046387
65	0x3dd97fea	0.10620101
66	0x3e526518	0.20546377
67	0xbd21fb10	-0.039546072
68	0xbf054a6f	-0.520667
69	0xbdcfadfe	-0.10140608
70	0x3e4fc304	0.20289236
71	0x3e4a3c46	0.19749555
72	0xbe163f43	-0.1467257
73	0xbe065b10	-0.13120675
74	0xbd95f2a9	-0.073216744
75	0xbd749988	-0.05971673
76	0xbe2853ad	-0.1643817
77	0xbd3ca206	-0.046052955
78	0xbcc6c33d	-0.024263019
79	0x3ec0e521	0.3767481
80	0xbd8a352e	-0.067484245
81	0x3d497586	0.049184345
82	0xbe24ead0	-0.16105199
83	0xbe66fa10	-0.22556329
84	0x3cba5855	0.022747198
85	0xbea8e392	-0.32986122
86	0x3d805bac	0.06267485
87	0xbe6cc921	-0.231236
88	0x3df0449a	0.11731835
89	0xbe5c98fd	-0.21542735
90	0xbb412860	-0.0029473528
91	0x3e093ed0	0.13402867
92	0x3ba3766c	0.004988482
93	0x3e30208d	0.17199917
94	0xbceaa9d1	-0.028645428
95	0xbdd56f9d	-0.10421679
96	0xbe9f39c0	-0.31098747
97	0x3e6135d2	0.21993187
98	0xbbd787b7	-0.0065774578
99	0x3d8f8d12	0.07009329
100	0xbe1436f5	-0.1447409
101	0x3d897574	0.067118555
102	0xbea941a1	-0.33057883
103	0x3e883642	0.26603895
104	0xbe80b435	-0.25137487
105	0xbe6d02bd	-0.23145576
106	0xbd5d85d5	-0.05408271
107	0x3cddbf37	0.027068717
108	0x3cfb6f19	0.030692624
109	0xbe7f95e3	-0.24959521
110	0x3dc2235a	0.09479399
111	0x3ddff2b7	0.10934966
112	0xbe5107be	-0.2041311
113	0x3deff492	0.1171657
114	0x3dfe1560	0.12406421
115	0x3e7b74c6	0.24556264
116	0x3b2e3f5c	0.0026588058
117	0x3e8b60cf	0.27222297
118	0x3f14b2cc	0.5808532
119	0xbe4e3f28	-0.2014128
120	0x3e3d9891	0.1851523
121	0xbdb4ba1d	-0.08824561
122	0xbd6f0860	-0.058357596
123	0x3dcf99fe	0.101367936
124	0xbd915047	-0.0709539
125	0xbcd5d2f0	-0.02610156
126	0x3d97261d	0.073803164
127	0xbd200751	-0.039069477
128	0xbd98092e	-0.07423626
129	0xbe2b8aad	-0.1675212
130	0x3cb92daf	0.022604791
131	0xbc922da1	-0.017844023
132	0xbdb9a7e1	-0.090652235
133	0xb9de6da3	-0.00042424825
134	0x3eaa5a7b	0.33272156
135	0xbd6460aa	-0.05575625
136	0xbeb06553	-0.34452304
137	0x3be1e625	0.0068938904
138	0x3d39e148	0.04538086
139	0xbd5c4f7c	-0.05378674
140	0x3d3e6dc7	0.04649141
141	0x3d7b6078	0.061371297
142	0x3e29f42a	0.16597047
143	0x3e394b3e	0.18095109
144	0xbdb30faa	-0.08743222
145	0x3c362292	0.011116641
146	0xbc815c1f	-0.015790997
147	0xbd1c5b48	-0.03817299
148	0xbdb17e50	-0.0866667
149	0x3caf0fd1	0.021369847
150	0xbd4f0ab1	-0.050547305
151	0xbde17697	-0.11008947
152	0xbe45a0c8	-0.19299614
153	0xbe03818d	-0.12842388
154	0xbdf52182	-0.11969282
155	0x3e055c24	0.1302343
156	0xbef03c4c	-0.46921003
157	0xbd8aa772	-0.06770219
158	0xbe8d7470	-0.27627897
159	0x3ddbd961	0.10734821
160	0xb9a69dd3	-0.00031779576
161	0xbd82c7f7	-0.063857965
162	0x3d9b4287	0.075810485
163	0x3de4de3e	0.11175202
164	0x3f205246	0.6262554
165	0x3dd05ac5	0.10173563
166	0x3e3e2f10	0.1857264
167	0x3d7b574a	0.061362542
168	0x3d18bec7	0.037291314
169	0x3da675ac	0.08127913
170	0xb988aed0	-0.00026070187
171	0xbc8be2de	-0.017075952
172	0xbc0ffa42	-0.008787693
173	0x3c9e8a28	0.019352987
174	0x3cb19eb1	0.021682115
175	0xbe334034	-0.1750496
176	0x3d9cde1f	0.07659554
177	0xbd00eb12	-0.03147418
178	0xbe87d2ee	-0.26528114
179	0xbdc68121	-0.09692598
180	0x3e0ab1a5	0.13544329
181	0x3e31a571	0.17348267
182	0x3d23e789	0.04001573
183	0x3e4588b5	0.19290431
184	0xbe53fd98	-0.20702207
185	0xbe1fb38f	-0.1559584
186	0xbdda944c	-0.10672817
187	0x3e29eca6	0.1659418
188	0xbdc884fe	-0.09790991
189	0xbd7485e3	-0.059697997
190	0xbdc7a5bc	-0.09748408
191	0xbeb1afc8	-0.34704423
192	0xbe89d9d1	-0.26923993
193	0xbde00ecf	-0.109403245
194	0xbdd4cb05	-0.103902854
195	0xbd88df2c	-0.06683192
196	0x3cefd5d6	0.02927677
197	0xbbcb6f4a	-0.006208335
198	0xbda06ca6	-0.07833223
199	0xbe680d9c	-0.22661442
200	0x3e93c650	0.28862238
201	0x3dd8d9ff	0.105884545
202	0xbdcf2b2c	-0.10115656
203	0x3e02e51b	0.1278271
204	0xbd4b62f3	-0.049654912
205	0x3d855ad2	0.06511463
206	0x3d8376b7	0.064191274
207	0xbd028c7b	-0.031872254
208	0x3d0574d8	0.032582134
209	0xbe9d59a0	-0.3073244
210	0xbec2d9ed	-0.3805689
211	0x3e37f0f2	0.17963007
212	0xbdf27d2f	-0.11840283
213	0xbc85b7ef	-0.016323058
214	0x3ddd3836	0.10801737
215	0xbd061042	-0.03273035
216	0x3d823862	0.063584104
217	0xbb250b18	-0.0025183614
218	0x3e849e0e	0.25901836
219	0xbd9fd1b6	-0.07803671
220	0x3da61f93	0.08111491
221	0x3d9f73c2	0.07785751
222	0xbe3366ca	-0.1751968
223	0x3d134c55	0.035961468
224	0xbd5014e4	-0.050801173
225	0xbcc3fd81	-0.023924591
226	0x3e00a88b	0.12564294
227	0x3cf03aac	0.029324852
228	0xbd5e1177	-0.054215875
229	0x3dee9f0e	0.11651431
230	0x3e05799c	0.13034672
231	0xbe15991e	-0.14609191
232	0x3d3c7645	0.046011228
233	0x3e888049	0.26660374
234	0x3cf6223f	0.030045627
235	0xbdc7a8f6	-0.097490236
236	0xbe1c4964	-0.15262371
237	0xbd9b7801	-0.07591248
238	0xbdf83b3a	-0.121206716
239	0xbe112ca8	-0.14177191
240	0xbbb89e58	-0.0056341104
241	0xbd55355c	-0.05205284
242	0xbdcc47f7	-0.09974664
243	0x3e0b8118	0.13623464
244	0x3d15192f	0.03640097
245	0x3d390ade	0.04517638
246	0x3ec3f260	0.38270855
247	0xbe1b9a8f	-0.15195678
248	0x3e4e7e94	0.20165473
249	0xbdff8742	-0.1247697
250	0x3d8d3ea3	0.06896713
251	0x3d12ea1e	0.035867803
252	0x3c0d81aa	0.008636871
253	0xbe60f610	-0.21968865
254	0xbc7ab5f4	-0.01530217
255	0x3de1bb08	0.110220015

fc1.bias f4 [64]
0	0x3d7425cc	0.05960636
1	0xbd9d9f33	-0.076963805
2	0x3cbe1fe7	0.023208572
3	0x3e355056	0.17706427
4	0xbe3ad710	-0.18246102
5	0x3caa1885	0.020763645
6	0x3dbf40cd	0.09338532
7	0x3c8216dd	0.015880043
8	0x3e1a8618	0.15090215
9	0x3cb2620a	0.021775264
10	0x3d072b31	0.033000175
11	0xbd9072a4	-0.07053116
12	0xbc5dd7e3	-0.013540241
13	0xbdd809c1	-0.105487354
14	0x3daedca3	0.08538177
15	0xbd5f5b0f	-0.0545302
16	0x3daf7742	0.085676685
17	0xbd1b07ff	-0.037849423
18	0x3db62378	0.08893484
19	0xbe09cbbc	-0.13456625
20	0x3b52af03	0.0032147772
21	0x3d84c516	0.06482904
22	0x3ceb1105	0.028694639
23	0x3e163d3f	0.14671801
24	0xbd8f8175	-0.07007114
25	0x3dd79735	0.10526887
26	0xbe1a92ff	-0.15095137
27	0xbdde061a	-0.108410075
28	0xbd070fa0	-0.032973886
29	0xbd5a6db8	-0.053327292
30	0xbe0467a8	-0.12930167
31	0xbd014852	-0.03156311
32	0x3e4f9ba9	0.20274223
33	0xbdeabbc8	-0.11461598
34	0xbde7369b	-0.11289712
35	0xbc8bbb09	-0.017056959
36	0xbdb03763	-0.08604314
37	0xbdce8102	-0.100832
38	0xbc60210b	-0.013679753
39	0xbc0d2703	-0.008615258
40	0x3b9de64b	0.004818713
41	0x3d5f74e5	0.05455484
42	0xbdd06c11	-0.10176862
43	0x3d23d70d	0.04000001
44	0x3d8b8be6	0.06813793
45	0x3dad30fc	0.08456609
46	0x3d6f37b3	0.05840273
47	0x3d299b82	0.04140807
48	0xbdcacadd	-0.09901974
49	0xbda5df6c	-0.08099255
50	0xbd97422f	-0.073856704
51	0x3df8d4ed	0.12149987
52	0xbd8306cd	-0.063977815
53	0x3cffa309	0.03120567
54	0x3dcc2257	0.09967487
55	0x3d88a1dd	0.06671498
56	0xbd239e9b	-0.03994618
57	0x3e01a997	0.1266235
58	0xbe489e09	-0.19591536
59	0x3c1eb9b9	0.009687834
60	0xbd301863	-0.042992007
61	0x3e3d0eb6	0.18462643
62	0xbd0321d4	-0.032014683
63	0x3d3f2d0d	0.046673823

bn1.weight f4 [64]
0	0x3f8c1bd0	1.0945988
1	0x3f88e047	1.0693444
2	0x3f9cf3a6	1.2261856
3	0x3f94f9e1	1.1638757
4	0x3f894e84	1.0727086
5	0x3f9412a9	1.1568195
6	0x3f89a1cb	1.07525
7	0x3f862bd6	1.0482128
8	0x3f7bbab5	0.9833177
9	0x3f97e520	1.1866798
10	0x3fa927ac	1.3215232
11	0x3f9fe54d	1.2491852
12	0x3f8538fb	1.0408014
13	0x3f95fd3d	1.1717907
14	0x3f72f5bd	0.94906217
15	0x3f8feb80	1.1243744
16	0x3f934199	1.1504394
17	0x3f6ebad3	0.9325382
18	0x3f7de75e	0.99181163
19	0x3f845457	1.0338238
20	0x3fa6ba08	1.3025522
21	0x3f6c4a0f	0.92300504
22	0x3f90073b	1.1252207
23	0x3f69ce97	0.91330856
24	0x3f9b17df	1.211666
25	0x3f8910c9	1.0708247
26	0x3f6b803b	0.9199254
27	0x3f88a095	1.0674006
28	0x3f9c9d73	1.223555
29	0x3f8ecf21	1.1156961
30	0x3f84255c	1.0323901
31	0x3f7ecc5e	0.9953059
32	0x3f864b8c	1.0491805
33	0x3f8414ea	1.0318882
34	0x3f39e470	0.7261419
35	0x3f815da8	1.0106707
36	0x3f8681f4	1.0508409
37	0x3f8b01d0	1.0859928
38	0x3f7c0de7	0.98458713
39	0x3f7bf807	0.98425335
40	0x3f7fa137	0.9985537
41	0x3f7da8ea	0.9908587
42	0x3f909438	1.1295233
43	0x3f90672c	1.1281486
44	0x3f8b6ee3	1.0893215
45	0x3f96f4ef	1.1793498
46	0x3f89d540	1.0768204
47	0x3f979107	1.1841134
48	0x3fa059c2	1.2527392
49	0x3f879230	1.0591488
50	0x3f62ff55	0.88670856
51	0x3f8aeeb7	1.08541
52	0x3f8e1489	1.1100017
53	0x3f71f9f2	0.9452201
54	0x3f92598a	1.1433575
55	0x3f67107a	0.90259516
56	0x3f90b58c	1.1305404
57	0x3f8e26de	1.1105611
58	0x3f642fb3	0.89135283
59	0x3f9df119	1.2339202
60	0x3f71618f	0.9428949
61	0x3fb6b816	1.4274929
62	0x3f8ec43c	1.1153636
63	0x3f717c1e	0.9433001

bn1.bias f4 [64]
0	0x3ecc1f8b	0.39867815
1	0x3f224cf9	0.633987
2	0x3e18ef9b	0.14935152
3	0x3ba0c2bb	0.004906026
4	0x3b14104b	0.002259272
5	0x3e27e387	0.16395389
6	0xbcef9e18	-0.02925019
7	0x3ea13ab8	0.3149011
8	0xbe6559a4	-0.22397476
9	0x3e06b934	0.13156587
10	0x3eb0dfc7	0.3454573
11	0x3ef46a93	0.4773756
12	0x3ec9c090	0.39404726
13	0x3e93575b	0.28777584
14	0xbdd37fe7	-0.1032713
15	0x3e9e0d2f	0.30869433
16	0x3ee95dc1	0.4557934
17	0x3ea5190d	0.32245675
18	0x3e58f0a8	0.21185553
19	0x3e860815	0.2617804
20	0x3e0e689c	0.13907093
21	0xbead54da	-0.338538
22	0x3eaf6ee6	0.34264296
23	0x3f18edc2	0.5973779
24	0x3ebfd0af	0.374639
25	0x3cf9d3d8	0.030496523
26	0x3ed52245	0.41627708
27	0xbc709ae7	-0.014685369
28	0x3e17181a	0.14755288
29	0x3ea7ae59	0.32750204
30	0x3e690445	0.22755535
31	0xbe90157e	-0.28141397
32	0xbeaebe03	-0.34129342
33	0x3ed2049f	0.4101915
34	0x3f2b6489	0.6695028
35	0xbe59f5b8	-0.2128514
36	0x3d2f79d1	0.042840783
37	0x3e456e51	0.19280364
38	0x3e08c311	0.13355662
39	0x3d4b1131	0.049576942
40	0xbe8bd250	-0.27308893
41	0xbec57bc4	-0.38570988
42	0x3db1bd64	0.086787015
43	0x3eee91f8	0.4659574
44	0xbe6b4c88	-0.22978413
45	0x3dc10a4d	0.09425793
46	0x3df316c8	0.118695796
47	0xbd980d11	-0.07424367
48	0x3e403901	0.18771745
49	0x3ead05f0	0.33793592
50	0x3f00ae9a	0.5026642
51	0x3cbab02f	0.022789089
52	0x3e91849f	0.28421494
53	0x3ed019bd	0.40644637
54	0x3e237fa8	0.15966666
55	0x3e0263c5	0.12733372
56	0x3deb7d28	0.11498481
57	0x3ec2c4ba	0.38040715
58	0x3ef4e5f5	0.47831693
59	0x3e8b54e0	0.27213192
60	0xbe2f162b	-0.170983
61	0x3dfbe56c	0.12299618
62	0x3eda26ad	0.42607632
63	0xbe25a42c	-0.16175908

bn1.running_mean f4 [64]
0	0xbe3098dd	-0.17245813
1	0xbeeb54f4	-0.45963252
2	0x3e9903bc	0.29885662
3	0x3f3389c7	0.70132107
4	0x3e5eb637	0.21749197
5	0xbf89c5a9	-1.0763446
6	0xbf115a7d	-0.567787
7	0x3f88bfa1	1.068348
8	0x3efa5d2e	0.48899215
9	0xbe521779	-0.20516767
10	0x3e960a6f	0.29304835
11	0x3e1d6dff	0.15373991
12	0x3e02bb44	0.12766749
13	0xbec772ff	-0.38954923
14	0xbeeddc3c	-0.46457088
15	0x3f1ff822	0.62487996
16	0x3f8dd666	1.1081054
17	0xbeb04e0f	-0.34434554
18	0xbbd363d2	-0.0064511085
19	0xbf1e0f9e	-0.6174258
20	0x3f6695d1	0.9007235
21	0xbe284988	-0.164343
22	0x3d433ef0	0.047667444
23	0x3f0517b3	0.5198929
24	0xbd6cac00	-0.05778122
25	0xbeb0d1a9	-0.34534958
26	0xbefd291f	-0.49445435
27	0xbdc37ecd	-0.0954567
28	0x3f92fc61	1.148327
29	0xbf5e2e43	-0.8678934
30	0x3f73f6b3	0.9529831
31	0xbeb611a7	-0.35560343
32	0xbe7ad3e4	-0.24494892
33	0xbe917107	-0.28406546
34	0xbb3f41d5	-0.0029183526
35	0xbdf0500b	-0.11734017
36	0xbf00fc59	-0.5038505
37	0xbf837562	-1.0270197
38	0x3fc86605	1.5656134
39	0x3f6df318	0.92949057
40	0xbe18ab7b	-0.14909165
41	0x3e1b4e08	0.15166485
42	0x3ea3a9bf	0.31965443
43	0x3f4b10f5	0.7932275
44	0xbeb94f23	-0.3619319
45	0x3ea6943c	0.3253497
46	0x3f6a7967	0.91591495
47	0x3f34f38b	0.7068412
48	0x3fd0c715	1.6310755
49	0xbebdc6b1	-0.37065652
50	0x3d2af00d	0.041732837
51	0xbd6d83c5	-0.057986993
52	0x3e1e939c	0.15485996
53	0x3e706c9f	0.23478936
54	0x3d5c5d7d	0.053800095
55	0x3ec4282c	0.383119
56	0x3c284657	0.010270677
57	0xbe078050	-0.13232541
58	0xbe0bbed9	-0.13647021
59	0x3eb651fb	0.3560942
60	0xbde8e83b	-0.113724194
61	0x3fd362c1	1.6514512
62	0xbf2b84cd	-0.6699951
63	0xbf679ffc	-0.9047849

bn1.running_var f4 [64]
0	0x3ef29bd7	0.4738452
1	0x3ef0147e	0.46890634
2	0x3ea799a4	0.32734406
3	0x3eebd981	0.4606438
4	0x3ee781cc	0.45216215
5	0x3f1814ef	0.5940694
6	0x3e972349	0.29519108
7	0x3e9d99ea	0.3078149
8	0x3f062fa9	0.52416474
9	0x3f15e566	0.5855316
10	0x3ec96968	0.3933823
11	0x3f0aa14f	0.5415239
12	0x3ee24e0b	0.44200167
13	0x3eeff7c6	0.46868724
14	0x3e8217ef	0.25408885
15	0x3ea9a144	0.33130848
16	0x3f05a9f2	0.5221244
17	0x3ee36b90	0.44418
18	0x3edbce97	0.42931053
19	0x3ed7ef30	0.42174673
20	0x3f03804d	0.51367646
21	0x3eb2ed0f	0.34946486
22	0x3ea1655e	0.3152265
23	0x3f36f83e	0.7147254
24	0x3ed8281a	0.42218095
25	0x3ea90df0	0.33018446
26	0x3f1e2abd	0.61783963
27	0x3ea248fa	0.31696302
28	0x3f315f93	0.6928646
29	0x3ee09f3c	0.43871486
30	0x3f12e0eb	0.5737445
31	0x3f20308e	0.6257409
32	0x3f10a144	0.5649607
33	0x3f0fa1ee	0.5610646
34	0x3ed7c1c3	0.42140016
35	0x3ef30e0e	0.4747166
36	0x3f1541e8	0.5830369
37	0x3eac8eef	0.337028
38	0x3e89491c	0.2681359
39	0x3e7b7ec6	0.24560079
40	0x3eee1839	0.46502855
41	0x3ef71ce4	0.4826423
42	0x3eccd6de	0.4000768
43	0x3f4d374b	0.80162495
44	0x3ef9d74e	0.48797077
45	0x3f50cb85	0.81560546
46	0x3e603ad1	0.21897437
47	0x3f279f7c	0.6547773
48	0x3f04ca01	0.51870733
49	0x3f089fe1	0.53368956
50	0x3ea70964	0.32624352
51	0x3ec54783	0.38531122
52	0x3f10815b	0.5644738
53	0x3edd091c	0.43171012
54	0x3f1f80a8	0.6230569
55	0x3f04932a	0.51787055
56	0x3ef08288	0.46974587
57	0x3f0b2966	0.54360044
58	0x3eb07220	0.3446207
59	0x3efdd7f8	0.49578834
60	0x3e4a291f	0.19742249
61	0x3f126345	0.57182723
62	0x3ed13233	0.4085861
63	0x3ee9f788	0.45696664

fc2.weight f4 [4, 64]
0	0x3e91de89	0.28490093
1	0x3e3b1ac6	0.18271932
2	0x3e326245	0.174203
3	0xbcb7ac4c	-0.022421025
4	0xbc88a23a	-0.016678918
5	0x3de6b8cd	0.11265717
6	0x3b9348c8	0.00449476
7	0x3da5e20a	0.08099754
8	0xbe11a979	-0.14224805
9	0x3dcddb81	0.10051633
10	0x3d5dfe5f	0.054197665
11	0x3e05b3a6	0.13056812
12	0x3e675f54	0.22594959
13	0x3dc8d112	0.09805502
14	0xbc8a89e5	-0.016911456
15	0x3e2500bb	0.1611356
16	0x3e879bb0	0.26485968
17	0x3dfa5cd6	0.12224738
18	0x3e122011	0.14270045
19	0x3e4b7b27	0.19871198
20	0x3dd279c9	0.10277135
21	0xbd957ff3	-0.07299795
22	0x3d8e3fe9	0.06945784
23	0x3ea4242b	0.32058844
24	0x3ebf5d10	0.3737569
25	0xbd91d077	-0.0711984
26	0x3d81989d	0.06327937
27	0xbde199ce	-0.11015664
28	0x3dbd52ce	0.09244309
29	0x3dfed926	0.124437615
30	0x3def0710	0.11671269
31	0xbe30ad90	-0.17253709
32	0xbe90b169	-0.28260353
33	0x3e8f9da1	0.2804995
34	0x3daf8732	0.08570708
35	0xbdd304c5	-0.10303644
36	0x3db13684	0.08652976
37	0x3de2aa08	0.11067587
38	0x3dd5727d	0.104222275
39	0x3e166611	0.14687373
40	0xbe2d7781	-0.16940118
41	0xbab3b979	-0.0013711891
42	0x3e1e780c	0.15475482
43	0x3e00f40f	0.12593101
44	0xbcdfb4a4	-0.027307816
45	0x3e37bc3b	0.17942898
46	0x3d082d12	0.033246107
47	0xbd59afea	-0.05314628
48	0xbd405db8	-0.046964377
49	0x3e7d8d85	0.24761017
50	0x3e380241	0.1796961
51	0x3d15dd88	0.03658822
52	0x3e779797	0.2417892
53	0x3e9aee9f	0.30260178
54	0x3e0633af	0.13105653
55	0x3cbcf9eb	0.023068389
56	0xbd0429c1	-0.032266382
57	0x3e88bbbf	0.2670574
58	0x3e4b0842	0.19827369
59	0x3db92502	0.09040262
60	0xbdc2d705	-0.09513668
61	0x3c778c84	0.015109185
62	0x3dd914d9	0.105996795
63	0x3c9babf8	0.0190029
64	0xbe8a2c7f	-0.26987073
65	0xbed1d401	-0.4098206
66	0xbdb424c2	-0.087960735
67	0xba5443d3	-0.0008097265
68	0xbeca575b	-0.39519772
69	0xbecb1315	-0.39662996
70	0xbe9a3a32	-0.30122524
71	0xbed4c574	-0.41556895
72	0xbea92e9a	-0.33043367
73	0xbeb9db04	-0.36299908
74	0xbe5cbc95	-0.21556313
75	0xbed51ed3	-0.4162508
76	0xbe3fedc7	-0.18743049
77	0x3e649ac0	0.22324657
78	0xbe4d0e70	-0.20025039
79	0x3deb9516	0.11503045
80	0xbc94de04	-0.018172272
81	0x3e614f0f	0.22002815
82	0x3e576024	0.21032768
83	0xbe0f6942	-0.14004996
84	0xbe9f8f74	-0.31164134
85	0xbe08c4ad	-0.13356276
86	0xbea0163c	-0.31266963
87	0xbe2c9ee8	-0.16857493
88	0xbe5dab8c	-0.21647471
89	0x3de5e843	0.11225941
90	0x3e18f2b1	0.1493633
91	0x3e042640	0.12905216
92	0xbeb6765c	-0.35637176
93	0xbe868160	-0.2627058
94	0xbec32748	-0.38115907
95	0x3e1b24fc	0.15150827
96	0x3ca37571	0.019953461
97	0xbd71c2ff	-0.059023853
98	0x3dd8404a	0.10559137
99	0x3e0d4e60	0.13799429
100	0x3e59f012	0.21282986
101	0x3e8eebfe	0.27914423
102	0xbdd1661c	-0.10224554
103	0xbd11679d	-0.035499204
104	0x3e4714fd	0.194416
105	0x3e5841c1	0.21118833
106	0xbec2a5c4	-0.38017094
107	0xbef1a086	-0.47192782
108	0x3e0f6599	0.140036
109	0xbe10a8ae	-0.14126846
110	0x3d15c900	0.03656864
111	0xbedfe95e	-0.43732733
112	0xbf1dcff1	-0.6164542
113	0xbe188eae	-0.14898178
114	0xbe17686a	-0.14785925
115	0x3e5ce842	0.21572974
116	0xbe5abe7b	-0.21361725
117	0xbe0ef4ef	-0.13960622
118	0xbe96c0ff	-0.2944412
119	0x3e671c00	0.22569275
120	0x3e3da0a9	0.18518318
121	0xbe4526d3	-0.19253092
122	0xbe81a9c2	-0.25324827
123	0x3e892bc0	0.2679119
124	0x3e6731c8	0.22577584
125	0xbeb13df6	-0.34617585
126	0xbed30282	-0.4121285
127	0x3e759f93	0.23986654
128	0xbe82cd96	-0.25547475
129	0xbebf3d9c	-0.37351692
130	0x3e8fefff	0.2811279
131	0x3e7cb4da	0.24678364
132	0xbe834c62	-0.25644213
133	0xbeb27d97	-0.34861442
134	0xbed10b2e	-0.40828842
135	0x3e43b757	0.19112907
136	0x3e8bf3fc	0.27334583
137	0x3e298a13	0.16556577
138	0x3e43a7b6	0.19106945
139	0xbebf61ec	-0.37379396
140	0xbde72f5f	-0.11288332
141	0xbed2c620	-0.41166782
142	0xbdea352c	-0.11435923
143	0xbed3a189	-0.4133418
144	0xbe8051e1	-0.2506247
145	0xbe8fd511	-0.28092244
146	0xbea2b716	-0.31780308
147	0xbe686fef	-0.2269895
148	0x3eaba4bb	0.33524117
149	0xbe5e49da	-0.2170786
150	0xbe8935d2	-0.26798874
151	0xbe08b845	-0.13351543
152	0xbe67f34e	-0.22651407
153	0xbed9b94f	-0.42524192
154	0xbecc5246	-0.3990652
155	0xbeef3fce	-0.46728367
156	0x3e8abf33	0.27098998
157	0xbe87544d	-0.26431504
158	0xbe09182d	-0.13388129
159	0x3e5cd7a9	0.21566643
160	0x3e18b41d	0.14912458
161	0xbe91cbd4	-0.2847582
162	0xbed1e667	-0.40996096
163	0x3db93309	0.09042937
164	0xbe96982f	-0.29412982
165	0xbdd91f0a	-0.10601623
166	0x3e71b6fd	0.2360496
167	0x3e673c62	0.22581628
168	0xbe440197	-0.19141231
169	0x3e3c7f66	0.18407974
170	0xbe78df48	-0.24303925
171	0xbe945089	-0.28967693
172	0x3e038037	0.12841879
173	0xbe9017be	-0.28143114
174	0x3e60bb6a	0.21946493
175	0x3e93d38b	0.28872332
176	0x3e49f00a	0.19720474
177	0xbe91452d	-0.2837309
178	0xbe99e23b	-0.30055413
179	0x3e1ca690	0.15297914
180	0xbe8794f4	-0.2648083
181	0xbe2d55ea	-0.16927305
182	0x3e8ac63e	0.27104372
183	0xbdd2f0b8	-0.1029982
184	0x3dceb40b	0.10092934
185	0xbe81a038	-0.2531755
186	0xbe443677	-0.19161402
187	0xbec39d4b	-0.38205943
188	0x3dbf0197	0.09326475
189	0x3e87b3d6	0.2650439
190	0xbe8e994b	-0.27851328
191	0xbe828504	-0.25492108
192	0xbda775a1	-0.08176733
193	0x3e51237a	0.2042369
194	0xbe9a3e9e	-0.30125898
195	0xbf05d4a0	-0.52277565
196	0x3e19b1d8	0.15009248
197	0x3e8032e5	0.2503883
198	0x3e28a5a9	0.16469444
199	0xbe13b1be	-0.14423272
200	0x3d0099f5	0.031396825
201	0xbe83f204	-0.2577058
202	0xbf188d32	-0.59590447
203	0x3df4428f	0.119267575
204	0xbe790782	-0.2431927
205	0xbe98f096	-0.29871053
206	0x3e7f7657	0.24947487
207	0xbe77ff88	-0.24218571
208	0xbeb8c54a	-0.3608802
209	0xbe23c896	-0.15994486
210	0xbe0f204a	-0.13977161
211	0xbe0778b0	-0.13229632
212	0xbe9fb613	-0.311936
213	0x3e0cda63	0.13755183
214	0x3e852170	0.26002073
215	0xbdbccab7	-0.09218352
216	0xbe280e31	-0.16411664
217	0x3e433c0a	0.19065872
218	0xbe399daa	-0.1812655
219	0x3e5d5719	0.21615256
220	0xbe05cb80	-0.1306591
221	0x3e93403b	0.2875994
222	0xbd8dda92	-0.069264546
223	0xbd837ef2	-0.06420697
224	0x3e85634e	0.26052326
225	0xbd5dca7b	-0.05414818
226	0xbdc6566a	-0.09684451
227	0xbef2432f	-0.47316882
228	0xbea1a9e2	-0.31574923
229	0xbea187c1	-0.31548885
230	0xbe9939b8	-0.29926848
231	0xbe88ecc5	-0.2674314
232	0x3e5438df	0.2072482
233	0xbe36f8fa	-0.17868415
234	0x3e3ca742	0.18423179
235	0x3e0e8604	0.1391831
236	0xbf1a053b	-0.6016423
237	0xbe6df41e	-0.23237655
238	0xbf0314eb	-0.51203793
239	0x3e6d1325	0.23151834
240	0x3e7765f3	0.24159984
241	0x3e427c31	0.18992688
242	0x3da57d12	0.08080496
243	0xbef26db8	-0.47349334
244	0xbcc888c4	-0.024479277
245	0xbd91b34b	-0.071142755
246	0xbe8d710a	-0.27625304
247	0xbe437247	-0.19086562
248	0xbeea8fb4	-0.45812762
249	0xbc96e91e	-0.018421706
250	0x3ca794ae	0.020456638
251	0xbee2f085	-0.44324127
252	0xbe8f79e2	-0.28022677
253	0xbedee1d8	-0.4353168
254	0x3e5b42e9	0.21412243
255	0xbe2f743f	-0.17134188

fc2.bias f4 [4]
0	0x3eb36971	0.35041383
1	0xbb41b2cd	-0.0029556036
2	0xbedb9900	-0.42890167
3	0xbdfa568c	-0.12223539
