Models/model_nopreprocess.pt (torch, 317387 bytes, 12 tensors)

lstm.weight_ih_l0 f4 [512, 6]
00000000: 3936 793c 2237 2d3e 0b7c c1bc f0b0 4a3e
00000010: 6717 20be 83c3 ac3d bb9a 1cbe b22d d83d
00000020: 6abe 823d 58b9 75bc 79e9 c23d e2b5 1bbe
00000030: d9e4 b93d dddd 0d3e 0f08 c43e 7d41 72be
00000040: 86f6 88be 7896 bb3d 1667 3cbc ce64 053d
00000050: 2eb5 8b3e ec84 25bd 4371 66be 67a8 0dbe
00000060: c126 7fbc 7ec7 6bbe b180 443e cf8a 70be
00000070: e7b5 c3bc d0eb 61bd dd5f 34be 4a8e 913d
00000080: 5f94 ab3c c46a 863e 6691 c4bd 1856 573e
00000090: a49b 3c3e 292e ac3d ba24 8ebc 73e7 7c3d
000000a0: 4fae acbc 9977 6b3d feda 103d 9768 743e
000000b0: 9c5a ab3b 2a54 a63d 1840 ca3d 3cdc b03e
000000c0: 9d17 46bd 26a4 193d 3fe2 96bd 73b5 edbd
000000d0: 5686 a7bd 1e44 17be 5da6 10be a476 4dba
000000e0: 8b1d adbe 6d71 ae3d 5c02 633d 6e21 d43e
000000f0: 33b0 63be bc8b e93d fdff 323c 01ab 75be
00000100: 9e5c 613e dbfd b83d 985d d73d e365 973b
00000110: 35c3 313d f8b5 e7bd 5f49 9cbe bc72 f4bd
00000120: d4ab b7bc 4a8d b03c a0c8 22be ec19 303d
00000130: 9e38 063e 29f1 bb3d 1cf3 873d 6544 2dbc
00000140: 22c9 babe 4001 f83e 0b9a 80bd c28c 0b3e
00000150: 0cc7 753e ca2d 813e a2e0 9cbe 005a ab3d
00000160: 8b3e 2fbe c33a 2ebe ddcd 333d 5026 ddbc
00000170: 79a3 903e 482a a23d 33b8 23bd 17fe 5f3c
00000180: ae6e afbd 8b57 1a3e 0547 da3d f068 2a3e
00000190: 3b6b 96be 1073 913e 73af 233e 2401 0b3e
000001a0: 5768 12be 5f70 5abe 2127 b5bc fa2e 85be
000001b0: c7e1 d33c aeb6 79be bf38 723d 008c 563e
000001c0: 82e6 513d a5af 863d 806f e1bc 4a94 7d3e
000001d0: 91ab 953e bf32 9e3d d4f5 80be bc8e 4f3e
000001e0: 9723 21bd d30a 19be 9047 563c 18ad 27be
000001f0: c74d 3d3e b767 77bd 4e95 23bc 7e6e 2a3e
00000200: 8cba 06be 3dbc 823e f674 c5bd 0ea6 a53e
00000210: aa66 b13e b064 833e 7e51 4fbd e01c 803e
00000220: 1134 77bd c172 113f 4904 cf3d 8983 1fbe
00000230: 2757 853e 9764 0fbe dd30 59be e933 6bbe
00000240: 320b 2f3d 651f 723d 4ec3 9d3e 043b 7dbc
00000250: 98b9 45bf 7737 d13e a469 673e b0f7 953d
00000260: 2305 74bd 3949 6cbc b984 c6bc 3f75 e6bd
00000270: 4748 05bd c6b4 7cbd 6c41 efbc 72e9 d4bd
00000280: 2e29 353d 2662 4ebe 7646 d83c cd40 e13d
00000290: 9cf9 29be 6287 b13e e254 b1be f28e 523e
000002a0: b658 7ebb e80c 843e d060 18be 56a6 3cbe
000002b0: 03bb 56bd 39b1 993d 4fd6 2f3e cc51 213e
000002c0: 233d 1fbc c0e5 c0be 1c82 243e ed2f 3bbe
000002d0: f8d6 6dbe 2a4e ebbd 45a5 573e 7b03 a2be
000002e0: 0762 303e a8ae 983c afa5 b83d 6b7d 933d
000002f0: 73e3 83bd 56a2 4c3d e0d8 95bd 81ad 013f
00000300: 8239 8ebd ff61 253e afe2 55bd 61b9 0fbe
00000310: 567e d1bc 3ad7 933d e4fe 953c 820c 14be
00000320: f1c9 173e 3491 9abe f316 a3bd 49ae 7cbe
00000330: 80c8 103e 483e 183c 1482 d0bd 2d4d 83be
00000340: 33e1 433e e030 6cbe 7978 a9bc 16d6 803e
00000350: 6772 853d 3d9c ecbb 4f47 75be ae27 603a
00000360: 92d8 043c 17e7 babb ab99 66bd 769d 993e
00000370: 286f 7b3e 50dc 68be b919 8abd d1c9 8cbe
00000380: e360 043e 9fd7 fdbd 7701 ce3d c356 8ebe
00000390: e125 7e3e a79d ef3d 18e9 69be 285c 3a3e
000003a0: e283 64be 82df b53d 5b14 0f3e f4d5 1d3c
000003b0: 98f6 e23d b729 22be ffa7 a9bd e3c9 9fbe
000003c0: 78dd 663e 19ba 31bd 16ad 0c3e d982 f53b
000003d0: 1d13 d6bd bc6a 463c 8a52 1d3e 045c 5e3d
000003e0: f89a 713c 8a1e 243e 34ac cdbc b2d2 813d
000003f0: 4d6d d1bd 287a 40be ab87 913d 921a b9bc
0.015210682 0.16915563 -0.023618719 0.19794059 -0.15633927 0.084357284 -0.152934 0.10555591
0.06383975 -0.014997803 0.095171876 -0.15206102 0.09076852 0.13854165 0.38287398 -0.23657794
-0.26750582 0.09159559 -0.011499187 0.032566838 0.27286667 -0.040409967 -0.22504143 -0.13833772
-0.0155732045 -0.23025319 0.19189717 -0.23490451 -0.023890449 -0.05515653 -0.17614694 0.071072176
0.020944772 0.2625333 -0.09598045 0.21028936 0.18418747 0.08407242 -0.017351497 0.061744165
-0.02107921 0.057487104 0.035365097 0.23868023 0.0052293073 0.08121522 0.09875506 0.34543025
-0.048362363 0.03751006 -0.07367372 -0.11606874 -0.081799194 -0.14772078 -0.14125963 -0.0007837808
-0.33811602 0.08517728 0.055422172 0.41431755 -0.22235183 0.11403605 0.01092529 -0.23991014
0.22007987 0.09032794 0.105158985 0.0046203 0.043399055 -0.11314005 -0.30524728 -0.11935946
-0.022420801 0.021551747 -0.15896845 0.04299347 0.13107535 0.09176857 0.06638166 -0.010575389
-0.36481577 0.48438454 -0.06279381 0.13627914 0.24001712 0.25230247 -0.3064013 0.083667755
-0.17113702 -0.17014603 0.0438975 -0.026995808 0.2824972 0.07918221 -0.039970588 0.01367142
-0.08566032 0.15072457 0.10658077 0.16641593 -0.29378685 0.28408098 0.15984897 0.13574654
-0.14297615 -0.21331929 -0.022113385 -0.26012403 0.025864495 -0.24386093 0.05913615 0.20951843
0.05124522 0.0657647 -0.027518988 0.24763599 0.29232457 0.07724523 -0.25187552 0.20269293
-0.03934058 -0.14945535 0.013078585 -0.16374624 0.18486701 -0.060401645 -0.0099843275 0.16643712
-0.131571 0.2553424 -0.09641449 0.32353252 0.3464864 0.25662756 -0.050614826 0.2502203
-0.06035239 0.56815726 0.10108239 -0.1557752 0.26043054 -0.14003216 -0.21210046 -0.22969021
0.042735286 0.05911197 0.30813068 -0.015455965 -0.7723632 0.4086263 0.22598892 0.07322633
-0.05957521 -0.0144217545 -0.024233209 -0.11252832 -0.032539632 -0.061695836 -0.029206 -0.10396089
0.044228725 -0.20154628 0.026400786 0.10998688 -0.16599125 0.346736 -0.34635073 0.20562342
-0.00388102 0.25791097 -0.14880681 -0.18422827 -0.052424442 0.07504506 0.17171596 0.1575386
-0.009719166 -0.37675285 0.16065258 -0.18280001 -0.23226535 -0.11489518 0.21059139 -0.3164328
0.17224894 0.01863797 0.09015977 0.07201656 -0.06439867 0.049959503 -0.07316756 0.5065537
-0.069445625 0.16150664 -0.052218135 -0.1403556 -0.025572937 0.072187856 0.018310018 -0.14457896
0.14823128 -0.30188906 -0.079633616 -0.2467586 0.14138985 0.009292193 -0.101810604 -0.25644818
0.19128875 -0.2306552 -0.020687329 0.25163335 0.06515961 -0.0072207735 -0.23952983 0.00085508346
0.008108275 -0.0057038176 -0.056298893 0.30002946 0.24554121 -0.22740293 -0.067431875 -0.27497724
0.12927584 -0.12394642 0.10058873 -0.2780057 0.24819137 0.11699992 -0.22842824 0.18199217
-0.22315934 0.08880521 0.13972609 0.00963353 0.1108219 -0.15836225 -0.08283996 -0.31208715
0.22545421 -0.043390367 0.13737902 0.007492405 -0.10452864 0.012110408 0.15363517 0.05428697
0.01474642 0.16027275 -0.025106527 0.06339015 -0.102259256 -0.18796599 0.07105955 -0.022595678

lstm.weight_hh_l0 f4 [512, 128]
00000000: 60dd 573c 33a2 71be 4841 ff3d d741 1fbd
00000010: 34a3 173e edeb 863e 0b9c bdbc d3e4 f7bd
00000020: df1c 7cbe 90cd e6bd f441 0c3e e30c 353e
00000030: 54ce 3ebe 17ec 363e 6f0e 0abd 5379 5c3e
00000040: 4f4c 9d3d 17a2 773b b5f7 133d ed00 82be
00000050: 8a0c bebd 574d 3d3d d371 89bc 87d8 e0bd
00000060: 7d60 6bbe 4969 3e3e 627c a1be 60e0 c73c
00000070: d9ae 58be a8dd f7bb 0877 0b3e a1ad d1bc
00000080: 6a20 da3d adfe fc3d f4ab 96bd d228 bf3e
00000090: cbe5 173e 3ad2 b73e 7cf7 c63d 0f34 4f3e
000000a0: 4491 63bd 0379 6ebe c1cf 003c 24c6 60be
000000b0: 6827 7cbd c321 66be 9195 2fbe 7414 6c3e
000000c0: 4906 6bbd 4ed6 76bd 6206 fb3d b8b1 6cbe
000000d0: 9c99 a2bd 3d2b 7a3a 236a 67bc cdf3 c9bd
000000e0: ffed 38be c9b7 de3d e9d9 aabe 985e 17be
000000f0: 10d5 3f3e 3ae7 d5bc 128f f43d 4383 6c3e
00000100: d303 783e f569 acbc 1fb9 9a3e d8e3 8ebb
00000110: aa9c 553e f738 2a3c 8fc0 103e ad6a 933d
00000120: 918a 1cbe 8902 053e cb40 a9bc 1ff5 62bd
00000130: 5e73 9ebd b718 33be 42a3 aa3b 61f6 1d3e
00000140: bc13 55be 7578 853d a7ca 133d 110f 64bd
00000150: f057 95be d5d5 b0bd 58a9 983e 7cb7 40be
00000160: 57d8 f3ba 4bce 2ebe a19e 423e 5573 463d
00000170: 3bd8 78be 6a8c a1bd 6ccb a53b 429f 163e
00000180: 3b95 80bd e488 a33d 5c88 09be 5d12 033e
00000190: 800e 63be 13cb 4b3e c732 bc3d 69dd 7abe
000001a0: 54be 6fbd fccb 2b3e a6b9 1f3e 14d3 91bc
000001b0: 5d12 81bc 9749 83be a620 873e b5d8 243e
000001c0: cdb5 d93c 1fd6 053e a017 163d 2eb2 e73c
000001d0: aebc 1ebe 7ffc fbbd 45b3 94be 5f6e 91bd
000001e0: 2e44 593e 2b2f 9c3e 2a9b 03bd 2fc3 34be
000001f0: 2302 81bc 7c9d 113d fb8a a6bd c735 973e
00000200: 43fc 963b aa13 d8bc b109 babc f7f1 353d
00000210: 54f6 84be 0223 f33d f76f 0fbd 1182 c63d
00000220: 51e0 aebd 9b81 983e ec26 b43c 7ec6 81bd
00000230: ecaa 34be 5180 df3d 5558 123e ab3b 503e
00000240: 9afc 5cbe 4631 253c 4468 87be bbcd f8bc
00000250: 1cfb 6bbd b5d2 6e3e 0958 7cbd 1ed6 873e
00000260: 368f 86bd bf87 60bd eebf a1bd 0e46 523d
00000270: 495e 43be 0a15 ffbd bc31 4a3e 4bf6 8e3a
00000280: f09c 423e c221 823d 7bb9 d1bd 0b73 553e
00000290: ab60 bfbd ee0c b63d 41ba 533c c2f7 3d3a
000002a0: 0381 5f3e e3d4 9e3d 14ce a2bd 3c49 ddbd
000002b0: 32ec 4ebe 12de c8bd 4d93 f9bd a7c0 91bd
000002c0: 800a a0be ae47 7c3d c33c 2a3e e5b3 49bd
000002d0: 9bc9 1c3e cc12 2e3e 53ae 483e 8c89 2d3e
000002e0: 3fe7 0abe b90b a13d 8a25 0abc 861c a9bd
000002f0: 89b0 433e 0788 0b3d fc28 943e 9456 853d
00000300: 1f97 323e c088 633e d835 d53d bd8a 003d
00000310: da0f 15bd 6e35 fcbd 0039 113e c53f 53bd
00000320: b1d0 74be 990c 6cbe 7263 15bd 6bda 583d
00000330: 0be7 a53c 7028 fa3d 81c5 093d 473e 8c3e
00000340: 9703 47be 8b23 1d3e 562a 47be 4c72 7fbe
00000350: 4158 9cbd 1000 a23e f8b2 e0bd c2d3 6b3d
00000360: 73f9 333d 1cff d2bd 94da 2a3d 8ae7 f4bc
00000370: 97cf 98bb 26df 3b3e 9d03 4a3d 6bc9 3b3e
00000380: a18b ef3c b8ed 6d3d a9c5 13be 15a0 7bbd
00000390: 2a1f 23bc bd5b 113e 430d 2f3e 3996 23bd
000003a0: 6f6a d4bd 654c be3c ec8a 04bb e9aa 23bc
000003b0: 1676 f43c e783 17bd 4ff7 b2bd 1587 ea3d
000003c0: 6fce 1b3d b5c7 593e 77e8 a1bd 1a99 32be
000003d0: 812b b1bd 5260 afbd 7713 873d 18fe 3bbe
000003e0: 4c76 1d3e 134d bd3d 3b86 b63d 1817 21be
000003f0: 6002 2abe 7f99 803e 93dd 82be 4aa0 423e
0.0131753385 -0.2359703 0.12463623 -0.03888115 0.14808351 0.26351872 -0.023145696 -0.12104192
-0.24620388 -0.11269677 0.13697034 0.17680697 -0.18633395 0.17863499 -0.03370517 0.21530657
0.0768057 0.0037785822 0.036124904 -0.2539133 -0.092797354 0.046216335 -0.016777908 -0.10978799
-0.22986026 0.1859485 -0.3154021 0.024398983 -0.21160449 -0.0075642653 0.13619626 -0.025595488
0.10650714 0.12353263 -0.07357016 0.3733583 0.14833753 0.35902578 0.09715173 0.20234703
-0.055558458 -0.2328835 0.007862032 -0.21950585 -0.06156102 -0.22473817 -0.17146899 0.23054677
-0.05737904 -0.06026297 0.12257077 -0.2311467 -0.07939455 0.0009543186 -0.014124426 -0.098609544
-0.18059538 0.10874898 -0.33369377 -0.14782178 0.1873362 -0.026111234 0.11941351 0.23096947
0.24220209 -0.021046618 0.3021936 -0.004360657 0.20860544 0.010389558 0.14135955 0.07198081
-0.15287234 0.12989248 -0.020660779 -0.055409547 -0.07736848 -0.17489897 0.00520745 0.15426017
-0.2080831 0.06517116 0.036081936 -0.05567843 -0.29168653 -0.08634535 0.298167 -0.18819994
-0.0018603903 -0.17070882 0.19005825 0.048449833 -0.24301235 -0.0788811 0.00505965 0.1470919
-0.062784635 0.07985094 -0.13430923 0.12799974 -0.221735 0.19901685 0.091893725 -0.24498524
-0.05853112 0.16777033 0.15598163 -0.017800845 -0.015755827 -0.25642082 0.26392096 0.16098292
0.026575947 0.13069962 0.036643624 0.028283205 -0.15501663 -0.12304019 -0.29043022 -0.0710113
0.21217415 0.30504736 -0.032130398 -0.17652582 -0.01574809 0.03555058 -0.08131977 0.29533216
0.0046077087 -0.026376564 -0.0227097 0.04442021 -0.25969183 0.118719116 -0.035018887 0.09692777
-0.08538879 0.2978638 0.021991216 -0.063366875 -0.17643327 0.10913146 0.14291508 0.20335262
-0.21580735 0.0100825485 -0.26446736 -0.030371537 -0.057612523 0.23322566 -0.061607394 0.26530546
-0.06570284 -0.054816958 -0.07897936 0.05133634 -0.19078936 -0.12455185 0.19745535 0.0010907141
0.1900518 0.06354095 -0.10240456 0.20844667 -0.0934461 0.08889185 0.012922824 0.00072466966
0.21826558 0.07755449 -0.079494625 -0.10804984 -0.20207289 -0.098079816 -0.121862985 -0.07116824
-0.3125801 0.061591797 0.16624741 -0.049243826 0.15311281 0.16999358 0.1959775 0.16947001
-0.13564776 0.07863564 -0.008431802 -0.082573935 0.19110312 0.034065273 0.2893752 0.06510654
0.1744046 0.22220135 0.104106605 0.03138231 -0.03639207 -0.123148784 0.141819 -0.051574487
-0.23907734 -0.2305168 -0.03647179 0.052942675 0.020251771 0.12214744 0.03363562 0.27391264
-0.19434963 0.1534559 -0.19449744 -0.24945945 -0.076340206 0.31640673 -0.109716356 0.057574995
0.043939065 -0.103025645 0.04171236 -0.029895563 -0.0046634185 0.18346843 0.049319852 0.18338554
0.029241385 0.058088034 -0.1443087 -0.061431963 -0.009956161 0.14195152 0.17094903 -0.039938185
-0.10371863 0.023229787 -0.0020224405 -0.009989479 0.029841464 -0.036991026 -0.087385766 0.11451546
0.038038667 0.21267588 -0.07905667 -0.17441216 -0.08650876 -0.085632935 0.065955095 -0.18358648
0.15377158 0.09243216 0.08912321 -0.15731466 -0.16602468 0.25117108 -0.25559673 0.19006458

lstm.bias_ih_l0 f4 [512]
00000000: 3c39 f0bc be07 70be 992a 21be bcfa 7fbe
00000010: cf5c 0dbe efd9 5bbe 9a14 17be 91b1 ab3d
00000020: 1afb 4dbe 1a9b 11be 3ab9 41be 661e 063e
00000030: 435a 4bba c9f2 d2bd affe 45bd 3793 973a
00000040: b192 8fbd 5ce0 e73d a47c 1cbe 61f2 88bc
00000050: b417 8cbe bca2 92bd d51e 4b3d 01c1 49be
00000060: 3274 40be c986 88be c929 83be fea4 60be
00000070: 45e6 bebc d757 293d 0467 60be a9a1 9bbd
00000080: 7d84 a93d cafc 80bd 6f3f 35be a541 1fbe
00000090: 768f 39be 2c15 84be 7bad be3d a654 8bbe
000000a0: 66de 283d b6fc 63be 563a 85be 5fa6 6fbc
000000b0: a4f1 1cbe f662 2e3e c1fc a3bd 8b55 14be
000000c0: ddc5 93be 06cd 2abe abce 66bc 1563 15be
000000d0: 41a1 04bd 548a 38bd bde7 11be 2619 5abe
000000e0: acfd 27be c4d0 2e3c 8e5f 30be 93f2 e3bc
000000f0: 3a71 023d 95f0 48bd 1f26 9dbd 02d7 debc
00000100: e3be 9abd 3ee6 a5be 27eb a23d 978d 93be
00000110: b155 67bd 76ce 3fbe 5be2 0b3e 0188 243e
00000120: bb40 553d 83bf 4a3c 42ed 5ebe 4158 333e
00000130: de5b ccbd a600 9bbe 401e 65bd 17c3 0abe
00000140: f543 58be d73d 43be 4a1f 293e a09b ddbd
00000150: 279c e2bd b379 c2bd e79c b8bd d54c 6cbe
00000160: d1f5 4a3e 3643 b2be f3af b7bd 2087 cebd
00000170: 96d0 4dbe 85ca 47be 4f1b 26be 375d 9cbd
00000180: c8ac 82be 8dc1 f3bd 6a00 51be 9d3a e8bd
00000190: eb56 18be 5457 ccbc 67b2 12be 793f 4ebe
000001a0: f670 ae3c 99e8 e6ba 5026 32bd 2971 80bd
000001b0: 3315 fbbd 8c88 673d 8438 95bd 1867 ecbd
000001c0: f62d 3fbe 3768 75bd 2169 70be 1582 3bbe
000001d0: 2296 553c 4502 10be b0ac adbd ccb9 60be
000001e0: 1021 9ebd 7bb7 43be ae52 3cbe ceac 2a3d
000001f0: ce5e dabd c1c5 11be 4f43 6dbd cc07 99bd
00000200: eb95 b43b fcbc 85be 58a8 cbbd fd6e 40be
00000210: df9b 533a 6ffe 7b3b d291 e9bd 7844 cc3d
00000220: 07e3 92bd 3e84 d93d 7b9e 413b 6a89 21be
00000230: 23d4 833c 2ac6 93bd 6311 3d3d 175d bc3d
00000240: cb56 88be 7daa 653e 3c36 ecbd e3ce e5bd
00000250: 6598 38bd dfc7 c2bc f31b 313e 0678 4ebd
00000260: bfb0 553c ee4e 29be 0b84 b6be 0572 c93e
00000270: f7d9 21be dd36 8b3e 50c0 c7bd 38f5 913e
00000280: 5d54 4d3d 77ac a53d 4ebf 86be cf8d 813d
00000290: 1fab 123e 91a3 22be d9aa 4f3c 098c 95be
000002a0: d7b2 2f3e 2397 1dbe dc64 9abe 0009 263e
000002b0: 6ad4 debc 261b 933e aad6 16be b5c2 043c
000002c0: 9300 3abe 15f1 1abe 99b6 3f3e cc44 09bd
000002d0: b429 703e 8a1b dc3d 5d73 5fbe 3f0a 013d
000002e0: c051 ec3d f0c0 c33d fe87 debd a780 48bd
000002f0: 938f 723d 8f0c 3fbe bbd9 f3bd 9168 233e
00000300: 534b 123e 999d 1bbe 97f7 903e 6e19 e63d
00000310: 6bd0 e2bd 38f2 aebd 123d 613e 5f78 ec3b
00000320: e748 15be 87e3 c83d 5c5c 433e aa5c b83e
00000330: 3581 1bbd bb5b 10be 67b0 503d 0896 903d
00000340: b6b6 25bd bd74 083e f825 97bc ef31 16bd
00000350: a064 4fbe 0758 e23d 3519 883c d95f 513e
00000360: 06a0 c43e b9d6 56bb 2183 13bd 1be7 d23d
00000370: 3742 afbc 4532 83bc aac3 18be 93fb 0fbb
00000380: 88bd 393e ef53 043e 3ce7 8dbd 138f 433e
00000390: 03cc 073e 4eae 053e aa7c e73b b142 50be
000003a0: 92f1 1abe d40c 933d 7095 e43c c1b3 febd
000003b0: 1e64 703e 016b 883e 9954 133d 4fb5 2dbe
000003c0: 0a7d 473d d2b1 8d3e c741 83bc 9264 a3bd
000003d0: ee65 ac3d 438f b4bd a853 46bc f605 27be
000003e0: 254e 5d3b 3830 17be af9b 7fbd c786 463d
000003f0: 2827 eebd c4be 3bbc 8dfa f73d 9e4b 6b3e
-0.029324166 -0.23440453 -0.15738906 -0.24997991 -0.13804935 -0.21469854 -0.14753953 0.083834775
-0.20115319 -0.14219323 -0.18918315 0.13097534 -0.00077572855 -0.10300214 -0.04833859 0.0011564259
-0.07010401 0.1132209 -0.15281922 -0.016717138 -0.27361834 -0.07159945 0.04958995 -0.19702531
-0.18794325 -0.26665333 -0.25617817 -0.2193794 -0.02330316 0.041343536 -0.21914297 -0.075991936
0.08277223 -0.06298216 -0.17699979 -0.15552385 -0.18121132 -0.25797403 0.093104325 -0.2721302
0.04122772 -0.2226437 -0.2602107 -0.014627068 -0.15326554 0.17029938 -0.08007193 -0.14485757
-0.28861895 -0.16679773 -0.014087359 -0.14588578 -0.032380346 -0.045053795 -0.14248557 -0.21298656
-0.16405362 0.010669891 -0.17223951 -0.02782563 0.031846263 -0.049057562 -0.07673287 -0.027202133
-0.0755594 -0.32402223 0.07955008 -0.28818962 -0.056478206 -0.18731102 0.13660567 0.16067506
0.052063685 0.0123747615 -0.21770194 0.17514135 -0.0997846 -0.30273932 -0.05593705 -0.13550983
-0.21119674 -0.19066559 0.16515842 -0.10820699 -0.1106494 -0.094958685 -0.09014302 -0.23076184
0.19820334 -0.34816903 -0.089691065 -0.10084367 -0.200991 -0.19510849 -0.16221355 -0.07634967
-0.25522447 -0.11902151 -0.20410314 -0.113393046 -0.14876907 -0.024943985 -0.14325868 -0.201414
0.021294098 -0.0017616927 -0.04349357 -0.062715836 -0.12259903 0.056526706 -0.0728617 -0.11543101
-0.18669876 -0.05991384 -0.23477603 -0.18311341 0.013036283 -0.14063366 -0.08480203 -0.21945876
-0.0772115 -0.19112961 -0.18390915 0.041668706 -0.10662614 -0.14235593 -0.05792552 -0.0747219
0.0055110357 -0.26120746 -0.099442184 -0.18792339 0.0008072238 0.0038451215 -0.11404766 0.09973997
-0.07172208 0.10620926 0.0029543925 -0.15775076 0.016092366 -0.07215531 0.04615916 0.09197443
-0.26628718 0.22428317 -0.11533782 -0.11221101 -0.04506721 -0.023776947 0.17295818 -0.050407432
0.013042628 -0.16534016 -0.35647616 0.39344802 -0.15805803 0.27190295 -0.097534776 0.285074
0.050129283 0.08089536 -0.2631783 0.06325876 0.1432309 -0.15882708 0.012675011 -0.292084
0.17158066 -0.15389685 -0.30155075 0.1621437 -0.027200896 0.2873165 -0.14730325 0.008103062
-0.18164282 -0.15131028 0.18721999 -0.033512875 0.23453408 0.1074744 -0.21821351 0.031503912
0.1153903 0.09558284 -0.10865782 -0.048950817 0.059218954 -0.18657134 -0.11906763 0.15957858
0.14286546 -0.15196837 0.28313896 0.11235319 -0.11074909 -0.08542293 0.21995953 0.007216498
-0.14578591 0.098090224 0.19078201 0.36008197 -0.03796502 -0.14097492 0.05094948 0.07059866
-0.04045745 0.13325782 -0.018450722 -0.036668714 -0.20253229 0.11051946 0.016613582 0.20446719
0.38403338 -0.0032781793 -0.036013726 0.10297986 -0.021393878 -0.016015181 -0.1491839 -0.0021970018
0.18138707 0.12922643 -0.0692887 0.19097547 0.13261418 0.13054773 0.0070644217 -0.20337941
-0.15131214 0.07180181 0.027903289 -0.12436629 0.23475692 0.26644138 0.03596935 -0.16963695
0.04870323 0.2767473 -0.016022576 -0.07978167 0.08417879 -0.088163875 -0.012104906 -0.16310868
0.0033768502 -0.14764488 -0.06240433 0.048468377 -0.11628562 -0.011459056 0.12108336 0.22978064

lstm.bias_hh_l0 f4 [512]
00000000: 9c8a a03d 9ac9 c0bd 4702 a5be fcc8 70be
00000010: 5355 6dbd 33fb 23be 6721 90be 0c2d 723d
00000020: 65eb 87be aa8f 2bbe 2178 74be 0bb2 a53d
00000030: f02e 6fbd e90c 6fbd f2c6 dabc 0d82 563d
00000040: 9b28 f7bd c92f c13c 92c8 87bd 79e0 0bbd
00000050: 40a4 3bbe 652f aebd 245a 6a3d 99ef 7cbe
00000060: 4fe1 64be f4b2 0abe 432d 7abe 25c6 0bbe
00000070: d143 0dbd 84a3 843d 376f 23be c775 b6bd
00000080: 39d0 9e3d a50e 18be 7c90 9fbe 7303 0bbe
00000090: e30f c2bd 5b12 d6bd 5884 b03d 92fe b2be
000000a0: 1a1a c63d bcf4 45be 4c26 66be f2b4 3dbd
000000b0: 2b30 1fbe 3d2f 223e 067a 28be 77c6 16bd
000000c0: bad6 2fbe 5b7f 6cbd c213 9abd ba0d 0ebe
000000d0: cdf5 9d3c 3e21 04bd 89e4 93bd eedc 90be
000000e0: c969 54bd 92cb 7dbd 8c79 1cbe 2d51 cb3c
000000f0: 168d c8bc da76 38be 6c54 1fbd 31fd c6bd
00000100: a578 e3bd 7808 8cbe 9503 d93c 983d 87be
00000110: 539f 813d 85a5 3bbe 9ba6 703d 767c 2b3d
00000120: 1b6d 3ebd f026 39bd 31b7 41be f730 583d
00000130: 55c0 18be 8c9b 2dbe 906b 34bd 1163 30be
00000140: dd81 7dbe a24d d5bd 8a6e 9d3d ccd1 8dbd
00000150: 1f27 e0bd fabf 833c 25b3 25be 81e7 4dbe
00000160: 69ab b13d 6a91 9abe 7f0b 0f3d 21ef 1cbe
00000170: ab7b 86be 22e2 0ebe a73a 25be 3fdf 1dbe
00000180: d3ec 34be d303 07be f51a b6be f773 0dbe
00000190: ad73 47be 054d 79bd 89b9 57be 8c6f 09be
000001a0: f131 85bd db6c f13c f802 07be 9196 0bbe
000001b0: dd61 4bbe 2c33 ef3c 965a 21bd 0cd5 b7bd
000001c0: 4e6b 29be 9318 9ebd 0369 20be eed2 a0bd
000001d0: a488 90bd e3a0 25be a618 a5bd e00a a4be
000001e0: 3ce8 0dbd 7ef5 4bbe f19d 1dbe c269 203d
000001f0: 03e5 69be 2599 89bd 1a9c 1b3c ffd5 b2bd
00000200: d2fa 4d3d ea4d 94be 8dc3 f9bd aca8 4cbe
00000210: 9ebf 0d3e 194a 23be f2a2 11be fc75 473e
00000220: 3421 3fbd aab0 ea3d 3da7 18bd c14a 0ebd
00000230: 1624 28bd e0da babd 7103 883d cd1b 103e
00000240: 7e55 36be df78 593e 807c aebd 1bb8 8fbc
00000250: a296 21be b2e4 cc3c 75e5 943e b190 19bd
00000260: bbee 063e fc90 a7bd c212 90be 2902 f63e
00000270: 82e1 fabd 796d 323e 6d0e 1ebe a8f4 833e
00000280: b5f4 8ebd 2f3d 833d af86 7cbe cf5c 56bd
00000290: 0d13 183e 63c3 21be 2610 303d 273a 2dbe
000002a0: d895 073e 9dcf bbbd 65cd 5dbe aac6 963e
000002b0: 2885 c0bd d02a 493e 657f 9fbd 8c6c ad3d
000002c0: 5e81 64be 8b76 69be f955 333e 4185 55bd
000002d0: b226 ab3e 11cc 403e dd13 02be d742 da3d
000002e0: 4da9 fc3d 1ac3 f83d 370b 3fbe 29fb 81bd
000002f0: 9766 9ebc 6b02 babd 9eea e6bd 0da5 273e
00000300: 22b5 253e 4812 76be 4912 4f3e f222 253e
00000310: d7f8 cbbd d46c ddbc d4c4 3e3e 0171 b0bc
00000320: cf07 06be 2609 0b3e 888d 153e f02c 8f3e
00000330: 14e8 f33c 8252 1bbe a293 24bd a2b4 d0bc
00000340: 8d7c 39be 9158 a03d 5799 9a3d afcb 1ebd
00000350: b83e 3abe e074 5dbd 9152 ba3d 5568 a83e
00000360: b561 913e af72 20bb f6e7 c0bc a0d5 19bb
00000370: 9d0d 82bd 4ec4 31bd 2139 eabd 300a dc3c
00000380: c71b ab3d 5399 083e 387b dbbc c24a 673e
00000390: 160a 9b3e ed96 ae3c f3bd 383d 1512 49be
000003a0: 8fea 76be d1e4 a3bb 8e23 813d c29a 0ebe
000003b0: 96da 9c3e b722 553e 18e3 783d f557 2abe
000003c0: aad4 2cbd 3625 783e 4e11 463c 3b80 82bd
000003d0: bc84 753d 3cce f3bc df47 c23d 3ffc 97be
000003e0: 495c da3d 60bd bbbd 95cc 4c3c 338a 803c
000003f0: 80ee 25be deb3 61bd a7bb 673e fa4a eb3d
0.07838938 -0.094134524 -0.322283 -0.2351417 -0.0579427 -0.16013794 -0.28150484 0.05912499
-0.2654678 -0.16754022 -0.2387395 0.080905996 -0.058394372 -0.05836192 -0.026706193 0.05237012
-0.12068292 0.023582356 -0.066300526 -0.03414962 -0.18324375 -0.085051335 0.05721487 -0.24700774
-0.22351573 -0.13544828 -0.24431328 -0.13649805 -0.034488503 0.06476501 -0.15960394 -0.08909183
0.07754559 -0.14849336 -0.3116492 -0.13575535 -0.094756864 -0.1045272 0.086189926 -0.34959847
0.09672947 -0.1933164 -0.22475547 -0.04631514 -0.15545718 0.15838332 -0.16452798 -0.036810365
-0.17171755 -0.057738643 -0.075233 -0.13872424 0.019282246 -0.032258265 -0.07221324 -0.28293556
-0.051858697 -0.061961718 -0.15280741 0.024818981 -0.024481338 -0.18014088 -0.03889887 -0.09716261
-0.111069955 -0.2735021 0.026490966 -0.2641418 0.06329217 -0.1832486 0.058752637 0.041866742
-0.04649077 -0.04520315 -0.18917538 0.05278107 -0.14917119 -0.16953868 -0.044047892 -0.17225291
-0.2475657 -0.10415198 0.07687099 -0.06924781 -0.10944962 0.016082752 -0.1618162 -0.20107843
0.08675272 -0.30189067 0.034923073 -0.15325595 -0.26266226 -0.1395345 -0.16135655 -0.15417193
-0.17668466 -0.13185053 -0.35567442 -0.13813768 -0.1947772 -0.060864467 -0.2106687 -0.13421458
-0.06503666 0.029470852 -0.13184726 -0.13631655 -0.1986155 0.029199205 -0.03939303 -0.08976182
-0.1654484 -0.07719531 -0.15665059 -0.07852732 -0.07057312 -0.16174655 -0.08061342 -0.32039547
-0.034645304 -0.19917867 -0.15392281 0.03916336 -0.22841267 -0.06718663 0.009497667 -0.08732223
0.05028803 -0.28965694 -0.121955015 -0.19986218 0.13842627 -0.15946235 -0.14222315 0.19478601
-0.046662524 0.11459477 -0.037268866 -0.03473926 -0.04105004 -0.09123778 0.066412814 0.14073105
-0.1780605 0.21237515 -0.0851984 -0.017543843 -0.15780118 0.025011394 0.29081312 -0.037491504
0.13177006 -0.081819504 -0.2813931 0.48048523 -0.122500435 0.17424573 -0.1543519 0.25772595
-0.06980268 0.06408154 -0.24660753 -0.052334603 0.14851017 -0.1579719 0.04298415 -0.16916715
0.13240755 -0.091704585 -0.21660383 0.29448444 -0.094003975 0.19645238 -0.077879705 0.08467969
-0.22314975 -0.22799127 0.17513265 -0.052129034 0.3342796 0.18827845 -0.1270289 0.1065728
0.12336979 0.12146588 -0.18656622 -0.06346733 -0.019336028 -0.090824924 -0.112752184 0.16371556
0.16182378 -0.24030411 0.20221819 0.16126612 -0.09959572 -0.027029432 0.18629771 -0.02153826
-0.13088916 0.13577709 0.14604771 0.27963972 0.02977375 -0.15168193 -0.040179856 -0.025476757
-0.18113919 0.07829393 0.075487785 -0.038768467 -0.18187988 -0.05406654 0.090977795 0.328921
0.28394857 -0.002448242 -0.023548108 -0.0023473278 -0.06350253 -0.0434001 -0.11436678 0.026860327
0.083549075 0.13339739 -0.026792154 0.22587112 0.30281132 0.021312201 0.045103025 -0.19635804
-0.24112915 -0.0050016423 0.0630561 -0.13926223 0.30635518 0.20814024 0.06076345 -0.16635115
-0.042195 0.24232945 0.012089087 -0.06372114 0.05994104 -0.029761426 0.094863646 -0.29684636
0.10662133 -0.0916698 0.012499948 0.015690899 -0.16204262 -0.055103175 0.22630177 0.1148891

fc1.weight f4 [64, 128]
00000000: 2646 13be cf44 30be e2ab 993d 3f1a 53bd
00000010: 4e5d e3bc 49aa 843d 72c0 fcbd e470 d03d
00000020: 22c3 b23e d2df 57be dba7 583e e47d c9bc
00000030: 4880 b53b 38b8 b93c efab 00be 6dff 913d
00000040: 030a ebbb 57e2 45be 4b22 863d de8b a53d
00000050: 3328 ccbc 5022 4cbc 9e8f abbe 2a61 363e
00000060: a9f7 213e a5a6 9dbd 90b7 a23d 3843 c83e
00000070: f649 763c ec6c 2dbe 30c4 99bc 30ae 9cbe
00000080: 7a3e 6339 280b 603e a1a3 97be 9f4f 963d
00000090: fe12 6b3e 336b 793e bff1 71bd 3a50 8f3e
000000a0: 888c a5bd f59c 593e 5966 553e a36e f03d
000000b0: 8f10 423e f499 c3bd a8d2 a4bd 1fdd 11bd
000000c0: 4913 1cbe c17f 383e e1d9 693a c2fa dfbd
000000d0: ff0e e73d 6eea b6bd 6a1b cabd 39fb 743d
000000e0: a095 78be 80c2 1d3c 34ec 46be 2c10 543e
000000f0: e088 363e 7b39 1d3c c1b6 6f3d e4a5 85bd
00000100: b1a4 1a3e 2738 61bc 1a04 1c3e c954 67bd
00000110: d9a8 c23c b1d9 223e 260c aa3d 228c c73d
00000120: 5ace 203c d094 64be da64 e73d f7b0 5e3d
00000130: 1024 87bb 1a6f 12be bf2c 563d daef 083e
00000140: cb8a ae3d 0cc0 86be 3b39 6dbe b9b4 243d
00000150: 185a 643d 0eaa 44be ea0e 2d3e 4e1b 253e
00000160: bdc8 f5bd c800 0ebd 8d84 603e c87e f63d
00000170: 82dc cc3d b067 913c 40eb 2ebd 0a49 a7bd
00000180: 6232 473e d9cf 193e 65ce 13bd bf9a 5bbd
00000190: b49d 6c3e 5d54 de3d a0a1 d93d 0cd3 1dbc
000001a0: 3b52 163e 0bfb 3b3e 01d4 d9be 8ce0 213c
000001b0: a889 7bbe be1d fabd a856 983c 6175 093e
000001c0: 6350 19be b6ca 963d ce77 e3bd a88f a4bc
000001d0: be6e 0fbe 858e 0d3d 36aa d7bd 7b01 27be
000001e0: 9171 9b3c 0b69 9cbc b966 7bbe 3e44 bb3d
000001f0: 8e1a 033e 8328 4d3e 8804 8dbd 36ce 84bd
00000200: 1c12 483d 633a 8abc 91f1 523e 7bad 42bd
00000210: c120 613d 0c69 a6bd f3b3 de3d e925 543d
00000220: 02cd 4bbe 71a7 2f3d 713f d3bd e656 b03d
00000230: 3568 eabd 1243 363e 0fa3 56bd 3bec a2b9
00000240: f059 19be 4958 263d 6d61 de3d 27b3 6abd
00000250: af74 b03d e5fb 253d fa93 7ebd 2361 24be
00000260: a005 00be a863 163d e54d 083d 3691 22be
00000270: 6a93 133c 4319 073e c2e9 353e 0d27 713e
00000280: bf5a 153e 2bcf 4dbe 7c87 e9bd ed21 a83d
00000290: 8bf3 bebd 53ba 4a3d 2518 283c e6d7 27be
000002a0: b9ce 75be e756 57bd 8faa c8bd 7ec1 4ebd
000002b0: 27e3 a6bd a46b 483e 5a47 28bd e4f3 7f3d
000002c0: 032c 663d 8ddd c33d c739 23bd 5060 4dbd
000002d0: d7ac 7f3d bc8f 02bd 6729 553d 8c29 49bd
000002e0: 4187 9c3d 6020 f2bd a5e5 f6bd fc54 b13d
000002f0: 4676 21be 9291 3dbe 0c16 ff3d c986 aabd
00000300: b391 89bd 1498 04bd a8bb 1bbe 4031 fdbd
00000310: 1c12 a8bd e06b 40be 4226 d3bd c78a 3a3c
00000320: 3ba6 a4bd 8b45 853e 8ed9 323e dc6d a5bd
00000330: 57f2 0c3e 7546 12be 4d09 013d d688 2fbd
00000340: 7208 973d 2dce b43d c9a8 a03d 7dfc cebd
00000350: b29d 86bd 41db 8b3b fc4c b43d 8a56 01be
00000360: 4151 4ebe 5421 f5bc 5546 f0bd 0beb 37be
00000370: 7175 91bc 67a4 f63b 11f4 05be 3dd4 9dbc
00000380: 4c13 42be c1ec aebd d446 91bd c362 823e
00000390: ea1d 02be 1ee3 c43d a64a 01be e165 16bd
000003a0: 9c22 28bc 8fb4 2ebe 1890 dd3d de45 643e
000003b0: 868d 293e a3b6 c33d bd08 0b3d bb0a 003e
000003c0: 017a 423e 3b08 c83c 3388 893c c7a4 8abb
000003d0: 9a88 e3bb 34fd 06be 7441 03be 00bc 2fbd
000003e0: 5c87 1c3b 41d6 fcbc 18ba 2abd 7ce1 0dbe
000003f0: ff22 e53c 5403 2f3e e52b 0a3c c152 edbd
-0.14382228 -0.17213748 0.07503487 -0.051538702 -0.027754452 0.06477792 -0.123413935 0.10177782
0.349145 -0.21081474 0.21157782 -0.024596162 0.005538974 0.02267085 -0.12565587 0.07128797
-0.0071728243 -0.19324623 0.065495096 0.08083318 -0.024921512 -0.012459353 -0.3350801 0.17810503
0.15817131 -0.076978005 0.07945168 0.39113784 0.015032282 -0.16936082 -0.018770307 -0.30601645
0.00021671681 0.21879256 -0.29617026 0.07339405 0.22956464 0.243573 -0.059068438 0.27990896
-0.08083445 0.2125128 0.20839824 0.11739852 0.18951629 -0.095508486 -0.08047992 -0.035611268
-0.15241732 0.18017484 0.0008920711 -0.109365 0.11282157 -0.08931433 -0.0986851 0.059809897
-0.24275827 0.009628892 -0.19426042 0.20709294 0.17825651 0.009596224 0.058523897 -0.06525782
0.15101887 -0.013746298 0.1523594 -0.05647734 0.023762153 0.15903355 0.083030984 0.09743525
0.009814823 -0.22322392 0.11298533 0.054367986 -0.004124172 -0.14300194 0.052288767 0.13372746
0.085225664 -0.26318395 -0.23166363 0.040211413 0.055749983 -0.19205496 0.1690022 0.16123697
-0.120011784 -0.034668714 0.21925564 0.120359 0.10002996 0.017749637 -0.04270482 -0.08168228
0.19452813 0.15020694 -0.036085505 -0.053614374 0.23107034 0.10855935 0.10626531 -0.009632837
0.14679806 0.18357484 -0.4254456 0.009880196 -0.2456423 -0.12212704 0.018596008 0.13423683
-0.14972071 0.07362883 -0.11106835 -0.020088032 -0.14007089 0.034559745 -0.10530512 -0.16309159
0.018975051 -0.019093057 -0.24550904 0.091438755 0.12803099 0.20034985 -0.0688563 -0.06484644
0.048845395 -0.016873544 0.20599963 -0.047528725 0.054962877 -0.08125505 0.10874166 0.051793966
-0.19902423 0.042884294 -0.10314835 0.086103246 -0.11445657 0.17799023 -0.0524016 -0.00031075053
-0.14975715 0.04061154 0.10858426 -0.05729976 0.08616006 0.04052343 -0.06215284 -0.1605268
-0.12502146 0.036716133 0.03327741 -0.15875706 0.009007314 0.1319323 0.17764953 0.23550053
0.14585398 -0.2009856 -0.11402795 0.08209596 -0.09323796 0.0494941 0.010259663 -0.16390952
-0.2400464 -0.05257311 -0.097981565 -0.050477497 -0.081487946 0.19572312 -0.04108367 0.06248845
0.056194317 0.09563742 -0.039850023 -0.05014068 0.062420692 -0.031875357 0.052041437 -0.049111888
0.07642985 -0.11822581 -0.1205552 0.086587876 -0.15767774 -0.18512562 0.12455377 -0.083264895
-0.06717243 -0.032371596 -0.15208304 -0.12362909 -0.08206579 -0.18791151 -0.103100315 0.011385626
-0.080395184 0.2602962 0.17465803 -0.08077595 0.1376432 -0.1428469 0.03150301 -0.042855106
0.07374658 0.088283874 0.07844693 -0.10106752 -0.06573047 0.0042680805 0.08803746 -0.12630668
-0.20148183 -0.029923119 -0.11732165 -0.17960756 -0.017756196 0.0075269225 -0.13081385 -0.019266242
-0.18952674 -0.08541251 -0.070935875 0.25465974 -0.12706724 0.09613632 -0.12626132 -0.036718253
-0.010262158 -0.17061065 0.10818499 0.22292277 0.16557893 0.095563196 0.03394388 0.12504093
0.18991853 0.024417987 0.016788578 -0.004231069 -0.0069437744 -0.13182527 -0.12817937 -0.0429039
0.0023884391 -0.030863883 -0.04168138 -0.13855547 0.027970789 0.17091113 0.008433317 -0.1158805

fc1.bias f4 [64]
00000000: 5acd c5bc e6e3 eabd 7276 713d bc44 2f3d
00000010: 5aca 9f3d 6bd4 eabc e6fb 4fbb 4985 7b3d
00000020: aeb2 c73d 06da de3c bf90 2ebd f6de 3b3d
00000030: e078 81bd a4ec 19bd 9576 153d 4f08 b9bc
00000040: 3256 dcbd 0c74 fe3c af2b 013d 80a4 a13d
00000050: 47d2 6ebc 3387 303d 0f55 473d 09ce 8b3c
00000060: 291c ef3b eefd 41bd e3f6 cd3c 951b fc3c
00000070: b551 a5bc 76c4 653b 99ec 80bd 3cb2 84bd
00000080: 57a5 fa3c 8b85 df3d 2713 85bc 0b48 7d3d
00000090: 3427 51bd 7154 59bd 7b99 49bd f1cc 0a3d
000000a0: facc c13d 29a2 7f3d 95ba fd3d 1184 08bd
000000b0: 08b7 3c3c 3a04 c43d 07ca a5bc fb79 e6bd
000000c0: fbcc 8bbd b5d1 633c 6e53 013d 0c3b 583d
000000d0: c9c9 7b3d a3da 16bc fdb9 093e 94b8 e8bd
000000e0: 03f9 16bd 917a adbc b945 aabd 4114 143d
000000f0: 88f7 d43d 2ddd e93b def0 5eb9 da76 cdbb
-0.02414577 -0.114692494 0.05895085 0.04279016 0.078022674 -0.028665742 -0.0031735837 0.061406408
0.09750877 0.027203571 -0.04261851 0.04586693 -0.06321883 -0.037579194 0.03649004 -0.02258697
-0.10758628 0.031061195 0.0315358 0.07892704 -0.014576501 0.043097686 0.048665103 0.017066019
0.007297058 -0.047361307 0.025142139 0.03077487 -0.020180563 0.0035059727 -0.062951274 -0.06479308
0.030596418 0.10914143 -0.016244484 0.061836284 -0.051062778 -0.053059045 -0.049218636 0.033886854
0.09462924 0.062410507 0.12389103 -0.033329073 0.011518247 0.09571119 -0.020237936 -0.11253735
-0.06826206 0.0139049785 0.031573705 0.052790686 0.061471734 -0.0092074005 0.13449855 -0.113633305
-0.03685857 -0.021176608 -0.0831408 0.036152128 0.10398775 0.007136962 -0.000212613 -0.0062702717

bn1.weight f4 [64]
00000000: 70ad 8b3f 8073 623f 9cc7 843f 9d46 853f
00000010: f5ee 8d3f 775d 8c3f 4606 703f db1a 863f
00000020: bdc9 893f e327 933f 04c5 7e3f b4bb 853f
00000030: b939 973f 5c04 743f 3e7a 7a3f e851 933f
00000040: c369 803f 26ab 9e3f 7fb5 1e3f cba9 8d3f
00000050: bcd6 953f c54e 863f a4d4 7b3f 3194 803f
00000060: 5a9a 8e3f 435d 843f 03b1 873f d84a 863f
00000070: 7194 853f de13 8d3f a164 843f 3767 813f
00000080: 21d4 913f 9da5 883f e2cf 733f ca1e 803f
00000090: 927d 913f 74c7 853f bd0c 913f 0b35 953f
000000a0: 711c 9e3f bac1 833f 190d 8d3f 42d7 823f
000000b0: 5eab 953f c8d1 9a3f 287f 843f 3966 8b3f
000000c0: 7d4c 883f beac 803f abff 913f 1a01 9f3f
000000d0: 3f0c 813f adf7 8f3f 53a5 7e3f c539 953f
000000e0: 361d 793f 5db9 933f 45d5 823f c9b9 8a3f
000000f0: 8be2 893f 9f64 833f 2f3c 873f 8d5c 8c3f
1.0912304 0.8845749 1.0373416 1.0412174 1.1088549 1.0966023 0.9375957 1.0476946
1.0764691 1.1496547 0.9951937 1.0447907 1.181449 0.9531915 0.97842777 1.1509371
1.0032276 1.239598 0.6199569 1.1067442 1.1706157 1.0492789 0.9837134 1.0045224
1.1140854 1.0340961 1.0600895 1.049159 1.0435926 1.1021688 1.034321 1.0109624
1.1392862 1.0675541 0.9523908 1.0009396 1.1366446 1.0451493 1.1332012 1.1656812
1.235243 1.0293496 1.1019622 1.0221941 1.1692922 1.209527 1.0351305 1.0890571
1.0648342 1.0052717 1.1406149 1.2422211 1.0081862 1.124746 0.99471015 1.1658255
0.973102 1.1540943 1.0221335 1.0837947 1.077226 1.0265082 1.0565242 1.0965744

bn1.bias f4 [64]
00000000: 1718 1dbe c061 dcbb c84b 5f3d a69d 9c3d
00000010: 58a6 ca3b d2a4 283e 1e35 e13d b64b 09be
00000020: 3405 a53e f841 3c3e e0d3 9abd 06f2 823d
00000030: 34a8 2f3e 86ca 83bd f9b3 2e3e 62b9 88bd
00000040: c3b6 1dbe fbee 193e d30f afbe cef6 62bc
00000050: 6c8c 583e 1c05 d5bd d48c 23be 5cf8 873e
00000060: 8231 dcbb 7d21 bebd c872 cabc 66fd 2f3e
00000070: ebeb 393e 4e83 1dbd 1fd0 b03d c155 1e3e
00000080: 69b4 943e 0229 7f3e 43c4 e4bc 0c10 abbd
00000090: b378 e73d 3339 3c3d a099 1e3e 4ffe 6e3e
000000a0: dd87 f83d 9811 2d3d 1508 473e ef88 c13d
000000b0: cb19 81bc 80e2 233e 72dd fabc 8f8d 8e3e
000000c0: 25ed 403e 0655 723d 7689 223e 0c45 41bd
000000d0: a4ae 243c 5479 923d 772b 423e f02c 843e
000000e0: 9ef4 353e 1aaa 5ebd acf9 17be 4f9c 8d3e
000000f0: c06c 683b ce9c 2d3e 1941 a53d c9cc a63d
-0.15341221 -0.00672552 0.05451563 0.076472566 0.0061843805 0.16469124 0.109964594 -0.13407788
0.32230532 0.1838454 -0.07559943 0.063938186 0.17154008 -0.06435113 0.17060842 -0.06675984
-0.1540175 0.1503257 -0.3419176 -0.013852788 0.21147317 -0.10401365 -0.1597169 0.2655667
-0.006719769 -0.09283731 -0.024712935 0.17186508 0.18156402 -0.0384553 0.08633446 0.154624
0.29043892 0.24917987 -0.027925616 -0.0835267 0.113023184 0.045952987 0.15488291 0.23339199
0.12135289 0.042253107 0.19436677 0.09449946 -0.01575937 0.16004372 -0.030623171 0.27842376
0.18840463 0.059163116 0.1587275 -0.04718499 0.010051403 0.07152048 0.18961893 0.25815535
0.17769095 -0.05436144 -0.14841336 0.27658316 0.003546521 0.16954347 0.08069057 0.081445284

bn1.running_mean f4 [64]
00000000: 73f9 35be 6052 8bbe 74cb 74be 9114 0f3f
00000010: a57b 2d3f 9f89 0c3f aeb6 c03f 7f62 0a3f
00000020: 07fe 093f 319b 5b3f dcad d43c c147 c0be
00000030: 0e55 893f 176d 4ebe f55c b33f 2f04 a63e
00000040: af38 013f 5e7b 9ebe 85d3 863f 2375 863d
00000050: da73 b63f 3b1d 3dbe 883b 19bd 3b90 7c3f
00000060: 442e 7e3f d28a e03e 8af8 35be 4b54 a73f
00000070: 018a 12bd f4f6 01bf 3460 c73f c656 d53f
00000080: 67ed c83d 4a3d 263f f52c 553f f461 bdbd
00000090: 179d 9a3f ae39 b03f eee6 dd3c 9b6d 50be
000000a0: 435f 273f f7b3 c63d 4dd5 de3f 7d6e aa3f
000000b0: ec5c ef3d c49e 5e3f 7891 cdbe 6321 4d3f
000000c0: 150a c43e 1b43 6b3e 6d9c 073f 55a3 e23e
000000d0: ce88 c53f 1c6e 713d 5690 7ebc a376 033f
000000e0: 0a4d 323d 615a acbe 4db3 67bf 6a91 763f
000000f0: 630a b4bf 991a 723f 7392 2bbf bd26 9a3f
-0.17770939 -0.27211285 -0.23905736 0.55890757 0.6776679 0.54897493 1.505575 0.54056543
0.5390324 0.8578368 0.025961809 -0.37554744 1.0729082 -0.20158802 1.4012743 0.32425067
0.5047712 -0.30953497 1.0533301 0.06565311 1.4254105 -0.18468182 -0.03741029 0.9865758
0.99289346 0.43855911 -0.17770591 1.3072599 -0.035776142 -0.50767446 1.5576234 1.6667106
0.09810906 0.6493727 0.83271724 -0.09247199 1.207919 1.3767602 0.027087655 -0.20354311
0.6537973 0.09702294 1.7408844 1.3314968 0.11687645 0.8696101 -0.40150046 0.8012907
0.38288942 0.22974817 0.5297306 0.44265237 1.5432374 0.0589429 -0.015537342 0.513529
0.0435305 -0.33662704 -0.90507966 0.96315634 -1.406567 0.94571835 -0.6702034 1.2043072

bn1.running_var f4 [64]
00000000: a44a cb3f 7410 ae3f 2ab2 443f e7dd e53f
00000010: d851 0840 f8b8 ff3f 64c6 eb3f 1ea6 c63f
00000020: 7b62 fe3f d1f0 e33f 80dc a43f 08fe b93f
00000030: b430 8b3f 9c47 b63f 6d6f c43f 75cf 873f
00000040: b06d 7f3f 9063 e23f 2cfb e53e 853f c03f
00000050: 36d7 2440 fd01 7c3f 9c7b 4c3f a76d be3e
00000060: b31c ca3f 8ce6 b63f 9679 2b3f 26aa 9d3f
00000070: 2591 b83f 9dcf 903f 4f64 fe3f ab19 2140
00000080: 25a5 413f e853 323f 2676 7b3f 3b1c fc3f
00000090: c83f c23f 6ccb af3f 8d1e 433f a327 a13f
000000a0: cce2 b13f faff 9d3f 1ec7 e33f 0aea eb3f
000000b0: 88e4 433f 903a 3b3f 8ede 0840 01de 5a3f
000000c0: 06fd 0640 a6a8 983f 6cb8 4f3f 9165 ae3f
000000d0: 1314 b13f ed96 0b3f a741 963f ff1c bb3f
000000e0: 97aa e23f f454 d03f a16e de3f 7024 a53f
000000f0: a319 4140 2833 ad3f b825 8a3f b692 f13f
1.5882154 1.3598771 0.76834357 1.7958344 2.1299953 1.9978323 1.8419919 1.5519445
1.9873804 1.7807866 1.2879791 1.4530649 1.0874238 1.4240603 1.5346504 1.0610186
0.99776745 1.7686634 0.4491819 1.5019385 2.5756354 0.98440534 0.7987611 0.37193033
1.5790008 1.4289107 0.669824 1.231755 1.4419295 1.1313359 1.9874362 2.5171916
0.75642616 0.6965928 0.98227155 1.9696115 1.5175714 1.3733954 0.7621849 1.2590221
1.3897338 1.2343743 1.7795141 1.8430798 0.76520586 0.73136234 2.1385837 0.85495
2.1091933 1.1926467 0.8114078 1.3624746 1.3834251 0.5452717 1.1738786 1.4618224
1.770831 1.6275926 1.7377511 1.2901745 3.0171897 1.3531237 1.0792761 1.8872898

fc2.weight f4 [4, 64]
00000000: 828d 85be 9e9e f83d 7b25 7a3d 101d af3c
00000010: 39f2 a1bd 153d 8bbc 1c27 c13d fad9 12be
00000020: 9072 273e 9f72 913c e28b 9d3d 7fb7 17be
00000030: b632 4f3e 0f28 9e3b 57f2 393e 522b 60bd
00000040: 2e07 91bd 86b3 0abd a6aa 8fbd 4584 07bb
00000050: 0ae2 fe3d 60a1 08be d4e6 eabd c171 073e
00000060: 8774 a33d c6f0 c93c 21d6 c8bd 64f2 3d3e
00000070: 280d fb3c fec7 36be 7b11 473e 124f 0c3e
00000080: 0961 0b3c 2574 0d3e 30d8 ea3d 8357 c5bd
00000090: b5e6 143e d8ae 483d cda6 193e 5e1f a3bc
000000a0: 9d6c 8e3d 7bd2 8b3d b83c 093e 8894 ef3d
000000b0: 3847 e2bc 12a8 d63d 4231 63be f09b 043e
000000c0: f242 4d3e 3e56 103e 07b2 563e 4b25 0dbe
000000d0: a954 893c 8ad4 18bc 8e03 c93d 7aed 853e
000000e0: 599b 153e 4809 01be b3a5 80bd ffc8 5f3e
000000f0: 75f7 96bd 7442 2c3e 8608 82bd 35e7 6c3e
00000100: 6c99 f03d 5a1e 6cbd 1aa2 69be 9edb dbbd
00000110: a7f2 16be e7a7 73be b088 46be 513d 1d3e
00000120: 6ca8 abbd fce2 81be 0c57 9abe 3de2 a0be
00000130: 9fb8 28be f43d b4bd 6011 633b 1ad8 423e
00000140: a679 3bbe 68a0 403e c69e b4bc 666f 503e
00000150: 0725 d9bd c5a3 323e 4f33 0fbc 0cf2 ca3d
00000160: bb7a 39be 4659 85be c68a 51be d65c 9ebd
00000170: b53c 5fbe 6a33 803d 941a a1bc 42ad b0bd
00000180: cd56 48be 8a5c 9b3d 7caa 67bb 4565 463e
00000190: a5b1 39be 73a0 01be 7c0e 1bbe 5c5a b4be
000001a0: 75c7 503e ff24 95be 3c13 46bd f69a 61be
000001b0: 7d5c 1ebe ffe6 263e 9031 b43d a3d9 bf3d
000001c0: f7a9 d8bd 2432 b2bd 45c8 2bbd 93d5 5b3e
000001d0: 4016 54bd d7a3 a0be 692a 343e 3f94 78be
000001e0: 6d14 69bb 1711 093e 6db1 97be 00a7 45be
000001f0: ad41 293e 3432 2ebe fd30 9fbe 8244 a6bd
00000200: 3c3e 103e d046 0fbe b932 803e 0f64 b8be
00000210: 63ad 80be 183e 04bf 637a f7bd f3dd 8ebe
00000220: 1b7c 77be 8697 d7be ea93 5dbe cae0 94bc
00000230: 6009 52bd 5be2 83be efba c7bd 4607 86be
00000240: 5e81 c53c 16ec b5be 0db2 a8bd cfcd d83c
00000250: eb67 9ebe abb7 ad3d beae a83d 5930 43be
00000260: fe22 8d3e b1d1 7c3e c4d4 c63d 474b 0bbe
00000270: 4535 d1be b94e 543e e386 f0bd 8ea4 2dbe
00000280: 2775 9fbe 3929 60be f45e adbd 7a27 d6bb
00000290: d966 83be 98d2 5abe 4c5d 8dbe 9682 dc3d
000002a0: 9275 b0be 47e0 78bd 3e3f 45be b57a 81be
000002b0: 1781 be3e a2e6 b0be 23fa 1bbe a3e8 8abe
000002c0: f215 23be 20fc 12be 6ce4 95bb dbec fabd
000002d0: 413f 43be 992b 813e 9ddb 02be ece6 10be
000002e0: 8b6d 82bd 22ae a43d 49f6 9bbe 064e 51be
000002f0: 791d 143e cf0a c73d f4a8 343e 699a 66be
00000300: 353a 05be 11d7 053e 4a05 94be 7084 b23d
00000310: 37ab 823e 902d a23d 4ac8 68be 871a 6a3e
00000320: 57c9 5bbe 62ed f73d 8d68 9f3d 3c8d 2f3e
00000330: b9a5 85be b806 153e 1396 2ebe cc45 ccbe
00000340: 0f90 1b3e 1041 303e 6e16 89bd 0652 c8be
00000350: 8ecf 913e 2889 07be 6fed c6be df93 0cbe
00000360: af1b 85be 02f8 ecbd 7b74 e3be 1ad0 b2bd
00000370: 60f9 08bc 7fc6 c6bd 23ba cfbe abaa 36be
00000380: 43f1 023e 8233 08bf 920f 1abe 6ee6 65be
00000390: 993e 8dbe db28 76be 9653 1b3d 3f64 5abe
000003a0: b5cc dabe f08a 30be 4b47 46be 6d2a 853d
000003b0: bed3 94bb c0ab 98be 63ca 2a3e 2ef8 85be
000003c0: 7ac6 a3be 3b67 223d 615e 6dbe 0f29 4ebf
000003d0: 7b5e 9dbe e29c 52bd 6915 b3be 8e47 4dbe
000003e0: 2fc3 5cbe 532c babe a07b 773d f340 fbbd
000003f0: d91a 84be e0e4 5cbd deab 8f3d d164 05bd
-0.26084524 0.12139629 0.0610709 0.021376163 -0.079075284 -0.0169969 0.09431288 -0.14340964
0.16352296 0.01775485 0.07692696 -0.14816092 0.20234188 0.0048265527 0.18158852 -0.054728813
-0.070814475 -0.033862613 -0.070149705 -0.0020678204 0.12445457 -0.1334281 -0.11469808 0.13226987
0.0798121 0.024650943 -0.09806467 0.18549496 0.030645922 -0.17849728 0.19440262 0.13702038
0.008507022 0.13813837 0.11467016 -0.09635832 0.14541133 0.04899487 0.15005036 -0.019912418
0.0695431 0.06827255 0.13402069 0.11698252 -0.02762185 0.104812756 -0.22186759 0.1295011
0.20045069 0.14095399 0.2096635 -0.13783757 0.016764002 -0.009328017 0.09815131 0.26157743
0.14610042 -0.12601197 -0.062816046 0.21854018 -0.073714174 0.16822225 -0.06349282 0.23135073
0.11748013 -0.057646133 -0.22815743 -0.10735248 -0.14741002 -0.23794518 -0.1938808 0.15355422
-0.08381733 -0.25368488 -0.30144536 -0.31422606 -0.16476677 -0.08800879 0.0034647807 0.19027749
-0.18308124 0.1881119 -0.022048365 0.20354995 -0.106027655 0.17445286 -0.00874026 0.09909448
-0.18113224 -0.26044673 -0.20463094 -0.07732551 -0.21800502 0.062598065 -0.019665994 -0.08626796
-0.19564362 0.0758601 -0.003534942 0.19374569 -0.18134172 -0.12658863 -0.15142244 -0.3522519
0.20388587 -0.29129788 -0.048358187 -0.22031769 -0.15464969 0.16299056 0.08798516 0.09367683
-0.10579293 -0.0870097 -0.04193904 0.21468191 -0.05177903 -0.31375 0.17594303 -0.24275301
-0.0035565153 0.13385426 -0.29627553 -0.19301987 0.1652896 -0.17011338 -0.31092063 -0.081185356
0.1408624 -0.13991857 0.25038698 -0.3601384 -0.25132284 -0.5165725 -0.1208389 -0.2790371
-0.24168436 -0.4210779 -0.21638456 -0.018173594 -0.051278472 -0.25758633 -0.09752452 -0.26177424
0.024109539 -0.35531682 -0.082370855 0.026465325 -0.30938658 0.084822975 0.082364544 -0.19061412
0.2756576 0.24689366 0.097085506 -0.13602935 -0.40860954 0.20733155 -0.117444776 -0.16957304
-0.31144068 -0.21890725 -0.084653765 -0.0065354677 -0.25664404 -0.21369398 -0.27610242 0.10767095
-0.344647 -0.060760763 -0.19262406 -0.2528893 0.37207863 -0.3455096 -0.15232138 -0.27130613
-0.1592634 -0.1435399 -0.004574349 -0.12252208 -0.19067098 0.25228575 -0.12779088 -0.1415059
-0.0636855 0.08041026 -0.30461338 -0.2043992 0.14464368 0.097188585 0.17642576 -0.2251984
-0.13010485 0.13070323 -0.28910285 0.08716667 0.25521252 0.079188466 -0.22732654 0.22861682
-0.21463524 0.12105824 0.07783613 0.1714372 -0.26103 0.14553344 -0.17049436 -0.39897
0.15191673 0.1721232 -0.06693731 -0.3912508 0.28478664 -0.13235915 -0.38853022 -0.13728283
-0.25997683 -0.11570741 -0.44424805 -0.087310985 -0.008360237 -0.09705829 -0.405717 -0.17838542
0.12787347 -0.53203595 -0.15045002 -0.22451183 -0.2758682 -0.24039023 0.03792151 -0.21327303
-0.42734304 -0.172405 -0.19363134 0.06502233 -0.004541843 -0.29818535 0.16678767 -0.2616591
-0.31987363 0.03964923 -0.23180534 -0.805314 -0.30736145 -0.051419146 -0.34977272 -0.20046827
-0.21558832 -0.36361942 0.060420632 -0.122682475 -0.25801733 -0.05392921 0.07015203 -0.03256685

fc2.bias f4 [4]
00000000: 3aed 793e bde0 9f3b 9592 80be 88db b9bd
0.24406901 0.004879086 -0.25111833 -0.090750754
