Models/model_25_rec_final_with_optimizer.pt (torch, 952817 bytes, 32 tensors)

lstm.weight_ih_l0 f4 [512, 6]
0	0xbd47e5b5	-0.04880305
1	0x3d039b60	0.0321306
2	0xbd538fdf	-0.051650878
3	0xbf475092	-0.77857316
4	0xbdc351dc	-0.09537098
5	0x3eff3d7b	0.49851593
6	0xbea59f4f	-0.32348105
7	0x3f276d13	0.6540081
8	0xbf1c87b7	-0.61144584
9	0x3cf1865c	0.029483013
10	0xbeafb733	-0.34319457
11	0x3e08f208	0.13373578
12	0xbf29794a	-0.662007
13	0x3e96e113	0.29468593
14	0x3da2868c	0.07935819
15	0x3e064057	0.13110481
16	0x3dbbaf78	0.091643274
17	0x3e56190a	0.20907989
18	0xbd093bc6	-0.03350427
19	0xbe671a9d	-0.22568746
20	0xbf1885d0	-0.5957918
21	0x3e9e5bdb	0.30929455
22	0x3c536dd9	0.012904608
23	0x3ee69841	0.45038036
24	0x3e91e872	0.28497654
25	0x3d977416	0.073951885
26	0xbda43d65	-0.080195226
27	0x3e19b038	0.15008628
28	0xbe6e2c20	-0.2325902
29	0x3e931f0f	0.28734633
30	0xbf867034	-1.0502992
31	0x3e389b90	0.18028092
32	0x3dbc607c	0.091980904
33	0xbe2e880d	-0.17044087
34	0x3ec6e7b8	0.38848662
35	0x3e9f32d4	0.31093466
36	0xbe9c13a1	-0.30483726
37	0xbe34d962	-0.1766105
38	0xbd986937	-0.07441943
39	0xbe5c74b9	-0.21528901
40	0xbede7caf	-0.434545
41	0x3e0a8586	0.13527498
42	0xbe0915d6	-0.13387236
43	0xbe9ea924	-0.3098842
44	0xbec6bfd8	-0.3881824
45	0xbdb4955f	-0.08817553
46	0xbe354d78	-0.17705333
47	0xbe860130	-0.2617278
48	0x3f154fb0	0.5832472
49	0x3e1628f5	0.14664061
50	0x3d9e1792	0.077193394
51	0x3dcceabe	0.10005711
52	0xbf12ccaa	-0.5734354
53	0x3a8af173	0.0010600522
54	0x3d703ae6	0.05864992
55	0xbe42102c	-0.18951482
56	0xbeb0d328	-0.345361
57	0xbe1e057b	-0.15431778
58	0x3daa8f0e	0.08328067
59	0x3dc06130	0.09393537
60	0x3dcd41d9	0.10022325
61	0x3e1d1d98	0.1534332
62	0xbe466ee0	-0.19378233
63	0x3db7ee35	0.08980981
64	0xbe740a5b	-0.23832075
65	0x3eb79525	0.35855976
66	0xbe8cf798	-0.2753265
67	0xbe7ae33a	-0.24500743
68	0x3e877fc6	0.2646467
69	0x3f95c872	1.1701796
70	0xbec44d7d	-0.3834037
71	0x3f8a1d3b	1.079017
72	0xbf195ce4	-0.59907365
73	0x3f154b3e	0.58317935
74	0xbf44d7be	-0.76891696
75	0x3e81d5ab	0.25358328
76	0x3da03f48	0.0782457
77	0xbe17803e	-0.14795014
78	0x3e8213c7	0.25405714
79	0x3f3ebdd3	0.745084
80	0xbe4c9646	-0.199792
81	0x3f1c305d	0.61011297
82	0xbe4c57c4	-0.19955355
83	0xbdf364ef	-0.11884486
84	0xbe8bc4fb	-0.27298722
85	0xbd41e071	-0.047333185
86	0x3ded7b3f	0.11595773
87	0xbded23cc	-0.11579093
88	0xbd57c931	-0.052682105
89	0xbe878e95	-0.2647597
90	0x3f05ab19	0.522142
91	0xbeab690c	-0.33478582
92	0x3ed2ed97	0.41196892
93	0x3e5037d9	0.20333804
94	0x3de1007d	0.10986421
95	0x3ebf3a14	0.37348998
96	0xbe8859cb	-0.26631007
97	0x3ec1b44a	0.37832862
98	0x3e0f86f7	0.14016329
99	0xbf097270	-0.5369024
100	0xbe4605c9	-0.19338144
101	0xbf298fbf	-0.66234964
102	0xbea5b861	-0.32367232
103	0x3ee987b9	0.4561136
104	0xbebd02c3	-0.3691617
105	0xbe26102a	-0.16217104
106	0x3ee3e9f6	0.44514436
107	0x3e2d7e8e	0.16942808
108	0xbe578a81	-0.21048929
109	0x3d9d67ff	0.07685851
110	0x3d7baf94	0.06144674
111	0x3f299b1b	0.662523
112	0x3db00084	0.08593848
113	0xbf2c846c	-0.6738956
114	0xbf109b40	-0.5648689
115	0xbc9980de	-0.018738206
116	0x3ef3ae53	0.47593936
117	0xbe264bf2	-0.16239908
118	0x3dc4c4c3	0.09607842
119	0x3ee90c06	0.45516986
120	0xbeea8afd	-0.45809165
121	0xbe994c50	-0.29941034
122	0xbc480a89	-0.012209543
123	0x3d84241f	0.06452202
124	0x3e38e781	0.18057062
125	0x3eb28ef7	0.348747
126	0xbed55395	-0.4166533
127	0x3df22f08	0.11825377
128	0x3e10d301	0.14142992
129	0x3f044e0b	0.51681584
130	0xbe812116	-0.25220555
131	0x3ed950f4	0.42444575
132	0x3abd3706	0.0014435954
133	0xbe67ac87	-0.22624408
134	0xbcea0ff3	-0.028572058
135	0xbe3d4a65	-0.1848541
136	0x3c71922e	0.014744325
137	0xbf1b7c00	-0.60736084
138	0x3d895878	0.06706327
139	0xbe6cb4f0	-0.23115897
140	0xbeda6fbc	-0.42663372
141	0xbd1d8370	-0.038455427
142	0xbe896464	-0.26834404
143	0xbcb1baf5	-0.021695593
144	0x3f5c7e99	0.8613067
145	0x3f2a5124	0.6653006
146	0xbf44b654	-0.7684071
147	0xbf837035	-1.0268618
148	0x3e27d61b	0.16390269
149	0xbdbc368c	-0.091900915
150	0xbe828545	-0.25492302
151	0xbc36c337	-0.011154941
152	0x3e33f0f5	0.17572387
153	0xbe8f1297	-0.2794387
154	0x3d61695e	0.055032127
155	0xbe66da59	-0.2254423
156	0xbe2b6e7a	-0.16741362
157	0xbd31856d	-0.043340135
158	0xbe2b8826	-0.16751155
159	0x3c494e4a	0.012286732
160	0x3cfedcd1	0.031111153
161	0x3d8f8d28	0.07009345
162	0xbf2e50b5	-0.680919
163	0xbe00dea8	-0.12584937
164	0xbdc649ac	-0.096820205
165	0xbeedf656	-0.46477002
166	0x3ee80e33	0.45323333
167	0xbdfe643f	-0.12421464
168	0x3e0fafb1	0.14031865
169	0xbef276c2	-0.4735623
170	0x3f039bea	0.5140978
171	0xbe75d214	-0.2400592
172	0xbe885ad4	-0.26631796
173	0xbe490f97	-0.19634853
174	0x3e89db78	0.26925254
175	0x3fa692b5	1.3013521
176	0xbe882e6f	-0.26597926
177	0x3e2606aa	0.1621348
178	0xbf4a56b0	-0.79038525
179	0x3fc18932	1.5119994
180	0xbf117213	-0.5681469
181	0xbd008c8d	-0.03138404
182	0xbea39e45	-0.31956688
183	0xbdb691e3	-0.089145444
184	0xbd938fd6	-0.07205169
185	0x3e0675df	0.13130902
186	0xbf21b74b	-0.6317031
187	0x3f0d36b6	0.5516161
188	0x3dd0f8ac	0.102036804
189	0x3ee7a181	0.45240405
190	0x3ddf5223	0.10904338
191	0x3f047a81	0.51749426
192	0xbeb6d326	-0.35707968
193	0x3d491c87	0.04909947
194	0x3f3beddb	0.73409814
195	0xbf51ac74	-0.8190377
196	0xbe550bed	-0.2080533
197	0x3de8d27c	0.11368272
198	0xbe3b49d5	-0.18289883
199	0xbe1f8895	-0.15579446
200	0x3efbcfbf	0.49181935
201	0xbd9b610e	-0.07586871
202	0x3eedf5d0	0.46476603
203	0xbdf80bb6	-0.12111609
204	0x3eeaa425	0.45828357
205	0x3e666424	0.22499138
206	0x3f2559c8	0.6459012
207	0x3f137913	0.5760662
208	0xbf0569b7	-0.52114433
209	0x3e49cecd	0.19707794
210	0x3f7f8d85	0.99825317
211	0xbf1732a5	-0.5906165
212	0x3eb8bb68	0.3608048
213	0x3da1199c	0.07866213
214	0xbece9bb6	-0.40353173
215	0xbe2fcc40	-0.17167759
216	0xbde262a6	-0.11053972
217	0x3f01b1a4	0.50661683
218	0xbe9c4f18	-0.30529094
219	0x3da5eeda	0.08102198
220	0xbf0fcdff	-0.561737
221	0x3d253ff0	0.04034418
222	0x3ee42608	0.44560266
223	0xbe9981ad	-0.29981747
224	0xbec80836	-0.39068764
225	0x3ee00da7	0.43760416
226	0xbdde63a7	-0.10858851
227	0x3d5d72e9	0.054064665
228	0x3ee59dad	0.4484686
229	0xbe32f9d0	-0.17478108
230	0x3eede02f	0.464601
231	0x3d39e029	0.04537979
232	0xbec2245f	-0.37918374
233	0xbec9a6f7	-0.39385197
234	0x3efcd4f6	0.49381226
235	0x3ef24344	0.47316945
236	0x3df4cc41	0.11953021
237	0x3f217fcc	0.6308563
238	0xbed7fe04	-0.42185986
239	0xbe84c024	-0.25927842
240	0xbebe26dd	-0.37139025
241	0xbe4435d5	-0.1916116
242	0x3e0a3a4d	0.13498802
243	0x3e72e011	0.23718287
244	0xbdb86161	-0.090029486
245	0xbd17830c	-0.03699021
246	0xbf34de84	-0.7065203
247	0x3d5e37ba	0.054252364
248	0x3f0d89ed	0.55288583
249	0xbe8cda26	-0.27510184
250	0x3f752e65	0.9577392
251	0x3d5a7629	0.053335343
252	0xbe91da9e	-0.28487104
253	0x3e493ec2	0.19652846
254	0x3d97df7e	0.074156746
255	0x3e3f73eb	0.18696563

lstm.weight_hh_l0 f4 [512, 128]
0	0xbda0d87e	-0.078537926
1	0xbd0b7de7	-0.034055617
2	0x3ea12c02	0.31478888
3	0xbe4952fe	-0.19660565
4	0x3bb3f041	0.005491287
5	0xbedef24e	-0.4354424
6	0x3e799c60	0.24376059
7	0xbec3bb5a	-0.38228875
8	0xbd51d43c	-0.051227793
9	0x3d9448c6	0.07240443
10	0x3ef99963	0.48749837
11	0x3d14a5da	0.03629098
12	0x3e83ff9a	0.25780946
13	0xbec94f78	-0.39318442
14	0xbf1a16c8	-0.6019101
15	0xbeec6d85	-0.46177307
16	0xbd8e636d	-0.06952558
17	0x3eb94cf7	0.36191532
18	0xbe83dc02	-0.2575379
19	0xbf06295a	-0.5240685
20	0x3e039c69	0.12852634
21	0x3db3074c	0.08741626
22	0x3eb6eed6	0.35729092
23	0x3d414790	0.047187388
24	0xbe443331	-0.19160153
25	0xbdb78908	-0.089616835
26	0x3e997870	0.299747
27	0x3e236de7	0.15959893
28	0xbe3cdb35	-0.18442996
29	0xbe842cf6	-0.25815552
30	0x3e4aeece	0.1981766
31	0xbec169c5	-0.37776008
32	0x3f14ccbd	0.58124906
33	0x3e284f9f	0.16436623
34	0xbe990e57	-0.29893753
35	0xbec0a7e6	-0.37628096
36	0xbe2f263c	-0.17104429
37	0x3dcea879	0.10090727
38	0x3cc83f49	0.02444424
39	0xbefaa81d	-0.48956385
40	0x3e642b69	0.22282185
41	0xbd143111	-0.036179606
42	0x3e84092a	0.25788242
43	0xbc385c97	-0.011252544
44	0x3e60dab3	0.21958427
45	0x3e8cecab	0.27524313
46	0x3d8a0f17	0.067411594
47	0xbe885abd	-0.26631728
48	0x3eb62718	0.355767
49	0x3e169eec	0.14709061
50	0x3d744124	0.059632435
51	0x3eb0de90	0.34544802
52	0x3e149c35	0.14512713
53	0xbeff16c9	-0.4982207
54	0xbe48bdc8	-0.19603646
55	0x3e853084	0.26013577
56	0x3d8fadc3	0.07015564
57	0x3dadc238	0.0848431
58	0x3df330b9	0.118745275
59	0xbccecc05	-0.025243768
60	0x3d8728ee	0.065996036
61	0xbe33748c	-0.17524928
62	0xbec33d35	-0.38132635
63	0x3ed31693	0.4122816
64	0x3d5159cd	0.05111103
65	0x3e2d474c	0.16921729
66	0x3ec09664	0.3761474
67	0x3d7ea894	0.062172487
68	0xbe3459f8	-0.17612445
69	0xbe88c7c9	-0.26714924
70	0x3cef5c99	0.029218959
71	0x3ef7d3b9	0.4840372
72	0xbdf6055c	-0.12012741
73	0xbdb775ae	-0.089579925
74	0x3eecbbc2	0.46236998
75	0xbed6fd4c	-0.41990125
76	0x3c42e6d9	0.011895859
77	0xbeeace0f	-0.45860335
78	0xbe25bf10	-0.16186166
79	0x3e954632	0.29155117
80	0x3e39d520	0.18147707
81	0x3cf4ed94	0.029898442
82	0x3ed1faf0	0.41011763
83	0xbccf55ad	-0.025309408
84	0xbed80870	-0.42193937
85	0x3e399b46	0.18125638
86	0xbd3a3e18	-0.045469373
87	0x3e00aa62	0.12564996
88	0xbdfabfb4	-0.12243596
89	0xbd19b092	-0.037521906
90	0xbe2b18d0	-0.16708684
91	0xbecb2ae6	-0.39681166
92	0x3edd58db	0.43231854
93	0xbcd26f40	-0.025687814
94	0xbd368ec3	-0.044569742
95	0x3d441bcd	0.047878075
96	0xbda57bbe	-0.080802426
97	0x3f0f56dd	0.5599192
98	0x3ed9a248	0.42506623
99	0xbcbc7de7	-0.023009254
100	0xbd105479	-0.03523681
101	0x3ebde52d	0.3708891
102	0xbdda7002	-0.10665895
103	0xbd904e45	-0.07046179
104	0xbd63af5d	-0.05558716
105	0x3cd19dd1	0.025587948
106	0xbd03383b	-0.032036047
107	0x3d8776c9	0.06614453
108	0xbea1971a	-0.31560594
109	0xbe3facf5	-0.18718322
110	0xbde4db02	-0.11174585
111	0xbee21bc1	-0.441618
112	0xbdb9c6e7	-0.09071141
113	0xbe2f9612	-0.17147091
114	0x3e259b49	0.16172518
115	0x3ee26726	0.4421932
116	0x3e99b432	0.3002029
117	0xbe275c86	-0.16343889
118	0xbec2e335	-0.3806397
119	0xbc9f6c7b	-0.019460907
120	0xbedacc38	-0.42733932
121	0x3e6e5175	0.23273261
122	0xbe5d4526	-0.2160841
123	0xbe111a4d	-0.14170189
124	0xbe675ef9	-0.22594823
125	0x3e850e59	0.2598751
126	0xbebc4982	-0.36774832
127	0xbe95608b	-0.2917522
128	0x3d39f99c	0.04540406
129	0x3b2c6a8d	0.0026308626
130	0xbab2c587	-0.001363919
131	0x3e30b0df	0.17254971
132	0xbf120d0f	-0.57051176
133	0x3d9538d8	0.07286233
134	0xbd91d8dc	-0.07121441
135	0x3d5e2a3c	0.054239497
136	0xbeee78d8	-0.4657657
137	0xbf381584	-0.7190783
138	0xbe39f88f	-0.18161224
139	0xbf0d8a02	-0.5528871
140	0xbdab66b6	-0.083692
141	0x3c393324	0.011303697
142	0x3e2b998a	0.16757789
143	0x3ef58018	0.4794929
144	0x3e358738	0.17727363
145	0xbe84a143	-0.25904283
146	0xbe17b090	-0.14813447
147	0x3eabeb6a	0.33578044
148	0x3d9740f1	0.073854335
149	0xbdb2a0eb	-0.08722099
150	0xbea36c23	-0.3191844
151	0xbefbe579	-0.4919851
152	0x3de37c2e	0.1110767
153	0x3d811e05	0.06304554
154	0x3e029191	0.12750842
155	0x3e80c2c6	0.251486
156	0xbdb96861	-0.09053112
157	0xbd928ea8	-0.07156116
158	0xbe6b3c58	-0.22972238
159	0x3e979728	0.2960751
160	0x3e996247	0.29957792
161	0xbd582b6f	-0.052775797
162	0x3d87d1ff	0.066318505
163	0x3e5151fa	0.20441428
164	0xbda74f6d	-0.08169446
165	0x3eb3e427	0.35135004
166	0xbe114c5c	-0.14189285
167	0xbed44fd0	-0.41467142
168	0x3e36ace6	0.17839393
169	0xbe172dde	-0.1476359
170	0x3ebc1341	0.3673344
171	0x3cfa7033	0.030571079
172	0xbeac1ba4	-0.33614838
173	0x3d6e0799	0.058112714
174	0xbe0cef2f	-0.13763116
175	0x3c8f71a4	0.017510243
176	0xbdf5fa92	-0.12010683
177	0xbefe69a0	-0.4968996
178	0x3db389cb	0.08766516
179	0x3c1a98e2	0.009435864
180	0x3d8d21ec	0.06891236
181	0x3dd39eee	0.10333048
182	0xbf157961	-0.58388335
183	0xbd14c9df	-0.03632533
184	0x3f097405	0.53692657
185	0x3e9b9338	0.30385756
186	0xbef8dbd5	-0.4860522
187	0xbea7e28d	-0.32790032
188	0x3dd85514	0.10563102
189	0x3e916bad	0.28402463
190	0x3c8b3f4f	0.016997961
191	0xbe3b02f4	-0.18262845
192	0xbd5d242e	-0.05398958
193	0x3d46e1f8	0.048555344
194	0x3ead6dbb	0.3387278
195	0x3d7e37a4	0.06206478
196	0x3eca77f8	0.39544654
197	0x3f20d316	0.6282209
198	0xbe18ffb3	-0.14941292
199	0xbe10951c	-0.1411938
200	0xbd9fa6d8	-0.07795495
201	0xbe5a9be1	-0.21348526
202	0xbeaa5d50	-0.33274317
203	0x3e16fb9c	0.14744419
204	0x3dcd246f	0.10016715
205	0xbf1d251f	-0.6138477
206	0xbc491d7b	-0.012275095
207	0x3e22e01d	0.15905805
208	0xbed39cf0	-0.4133067
209	0x3f5c4bf1	0.8605338
210	0xbe7d7cc5	-0.24754627
211	0xbe681c74	-0.22667104
212	0xbf1b510e	-0.60670555
213	0xbeda5cf9	-0.42649058
214	0x3e8584e2	0.26077944
215	0xbdc78222	-0.09741618
216	0xbdf356ed	-0.11881814
217	0xbd9c7217	-0.076389484
218	0xbe5bc156	-0.2146047
219	0xbd97c813	-0.07411208
220	0xbe8d9a10	-0.27656603
221	0x3e7a8082	0.24463084
222	0xbf0573da	-0.521299
223	0x3e2fc5c1	0.17165281
224	0x3eb65ee1	0.35619262
225	0x3e9e0e28	0.30870175
226	0x3de03302	0.10947229
227	0x3e78ecea	0.24309126
228	0xbe36b168	-0.17841113
229	0x3e605c7a	0.21910277
230	0xbdeb9005	-0.11502079
231	0xbe6a0f92	-0.22857502
232	0xbe7dc3a1	-0.24781658
233	0x3d3935c1	0.04521728
234	0x3e48d5ae	0.19612762
235	0x3e82086f	0.2539706
236	0xbe54dd33	-0.20787506
237	0x3ea2cf2f	0.31798694
238	0x3f2913d9	0.6604591
239	0x3f3497d7	0.7054419
240	0xbec073ea	-0.37588435
241	0xbe2cbadc	-0.16868156
242	0x3d7bf27f	0.06151056
243	0x3e07024f	0.13184474
244	0xbe138690	-0.144068
245	0xbd9f9b6b	-0.077933155
246	0x3f3739f4	0.71572804
247	0xbd9e02d9	-0.07715387
248	0x3db5591f	0.08854889
249	0x3e17df4f	0.14831279
250	0xbe1dc14f	-0.15405773
251	0x3e386811	0.18008448
252	0x3ecb2f49	0.39684513
253	0x3ec0afdb	0.37634167
254	0xbce7084d	-0.0282022
255	0x3ec2565a	0.37956506

lstm.bias_ih_l0 f4 [512]
0	0xbe4930c1	-0.19647504
1	0xbef9cea5	-0.4879047
2	0xbebb0e6f	-0.3653445
3	0x3eacdbb3	0.33761367
4	0x3e5eb130	0.21747279
5	0xbeaada13	-0.33369502
6	0xbe83b485	-0.25723663
7	0xbf25fab3	-0.6483566
8	0xbe8963b4	-0.2683388
9	0xbe925b23	-0.28585157
10	0xbdfd1853	-0.12358155
11	0xbeb6ea30	-0.35725546
12	0xbe080e7a	-0.13286772
13	0xbf09bdb0	-0.53805065
14	0xbf11aa81	-0.56900793
15	0xbdb2d727	-0.08732443
16	0xbde8b505	-0.11362652
17	0xbe5ed441	-0.21760656
18	0xbeabe8d7	-0.3357608
19	0xbebb49d6	-0.3657977
20	0xbe723bb7	-0.23655592
21	0x3d97cc0d	0.074119665
22	0xbe1f31d8	-0.15546358
23	0xbef05fe8	-0.4694817
24	0xbded384c	-0.115830034
25	0xbd208cd5	-0.039196808
26	0xbe5c8d81	-0.21538354
27	0xbe652e3a	-0.22380915
28	0x3e9dcf14	0.3082205
29	0xbef0a56a	-0.470012
30	0xbe15b10a	-0.14618316
31	0xbe776550	-0.24159741
32	0xbdaef091	-0.08541978
33	0xbe4d61f9	-0.20056905
34	0xbe6dc4fa	-0.23219672
35	0x3d97934d	0.07401142
36	0xbe580112	-0.21094158
37	0xbe042ad9	-0.1290697
38	0xbec8f3e2	-0.39248568
39	0xbeb5d192	-0.35511452
40	0xbde1c8fb	-0.11024662
41	0xbeeb884c	-0.46002424
42	0xbe8b1c74	-0.27170146
43	0xbd141a8b	-0.036158126
44	0xbe34a799	-0.17642058
45	0x3e090f27	0.13384686
46	0xbeb53127	-0.35389063
47	0xbdd6d8f1	-0.10490597
48	0x3db7678f	0.08955299
49	0xbe96c6d5	-0.29448572
50	0xbe9c6f90	-0.30553865
51	0xbed50cc3	-0.416113
52	0xbe8e95cb	-0.27848658
53	0xbe16258d	-0.14662762
54	0xbeb436a7	-0.35197946
55	0xbe385f12	-0.18005016
56	0xbf7b551d	-0.9817675
57	0xbf5b3e31	-0.8564177
58	0xbedae8c7	-0.4275572
59	0x3d8a5ccf	0.06755983
60	0xbe533590	-0.20625901
61	0xbeecfe7a	-0.462879
62	0xbd9b4b07	-0.0758267
63	0x3e1d0ed5	0.15337689
64	0xbe328dd3	-0.17436914
65	0xbf4664e7	-0.77497715
66	0xbe95efeb	-0.29284605
67	0xbee69d90	-0.45042086
68	0x3d7b2e71	0.061323587
69	0x3d02696f	0.03183883
70	0xbecb77cb	-0.39739832
71	0xbbd926e5	-0.006626951
72	0x3eddaf91	0.4329801
73	0xbf0c65e8	-0.54842997
74	0xbb9803cd	-0.004639125
75	0xbf158b8a	-0.58416045
76	0x3d90eb1e	0.07076095
77	0xbf37796f	-0.7166967
78	0xbeda1725	-0.42595783
79	0x3d6c350c	0.057667777
80	0xbe760889	-0.24026693
81	0xbe7590fe	-0.23981091
82	0x3d628903	0.055306446
83	0xbd07b117	-0.03312787
84	0xbe4ecbd3	-0.2019494
85	0xbeefaab7	-0.46809933
86	0xbe1ce399	-0.15321197
87	0x3d8645c5	0.06556276
88	0xbe9136df	-0.28362176
89	0xbefe9f81	-0.49731067
90	0xbe476a3a	-0.19474116
91	0xbe59c4b0	-0.21266437
92	0x3e8476e8	0.25871968
93	0xbe5f8be8	-0.21830714
94	0xbd8e3e19	-0.06945438
95	0xbee21a4e	-0.44160694
96	0xbe61d65a	-0.22054425
97	0xbe15fade	-0.1464648
98	0x3e7e2c7c	0.24821657
99	0xbf1abd02	-0.60444653
100	0xbd7a586e	-0.06111949
101	0xbcf6bde7	-0.03011985
102	0xbe72ae7d	-0.23699374
103	0xbe970aad	-0.29500332
104	0x3e3b3803	0.18283086
105	0xbd9445a9	-0.07239849
106	0xbed0e337	-0.4079835
107	0x3d685028	0.056717068
108	0x3d1ca11e	0.03823959
109	0xbf47f764	-0.78111863
110	0x3e5dcae6	0.21659431
111	0x3d1813ab	0.03712813
112	0x3d470ca3	0.048596036
113	0x3e09486b	0.13406532
114	0x3e70e4fc	0.2352485
115	0x3d01a9f0	0.031656206
116	0xbd8036ef	-0.06260478
117	0xbf05d3a7	-0.5227608
118	0x39c26abf	0.00037082096
119	0x3ad3c30e	0.0016156153
120	0xbe2f7625	-0.17134912
121	0x3e783530	0.2423904
122	0xbdf5e704	-0.12006953
123	0xbe8625e7	-0.26200792
124	0xbdd3d053	-0.10342469
125	0x3d8c21a0	0.06842351
126	0xbe9f2e17	-0.3108985
127	0xbe9a7ba9	-0.3017247
128	0x3df27afd	0.118398644
129	0x3e52b491	0.20576693
130	0xbe0e2dba	-0.13884631
131	0x3e899739	0.26873186
132	0x3c38c297	0.011276863
133	0xbed75179	-0.42054346
134	0x3e594ea7	0.2122141
135	0xbe981c49	-0.2970908
136	0xbd87e502	-0.06635477
137	0xbd83735d	-0.06418488
138	0x3eb33037	0.34997723
139	0xbda16fbb	-0.07882639
140	0x3eadf886	0.3397867
141	0xbe485ef2	-0.19567469
142	0xbf638988	-0.8888173
143	0x3e582954	0.21109515
144	0x3da55006	0.08071904
145	0x3dfd5ed9	0.123716064
146	0xbc34f90e	-0.011045707
147	0xbf277274	-0.65409017
148	0x3cfc83b2	0.030824516
149	0x3e550154	0.20801288
150	0x3cf085ee	0.029360738
151	0xbf16a46a	-0.58844626
152	0x3ebed4d8	0.37271762
153	0xbe038f76	-0.12847695
154	0x3e88d164	0.26722252
155	0xbcea0e8c	-0.02857139
156	0x3e21340b	0.15742509
157	0xbe1d0919	-0.15335502
158	0x3e94cd84	0.29063046
159	0xbdc1ddb2	-0.09466113
160	0x3c6a162e	0.014287515
161	0xbc3ed6fb	-0.011647935
162	0xbce17099	-0.027519511
163	0x3d2a2984	0.0415435
164	0xbea43e6b	-0.3207887
165	0xbea12b4d	-0.31478348
166	0xbe31a9d2	-0.17349938
167	0xbeb0aa37	-0.34504864
168	0xbe6306dd	-0.22170587
169	0xbeb73615	-0.3578345
170	0xbdbc3504	-0.091897994
171	0x3e7310ab	0.23736827
172	0x3e957f18	0.29198527
173	0xbd978e9e	-0.07400249
174	0xbf3fa892	-0.7486659
175	0x3e51b703	0.2047997
176	0x3e705d15	0.23473008
177	0x3e9a5d1d	0.30149165
178	0x3db5674b	0.08857592
179	0xbf02210a	-0.50831664
180	0x3e02f401	0.12788393
181	0xbeaf8a52	-0.34285218
182	0x37ac2013	2.0518934e-05
183	0xbe017e3e	-0.12645814
184	0xbeefea40	-0.46858406
185	0xbf0a25e4	-0.53964067
186	0x3eaeac78	0.34115958
187	0x3ed3c03c	0.413576
188	0xbeabc8b5	-0.33551565
189	0xbf11b0eb	-0.5691058
190	0xbda9719c	-0.082736224
191	0x3db7e05a	0.089783385
192	0xbe1903e9	-0.14942898
193	0xbf235a3a	-0.6380955
194	0xbe9d4396	-0.30715626
195	0xbe49de23	-0.19713645
196	0xbed6582d	-0.41864148
197	0x3e06f756	0.13180289
198	0xbebe2ce7	-0.37143633
199	0x3d837349	0.06418473
200	0xbb924627	-0.004463929
201	0x3d08091a	0.033211805
202	0xbf121a09	-0.57070976
203	0xbe20c288	-0.15699208
204	0x3e2539f6	0.16135392
205	0xbed9939b	-0.42495427
206	0xbe88c08f	-0.2670941
207	0xbe104fa6	-0.14092883
208	0xbd8c7ec3	-0.068601154
209	0xbe49db37	-0.1971253
210	0x3e89d2f5	0.2691876
211	0xbda2b311	-0.079443105
212	0x3dc197ce	0.094527826
213	0xbee904c1	-0.4551144
214	0xbdf6c472	-0.12049188
215	0x3deb3c1a	0.11486073
216	0xbe5cd95e	-0.21567294
217	0xbdc08a59	-0.09401388
218	0x3e0a7070	0.13519454
219	0xbe13f076	-0.14447197
220	0x3d75f4c4	0.06004788
221	0x3e1aa4de	0.15101954
222	0xbf1d7707	-0.61509746
223	0x3e47db1f	0.19517182
224	0xbdde8ee2	-0.108670965
225	0xbe24095f	-0.160192
226	0x3ec47310	0.38369036
227	0xbf14e65f	-0.5816402
228	0x3ec225a0	0.3791933
229	0x3df6fe5d	0.12060235
230	0x3e468345	0.19386013
231	0x3e06228b	0.13099115
232	0x3f276c75	0.6539987
233	0xbf22bf99	-0.63573605
234	0xbe8f4aa9	-0.2798665
235	0xbe329216	-0.1743854
236	0x3e05daed	0.13071795
237	0xbf25d64b	-0.6478011
238	0x3ecbf7e9	0.39837578
239	0xbd9791f2	-0.07400884
240	0xbf17d84b	-0.5931441
241	0x3ea6e1f9	0.32594278
242	0xbdc9e71e	-0.09858535
243	0x3e7c74a2	0.24653867
244	0xbebb5604	-0.36589062
245	0xbeee0061	-0.46484664
246	0x3d4fee50	0.050764382
247	0x3df1109b	0.11770745
248	0x3be62281	0.007023156
249	0x3ee0b58a	0.43888503
250	0x3d7ffcc9	0.062496934
251	0xbe72b305	-0.23701103
252	0xbe7ef782	-0.24899104
253	0xbd2e9787	-0.042624976
254	0xbe9015c6	-0.28141612
255	0xbe218eb4	-0.15777093

lstm.bias_hh_l0 f4 [512]
0	0xbdcf88ec	-0.10133538
1	0xbeb58e4f	-0.35460135
2	0xbebdaa1d	-0.3704385
3	0x3eb1659a	0.34647828
4	0x3dfff611	0.12498105
5	0xbee0b9a0	-0.4389162
6	0xbe5c2ee2	-0.2150226
7	0xbeffc2c0	-0.4995327
8	0xbe728609	-0.23683943
9	0xbe4f6c19	-0.2025608
10	0xbe0d80f8	-0.13818729
11	0xbef76040	-0.4831562
12	0xbe0b1524	-0.13582283
13	0xbf0ce1be	-0.55031955
14	0xbed810fb	-0.42200455
15	0xbaadef66	-0.0013270199
16	0xbe6cf71b	-0.23141138
17	0xbe4764d6	-0.1947206
18	0xbec890c1	-0.39172938
19	0xbee341ab	-0.44386038
20	0xbebc2e84	-0.3675424
21	0x3dbed549	0.09318025
22	0xbe1916c8	-0.14950097
23	0xbeb52a8d	-0.35384026
24	0xbd46cea0	-0.048536897
25	0x3d9ef5a5	0.07761697
26	0xbe83e09a	-0.25757295
27	0xbe2c5d59	-0.16832484
28	0x3eab4bbc	0.33456218
29	0xbeeb5e4f	-0.4597039
30	0xbdfc1395	-0.123084225
31	0xbe579968	-0.21054614
32	0xbddd820d	-0.10815821
33	0xbe65ae8f	-0.2242987
34	0xbec05be9	-0.37570122
35	0x3d67d667	0.056600954
36	0xbe92cb49	-0.2867072
37	0xbe1d0a41	-0.15335943
38	0xbea438d9	-0.3207462
39	0xbeaf2c2a	-0.34213382
40	0xbe020f77	-0.12701212
41	0xbf061d00	-0.52388
42	0xbea2d889	-0.31805828
43	0x3c8d8436	0.017274957
44	0xbe61ed79	-0.22063245
45	0x3e287a4b	0.16452901
46	0xbe994b63	-0.29940328
47	0xbdfebe4e	-0.124386415
48	0x3d26f7cf	0.040763672
49	0xbe9df4b1	-0.30850747
50	0xbecc1850	-0.398623
51	0xbe916269	-0.28395393
52	0xbea70019	-0.32617262
53	0xbe338b33	-0.17533569
54	0xbe6abf60	-0.22924566
55	0xbe19f48a	-0.1503469
56	0xbf58766e	-0.8455571
57	0xbf36d64b	-0.71420735
58	0xbed24066	-0.41064757
59	0x3cd629fb	0.026143065
60	0xbe8c0c1b	-0.27352986
61	0xbefa877b	-0.48931488
62	0xbc8756b3	-0.016520834
63	0x3e0cf2e8	0.13764536
64	0xbe0238cb	-0.12716977
65	0xbf47334f	-0.77812666
66	0xbe873fbd	-0.26415816
67	0xbecbbb29	-0.3979123
68	0xbd0a9e17	-0.033842172
69	0xbcf151e6	-0.029457998
70	0xbec6d1f9	-0.3883207
71	0x3d4c3b62	0.04986132
72	0x3e94fb77	0.29098102
73	0xbf2093e5	-0.6272567
74	0xbc9a7c2a	-0.018858034
75	0xbf0599e3	-0.5218794
76	0xbc4bda39	-0.012442165
77	0xbf2d8b88	-0.6779103
78	0xbf08aae3	-0.5338575
79	0x3e685b8b	0.22691171
80	0xbe8b8b86	-0.27254885
81	0xbe8e4aeb	-0.27791533
82	0x3dd4c1d8	0.10388535
83	0xbe078a8d	-0.13236447
84	0xbe1815c0	-0.14852047
85	0xbed50bd4	-0.41610587
86	0xbde749f8	-0.11293405
87	0x3e247eb5	0.1606396
88	0xbe908d49	-0.28232792
89	0xbee60d92	-0.44932228
90	0xbe498fd2	-0.1968377
91	0xbe9cd7d2	-0.30633408
92	0x3e93b579	0.2884939
93	0xbe846ea4	-0.25865662
94	0x3cc1d5aa	0.023661453
95	0xbec996da	-0.39372903
96	0xbe5c3292	-0.21503666
97	0xbe800f26	-0.25011557
98	0x3e91b8f2	0.28461415
99	0xbeec1b62	-0.4611464
100	0xbc9ce411	-0.01915172
101	0xbd3a447e	-0.045475475
102	0xbe8ff6cd	-0.28117982
103	0xbe7a3073	-0.24432544
104	0x3e2b0d81	0.1670437
105	0xbdff88cb	-0.12477263
106	0xbec762ef	-0.38942668
107	0x3d4d6a60	0.050150275
108	0x3da797d3	0.08183255
109	0xbf2da80a	-0.6783453
110	0x3e3e8bc4	0.18608004
111	0x3c2eea00	0.010675907
112	0x3dbc9422	0.092079416
113	0x3e6b9c23	0.2300878
114	0x3e88f370	0.26748228
115	0x3dfdcc2f	0.123924606
116	0xbd8ed7cd	-0.069747545
117	0xbf19385b	-0.59851617
118	0x3d373c81	0.044735435
119	0x3da15291	0.078770764
120	0xbe190a95	-0.14945443
121	0x3df89c0b	0.12139138
122	0xbe6f02c0	-0.23340893
123	0xbe4a5c7d	-0.19761844
124	0xbdee42ae	-0.11633812
125	0xbc96932f	-0.01838073
126	0xbee7ee92	-0.45299202
127	0xbe81f2f8	-0.25380683
128	0x3da631e3	0.08114984
129	0x3e73b904	0.23801047
130	0xbe5b7562	-0.21431497
131	0x3e81499d	0.25251475
132	0xbc49afdb	-0.012309994
133	0xbf01ae0b	-0.50656193
134	0x3dffb56a	0.12485774
135	0xbe957853	-0.29193363
136	0xbdfff5f8	-0.12498087
137	0xbdb7218a	-0.08941944
138	0x3ee1aa46	0.4407522
139	0xbda0a12f	-0.07843243
140	0x3ed271d5	0.41102472
141	0xbd9d7db0	-0.076899886
142	0xbf75cc18	-0.9601455
143	0x3ea220c0	0.3166561
144	0xbd84be2b	-0.06481584
145	0x3e5bf15a	0.21478787
146	0x3dbd3358	0.09238309
147	0xbf244b4a	-0.6417738
148	0x3da3a399	0.07990188
149	0x3e8b6e6a	0.27232677
150	0xbd0bc882	-0.034126766
151	0xbf151271	-0.58231264
152	0x3edb3d4d	0.42820206
153	0xbd95a729	-0.07307274
154	0x3ea81a22	0.32832438
155	0x3b42f7de	0.002974979
156	0x3e00a506	0.12562951
157	0xbcd97f12	-0.02654985
158	0x3edaf52a	0.4276517
159	0xbe3b2036	-0.18274006
160	0x3c61dec1	0.013786019
161	0xbc4c258c	-0.012460124
162	0xbe115a1c	-0.1419453
163	0x3d8b9646	0.06815772
164	0xbecd05f4	-0.40043604
165	0xbe42a500	-0.19008255
166	0xbd33856c	-0.043828413
167	0xbed16044	-0.40893757
168	0xbe1ea5d4	-0.15492946
169	0xbebb7abf	-0.36617085
170	0xbe1a9f45	-0.15099819
171	0x3e722211	0.23645808
172	0x3e8197ae	0.25311035
173	0xbda0f9cb	-0.07860144
174	0xbf3e1595	-0.7425168
175	0x3e927591	0.2860532
176	0x3e64c439	0.22340478
177	0x3e3e588e	0.18588468
178	0x3e0febdb	0.14054815
179	0xbef9b796	-0.48772877
180	0x3e31453f	0.17311572
181	0xbe99b436	-0.30020303
182	0x3dbe24f4	0.09284392
183	0xbde4ea7e	-0.11177538
184	0xbf038278	-0.51370955
185	0xbf16fdea	-0.5898119
186	0x3e92360c	0.2855686
187	0x3eb53a3f	0.35396
188	0xbedab11c	-0.4271325
189	0xbf12fa1a	-0.57412875
190	0xbe2f013d	-0.17090316
191	0x3dc6bd48	0.09704071
192	0xbd41c268	-0.04730454
193	0xbf2eb7e6	-0.68249357
194	0xbecc7326	-0.399316
195	0xbe38bfab	-0.18041866
196	0xbe8e74ab	-0.27823386
197	0x3d73abe9	0.05949012
198	0xbec29513	-0.3800436
199	0x3e37defe	0.17956159
200	0xbca59173	-0.020210957
201	0x3df3f749	0.119124
202	0xbf04c2b7	-0.5185961
203	0xbdc1062e	-0.09425007
204	0x3e711395	0.23542626
205	0xbf11faac	-0.5702312
206	0xbe88495c	-0.2661847
207	0xbde7a3da	-0.11310549
208	0xbd6c5660	-0.05769956
209	0xbe078af3	-0.13236599
210	0x3e84136c	0.25796068
211	0xbe2b5ce4	-0.16734654
212	0x3de235c8	0.11045414
213	0xbef14365	-0.4712173
214	0xbd6e143d	-0.05812477
215	0xbd376fa3	-0.0447842
216	0xbe35601d	-0.17712446
217	0xbdab1cf0	-0.08355129
218	0x3e0c123c	0.13678831
219	0xbd46cabf	-0.048533197
220	0x3bbc6282	0.0057490477
221	0x3ccab6f6	0.024745446
222	0xbf3ad3ec	-0.7297962
223	0x3e38cb24	0.18046242
224	0xbe0d6226	-0.13806972
225	0xbdf9b55f	-0.12192797
226	0x3e9a60f4	0.30152094
227	0xbf042920	-0.5162525
228	0x3ebfa2b3	0.37428817
229	0x3cbabf6f	0.02279636
230	0x3d97f9ef	0.07420718
231	0x3e1233f6	0.14277634
232	0x3f300139	0.68751866
233	0xbf1996ea	-0.599959
234	0xbe8e6b95	-0.27816454
235	0xbe22fadf	-0.15916012
236	0x3d832714	0.06403938
237	0xbf23eb7e	-0.6403121
238	0x3eacb51d	0.33731928
239	0xbd80edec	-0.0629538
240	0xbf26e20c	-0.6518867
241	0x3e4f7331	0.20258786
242	0xbdda960f	-0.10673153
243	0x3e81287f	0.2522621
244	0xbecb9b23	-0.39766797
245	0xbefdbd0e	-0.495583
246	0x3d943b08	0.07237822
247	0x3e52d179	0.2058772
248	0x3bacacb7	0.0052696127
249	0x3efa06ef	0.48833415
250	0x3deef62d	0.11668048
251	0xbe78577f	-0.24252127
252	0xbeaa02a5	-0.33205143
253	0xbbd01d4d	-0.006351149
254	0xbe60adcb	-0.21941297
255	0xbe82b0a7	-0.255254

fc1.weight f4 [64, 128]
0	0xbe4016ff	-0.18758772
1	0xbe9f7aa5	-0.31148258
2	0x3e011312	0.12604931
3	0x3e2c8c38	0.16850364
4	0xbdd98214	-0.106205136
5	0xbe460a7e	-0.1933994
6	0x3def25f0	0.11677158
7	0x3ed4fa7b	0.4159735
8	0xbe2ba5f6	-0.16762528
9	0x3e5edb77	0.21763407
10	0x3d1bfc09	0.038082156
11	0x3d38587e	0.045006268
12	0x3eaba361	0.33523086
13	0xbe982318	-0.29714274
14	0x3c0b3dad	0.008498591
15	0x3cc4f06d	0.024040425
16	0x3bb1442a	0.005409737
17	0x3dba460d	0.090953924
18	0x3d234268	0.03985825
19	0xbccf1a2e	-0.025281038
20	0xbea87fcb	-0.32909998
21	0xbe526f8e	-0.20550367
22	0x3d0d55f2	0.034505792
23	0xbd881da5	-0.06646279
24	0xbe3356be	-0.17513558
25	0xbbcf469b	-0.0063255555
26	0x3e8b704c	0.27234113
27	0xbe2b4d79	-0.16728772
28	0x3e7c5125	0.24640329
29	0x3f586d61	0.845419
30	0x3e0713c7	0.13191138
31	0xbeb86c0b	-0.3601993
32	0xbd3d9694	-0.04628618
33	0xbe87681f	-0.26446626
34	0xbf042f74	-0.5163491
35	0x3e0c74bc	0.13716406
36	0xbdf46522	-0.11933352
37	0x3e9b1479	0.30289057
38	0xbd726ba4	-0.059184685
39	0x3cae0825	0.021244118
40	0x3dad6c67	0.08467942
41	0xbd65579f	-0.055991765
42	0x3dad25c2	0.08454467
43	0xbdb3cfc3	-0.08779862
44	0x3e71c5d4	0.23610622
45	0xbd55ecef	-0.05222791
46	0x3e832a7c	0.2561835
47	0x3e6507d1	0.22366263
48	0x3e5be146	0.21472654
49	0xbcc37f24	-0.023864336
50	0x3ef0d9d9	0.47041205
51	0xbe289539	-0.16463174
52	0x3f01085f	0.504034
53	0xbd3c0c30	-0.04591006
54	0xbe55e6c9	-0.20888819
55	0x3e764b2b	0.24052112
56	0x3c9bf319	0.019036816
57	0xbd6eca7b	-0.05829857
58	0xbdb0bbc7	-0.08629566
59	0xbdb6b298	-0.08920783
60	0x3f377276	0.7165903
61	0xbe8afc3e	-0.2714557
62	0xbd7fd268	-0.06245652
63	0xbe61b50b	-0.22041719
64	0xbe2eb715	-0.17062028
65	0xbcd64dc2	-0.026160125
66	0x3c8920ff	0.016739367
67	0xbe90c0e7	-0.28272173
68	0xbd6c04dc	-0.05762182
69	0xbe84968f	-0.25896117
70	0xbe83fc7b	-0.25778565
71	0x3e233613	0.15938596
72	0xbcb84ca3	-0.02249748
73	0x3ee49e57	0.44652054
74	0x3d19d788	0.037559062
75	0xbdd790d7	-0.10525673
76	0x3dab0e41	0.08352328
77	0x39884571	0.0002599168
78	0xbd5725ed	-0.052526403
79	0x3e0e1eba	0.13878909
80	0x3e0c8f6c	0.13726586
81	0xbdb86714	-0.090040356
82	0x3ea134b4	0.31485522
83	0xbe4494f8	-0.19197452
84	0x3e485e2a	0.1956717
85	0x3ba96fbe	0.0051707914
86	0xbb377c9a	-0.0027997852
87	0xbd0f9930	-0.0350582
88	0xbee8492e	-0.45368332
89	0xbcdcf3e0	-0.026971757
90	0x3e0b7012	0.1361697
91	0x3c8f3f54	0.017486252
92	0x3e6cd12e	0.2312667
93	0x3da5b898	0.08091849
94	0xbe9a96db	-0.3019322
95	0xbdcc9f92	-0.09991373
96	0xbd00f726	-0.0314857
97	0x3e6c8476	0.23097405
98	0xbe5a5aa7	-0.21323644
99	0xbeac9878	-0.33710074
100	0x3e4d0296	0.20020518
101	0x3e04c102	0.12964252
102	0xbe177351	-0.14790083
103	0x3d992fa3	0.07479789
104	0x3e871d02	0.2638932
105	0xbd07a425	-0.033115525
106	0x3e376675	0.17910178
107	0xbc3bc0c7	-0.011459536
108	0xbdcc40a1	-0.099732645
109	0x3e1181e8	0.14209712
110	0x3b109c0f	0.0022065674
111	0xbd21afee	-0.03947442
112	0x3d096093	0.033539366
113	0xbe98c8e8	-0.2984078
114	0x3eb2ada2	0.34898096
115	0x3db30f92	0.08743204
116	0xbd3a27ef	-0.04544824
117	0x3d879060	0.06619334
118	0xbd1afe30	-0.03784007
119	0x3dc5d557	0.09659832
120	0xbe5f7a77	-0.2182406
121	0xbc59e44b	-0.013299058
122	0x3d92766e	0.07151495
123	0xbd82ae6b	-0.06380924
124	0xbe8e4595	-0.27787462
125	0xbe6b6e5f	-0.22991322
126	0x3ea525a0	0.32255268
127	0xbe54a9bc	-0.20767874
128	0xbea0d609	-0.31413296
129	0x3dfed7ac	0.1244348
130	0x3e62e709	0.22158445
131	0x3e88ee68	0.2674439
132	0xbe4eca3e	-0.20194337
133	0xbdb2892a	-0.08717568
134	0x3c40f7e3	0.011777851
135	0x3f22cc77	0.6359324
136	0x3e019e61	0.12658073
137	0x3c43518c	0.011921298
138	0xbe93e356	-0.2888438
139	0xbdb6e801	-0.0893097
140	0xbf6969e4	-0.911772
141	0xbd751353	-0.059832882
142	0xbdb91cb9	-0.090386815
143	0xbcdd09c7	-0.026982201
144	0xbe39b0ab	-0.181338
145	0xbe6923e5	-0.22767599
146	0x3d044b57	0.032298412
147	0x3dad6abe	0.08467625
148	0xbdb4ba04	-0.08824542
149	0x3ebb54c7	0.36588117
150	0xbde40056	-0.111328766
151	0x3db938cf	0.090440385
152	0x3f842dc8	1.0326471
153	0x3c4c3f54	0.0124662705
154	0xbdc8bbc2	-0.09801437
155	0xbeea23b9	-0.4573038
156	0xbeb52dac	-0.35386407
157	0x3f06cbca	0.5265471
158	0x3e848003	0.25878915
159	0xbb3aedc5	-0.002852307
160	0xbf26df79	-0.6518474
161	0x3e4fe7b1	0.20303227
162	0x3ca38a73	0.019963479
163	0xbdb84fa2	-0.08999564
164	0xbdd53e1e	-0.104122385
165	0x3d56cce1	0.05244148
166	0xbb67d6a5	-0.003537574
167	0x3f3ce990	0.7379389
168	0x3e0e1315	0.13874467
169	0x3e517498	0.20454633
170	0xbe9367cc	-0.28790128
171	0xbe96b78d	-0.29436913
172	0x3ea3ef01	0.32018283
173	0x3e8de9e5	0.2771751
174	0x3ec9399d	0.39301768
175	0x3d072e8d	0.03300338
176	0xbe8dbb07	-0.27681753
177	0xbd50fa3e	-0.0510199
178	0xbd6615a7	-0.056172993
179	0xbedf0045	-0.43554893
180	0xbe39ac8a	-0.18132225
181	0xbe6175b3	-0.22017555
182	0x3de62e12	0.11239256
183	0x3e20b283	0.15693097
184	0x3e732fc5	0.23748691
185	0x3e6b6efe	0.22991559
186	0x3c09498e	0.008379353
187	0xbe2f7af9	-0.17136754
188	0x3e321934	0.17392427
189	0xbd38c34a	-0.045108117
190	0x3de3e9c1	0.111285694
191	0xbf102bae	-0.5631665
192	0xbe254b83	-0.16142087
193	0xba02c74b	-0.00049888034
194	0x3c0505b1	0.008119033
195	0xbd07c175	-0.03314348
196	0xbe1ccd0e	-0.15312597
197	0xbc345ee4	-0.011008952
198	0xbc966887	-0.01836039
199	0xbcb74607	-0.022372259
200	0x3e1cc980	0.15311241
201	0xbe426442	-0.18983558
202	0xbecfad4e	-0.40561908
203	0xbd47cd5e	-0.048779838
204	0x3e4615c6	0.19344243
205	0x3e5f8b3a	0.21830454
206	0xbe230ee3	-0.15923648
207	0xbe728cff	-0.23686598
208	0x3d1e6597	0.038671102
209	0xbd692745	-0.056922216
210	0x3e263b91	0.1623366
211	0xbe5d006e	-0.21582195
212	0x3e53b48b	0.2067434
213	0xbd808997	-0.06276243
214	0xbdc7d3c0	-0.09757185
215	0xbcfed40c	-0.031106971
216	0x3e791ff3	0.24328594
217	0xbc27eaab	-0.01024882
218	0xbeb7f062	-0.35925585
219	0xbe118bb7	-0.14213453
220	0x3eae38a2	0.34027582
221	0xbe2a8818	-0.16653478
222	0x3ea65ccf	0.32492682
223	0x3e648ab2	0.22318533
224	0x3e1d3e4a	0.15355793
225	0xbed00c76	-0.40634507
226	0x3dd58172	0.1042508
227	0xbd5a7f11	-0.053343836
228	0x3dcc3672	0.09971322
229	0xbe022497	-0.1270927
230	0x3f03c3f5	0.5147088
231	0x3e815dc9	0.25266865
232	0x3ef8e792	0.48614174
233	0xbd99f6c9	-0.07517774
234	0x3ccedeb6	0.025252681
235	0xbb9d1052	-0.0047932053
236	0xbe056da6	-0.13030109
237	0xbe4a1795	-0.19735558
238	0x3bfeba50	0.007773675
239	0xbf3b6aae	-0.73209655
240	0x3efb000e	0.4902348
241	0xbe822d51	-0.254252
242	0x3daeb40b	0.08530434
243	0xbeda22cb	-0.4260467
244	0xbd9a312a	-0.075289086
245	0x3f0c1417	0.54718155
246	0xbcf5603b	-0.029953113
247	0x3d9f8461	0.07788921
248	0x3e97e58d	0.2966732
249	0x3e57da3b	0.21079342
250	0x3e21c6af	0.15798448
251	0x3da7ec5b	0.08199378
252	0xbe923040	-0.28552437
253	0xbe7cdb45	-0.2469302
254	0x3f348b9e	0.7052554
255	0x3da2e9a9	0.079547234

fc1.bias f4 [64]
0	0x3ce1efbb	0.027580133
1	0xbe325745	-0.17416103
2	0xbe93a894	-0.28839552
3	0xbe517f45	-0.20458706
4	0x3dfd477d	0.12367151
5	0x3e5d303e	0.21600434
6	0xbe4701b5	-0.19434245
7	0x3d482e68	0.04887238
8	0xbe21602a	-0.1575934
9	0x3e05d421	0.13069202
10	0xbd9bebaf	-0.076133125
11	0x3d030ed7	0.031996574
12	0xbd6a6072	-0.057220884
13	0x3e0344d9	0.12819232
14	0x3e83fd02	0.25778967
15	0xbdbaf224	-0.09128216
16	0xbcc4bd69	-0.024016099
17	0xbd0bd3a6	-0.03413739
18	0x3e8ed7c6	0.27898997
19	0xbd7baff0	-0.061447084
20	0x3cca07db	0.024661949
21	0x3debef17	0.11520212
22	0x3d767089	0.060165916
23	0xbd8902da	-0.06689997
24	0xbdbd1504	-0.09232524
25	0x3de5075d	0.11183045
26	0xbd5b68b4	-0.05356665
27	0xbdf55062	-0.119782224
28	0xbbbea557	-0.00581805
29	0xbde4ea02	-0.11177446
30	0x3e852dc3	0.26011476
31	0x3d7c6d5e	0.06162774
32	0xbd30c82e	-0.043159656
33	0x3e297de7	0.16551934
34	0x3d52eb2c	0.05149381
35	0x3e120d77	0.14262949
36	0x3cc5a199	0.024124907
37	0x3d791bc0	0.06081748
38	0x3e09211f	0.13391541
39	0xbd3843d5	-0.044986565
40	0x3d83b2a0	0.064305544
41	0x3e1a4540	0.1506548
42	0xbd050965	-0.032479662
43	0xbd8d90fd	-0.0691242
44	0xbc914099	-0.017730998
45	0x3e30dc05	0.17271431
46	0xbde7345b	-0.11289283
47	0xbddaa4c5	-0.106759585
48	0x3de31a21	0.11088968
49	0xbc4085cc	-0.01175065
50	0xbdd9b7a9	-0.106307335
51	0x3e566aae	0.20939133
52	0x3e4dc642	0.2009516
53	0xbdfde3f3	-0.123969935
54	0x3e06b686	0.13155565
55	0x3e4b2080	0.19836617
56	0xbe8354df	-0.2565069
57	0xbc46a78a	-0.012124905
58	0x3dd7dd57	0.10540264
59	0xbc8494bc	-0.016184203
60	0x3e029edc	0.12755913
61	0xbd4fe9ae	-0.050759964
62	0x3b1772e9	0.0023109263
63	0xbe4c97c3	-0.19979768

bn1.weight f4 [64]
0	0x3f875505	1.0572821
1	0x3f9f912d	1.2466179
2	0x3f3e4bac	0.74334216
3	0x3fa0495d	1.2522389
4	0x3f74ed29	0.9567438
5	0x3f8e3ef8	1.1112967
6	0x3f8e9106	1.1138008
7	0x3f4a317e	0.7898177
8	0x3f9fa446	1.2472007
9	0x3f6a7fc1	0.91601187
10	0x3f587e5e	0.8456782
11	0x3f920e61	1.1410638
12	0x3f41f540	0.75764847
13	0x3fa1c561	1.263836
14	0x3f7cb1a1	0.9870854
15	0x3fa731bb	1.3062052
16	0x3f76861a	0.9629837
17	0x3f96b174	1.1772904
18	0x3f6e715a	0.9314171
19	0x3f7f667a	0.9976574
20	0x3f3fd349	0.7493177
21	0x3f8bd468	1.0924196
22	0x3f889b48	1.0672388
23	0x3f4f7eb8	0.8105273
24	0x3f84224b	1.0322965
25	0x3f8768e0	1.057888
26	0x3f87a8ee	1.0598428
27	0x3f8268dd	1.0188252
28	0x3f65eb9b	0.8981263
29	0x3f98f4d8	1.194972
30	0x3f80f46a	1.0074589
31	0x3f8d7b54	1.1053262
32	0x3f8b8218	1.0899076
33	0x3f6e7141	0.9314156
34	0x3f81adf3	1.013121
35	0x3f8eec54	1.1165872
36	0x3f95e46f	1.1710337
37	0x3f494347	0.7861828
38	0x3f94d5ae	1.162771
39	0x3f85ef7a	1.0463707
40	0x3f68b217	0.90896744
41	0x3f70feb3	0.9413864
42	0x3f757fd0	0.9589815
43	0x3f722569	0.94588333
44	0x3f453320	0.77031136
45	0x3fa5e7c6	1.2961357
46	0x3f814676	1.0099628
47	0x3f681e03	0.90670794
48	0x3f845eee	1.034147
49	0x3f9b6409	1.2139903
50	0x3f6c3a9e	0.9227694
51	0x3f89fe81	1.0780793
52	0x3f7d8b6c	0.99040866
53	0x3f772f63	0.9655668
54	0x3f701366	0.937796
55	0x3f80485e	1.0022085
56	0x3fa83c1c	1.3143344
57	0x3f90530f	1.1275347
58	0x3f8636aa	1.0485432
59	0x3f7e553c	0.9934881
60	0x3f834701	1.0256044
61	0x3f37fd4f	0.71870893
62	0x3f63ca8c	0.88980937
63	0x3f2896f2	0.65855324

bn1.bias f4 [64]
0	0xbe230cde	-0.15922877
1	0x3e914090	0.2836957
2	0xbeed933e	-0.464014
3	0x3df6a2cd	0.120427705
4	0x3d3ca026	0.046051167
5	0x3e08cb27	0.13358746
6	0x3e170a56	0.14750037
7	0x3dbedc5e	0.093193755
8	0x3e87b08e	0.26501888
9	0xbed17a5b	-0.40913662
10	0xbec2a237	-0.38014385
11	0xbe072cd6	-0.13200697
12	0x3c8735aa	0.016505081
13	0x3d445b43	0.047938596
14	0x3e8d2e42	0.27574354
15	0x3cab7b5a	0.020932842
16	0x3dd1fcd8	0.10253304
17	0xbd54c516	-0.05194577
18	0xbe8e36fa	-0.2777632
19	0xbf0eaaf8	-0.5572963
20	0xbea19fde	-0.3156728
21	0x3e259c80	0.16172981
22	0x3df7361f	0.1207087
23	0x3e216a04	0.15763098
24	0xbd4856b6	-0.04891082
25	0xbea54981	-0.32282642
26	0x3d758d8c	0.059949443
27	0xbefae086	-0.48999423
28	0xbe59f5c9	-0.21285166
29	0x3e8d71de	0.27625936
30	0x3e5b2c35	0.21403582
31	0x3e2e11bb	0.16998951
32	0x3e680269	0.2265717
33	0xbe97880d	-0.29595986
34	0x3de3bbd3	0.11119809
35	0xbe3a5395	-0.18195947
36	0xbc35f7d9	-0.011106455
37	0x3e8d602b	0.27612433
38	0x3e968ee1	0.29405883
39	0x3e165058	0.14679086
40	0x3dcb08fb	0.09913822
41	0xbc755389	-0.01497353
42	0xbe687a3e	-0.22702882
43	0xbf10e44a	-0.5659834
44	0xbef60789	-0.48052624
45	0x3e73d110	0.2381022
46	0xbe676f00	-0.22600937
47	0xbe8f2aab	-0.2796224
48	0x3e577489	0.21040548
49	0xbd94d123	-0.07266452
50	0xbedb778b	-0.42864642
51	0x3e7675ab	0.24068324
52	0x3e789487	0.24275409
53	0xbccf83c4	-0.025331385
54	0x3e2160a2	0.15759519
55	0xbe0868c6	-0.13321218
56	0x3e92b91a	0.28656846
57	0x3e9786c6	0.2959501
58	0x3e56d956	0.20981345
59	0x3dd498dd	0.10380719
60	0xbedeebcd	-0.43539277
61	0xbd814c21	-0.063133486
62	0xbe996fef	-0.2996821
63	0xbd3a80bc	-0.045532927

bn1.running_mean f4 [64]
0	0xbfdfb5af	-1.747732
1	0xbf8a8311	-1.0821248
2	0xbd1694ee	-0.036763124
3	0x3fcba84b	1.5910734
4	0x3f613d59	0.87984234
5	0x3ff3b5b8	1.9039831
6	0xbe94836a	-0.2900651
7	0x3fc3c58e	1.5294664
8	0xbfa2b7c5	-1.2712332
9	0x4063e65c	3.560935
10	0x3fc740a8	1.5566607
11	0x403eb2af	2.979656
12	0x3f3887fa	0.72082484
13	0xc0978e7b	-4.7361426
14	0xbf063761	-0.5242825
15	0x3f7c0c34	0.9845612
16	0x40233ab4	2.550458
17	0xbd245adc	-0.040125713
18	0xc0227941	-2.5386508
19	0xbe58fb7b	-0.21189682
20	0x400ca48e	2.1975436
21	0xbf753fb7	-0.95800346
22	0x3f6e5f31	0.93114
23	0xbef06c49	-0.46957615
24	0xbf6956f7	-0.9114832
25	0xbff0c80c	-1.881105
26	0xc059c440	-3.4026031
27	0x3f919f7c	1.1376796
28	0xbf8d8a41	-1.1057817
29	0x3e0aa694	0.13540107
30	0xbfa85bec	-1.3153052
31	0x400646e6	2.0980773
32	0x3fcf00b2	1.6172087
33	0x4016f26a	2.3585458
34	0x3ff66fe4	1.9252896
35	0x4005b647	2.0892503
36	0xc01d2e10	-2.4559364
37	0x3dd7d0ec	0.105378956
38	0xbff69205	-1.9263312
39	0x3eb6c5ad	0.3569769
40	0x3f79703c	0.9743688
41	0x4027d46a	2.6223397
42	0xc0187f1b	-2.382758
43	0xbfecbd5b	-1.8495287
44	0x3ff8e9bb	1.9446329
45	0xbf9c79f0	-1.2224712
46	0x4018b88d	2.386264
47	0xbd51cf6d	-0.051223207
48	0x3f9f89c4	1.2463918
49	0x402c8c10	2.6960487
50	0x3e2445f3	0.16042309
51	0x3e9f2653	0.31083927
52	0x4028644d	2.6311219
53	0xbfd3c72b	-1.6545156
54	0x3f6092d0	0.8772402
55	0x3f0f45cb	0.5596587
56	0xbf0e9b5b	-0.55705804
57	0x4006b77c	2.104949
58	0xbe72d03c	-0.23712248
59	0x3fa40a7c	1.28157
60	0x3fc366be	1.526573
61	0xbf0c5f7e	-0.5483321
62	0x3f015f51	0.50536066
63	0x402596b2	2.5873227

bn1.running_var f4 [64]
0	0x3ea47679	0.32121637
1	0x3f8e6305	1.1123968
2	0x3f05677e	0.5211104
3	0x3ef67f06	0.48143786
4	0x3f0b0eb3	0.54319304
5	0x3ee59141	0.44837382
6	0x3e94f06a	0.2908967
7	0x3e81cb1c	0.25350273
8	0x3eb7d82e	0.3590712
9	0x3ecf5647	0.40495512
10	0x3ef566e0	0.4793005
11	0x3eb22514	0.34793913
12	0x3ed04150	0.4067483
13	0x3e924ad5	0.28572717
14	0x3f5343f8	0.8252559
15	0x3f212397	0.6294493
16	0x3eb371a4	0.35047638
17	0x3ec4b53b	0.38419518
18	0x3ea6ebb6	0.32601708
19	0x3f904cea	1.1273472
20	0x3f1bd6b2	0.60874474
21	0x3f507209	0.81424004
22	0x3e85511b	0.2603844
23	0x3e95661f	0.29179475
24	0x3ec1978d	0.37810937
25	0x3f0d1a2c	0.5511806
26	0x3eedc3eb	0.46438536
27	0x3f86be3b	1.0526804
28	0x3f7a1629	0.97690064
29	0x3f38ed96	0.7223753
30	0x3f049733	0.5179321
31	0x3f09baff	0.5380096
32	0x3f305cae	0.6889142
33	0x3e8bebf6	0.2732846
34	0x3f1fab75	0.62371
35	0x3f1562ee	0.5835408
36	0x3eb3899d	0.35065928
37	0x3f325947	0.69667476
38	0x3f0b59b6	0.54433763
39	0x3f0fcb35	0.56169444
40	0x3eb49798	0.35271907
41	0x3ef1e9c4	0.47248662
42	0x3f17f0ce	0.59351814
43	0x3f1f1adb	0.62150353
44	0x3e3e9789	0.18612494
45	0x3f2a7f1d	0.6660021
46	0x3ec4330b	0.38320193
47	0x3f2fabbb	0.68621415
48	0x3f2bc3be	0.67095554
49	0x3f071533	0.5276672
50	0x3f75e0ba	0.9604603
51	0x3f4d8dfe	0.8029479
52	0x3f2c80b1	0.6738387
53	0x3f7e3494	0.9929898
54	0x3e8af3d1	0.27139142
55	0x3ee5e9e5	0.4490501
56	0x3f2a0afa	0.66423
57	0x3f1e0982	0.6173326
58	0x3f06b8d7	0.52625793
59	0x3ea81f20	0.32836246
60	0x3f16098f	0.58608335
61	0x3ece2293	0.40260753
62	0x3f3b5037	0.73169273
63	0x3e8e0512	0.27738243

fc2.weight f4 [4, 64]
0	0x3c7c7aab	0.015410106
1	0x3e1d64a5	0.15370424
2	0xbe30a27b	-0.17249481
3	0x3e78ddf7	0.24303423
4	0xbda52f8d	-0.0806571
5	0x3da8b51f	0.08237671
6	0x3e71644b	0.23573415
7	0x3d6264f7	0.05527207
8	0x3ecd2c32	0.4007278
9	0x3d434600	0.04767418
10	0xbb451311	-0.003007118
11	0x3b16d2ae	0.0023013758
12	0x3c96aab5	0.018391946
13	0x3dbea5be	0.093089566
14	0x3e8b1d96	0.2717101
15	0x3db8f55a	0.09031172
16	0x3e24de2d	0.16100378
17	0x3b29723c	0.0025855443
18	0xbca5a53b	-0.02022039
19	0xbe5d46ac	-0.2160899
20	0xbe2bf7a5	-0.16793688
21	0x3e4358a5	0.19076784
22	0x3e02cd14	0.12773544
23	0x3c8bfb07	0.017087473
24	0x3dc00aab	0.09377035
25	0xbe4acacc	-0.19803923
26	0x3c89d454	0.016824879
27	0xbe99fd61	-0.30076125
28	0xbd86c7ce	-0.065810785
29	0x3e4ae34f	0.19813274
30	0xbc780568	-0.015138008
31	0x3b52c004	0.0032157907
32	0x3e3ae2a0	0.18250513
33	0x3cdcd14d	0.026955271
34	0x3dfec07a	0.12439056
35	0x3dbb8852	0.091568604
36	0x3ea0574f	0.3131661
37	0x3d892781	0.06696988
38	0x3dcb65fe	0.09931563
39	0x3e98f051	0.29870847
40	0x3c016144	0.007896725
41	0xbe055704	-0.13021475
42	0xbe3a1d1e	-0.1817517
43	0xbe02f372	-0.1278818
44	0xbe66f5b1	-0.22554661
45	0x3ec33740	0.3812809
46	0x3dc0761e	0.09397529
47	0xbe8fabce	-0.28060764
48	0xbde11c62	-0.10991742
49	0x3e39d21c	0.18146557
50	0xbe8b0647	-0.27153227
51	0x3e8847ce	0.26617283
52	0x3e34691a	0.17618218
53	0x3da02670	0.07819831
54	0x3db16c9b	0.08663293
55	0x3dcdde0d	0.100521185
56	0x3e1fc2a1	0.15601589
57	0x3e9ca3cb	0.30593714
58	0x3de21359	0.110388465
59	0x3e79667d	0.24355502
60	0x3ddd4cc0	0.108056545
61	0x3e09dcd0	0.1346314
62	0xbe498f77	-0.19683634
63	0xbb314871	-0.0027051235
64	0x3e881e48	0.26585603
65	0xbeba169b	-0.36345372
66	0xbebe70fd	-0.37195578
67	0xbd12f718	-0.03588018
68	0x3e06369e	0.13106772
69	0x3e05d601	0.13069917
70	0xbe9dfa82	-0.30855185
71	0x3a86dab3	0.0010288566
72	0xbe12f72f	-0.14352106
73	0xbed023e3	-0.4065238
74	0xbdbaeb37	-0.09126895
75	0xbf282b98	-0.6569152
76	0x3d938bd8	0.072044075
77	0x3e821f77	0.2541463
78	0xbd768deb	-0.060193937
79	0x3e3a83bd	0.18214317
80	0xbf15c833	-0.58508605
81	0x3e7c0ed7	0.24615036
82	0x3d200e26	0.039075993
83	0x3decaf90	0.115569234
84	0x3d926386	0.07147889
85	0xbe0526f5	-0.13003142
86	0x3e8478f3	0.25873527
87	0x3cb83e2d	0.022490585
88	0xbebc8d15	-0.36826387
89	0x3d8baa6e	0.06819616
90	0xbe9445b5	-0.28959432
91	0x3deefe93	0.1166965
92	0xbe96f90f	-0.29486892
93	0xbdc17268	-0.094456494
94	0xbe6a6be7	-0.22892724
95	0xbebcb05e	-0.36853307
96	0xbeac5b26	-0.3366329
97	0xbed11263	-0.4083434
98	0xbe30266c	-0.17202157
99	0xbf1b5869	-0.6068178
100	0xbe780093	-0.24218969
101	0xbe9441da	-0.2895649
102	0xbe3026a4	-0.1720224
103	0xbd75e9b6	-0.060037337
104	0x3e77f793	0.24215536
105	0xbf0700c5	-0.5273555
106	0x3e0eb1ce	0.13935015
107	0xbd94a02a	-0.07257111
108	0x3e5ac81e	0.21365401
109	0xbe9e302a	-0.3089612
110	0xbeedee3e	-0.46470827
111	0x3e3a4a68	0.18192446
112	0x3dcb10ef	0.09915339
113	0xbf23cf69	-0.6398836
114	0x3e12251c	0.14271969
115	0xbe5cb806	-0.21554574
116	0xbc73ec23	-0.014887842
117	0xbe3ca3b1	-0.18421818
118	0xbe24d74f	-0.16097759
119	0xbe264d27	-0.16240369
120	0xbeb1b4be	-0.34708208
121	0xbd8c1957	-0.06840771
122	0xbcb73e78	-0.022368655
123	0xbed9389c	-0.42426002
124	0xbed599a9	-0.41718796
125	0xbdaf17a9	-0.08549435
126	0x3df21e9f	0.11822247
127	0x3db7ab51	0.08968223
128	0xbe8ed6ae	-0.27898163
129	0xbf5ca115	-0.8618329
130	0x3e08dae2	0.13364747
131	0xbf0d9324	-0.55302644
132	0x3e40d9f2	0.1883314
133	0xbf640b86	-0.89080083
134	0x3df27bed	0.11840043
135	0xbe837fba	-0.25683385
136	0xbe5bbdca	-0.21459118
137	0xbf20ca8d	-0.6280907
138	0xbf112abf	-0.5670585
139	0x3e855321	0.26039985
140	0xbe7b807f	-0.24560736
141	0xbf43dc6d	-0.7650822
142	0xbe78ed36	-0.24309239
143	0xbf0bb5d6	-0.54574335
144	0xbd898df7	-0.06716531
145	0xbf037216	-0.51345956
146	0x3e1487db	0.1450495
147	0xbebd0738	-0.3691957
148	0x3e45aade	0.19303462
149	0xbeb6a1b1	-0.35670236
150	0xbee6565b	-0.4498776
151	0x3d284269	0.04107896
152	0x3e4b43ac	0.19850034
153	0x3e4432b2	0.19159964
154	0xbf767297	-0.962686
155	0xbeb11a79	-0.3459051
156	0xbefc7c77	-0.4931371
157	0xbf43f059	-0.76538616
158	0xbf0da56f	-0.55330557
159	0xbf55bf93	-0.83495444
160	0x3dd3a0f2	0.10333432
161	0xbf0f6303	-0.56010455
162	0xbee47658	-0.4462154
163	0x3e674ee7	0.22588693
164	0xbea705d5	-0.32621637
165	0x3e0abdf9	0.13549031
166	0xbf2ae1fe	-0.66751087
167	0xbed6a021	-0.41919044
168	0xbf1801d6	-0.593778
169	0x3e2bc22f	0.16773294
170	0x3ce812e8	0.028329328
171	0x3e722dab	0.23650233
172	0xbe28c838	-0.16482627
173	0xbe8e3bcc	-0.27779996
174	0x3e2e6885	0.17032059
175	0x3e265090	0.1624167
176	0xbe3b831c	-0.18311733
177	0x3e79b914	0.24387008
178	0x3e84794c	0.25873792
179	0xbeb79eb9	-0.35863283
180	0xbf17bd39	-0.59273106
181	0xbf0d78bc	-0.5526235
182	0xbeb031d5	-0.3441302
183	0xbeef6044	-0.46753132
184	0xbf27d08c	-0.6555259
185	0xbed92297	-0.42409202
186	0xbebfc060	-0.37451458
187	0xbf35f1b9	-0.71071965
188	0xbeb725a9	-0.3577092
189	0x3b65b6d9	0.0035051613
190	0x3e660f5c	0.22466797
191	0x3d820ecd	0.06350479
192	0xbed6a0d8	-0.4191959
193	0x3ea3df5a	0.3200634
194	0xbec0df19	-0.3767021
195	0xb9116595	-0.0001386612
196	0xbf609aa9	-0.8773599
197	0x3db0a079	0.08624358
198	0xbece3058	-0.40271258
199	0x3e32ab46	0.17448148
200	0xbe38a281	-0.1803074
201	0x3e04fc48	0.12986863
202	0x3dbd91b5	0.09256307
203	0xbe82dce4	-0.2555915
204	0xbc4c4985	-0.0124687
205	0xbeec1481	-0.46109393
206	0xbea957dd	-0.33074847
207	0xbf0a4937	-0.54017967
208	0xbcdb4533	-0.026766395
209	0xbda40227	-0.08008223
210	0xbf1849d0	-0.5948763
211	0x3e7dbb57	0.24778496
212	0xbec64784	-0.38726437
213	0xbd08f496	-0.03343638
214	0xbece7a21	-0.40327552
215	0xbf262023	-0.64892787
216	0xbf084461	-0.5322934
217	0xbf31b2c9	-0.6941343
218	0x3e6b7e28	0.22997344
219	0x3e883612	0.26603752
220	0x3dde86ba	0.10865541
221	0xbe02c8aa	-0.1277186
222	0xbe1c6f9d	-0.15276952
223	0x3e2a0558	0.16603601
224	0xbe9a013f	-0.30079076
225	0x3e6d80e4	0.23193699
226	0xbd80b3c3	-0.06284287
227	0xbf020667	-0.5079102
228	0xbe14ee57	-0.14544044
229	0xbeb73e2e	-0.35789627
230	0x3e6c1468	0.2305466
231	0xbd9fa0a8	-0.077943146
232	0x3da589b9	0.08082909
233	0x3e81b8e7	0.25336382
234	0xbf3a7b5d	-0.7284449
235	0xbe819f51	-0.2531686
236	0xbecdfdf4	-0.40232813
237	0xbe3390cd	-0.17535706
238	0x3dce38e1	0.100694425
239	0xbd6f4b6b	-0.058421534
240	0xbf3a475c	-0.72765136
241	0xbd74038e	-0.059573703
242	0xbe70e116	-0.23523363
243	0xbd1811fa	-0.03712652
244	0xbdc70090	-0.09716904
245	0x3e8474b2	0.2587028
246	0xbb7881cd	-0.0037919164
247	0x3e6a1edf	0.22863339
248	0x3e9abb87	0.30221197
249	0xbed6040b	-0.4179996
250	0xbea67555	-0.32511392
251	0x3d87d132	0.06631698
252	0x3e94a15a	0.2902935
253	0xbe68e520	-0.22743654
254	0xbe576408	-0.21034253
255	0xbeb54c97	-0.35409996

fc2.bias f4 [4]
0	0x3e1235f3	0.14278392
1	0xbda0ddb8	-0.078547895
2	0xbdbb3a5f	-0.09141993
3	0xbecb8d68	-0.39756322
