Models/model_1sec_sequence.pt (torch, 317399 bytes, 12 tensors)

lstm.weight_ih_l0 f4 [512, 6]
000000 8b f6 25 3e 94 78 41 3e 0d 8c 7a be 88 cb a0 3e
       0.1620733 0.18893653 -0.24467488 0.31405282
000010 00 2b 3a 3e 08 ac 88 3e 38 28 88 bd 3b fa 97 be
       0.18180466 0.2669375 -0.06648296 -0.29683098
000020 f0 4f 9d 3e dc 1c 94 3d 91 d0 d1 bc 0b d4 d6 bd
       0.3072505 0.07232067 -0.025612148 -0.10489663
000030 df 36 76 be 8f 82 77 bd eb 26 2a bc f0 7b 07 3c
       -0.24044369 -0.060427245 -0.010385255 0.008269295
000040 f5 da 94 3d 1d d0 53 3e 9d ad 80 3e 7f da 44 3e
       0.07268325 0.20684858 0.25132456 0.19223975
000050 39 0d c1 be 85 09 8b 3e 95 ba ff 3a a7 24 55 3e
       -0.377054 0.271557 0.0019510562 0.20814763
000060 0a 8c aa bd b8 b0 48 3e 9c 6d 8b bd 33 b2 40 3e
       -0.083274916 0.19598663 -0.06808016 0.18817978
000070 aa 47 3b 3e 43 eb 5e bd 46 1d 79 be 74 4e 9c be
       0.18289056 -0.05442358 -0.24327573 -0.30528605
000080 e8 ab eb 3d 90 4b fc be ed 95 ce bd 86 93 a3 bd
       0.11507398 -0.492764 -0.1008719 -0.07987122
000090 01 66 66 be bf e3 d2 3d a3 5f 98 bd d5 ce 0f 3b
       -0.22499849 0.10297345 -0.07440116 0.002194335
0000a0 63 a2 12 be 70 dd 05 3d b5 ec ab 3e 81 2d 93 3d
       -0.14319758 0.032681882 0.3357903 0.071864136
0000b0 d9 8a 1d be d9 03 7a 3e 43 bb 60 3e 68 0a 6d 3e
       -0.15384997 0.2441553 0.21946435 0.23148501
0000c0 e2 d7 ca bd ff b9 34 be c6 b5 a5 bd eb 3f 4f be
       -0.09904458 -0.17649077 -0.08091311 -0.20239227
0000d0 f3 1d b1 3d 7c 30 80 bd 59 be de bd bd 8d b9 bd
       0.086482905 -0.06259248 -0.1087615 -0.090602376
0000e0 c6 62 de 3d cb 4c b1 bd 02 21 23 bd 26 94 29 3e
       0.10858683 -0.08657225 -0.0398264 0.1656042
0000f0 76 c4 5a bd df ad 91 be e5 84 04 3e 97 1a 33 3d
       -0.053410016 -0.28452966 0.1294132 0.04372653
000100 1b cd 75 3d 0d 24 20 3e 52 45 4d be 7e ac 51 bc
       0.060010057 0.15638752 -0.20045975 -0.012797473
000110 ca a7 a9 3d a5 98 05 be 13 d9 82 3a 54 5e d6 3d
       0.08283956 -0.1304651 0.0009982906 0.104672104
000120 b3 b9 0c be 58 68 1f 3e 88 6f 8f 3e fa 8e 00 3d
       -0.13742714 0.15567148 0.2801478 0.031386353
000130 f9 61 09 3e fe 53 a2 3d 9e f4 c8 bd e8 65 84 3d
       0.1341628 0.079261765 -0.09812282 0.064647496
000140 42 5d c0 3d 0e ce 6c be 64 c9 55 be c9 c8 03 3d
       0.093927875 -0.23125479 -0.20877606 0.032173906
000150 77 90 32 be 2c 98 d3 be 47 11 b2 3e 2c cf 64 bd
       -0.17437921 -0.41327035 0.34778807 -0.055861637
000160 a9 fc d9 bd c8 33 61 be d9 7d 23 3e 2a 3d a4 3c
       -0.10643894 -0.21992409 0.15965976 0.020048697
000170 ae e3 b6 3d 4b 3a 20 3e 0b 62 92 3c c2 8a a0 3e
       0.08930145 0.15647237 0.017869016 0.31355864
000180 66 d6 24 be c6 46 36 be cf cb 9a 3e 96 24 1b bf
       -0.16097412 -0.17800435 0.3023362 -0.606027
000190 4a 8e 42 bd 32 e5 d8 3d d7 cb 8c bc 71 5e d7 be
       -0.04749898 0.105905905 -0.017187042 -0.4206424
0001a0 f1 17 32 3e 82 89 43 3d b0 0e 25 bd 96 c8 90 be
       0.17391945 0.04773856 -0.04029721 -0.28278035
0001b0 29 48 c4 be e4 a4 8d bb ed 9f b9 3e ea 00 88 3d
       -0.38336304 -0.004322635 0.36254826 0.06640799
0001c0 14 f6 13 bc a4 05 77 bd ef ef 4e 3e 7f 23 b5 3e
       -0.009030838 -0.060308114 0.20208715 0.35378644
0001d0 a0 33 0a be 5a 3c 34 3e a4 03 cf 3d 6f 44 92 3c
       -0.13496256 0.17601147 0.10108116 0.017854897
0001e0 66 41 90 bc 9b b8 d3 bd e7 33 99 be fd 7b 26 be
       -0.01760931 -0.10337945 -0.2992241 -0.16258235
0001f0 90 59 5c 3c 3b 38 8b bd 1a 24 47 3d 2a 26 b2 3d
       0.013449088 -0.067978345 0.048618414 0.086986855
000200 be ca 2e 3e b0 3c 10 3d 04 f2 08 bd 15 8d 01 be
       0.17069528 0.035214126 -0.03343393 -0.12651475
000210 21 26 75 3d 4b 53 17 be cd ae 87 3e 5c e6 50 3d
       0.059850816 -0.14777867 0.2650055 0.051000938
000220 b3 3c 1e be 1f c7 79 be 7c 0d 50 3e 79 20 21 3f
       -0.15452842 -0.24392365 0.20317644 0.62940174
000230 3c 40 a8 bd c5 ba 2f be c6 98 99 3b eb 81 09 bd
       -0.08215377 -0.1716109 0.0046874015 -0.033571165
000240 3c 31 33 be 3b 80 2a be cf d4 59 3d a0 76 85 bd
       -0.1749925 -0.16650479 0.053181466 -0.065167665
000250 d1 05 e6 bd 60 b7 15 3e 21 26 a8 3e 8a 8e 99 bd
       -0.11231578 0.14620733 0.3284159 -0.0749789
000260 2d 09 e3 bc a6 c6 22 3e be 74 f3 bd 47 ca 9b be
       -0.027714336 0.15896091 -0.11887501 -0.30427763
000270 f8 c0 41 bd 63 a3 8e bd 00 6c 48 3e 75 78 49 3e
       -0.04730317 -0.06964757 0.19572449 0.19674857
000280 3c 6f 78 be d3 e3 9e bd e4 7f cd 3b e5 7e 29 3f
       -0.24261183 -0.07758298 0.0062713493 0.6620925
000290 a0 a7 4e be 2c 5f aa 3e 84 8a 93 3e 30 3c 03 3f
       -0.20181131 0.33275735 0.28816617 0.51263714
0002a0 64 98 32 be 8a cf 17 be 65 db 9b be d6 1d 98 3d
       -0.17440945 -0.14825264 -0.30440822 0.07427566
0002b0 7d 79 85 3d 18 2b 8c 3e 15 20 78 be 2c 98 9a bc
       0.06517313 0.27376628 -0.24230988 -0.01887139
0002c0 5b 13 26 3e 23 e2 ae bd 36 ac 17 be 59 9a ab be
       0.16218321 -0.08539226 -0.14811787 -0.33516195
0002d0 d1 47 4d 3c b4 cb 22 3e be 56 be bd fe 76 10 3d
       0.012529329 0.15898019 -0.092938885 0.03526973
0002e0 e1 2b 80 be 8e 02 33 bd 9e 07 a9 be 34 3c e3 be
       -0.25033477 -0.04370361 -0.33013624 -0.4438187
0002f0 25 2e 85 3e a9 94 0b 3e 03 e7 48 be a1 de 83 bd
       0.26011768 0.13630928 -0.19619374 -0.064389475
000300 93 2b 48 3d e1 b8 a1 be 42 0e 89 3e f9 66 9b be
       0.04886968 -0.31586364 0.2676869 -0.30352
000310 58 3c 3a be 74 d1 9c 3d 4e 57 af 3c f6 a7 b8 3d
       -0.18187082 0.076571375 0.021403935 0.09016411
000320 55 0f 84 3e c6 ea 38 be f5 1f 46 3e 3e 9e 12 bd
       0.25792947 -0.18058309 0.19348128 -0.035795443
000330 05 2b 41 3d 0c f0 28 3d d7 59 c9 3d 98 ad a6 3d
       0.047160167 0.04124455 0.09831589 0.08138579
000340 56 1b b6 3d 6e 57 8d bd 0a dc 7d be bd 84 0e 3e
       0.08891933 -0.069014415 -0.2479097 0.13917823
000350 90 0a 64 3d cb a6 b3 be 33 d4 fa bd 77 56 76 3e
       0.055674136 -0.3508819 -0.12247505 0.24056421
000360 c5 76 4b be e6 8f cc 3a b7 2d 4d be 3a 7f d4 be
       -0.19869526 0.001560685 -0.2003697 -0.41503316
000370 76 fc 89 be 35 6c b1 3e 73 78 3f 3e bc c7 a0 3d
       -0.26950425 0.34652868 0.18698291 0.07850596
000380 37 04 31 3e a0 bf 04 be 21 7d 59 39 45 5b 9a bd
       0.17286764 -0.12963724 0.00020741347 -0.075369395
000390 15 4a fa bd d8 49 22 3d b7 fb 71 bd 9b b4 b9 bd
       -0.12221161 0.039621204 -0.059077945 -0.09067651
0003a0 50 fa 0c 3e 82 3a 23 3e e1 7b da 3c c8 93 88 3d
       0.13767362 0.15940288 0.026670398 0.06668812
0003b0 5a d6 90 3c f4 cc 9d bd ae e9 01 bf c8 2d 4e be
       0.017680336 -0.07705107 -0.5074719 -0.20134652
0003c0 f8 b5 9a 3e 0a fb 0e 3e 64 97 95 3e ac 87 a4 be
       0.30216956 0.13962951 0.29217064 -0.3213476
0003d0 b5 2a 92 3c ff 8e 47 bd c8 fe e8 bd 3c e3 8e be
       0.01784263 -0.048720356 -0.11376721 -0.2790774
0003e0 d4 2a 06 3e 4b 3a c2 3e 59 56 41 be 9c 69 1e be
       0.13102275 0.379351 -0.18880595 -0.15469974
0003f0 25 34 fd bd 6e c2 13 be d6 22 3a 3d 76 81 4f be
       -0.123634614 -0.14429638 0.04544338 -0.20264229

lstm.weight_hh_l0 f4 [512, 128]
000000 20 73 aa 3d 00 e0 91 bd a3 01 57 be 53 f8 c1 bb
       0.083227396 -0.07122803 -0.20996718 -0.005919495
000010 a2 1e 94 bc ec de 9b be 26 b6 30 bd 5a 0b ec bd
       -0.018081013 -0.30443513 -0.04314246 -0.11525603
000020 a4 37 a3 3e b8 92 6c 3d 0f 11 94 bd ff dd 6e be
       0.31878388 0.05775711 -0.07229816 -0.23326872
000030 37 30 5c 3c 79 00 dc 3c 3f e8 5b 3e b7 d1 3b 3d
       0.01343923 0.026855694 0.21475314 0.045854297
000040 ae f2 7e be 5f 26 55 be 76 0a be bd d3 12 ea bd
       -0.24897262 -0.20815419 -0.09279339 -0.11429372
000050 46 6a 35 3e b5 fe 47 bc 96 03 26 bd cc 58 de 3e
       0.17716321 -0.012206723 -0.040530764 0.43427122
000060 5f 4e a3 be bb b1 83 3d 94 2a 06 3e 34 12 4b be
       -0.3189573 0.06430384 0.1310218 -0.19831163
000070 dd 30 a6 be 6c de 20 be b7 fd 00 be b6 a1 b1 be
       -0.32459155 -0.15709847 -0.12596785 -0.34693688
000080 ab 05 31 3e 61 4d 10 3e 44 1b 07 bd 1c c8 02 be
       0.17287318 0.14092018 -0.032984987 -0.12771648
000090 78 d4 5e 3e 76 fb 8d 3e a5 17 66 3d 8f ba 0d be
       0.21760738 0.27730912 0.056174893 -0.13840698
0000a0 6a 3b 22 bd 52 00 0d 3e ec ae 63 3d 2c e1 a0 3e
       -0.039607443 0.13769653 0.05558674 0.31421793
0000b0 50 da 06 bd 86 2a 2b be df 99 e9 3d 07 7a 19 3e
       -0.032923043 -0.1671544 0.11406302 0.14987956
0000c0 ff bd 9d 3e d6 fd 3e bd 05 9e dc bd 02 14 95 3e
       0.30809018 -0.046628796 -0.10772327 0.29116827
0000d0 ba e2 16 be 45 38 06 3e d4 6f ef 3d a2 36 65 be
       -0.14734927 0.13107403 0.116912514 -0.22384122
0000e0 dd 27 36 3e 16 bb ee 3d f6 56 11 bd b8 3a 90 3e
       0.17788644 0.116567776 -0.035483323 0.281698
0000f0 5d 6f 68 3d 62 33 e8 bd 2d 49 bf bd 59 c6 32 3e
       0.05674683 -0.113379255 -0.09340129 0.17458476
000100 0d 27 f4 bd ce ff 94 be 44 43 9e be 15 19 4f be
       -0.11921511 -0.29101413 -0.30910695 -0.20224412
000110 65 56 86 be df 54 63 3c 7e d9 17 be 7c b6 9b be
       -0.2623779 0.013875215 -0.1482906 -0.30412662
000120 ce 12 cf be 84 0a a7 3d 51 5d 39 bd f2 11 22 be
       -0.40444034 0.081563026 -0.04525501 -0.15827158
000130 61 cd 35 bd 88 f7 2a be 38 cd 58 bd 8e 88 82 be
       -0.044385318 -0.16695988 -0.052930087 -0.25494808
000140 ab cf 56 3e 8d bd 82 3e 01 9e ef 3d d5 79 92 be
       0.20977657 0.2553524 0.11700059 -0.28608575
000150 50 25 a8 3e 84 c3 1a be 7d b2 b0 3e 25 09 6c 3e
       0.32840967 -0.15113646 0.34511176 0.23050363
000160 36 3f 93 3d ce ba 14 3e d3 52 09 3c 52 3b 3c be
       0.07189791 0.14524385 0.008381563 -0.18382004
000170 7d a6 f2 bd 97 ea 85 be 8d 01 c0 bc dc 3c 19 be
       -0.11848161 -0.2615554 -0.02343824 -0.14964622
000180 75 ac 14 be 52 ef 98 3c 88 ae 9f 3d 94 56 43 bc
       -0.14518912 0.018668804 0.07796961 -0.011922497
000190 db 45 12 3e 9e 19 11 3d 65 f5 9f bd b9 93 84 3a
       0.1428446 0.03542482 -0.07810477 0.0010114826
0001a0 ad be f9 3b be ae f1 bc dc ee 81 be 34 db 19 3c
       0.0076216073 -0.029502269 -0.25377548 0.009390641
0001b0 fe c2 44 3e 27 ab e7 bd 01 ff a4 be 77 97 6b be
       0.19215009 -0.113119416 -0.32225803 -0.23006998
0001c0 c5 fe d4 bd ad 7f a0 bd f1 18 7c be 54 b1 e7 3b
       -0.10400156 -0.07836852 -0.2461889 0.0070706997
0001d0 80 b4 5c bd 29 ae 18 bd ac 05 d3 3c c8 1b c1 3d
       -0.053883076 -0.037275467 0.02575954 0.09429127
0001e0 1d 14 a0 3d 29 61 c5 3d db b4 58 3e b6 24 2b be
       0.07816336 0.096376725 0.21162741 -0.16713223
0001f0 6e 28 0e be cd 68 8b 3d 89 5b 99 3d 3c 4c 08 3c
       -0.1388261 0.068070985 0.07488162 0.008318957
000200 8b 9f 5e b9 b7 74 9f bd 0f 9e 4e 3e b3 cc 73 bd
       -0.00021231004 -0.077859335 0.20177482 -0.05952139
000210 10 c7 5c 3d 1a 86 81 bd f1 3a d0 3d 36 05 33 bd
       0.05390078 -0.06324406 0.10167492 -0.04370614
000220 57 c9 bd 3c e8 26 51 bc 0f 70 10 3c 54 34 ab bd
       0.023167295 -0.012765624 0.008815779 -0.0835959
000230 64 65 40 be 13 6b 94 3c ee 7a 07 3e 57 51 cd 3d
       -0.18788677 0.018117463 0.13230488 0.1002528
000240 ba 3f ec bc 4d 8d 52 3d 7c 31 fa bd f7 8d 7b 3e
       -0.028838981 0.051404286 -0.1221647 0.24565874
000250 ac 69 14 be 0c 9d e8 3d 49 51 4c be f8 03 a4 be
       -0.14493436 0.11358079 -0.19952883 -0.32034278
000260 e0 98 7c 3e d9 6e 11 be f1 93 0e 3e 19 e0 c9 bd
       0.24667692 -0.14202441 0.13923623 -0.09857196
000270 1a 70 0b 3e 60 95 a6 3d fb f9 fa 3d ff 06 64 bb
       0.13616982 0.0813396 0.12254711 -0.003479421
000280 cd 6e 32 3d fb 2e a5 3c 59 b8 48 3b 81 83 d7 ba
       0.0435627 0.020164004 0.0030627458 -0.001644239
000290 1e 38 48 be 35 12 ea bd 2d 45 85 3d 7c 9b c3 bc
       -0.19552657 -0.11429254 0.06507335 -0.023877852
0002a0 eb 38 64 3e 98 28 f7 bd 33 12 a3 3d 6c 00 ba 3d
       0.22287337 -0.120682895 0.079624556 0.09082112
0002b0 93 43 0d 3d 2d 3e 17 3e 56 8e 2f be 9e 07 35 bd
       0.034488272 0.14769812 -0.1714414 -0.044196717
0002c0 c1 85 50 3d 5d 09 3a 3e d8 17 95 3e 33 39 01 3e
       0.050908808 0.18167634 0.29119754 0.12619476
0002d0 0f 5a 69 be d9 97 d8 bc cb 24 29 be 6d 44 46 bd
       -0.22788261 -0.026439594 -0.16517942 -0.0484051
0002e0 24 06 28 be 4b e9 60 be d1 3d 0e bd c7 9a 78 be
       -0.16408592 -0.21963994 -0.03472692 -0.24277793
0002f0 80 05 48 be 1f a7 e9 3e a3 7c cc bd cc d4 9e be
       -0.19533348 0.45635316 -0.0998471 -0.31021726
000300 6b df f9 3a 99 c6 a0 3e 16 d1 55 3e d4 38 4c be
       0.0019063776 0.31401518 0.20880541 -0.19943553
000310 40 fb b8 3d 2d 57 c9 3d 25 da 85 3e 02 33 c7 bd
       0.09032297 0.098310806 0.26142994 -0.09726526
000320 00 4f da bb 40 e5 51 3d e0 cc 1d 3c 31 6a 14 be
       -0.0066622496 0.05124402 0.009631366 -0.14493634
000330 ed 67 22 3e 92 9f 7e 3c b4 c2 13 3e ab d5 04 3e
       0.15859957 0.015540974 0.14429742 0.12972133
000340 3a fc 5f be a2 5a 86 be 95 01 1f 3e 4e 59 83 3e
       -0.2187356 -0.26241022 0.15527947 0.25654072
000350 8b 8f b3 bd f8 3f ce 3d 61 69 ae 3d 4e 19 23 be
       -0.08767613 0.10070795 0.08516193 -0.15927622
000360 03 d6 e4 be 69 5a 0d be 38 7f c4 3b ee c2 b5 3c
       -0.44694528 -0.1380402 0.005996611 0.022187676
000370 21 1e 74 bc c7 80 35 3e cf 84 e2 3d 83 28 46 3e
       -0.014899761 0.17724906 0.110604875 0.19351391
000380 5a 5e 04 bd db d4 07 3e 70 de 63 bd e1 7f c2 3d
       -0.032316543 0.13264792 -0.055632055 0.09497047
000390 c7 ce 3f bd c5 f0 77 bd 2d 39 1e 3e e0 83 c2 bc
       -0.046828058 -0.06053235 0.15451498 -0.023744524
0003a0 21 91 c8 be aa 34 78 3d 6b ee 98 3d 7d 2e d8 bd
       -0.39173225 0.0605971 0.074673496 -0.10555742
0003b0 33 be fc be dc eb c2 3d 97 27 51 3e 5b e7 cb 3e
       -0.4936386 0.09517643 0.20425259 0.39824948
0003c0 15 28 05 be 91 0c 82 be 3b 92 79 3e 94 ed 1c be
       -0.13003571 -0.25400212 0.24372189 -0.15325004
0003d0 15 ef 38 3e 5e aa f4 bd da b9 5a 3d de b0 27 be
       0.18059953 -0.119465575 0.053399898 -0.16376063
0003e0 ab b1 e1 3c 63 2c a0 bc 4a fd 0b be d7 fd 9c bd
       0.027550539 -0.019552415 -0.13670841 -0.076656036
0003f0 8b c7 52 bd 40 b4 b8 bd d6 60 c0 bd fa 63 33 3d
       -0.05145983 -0.09018755 -0.0939347 0.043796517

lstm.bias_ih_l0 f4 [512]
000000 98 83 50 3c d4 3f 2a be 59 69 17 be 67 d1 19 be
       0.012726687 -0.16625911 -0.1478628 -0.15021287
000010 d8 e8 93 be a3 ae b7 be a2 21 b2 be 46 64 81 3e
       -0.28888583 -0.35875425 -0.34791285 0.25271815
000020 e4 b9 cf bd 1b 94 9b be ce b8 4b be 52 af 84 be
       -0.10142878 -0.30386433 -0.19894716 -0.2591501
000030 60 11 2e be 8b 7e 00 be d7 0f 9b be 0b 7b 18 be
       -0.16998816 -0.12548272 -0.30285522 -0.14890687
000040 bb e3 12 be 36 6e 73 be 62 0f 1e be f9 3c 43 be
       -0.14344685 -0.23772511 -0.15435556 -0.19066228
000050 3a c4 3c be cc f4 9e bd 05 09 3a be 01 73 14 be
       -0.1843423 -0.07761535 -0.18167503 -0.14496996
000060 01 6c c2 be d5 5d 98 bb b8 ea 70 be eb 04 38 be
       -0.37973025 -0.0046498575 -0.23527038 -0.17970626
000070 52 a9 a2 be 3c d6 c2 be 03 cd 8c be 45 58 ee bd
       -0.31769806 -0.38054073 -0.27500162 -0.1163793
000080 ae ee 14 be ab 1a 96 be 7f 66 32 be 8a 13 66 be
       -0.14544174 -0.2931722 -0.17421912 -0.22468391
000090 21 7c 5a be 77 92 42 be 79 a0 5e be 46 df 6b be
       -0.21336414 -0.19001184 -0.21740903 -0.23034391
0000a0 a0 28 55 be 94 db 01 be 7e 73 9b bd 20 22 81 be
       -0.20816278 -0.12681419 -0.07590388 -0.25221348
0000b0 3b a4 d5 bd cd 67 4f be 37 c5 34 be c6 cd a2 be
       -0.10431715 -0.2025444 -0.17653356 -0.31797618
0000c0 4d 76 7b be bd ab b7 bd 38 a2 37 be da 33 de bd
       -0.24556847 -0.08968303 -0.17932975 -0.10849734
0000d0 a8 1b 11 3d f1 ce 22 be 48 7e 17 3d 8d fb fc bd
       0.035426766 -0.15899254 0.036985666 -0.12352667
0000e0 99 ce f0 bd 1e d6 87 be 2f 59 6b be 39 34 57 be
       -0.117581554 -0.26530546 -0.2298324 -0.21016015
0000f0 f5 ee ac be 16 08 74 be 01 eb 3d be 2e ae b7 bd
       -0.3377606 -0.2383121 -0.18546678 -0.08968769
000100 eb 65 b0 be 9a ed ee 39 f0 ba b8 be 28 4f 09 be
       -0.34452757 0.00045571924 -0.36080122 -0.13409102
000110 df 54 90 be 9a 25 4e be 32 30 79 be dc 50 8c be
       -0.28189752 -0.20131531 -0.24334791 -0.2740544
000120 7c 87 5f be a1 89 04 be a1 7b df 3d 83 28 a2 be
       -0.21829027 -0.12943126 0.10912252 -0.31671533
000130 04 6c bf bd eb 17 6f be f5 82 5f be 5f 00 33 be
       -0.09346774 -0.23348968 -0.218273 -0.1748061
000140 64 68 3c be ab 90 ea be 75 7e 99 be be 76 d3 bd
       -0.18399197 -0.45813498 -0.29979292 -0.10325383
000150 62 23 3c be c6 f5 88 be 73 b8 2d be 48 fa 80 be
       -0.18372872 -0.2675001 -0.16964893 -0.2519095
000160 24 12 bb be b8 fb 4a be 7f a6 a1 be 32 7b 19 be
       -0.36537278 -0.19822586 -0.3157234 -0.14988402
000170 f7 13 89 be 4f 56 24 be c2 f6 8b 3d 8b 29 81 bd
       -0.26773044 -0.16048549 0.06834175 -0.06306752
000180 b6 e6 e7 bd 31 ea c1 be 58 00 7d bd c9 e6 9b bd
       -0.113233015 -0.37873986 -0.061767906 -0.07612378
000190 de 3a c9 3d 5b af 81 be 5f 52 26 be 39 eb 2c be
       0.09825681 -0.25329098 -0.1624236 -0.16886605
0001a0 27 f3 30 3d 55 bb eb bc ba 81 57 be 4d 3a 68 be
       0.04320064 -0.02877585 -0.2104558 -0.2267849
0001b0 42 8e 34 3e af de f6 bd a9 c9 82 be 65 5f aa be
       0.17632392 -0.12054192 -0.2554448 -0.33275905
0001c0 a7 82 b7 be 0b a2 58 be 52 55 70 be 09 a3 06 be
       -0.35841867 -0.21155564 -0.23470047 -0.1314813
0001d0 c1 be 8b be 4c f8 89 be d6 88 ba bd fa 05 02 be
       -0.2729397 -0.26947248 -0.09108131 -0.12697592
0001e0 26 0b 67 be 9a 68 72 be 23 13 c8 3d 04 02 98 be
       -0.22562847 -0.23672715 0.09769275 -0.29689038
0001f0 ee 8c 94 be 41 db f2 bd 05 15 c4 bd 35 65 1f be
       -0.2901377 -0.118582256 -0.09574322 -0.15565951
000200 e4 6c bf 3d ba de ff 3c 84 e1 9c bd e7 d1 be bd
       0.09346941 0.031234134 -0.07660201 -0.093173794
000210 d8 8c 6b be 14 27 ce 3d ed 8f 86 bd d5 18 42 3e
       -0.23002946 0.10066047 -0.065704204 0.18954785
000220 ef df 76 bd b1 57 84 be 54 05 31 be 27 32 13 be
       -0.060272153 -0.25848153 -0.17287189 -0.143746
000230 7f b8 95 be 9e 89 6d bd 3a 6f 18 be ff 05 0d be
       -0.29242322 -0.05799257 -0.1488618 -0.13771819
000240 24 86 62 be d1 02 fd bd 94 ef 54 3d f5 4f 78 bc
       -0.22121483 -0.12354053 0.051986292 -0.015155782
000250 37 13 cb 3e 63 a0 1e bd 63 80 23 be 2f ea 11 3e
       0.39663097 -0.038727175 -0.15966944 0.1424949
000260 e0 57 93 be 87 c3 0e 38 84 4f 89 bd f4 39 54 3e
       -0.2877798 3.4037537e-05 -0.067046195 0.20725232
000270 4e c0 1d be a6 47 0e bd ca 3e 93 be 35 4b 8a 3e
       -0.1540539 -0.034736298 -0.28758842 0.27010503
000280 95 15 de bc b5 a4 3a 3d 67 67 43 be 09 79 0d be
       -0.0271099 0.045567233 -0.19082414 -0.13815702
000290 68 9e 0e 3e 6d 2c c6 bc 18 54 0b 3d 74 8b df 3d
       0.13927615 -0.024191106 0.034015745 0.109152704
0002a0 3b c0 45 be 61 37 ea bd 1e 09 de bd 81 b9 a5 3c
       -0.19311611 -0.11436344 -0.10841583 0.020230057
0002b0 01 43 86 bd f3 40 f0 bd c1 20 90 be ba 19 4b be
       -0.06555749 -0.11731138 -0.2814999 -0.19834033
0002c0 05 66 39 3d 02 3c 68 3e 43 f6 32 be 17 af 31 be
       0.04526331 0.22679141 -0.17476754 -0.17351948
0002d0 c8 9a a2 3d 70 8c 49 3d 2e fe 1f be 8e 79 4d be
       0.079396784 0.049206197 -0.15624306 -0.200659
0002e0 00 67 80 3e 44 29 28 3e 76 79 78 3d ba bd bf bc
       0.25078583 0.16421992 0.06066271 -0.023405898
0002f0 d4 33 71 be 23 64 85 3b d7 8c ae bd 0a 90 88 be
       -0.23554927 0.004070775 -0.08522957 -0.26672393
000300 9a 4f d1 bd b1 a9 bb bd 26 ea a3 be 7f 09 4b 3d
       -0.10220261 -0.091632254 -0.3201458 0.049569603
000310 34 f0 84 bd 3d a8 29 be 4d fc 81 be 2e a6 1d 3d
       -0.064911276 -0.16568084 -0.25387803 0.03848856
000320 59 52 0d be c1 85 1f be 7b ad 39 3e 80 a8 2a be
       -0.13800944 -0.15578367 0.18132584 -0.1666584
000330 0c f2 1b 3d 78 82 c5 3d 1a 10 86 3d 8e f2 ac bd
       0.03807263 0.096440256 0.0654604 -0.08444701
000340 bb 3b 91 3d f3 93 5f 3e ef 17 0e be 8b c8 ad bd
       0.07091471 0.21833782 -0.13876317 -0.08485516
000350 41 b3 89 3c 8e c3 79 3d 3e 5c a1 bd 00 3f 41 be
       0.016809108 0.06097751 -0.07878922 -0.18871689
000360 a3 76 8b 3e 80 e6 51 be 84 63 7c 3d 42 db bf 3d
       0.2723895 -0.20498085 0.061618343 0.09367992
000370 28 3d ae be 02 eb ee bd c0 bf f4 bc b7 c3 ca 3e
       -0.34031034 -0.11665918 -0.02987659 0.39602444
000380 74 2a 57 be 25 f9 51 bd b3 80 d6 bd 86 21 6a 3c
       -0.21012288 -0.051262993 -0.10473766 0.014290219
000390 bd ec 25 3e 5e 0b 08 3e 21 bc 48 bb 0c cc 29 be
       0.1620359 0.13285586 -0.0030629712 -0.16581744
0003a0 fb 11 7a bc 44 ac 9e bb 66 1c 0d bd e2 25 2d be
       -0.015263076 -0.004842313 -0.03445091 -0.16908982
0003b0 d7 65 0c be 02 a7 7d bd 1c 13 2b be 9e ee cc bd
       -0.13710724 -0.06192685 -0.16706508 -0.1000645
0003c0 db 60 88 be 0f 6f ed bd d3 72 ea bd c0 65 2f be
       -0.26636395 -0.11593448 -0.11447682 -0.17128658
0003d0 7f bc 3e be 9e 8c 01 be 98 e5 18 3e 55 d0 06 3e
       -0.18626593 -0.12651297 0.14931333 0.1316541
0003e0 19 e8 94 be 94 2e 71 be 29 5a 40 3c e8 a4 97 be
       -0.29083326 -0.23552924 0.011740246 -0.29618
0003f0 82 fe 2d be 09 00 ac bc 16 34 35 bd bd 14 c2 bd
       -0.16991618 -0.02099611 -0.044239126 -0.09476612

lstm.bias_hh_l0 f4 [512]
000000 b9 b1 99 bd 96 7a 21 be 9e 10 7e be f5 8e c8 bd
       -0.07504601 -0.15769419 -0.24811026 -0.09792892
000010 f0 97 98 be 29 a1 8b be 1c b5 df be 39 8a 10 3e
       -0.2980342 -0.27271393 -0.43692863 0.14115228
000020 40 f3 76 be 31 ce 58 be 2f cd 3d be af 19 7f be
       -0.2411623 -0.21172406 -0.18535303 -0.24912141
000030 5e 00 46 be 01 3e 35 be 38 fb b8 be 81 44 89 be
       -0.19336078 -0.17699434 -0.36129165 -0.26810077
000040 e4 7d ed bd 33 60 2c be 5b 34 4c be e9 60 18 be
       -0.11596277 -0.16833572 -0.19941847 -0.14880718
000050 a6 f1 55 be 2f f6 f0 bd aa bf 6f be 84 4a 64 be
       -0.20892963 -0.11765706 -0.23412958 -0.2229405
000060 84 07 a1 be 4b 58 c6 3d 26 9e 69 be 42 60 48 be
       -0.31451046 0.09684809 -0.22814235 -0.1956797
000070 62 15 b6 be 47 75 ec be c2 de 24 be 1e 05 d9 3a
       -0.3556319 -0.46183226 -0.161006 0.0016557311
000080 51 dd 76 be 22 b2 88 be ac 75 52 be 1b a0 86 be
       -0.24107863 -0.26698405 -0.20552701 -0.26294026
000090 16 8d 35 be 52 a6 69 be d4 25 f1 bd 7a dc 47 be
       -0.17729601 -0.22817352 -0.11774793 -0.19517699
0000a0 fa 81 51 be 7e 8d a5 bd 15 bd 92 bd 2a 56 30 be
       -0.20459738 -0.08083628 -0.07164971 -0.17220369
0000b0 04 d1 bb bd 2c f9 48 be a2 45 5d be 30 14 8f be
       -0.09170726 -0.19626302 -0.21608594 -0.2794509
0000c0 7b c5 4a be db fb 21 be b4 b1 3a be 40 86 e0 bd
       -0.19801895 -0.15818731 -0.18231851 -0.10963106
0000d0 ae e3 5f bd b0 b0 84 be f8 64 cf bd 8b 81 77 be
       -0.05466049 -0.25916052 -0.1012668 -0.2417051
0000e0 eb 7e 01 be aa 9d 28 be 1e 2d 4b be 7c 62 94 be
       -0.12646072 -0.16466394 -0.1984143 -0.28981388
0000f0 27 8a ac be c2 23 63 be ae 40 4b be eb 1c c9 bd
       -0.33699152 -0.2218161 -0.19848892 -0.09819969
000100 c8 0e be be e0 6a 1f bc f6 8b a9 be dd b2 3c be
       -0.37120652 -0.009730071 -0.33114594 -0.18427606
000110 62 f1 bf be 90 5f fd bd ef c2 14 be d5 8a a9 be
       -0.37488848 -0.12371743 -0.14527486 -0.33113733
000120 94 c5 83 be b2 1f 3a be 6b d4 47 3d a4 fa 8f be
       -0.25736678 -0.18176153 0.048786562 -0.2812091
000130 4f 26 12 be ec fa 83 be a6 65 7e be 33 e4 84 be
       -0.14272426 -0.25777376 -0.24843463 -0.25955352
000140 9e 4b 78 bd 80 af f1 be c3 36 c9 be 6f 7c 84 bd
       -0.06061899 -0.47204208 -0.39299592 -0.06469046
000150 69 df 0a be ea e8 0d be 52 21 8b bd b4 52 9a be
       -0.13561787 -0.13858381 -0.06793465 -0.30141222
000160 c5 ef ac be d1 a7 8e be 19 92 df be 09 e7 e5 bd
       -0.3377668 -0.2786241 -0.4366615 -0.11225707
000170 52 ef d2 be 24 dc 28 be e9 e3 d1 3c a6 5d 14 bd
       -0.41198212 -0.16490227 0.025621371 -0.036222123
000180 3f 4e 1d be c2 2a c4 be 0b 96 2c be 56 31 0a be
       -0.1536188 -0.38313872 -0.16854112 -0.13495383
000190 f0 6e a9 3c 48 19 89 be 34 08 9b bd 29 24 76 be
       0.020682782 -0.267771 -0.07569924 -0.24037232
0001a0 ab ec 83 bd 8e 12 29 3d 4c 52 22 be 28 91 26 be
       -0.06441625 0.04127746 -0.15851706 -0.1626631
0001b0 29 60 bc 3d 61 06 f2 bd a8 7c 4f be 81 cc 54 be
       0.091980286 -0.11817623 -0.20262396 -0.20781137
0001c0 69 cb 61 be a8 af 95 be e6 a6 66 be 98 3c 2c be
       -0.22050251 -0.29235578 -0.22524604 -0.1681999
0001d0 8c 93 6e be f7 11 63 be 42 bf 12 be dd 29 8a be
       -0.23298472 -0.22174822 -0.14330772 -0.26985064
0001e0 d9 cd 5a be 45 b6 d8 bd 8f 5c fe 3d b5 96 ae be
       -0.21367587 -0.1058164 0.12419998 -0.34099355
0001f0 35 a8 29 be 5d 84 61 bc b7 87 9e bd 32 0f 4c be
       -0.16568072 -0.013764468 -0.07740729 -0.19927672
000200 74 17 d8 3d 93 d2 ed 3a 7e 13 0e be 50 83 3f bd
       0.10551348 0.0018144421 -0.13874623 -0.04675609
000210 3b a2 3e be e7 80 b9 3d 43 1a 4e be a6 55 0f 3e
       -0.18616574 0.09057789 -0.20127206 0.13997516
000220 a2 a8 25 bd 80 94 a0 be 5c 15 3c be 81 8e 75 be
       -0.040444024 -0.31363297 -0.18367523 -0.23980142
000230 b0 05 89 be e0 69 28 be 09 bf 86 be 7e 90 3f be
       -0.26762152 -0.16446638 -0.26317623 -0.18707463
000240 e2 bb 47 be 9a 7e 16 be fe b4 1b 3e 95 93 6e bd
       -0.19505265 -0.14696732 0.15205762 -0.058246214
000250 be 18 95 3e 2a 7e 2a be 22 f9 71 be ae c3 60 3e
       0.2912044 -0.1664969 -0.23630193 0.21949646
000260 69 13 54 be 43 07 b2 3c 2d 6d 2b be 31 75 cd 3d
       -0.2071053 0.021731978 -0.16740866 0.10032118
000270 cd ed 0d be dc 3e 73 bc b1 12 62 be d3 78 91 3e
       -0.13860245 -0.01484653 -0.22077443 0.28412494
000280 f0 59 05 be c2 4e 15 3e 10 a3 3c be a0 47 96 bd
       -0.1302259 0.14580825 -0.18421578 -0.0733788
000290 fc c7 b1 bb a7 87 40 bd 91 9a 0a be a3 a5 b1 3d
       -0.0054254513 -0.04700437 -0.13535525 0.08674171
0002a0 58 ec 84 be a1 47 20 3d a9 d1 0d 3b 30 16 06 3e
       -0.25961566 0.03913081 0.002163986 0.13094401
0002b0 39 15 3b be 2e 42 1c bd 48 bd 4d be 17 8a 61 be
       -0.18269815 -0.03814905 -0.20091736 -0.22025333
0002c0 ee 73 a3 bc 59 c0 a0 3e 8c bf 47 bd fe fc 11 be
       -0.01995274 0.3139675 -0.048766658 -0.14256665
0002d0 ec 7b 89 3d 90 a6 b3 3c c0 54 2c bd cb c3 c0 bd
       0.06713089 0.02193001 -0.04207301 -0.094123445
0002e0 77 37 ea 3d 84 58 6a 3e b2 ec bc 3d 87 33 73 bd
       0.1143636 0.22885329 0.092248335 -0.059375312
0002f0 d6 b9 28 be 30 ef 8e bc 15 ec 54 be f1 1c 86 be
       -0.16477141 -0.017448038 -0.20793183 -0.26193956
000300 cf bb d0 bd c9 b7 5d bc 26 0b 26 be 81 8d 0c 3d
       -0.10192072 -0.013532587 -0.1621519 0.034314636
000310 fb f9 e4 3c 60 d9 41 be 46 f8 40 be ca 48 36 3d
       0.027951231 -0.18930578 -0.18844709 0.04450301
000320 14 a3 4a be 67 9d 07 be e4 e1 48 3d dc 0d 99 be
       -0.19788772 -0.13243638 0.04904355 -0.29893386
000330 f5 27 59 3d d0 d9 de 3d fe 4f 50 bd 4e fc 4f be
       0.05301662 0.10881388 -0.050857536 -0.2031109
000340 77 f7 52 3d d4 49 2b 3e c1 c8 a4 bd 93 77 93 bc
       0.051505532 0.16727382 -0.08046103 -0.018001353
000350 83 9a 78 bd 88 2d 82 bd c5 67 71 bc 02 e9 17 be
       -0.06069423 -0.06356341 -0.014734213 -0.14834979
000360 b9 8d 26 3e f9 f4 5c be 67 43 8f 3d ce 23 bb bc
       0.16265 -0.21577825 0.06995278 -0.022844221
000370 03 bd 59 be 9e 70 16 be 91 ae 3e bb 82 de c0 3e
       -0.21263508 -0.14691398 -0.002909575 0.3766976
000380 4b 3d 3c be ab ba 23 bd d6 a1 9f bd 5e 63 c7 3d
       -0.18382756 -0.039972942 -0.0779454 0.0973575
000390 b7 f0 b2 3d 5e 31 f8 3d 60 f7 c2 bd b1 37 19 be
       0.08737319 0.12118791 -0.09519839 -0.14962651
0003a0 19 91 63 3d 15 f0 be bd 78 72 8b bd 11 10 04 be
       0.055558298 -0.09323136 -0.068089426 -0.12896754
0003b0 1b 6f bc bd 1d 32 02 3d 78 c0 37 bd 06 f9 43 be
       -0.09200879 0.031786073 -0.044861287 -0.19137964
0003c0 26 d6 80 be 3e 59 26 be 95 6a d2 bd 01 ef 6e be
       -0.25163382 -0.1624498 -0.10274235 -0.2333336
0003d0 5e 91 3e be f6 77 8b bd e7 25 30 3e 94 9c 03 3e
       -0.1861014 -0.0680999 0.17201959 0.12852699
0003e0 b4 db 9d be 32 9f a3 bd ad 15 d9 3d 36 47 98 be
       -0.30831683 -0.079893485 0.105998375 -0.2974183
0003f0 70 b2 0f be 9f 58 be bc c2 ec f8 3c c9 c3 34 be
       -0.14032912 -0.023235617 0.030386332 -0.17652811

fc1.weight f4 [64, 128]
000000 d5 61 3c 3e e2 d8 a1 3d 83 98 3a bd 45 37 86 3e
       0.18396695 0.07902695 -0.045555603 0.26214042
000010 89 91 4b 3d 9d 54 12 3d 96 a1 91 be 04 b2 b8 ba
       0.04969934 0.035725225 -0.28443593 -0.0014091139
000020 33 ce 84 3d c6 ca 66 3d cf 83 90 bb 91 f0 3c 3e
       0.06484642 0.056345724 -0.004410244 0.18451144
000030 07 a2 c5 3c 09 ca e0 3d 45 0b 40 bd 0b 3d 43 3e
       0.024125112 0.10976035 -0.046885747 0.19066255
000040 fd 99 db 3c 02 6b 2a be 0b c5 6a be ff 31 96 3e
       0.026806826 -0.16642383 -0.22926728 0.2933502
000050 db 12 81 be bf fb 30 bd 03 9d 56 3e 2e 09 54 bd
       -0.25209698 -0.043208834 0.20958333 -0.051766567
000060 da 13 13 be a3 05 d0 bd 62 fc 90 3d 86 be e2 3d
       -0.14363042 -0.10157325 0.07079388 0.11071496
000070 44 7f 41 be 56 4d 4d be 41 bc f4 3d d3 71 87 bc
       -0.18896204 -0.20049033 0.11949969 -0.016533768
000080 95 97 71 3e c7 0e 59 3e 8a 63 a9 be 84 59 a5 bb
       0.2359298 0.21197043 -0.33083755 -0.0050460715
000090 42 ee a1 bd f1 8b e7 3d ac 46 fe bd f2 7e 7a 3e
       -0.07906772 0.113059886 -0.12415823 0.24462488
0000a0 6a 8a 16 be 9e bc 4b 3d d9 2a 2e be 9f 21 52 be
       -0.14701238 0.049740426 -0.17008533 -0.20520638
0000b0 c6 20 0b 3b 6e 8f 87 3e 55 3c 0a 3e 21 b8 de 3d
       0.0021229251 0.26476616 0.13499577 0.108749636
0000c0 66 b8 20 3e 56 e8 44 be 93 b8 4e bd 7a bd 7f 3d
       0.15695342 -0.19229254 -0.050468992 0.06243656
0000d0 3d a6 27 be 65 da 46 bd 94 97 49 3e 19 0d 26 bd
       -0.16372009 -0.04854812 0.19686729 -0.040539835
0000e0 07 5d 0f 3e 3a 04 67 3e e8 8e c2 3d 6a 9b 78 3c
       0.14000331 0.22560206 0.094999135 0.015173772
0000f0 ae 9f 60 3e 67 f8 0c be f4 f0 03 be 52 c4 6f 3d
       0.21935913 -0.13766633 -0.12884885 0.058536835
000100 c1 06 87 be 15 14 66 be a0 bd e5 bd 58 6b 82 bd
       -0.2637234 -0.22468598 -0.11217809 -0.063681304
000110 77 3b 5b bd 4f 9c cc 3d 30 90 68 3d da e5 2e be
       -0.053523507 0.09990751 0.056778133 -0.17079869
000120 c2 23 c9 bc eb 66 04 be e0 a6 8f bb cf 72 4c 3c
       -0.024553183 -0.12929885 -0.0043839067 0.012478544
000130 c0 b4 da bd 8e f8 ea 3d f2 ef 22 3e 5c f7 80 3e
       -0.106790066 0.11473189 0.15911844 0.2518872
000140 2a b2 07 3e 69 c5 6d 3e 8b 03 10 be 6c 74 4c be
       0.13251558 0.23219837 -0.14063852 -0.19966286
000150 54 c6 91 bd 62 e9 c5 bd 17 16 0e be 40 17 d3 3d
       -0.07117906 -0.09663655 -0.13875614 0.10307169
000160 3f 1c ba bd a8 26 bf bc 47 54 39 3e be 5b 87 bd
       -0.09087419 -0.023333862 0.18098556 -0.06609295
000170 0f 88 56 bd 14 e4 6a 3d 44 14 9e bc 7f f4 52 3e
       -0.05237585 0.05734642 -0.019296773 0.2060108
000180 f2 13 8c bd 1e cf b2 3b c4 b1 50 bd da a8 7a bd
       -0.06839742 0.005456819 -0.05095078 -0.061196186
000190 8f af 86 3d 31 d6 25 3e ce 32 5d be e6 e4 08 3c
       0.06576454 0.16194989 -0.21601412 0.008355355
0001a0 d5 f6 32 3e 6c d9 79 3d 77 d9 1d 3d 79 2b 82 bb
       0.17476971 0.060998365 0.03853747 -0.0039724675
0001b0 d3 55 4f 3e cc 28 2c be f1 3e 26 be 10 f3 92 be
       0.20247583 -0.16812438 -0.16234948 -0.28701067
0001c0 2c 93 37 3d 42 49 24 3e 9b ed 1b bd 5d f7 c2 bd
       0.04481809 0.1604357 -0.038068395 -0.09519837
0001d0 c6 34 23 bd 65 e9 05 bc 92 2b 31 3e 2f a0 03 be
       -0.03984525 -0.008173321 0.17301777 -0.12854074
0001e0 78 ca 48 bd a1 48 13 3c 13 55 b4 bd 6e 0f d4 3b
       -0.049021214 0.008989484 -0.08805289 0.006471566
0001f0 92 e1 62 3e 20 d8 05 bd 12 a7 83 3e ab 15 9f bd
       0.22156361 -0.032676816 0.25713402 -0.07767805
000200 a9 bf b9 3c 2b 8b 8f 3d 81 9f 7d 3d 44 43 98 bd
       0.022674398 0.07008966 0.061919693 -0.07434705
000210 ff 54 ea 3d 3c dd 64 be db 1e ee 3d 68 d0 fe 3c
       0.11441993 -0.22350019 0.11626979 0.031105235
000220 99 9d fa bc 70 72 83 3c 8b 04 c3 3d 71 11 a2 3d
       -0.030592727 0.016045779 0.09522351 0.07913483
000230 55 dd cf 3d 72 6b 56 3e 81 14 7b 3d c6 40 99 3d
       0.101496376 0.20939425 0.06129885 0.07483058
000240 d9 c0 35 3e 24 1b c1 3c f8 bc 16 be a9 02 bc 3c
       0.17749347 0.023572512 -0.14720523 0.022950487
000250 87 f7 21 3d f8 02 a3 bd 95 29 55 bd 8a b6 63 bd
       0.0395427 -0.079595506 -0.05204161 -0.055594005
000260 9f f5 fa bc 06 88 e6 bc fe 42 0b be b2 e6 87 be
       -0.0306347 -0.028141033 -0.13599774 -0.26543194
000270 70 3f 67 bd f9 77 01 3e 94 b3 b5 3d 79 7c ff 3c
       -0.056456983 0.12643422 0.088721424 0.031187283
000280 cc cc b6 3d b6 1c 58 3d 2b 35 96 3d 50 dd 5b 3e
       0.08925781 0.052761756 0.0733436 0.21471143
000290 82 4b 05 be 4d 3f 0d be fb 36 c9 bd 21 37 fd bd
       -0.13017085 -0.13793679 -0.0982494 -0.12364031
0002a0 e9 1e b4 bc e7 bc bd bc 6b 7a 4d be 13 72 0f 3e
       -0.021987395 -0.023161365 -0.2006623 0.1400836
0002b0 47 3d f9 3c 42 57 1e bd f6 01 5d bd 4c e0 6a bd
       0.030424727 -0.038657434 -0.05395695 -0.057342812
0002c0 db 8b 9e 3d 45 cc 48 be 6c 0b a7 3d dd a7 89 be
       0.07741519 -0.19609173 0.081564754 -0.26885882
0002d0 3d 95 da bd 07 ee 16 3d 7d b1 04 bd 04 ac 29 3e
       -0.10672996 0.036848094 -0.03239583 0.16569525
0002e0 a7 c8 e5 bd ba 92 90 bd d8 3c 0e be 81 7c 88 bc
       -0.11219912 -0.07059236 -0.13890398 -0.01666093
0002f0 59 0d 08 bc e1 07 4d 3c a1 c6 36 bd a5 e8 96 bc
       -0.008303964 0.0125140855 -0.04462302 -0.01842148
000300 3a 75 68 be 01 ef c8 bd 0f dd a8 bd 1d ab 08 3e
       -0.22700968 -0.098112114 -0.082452886 0.13346525
000310 bc e6 93 bb b7 28 a8 bc 12 dd 54 3d 00 05 75 3d
       -0.0045135897 -0.020527227 0.05196864 0.05981922
000320 e9 26 87 3d 03 e4 9f bc 97 9c 7b 3d 6d 23 bb 3d
       0.065992184 -0.019517904 0.061428633 0.09137616
000330 4d 8c b1 3d ce f5 fd bd c9 f7 42 3d 0c 2f 84 3c
       0.086693384 -0.12400399 0.047599588 0.016135715
000340 58 e8 cf bd 66 ee 22 bd 0f d1 a4 bd f9 54 bf 3d
       -0.10151738 -0.039778136 -0.08047687 0.09342379
000350 63 88 09 be c5 c3 f9 3d 3c 31 99 be 5e 87 85 3c
       -0.13430934 0.12195543 -0.29920375 0.0162999
000360 48 88 1f 3d 73 ba 71 3c 14 40 82 be 3a fc 0f 3e
       0.038948327 0.014753926 -0.25439513 0.1406106
000370 c5 96 82 3d a9 64 54 bd 74 9b 46 3b 94 17 07 3e
       0.06376413 -0.05185381 0.003030506 0.13192588
000380 fd 4a a6 bd 4e bd 34 bd fe da 6a 3c 63 9d 0e be
       -0.08119772 -0.044125848 0.014334438 -0.13927226
000390 8c 21 5b be 2e cf 56 3d 2e 45 f1 3c 37 a3 c3 3d
       -0.21399516 0.052443676 0.029451933 0.09552615
0003a0 55 8d 05 be 9f 61 89 bd fd 80 66 3d ff fe 40 3e
       -0.13042195 -0.06708073 0.056275357 0.18847273
0003b0 26 64 00 3e cf 65 c9 bd 19 03 bc 3c b5 b1 13 be
       0.12538204 -0.098338716 0.022950696 -0.14423259
0003c0 6e 78 4f bc c1 50 4b 3e a9 96 1b 3e d0 70 e1 3d
       -0.01266299 0.19855024 0.15194191 0.110078454
0003d0 68 d1 3b 3d 7f 11 6f 3d db ff 96 be 94 4a ba bc
       0.045854002 0.058366295 -0.29492077 -0.02274064
0003e0 87 78 c0 3b 52 fd 6c 3d b7 e4 ad 3c 84 48 71 3d
       0.005873743 0.057858773 0.021227224 0.058907047
0003f0 20 fd c0 bd af 4a 13 3e ac c3 98 bd e6 95 7b bd
       -0.0942328 0.14383958 -0.074591964 -0.06142225

fc1.bias f4 [64]
000000 56 c4 66 bd 03 a4 8c bd 43 61 bc bd 75 0a b9 3d
       -0.056339584 -0.0686722 -0.09198239 0.09035198
000010 ac 09 75 bd bb c9 d6 3d d3 45 bc 3d 2e 7c 79 3d
       -0.059823677 0.10487696 0.091930054 0.060909443
000020 2d fb e0 3c 05 c8 ad 3d a3 6d a6 3c 6c f9 af 3d
       0.02746352 0.08485416 0.02031595 0.08592495
000030 e1 39 24 3e cc b4 db 3c 67 e7 ea 3c 05 7c 50 3d
       0.16037704 0.02681961 0.028674794 0.050899524
000040 c2 dd 63 bc 59 d3 b8 3d fa 58 bf 3d de 1d 28 bd
       -0.013907852 0.09024686 0.09343143 -0.04104411
000050 9e d7 29 3d c0 c7 10 bd 81 14 f0 3d c7 5c 1d 3c
       0.041465394 -0.035346746 0.11722661 0.009604639
000060 f6 52 67 bd 5d fb d2 bd f1 88 51 3c df 0a c8 3d
       -0.056475602 -0.1030185 0.012788997 0.097676985
000070 7b c2 54 bc 92 88 32 bd 1f 47 4b 3d 39 70 b6 3d
       -0.012985821 -0.043587275 0.049628373 0.089081235
000080 b1 9c 8d 3a 40 17 c8 bd 44 5a 33 bd 3d cb a8 bd
       0.0010804144 -0.097700596 -0.043787256 -0.082418896
000090 17 95 3c 3b 03 59 31 3e d4 b4 86 bb e7 b6 38 bd
       0.0028775388 0.17319112 -0.004110912 -0.045096304
0000a0 4a 77 86 3d ef be 91 bc df 1f 9e 3d c5 8e 97 bd
       0.06565721 -0.01779124 0.07720923 -0.07400278
0000b0 97 e9 05 3d 7e 55 f3 3b bb c0 9f 3d cc ab f1 3c
       0.03269347 0.007425963 0.07800432 0.029500864
0000c0 3f b5 36 bd ac 52 d0 3d cb db 99 3d b8 2e b7 bc
       -0.044606443 0.101720184 0.07512625 -0.022361144
0000d0 77 76 54 bd 06 42 0c 3e 44 a0 1d bd d7 f9 a1 3d
       -0.05187079 0.13697061 -0.03848292 0.07908981
0000e0 01 94 f5 3c c3 97 32 3d cd af 9e bc 6d 84 c3 bc
       0.0299778 0.043601763 -0.019370938 -0.023866856
0000f0 9e c6 25 3c 90 4e 66 3d 50 be 95 3d 42 23 9b 3d
       0.010118155 0.056227267 0.0731169 0.07575084

bn1.weight f4 [64]
000000 eb a8 93 3f f1 fa 97 3f 3b ea 98 3f e0 28 80 3f
       1.1535925 1.1873456 1.1946481 1.0012474
000010 fd 53 91 3f 26 22 97 3f 74 e6 99 3f 7f 76 97 3f
       1.1353756 1.1807296 1.2023454 1.1833037
000020 05 67 70 3f e2 8d 9c 3f 69 9b 96 3f 4b e2 94 3f
       0.93907195 1.2230799 1.1766177 1.1631559
000030 7d 5f 82 3f b1 3e 8c 3f 04 72 74 3f 14 1b 82 3f
       1.0185391 1.0956632 0.95486474 1.0164514
000040 69 d0 8a 3f 4b 21 94 3f 2d 63 8d 3f a5 d2 8d 3f
       1.0844852 1.157266 1.1045891 1.1079909
000050 74 1e 81 3f 5b 34 9d 3f 16 9b 80 3f c0 fd 86 3f
       1.0087419 1.2281603 1.0047328 1.0546188
000060 8b 3c 95 3f dd 29 96 3f bb ec 84 3f 70 ee 92 3f
       1.1659101 1.1731526 1.0384744 1.1479015
000070 4e a0 96 3f 20 67 a5 3f 7b 89 98 3f 35 2c 95 3f
       1.1767671 1.2922096 1.1916956 1.1654116
000080 3f b5 a5 3f 86 43 a2 3f 53 dc 83 3f d4 51 84 3f
       1.2945937 1.2676857 1.0301613 1.0337472
000090 27 d6 9c 3f 7c 41 92 3f fe a9 93 3f 56 28 92 3f
       1.2252854 1.1426234 1.1536252 1.141856
0000a0 89 ba 9c 3f 37 d1 84 3f 6b c7 98 3f bf aa 82 3f
       1.2244426 1.0376347 1.1935858 1.0208358
0000b0 aa 3b 91 3f 78 f2 6d 3f 17 81 84 3f 5b 1a 90 3f
       1.1346333 0.929481 1.0351895 1.1258043
0000c0 f5 5f 7d 3f 08 c9 88 3f 61 10 a2 3f 19 b4 96 3f
       0.98974544 1.068635 1.2661248 1.1773711
0000d0 e2 12 80 3f 46 1a 93 3f f7 fd 89 3f 78 5f 99 3f
       1.0005763 1.1492393 1.0780629 1.198226
0000e0 96 69 94 3f 2c 08 87 3f 25 16 8d 3f f6 68 80 3f
       1.1594722 1.0549369 1.1022383 1.0032032
0000f0 c1 9f 81 3f d6 50 b3 3f 1f 9c 85 3f 82 49 a2 3f
       1.0126878 1.4009044 1.0438269 1.2678683

bn1.bias f4 [64]
000000 a2 50 9d 3e f8 e7 43 3e 91 10 68 3e 2d ef 99 3e
       0.3072558 0.19131458 0.2266257 0.3006529
000010 51 7b 9d bc 96 d5 9c 3c 1f f8 e8 3e 6d d2 5d 3e
       -0.01922384 0.019144814 0.455018 0.21662302
000020 90 fe 1e bd 97 d7 bb 3d 87 aa 21 be a7 4a b3 3d
       -0.03881699 0.0917198 -0.15787707 0.08754473
000030 d3 0c 38 3e b3 7f d9 3e 23 92 92 be a6 56 39 be
       0.17973642 0.4248024 -0.28627118 -0.1809946
000040 86 72 2a bc e6 58 5c 3e c1 21 1c 3c d2 c4 39 bd
       -0.010403281 0.21518287 0.009529532 -0.045353718
000050 32 d8 90 3e 20 ea d9 3d 8f c6 53 be b2 6b b1 bd
       0.28289944 0.10640359 -0.20681213 -0.086631194
000060 65 72 f5 bd b4 49 36 bd 28 75 26 3e 8f cf 92 bd
       -0.1198471 -0.044503883 0.16255629 -0.07168495
000070 d4 15 4f 39 f3 b9 84 3d 26 c4 ee bd b8 58 db bd
       0.0001974919 0.064807795 -0.11658506 -0.10710281
000080 90 98 ce bd 83 3a af 3e e4 73 65 3e ef ad a7 bd
       -0.10087693 0.34224328 0.2240749 -0.08187472
000090 92 9b 9d 3e 84 f1 3c 3e c2 2e 02 3d a8 8f c3 3e
       0.30782753 0.18451506 0.031782873 0.3819554
0000a0 f8 fd 61 3e 1e 68 9d 3e 6d 01 b2 bc 2e 7a 4d 3e
       0.22069538 0.30743498 -0.021729195 0.20066139
0000b0 c9 d9 cd 3d e0 b0 65 3e bf bc 20 3e 5f 0e b3 3e
       0.10051305 0.22430754 0.15697001 0.34971902
0000c0 90 63 5f 3e b9 59 a5 3e a5 7b 19 3e fc 95 88 3e
       0.21815324 0.32295015 0.14988573 0.2667693
0000d0 bf cd 0a be f8 62 2a 3e b0 9b 6e 3e ad 07 7d 3e
       -0.13555048 0.16639316 0.23301578 0.2470996
0000e0 97 4a e2 3e a5 a9 a3 3e 56 fe 41 3e 1c 68 aa 3e
       0.44197533 0.31965366 0.18944678 0.33282554
0000f0 d5 e9 42 3e fa 18 6c 3e e9 b7 63 be 80 b0 0d 3e
       0.19034512 0.23056403 -0.22238125 0.1383686

bn1.running_mean f4 [64]
000000 30 aa 29 be 1e 13 35 3e da af b9 bd 32 71 41 3e
       -0.16568828 0.17683074 -0.09066744 0.18890837
000010 d7 5f 13 be bc 0d da 3e c7 9f 7b 3e 52 34 95 3d
       -0.14392029 0.42588603 0.24572669 0.0728537
000020 7c 37 0f bd 68 3a 71 3d 63 74 03 bd 4d e1 2e 3e
       -0.034965023 0.05889359 -0.032093417 0.17078133
000030 a9 e1 35 3e df c4 89 3e a6 ab 16 3e 10 9e aa bd
       0.17761864 0.26908013 0.14713916 -0.08330929
000040 31 68 8d bd af 76 e6 3d eb 59 82 3e 4e 83 d2 3c
       -0.069046386 0.11253106 0.25459227 0.025697377
000050 26 fd 0e 3e 67 ca d1 3c fe df 95 3e ba 1f b8 3d
       0.13963756 0.025609208 0.29272455 0.08990426
000060 42 c9 56 bd 7e fa 6f be cf 93 e2 bd 0b ca b8 3d
       -0.05243803 -0.23435399 -0.110633485 0.09022912
000070 be d7 26 be 3d 07 06 3d 83 a5 ce bd 0f 9f ed 3d
       -0.16293237 0.032721747 -0.100901626 0.11602604
000080 93 a8 e4 bd 3a 58 31 be 64 6a 43 bd e4 2d ac be
       -0.111649655 -0.17318812 -0.047708884 -0.33628762
000090 68 e1 b2 bd 08 e8 54 3e 23 4a a8 bd e9 f2 81 bb
       -0.08734399 0.20791638 -0.082172655 -0.0039657247
0000a0 db f8 09 bd fa 96 18 be a3 a8 00 be 91 44 11 be
       -0.033684593 -0.14901343 -0.1256433 -0.14186312
0000b0 ef 94 39 3d 52 cd 98 3e cf 45 46 be 3c 9f 11 3e
       0.04530805 0.29844147 -0.19362567 0.142209
0000c0 03 fc 19 3d 03 d9 ed 3d 92 ba 9d 3d 23 67 25 3e
       0.037593853 0.11613657 0.07701601 0.16152625
0000d0 2b 3c ab bc f9 cb c0 3d e8 ba 3e 3e 0e 66 c7 3e
       -0.020902714 0.09413905 0.18625987 0.3894505
0000e0 cd 80 e1 3d b7 db b0 3e ba 11 3b 3e 1d 58 0b 3e
       0.11010895 0.3454263 0.18268481 0.13607831
0000f0 8d 40 20 3e 73 3d 75 3e e1 76 aa 3e f4 e9 83 3e
       0.15649624 0.23949222 0.33293822 0.2576443

bn1.running_var f4 [64]
000000 26 3b 9b 3f 9f 45 1a 3f 5f 25 3f 3f b8 94 93 3f
       1.2127426 0.60262483 0.746664 1.152976
000010 7f 2d 87 3f eb 88 1c 3f 97 f8 a6 3f 5c 21 44 3f
       1.0560759 0.6114642 1.3044614 0.766134
000020 f2 a9 cc 3f 6e 44 e3 3f 80 86 6a 3f 32 a3 53 3f
       1.5989363 1.7755258 0.9161148 0.8267089
000030 13 8a 87 3f cd 7d 80 3f 34 89 89 3f c2 d8 fd 3e
       1.0589012 1.0038391 1.0744996 0.49579436
000040 cd 14 0c 3f d3 df e9 3e 1f 73 9d 3f 75 b5 40 3f
       0.5471924 0.45678577 1.2300757 0.7527688
000050 c7 30 47 3f dc da 83 3f d5 5b 35 3f 9d 65 f6 3e
       0.77808803 1.0301166 0.7084325 0.481244
000060 88 2a 42 3f 05 be 14 3f 1c 77 3b 3f 9a 65 6c 3f
       0.7584615 0.58102447 0.7322862 0.9234253
000070 60 80 45 3f ee 75 a2 3f 2d c6 88 3f cb 33 9b 3f
       0.7714901 1.2692239 1.0685478 1.2125181
000080 49 63 4d 3f b0 c8 46 3f d1 8e f9 3e db c5 26 3f
       0.8022962 0.77649975 0.48741773 0.65145653
000090 2e fd 5d 3f fa f1 2a 3f 51 02 50 3f b3 2a 2f 3f
       0.86714447 0.66775477 0.81253535 0.6842453
0000a0 13 fa 15 3f e9 1a c6 3f bd 92 69 3f 1c 33 97 3f
       0.5858471 1.5476962 0.9123953 1.1812472
0000b0 29 ee 86 3f 2f 0b 65 3f 73 ad 90 3f 18 86 bd 3f
       1.0541431 0.8947019 1.1302933 1.4806547
0000c0 74 fb 8a 3f 15 9c ae 3f 64 05 2f 3f 33 7e 2f 3f
       1.0857987 1.3641382 0.683676 0.6855194
0000d0 64 b7 57 3f bb 87 43 3f 08 c5 91 3f 13 3f 46 3f
       0.84264207 0.76378983 1.1388254 0.77439994
0000e0 b3 fd e2 3f e5 eb c3 3f cb e6 ab 3f 35 21 9e 3f
       1.7733673 1.5306364 1.3429807 1.2353884
0000f0 5d 29 63 3f 8b 09 9e 3f 18 fe 1c 3f 04 ca 6a 3f
       0.8873499 1.2346662 0.61325216 0.917145
