Models/model_preproc_big.pt (torch, 317375 bytes, 12 tensors)

lstm.weight_ih_l0 f4 [512, 6]
00000000: a017 f33e 0087 d9be d2b5 cabe af6e 29bf
00000010: a7ba b53e 3bc4 183f c1fc c2be aff8 8c3e
00000020: e71d 2bbf 0aaa 913e 9030 1fbd 39ca f43e
00000030: d26f 473f b21c ebbe 46b0 f8bb 9a32 95be
00000040: 01a8 423f 56bc 653e f357 683e 7178 1e3f
00000050: 1568 473f 8f3b 87bf 66b5 2f3f fa0d a93e
00000060: 93ca 52be d7b1 bd3e e386 cfbe b15c fbbd
00000070: d071 a0bd 5853 ddbe 360c 1c3f 59f7 dc3d
00000080: 3053 c7bd 00e4 cbbe 2470 893e 3009 da3d
00000090: 8ef9 67be 384d 14bf 8469 263e cccc 533f
000000a0: 773a 70be 1071 283f 858e bd3d 23b1 a939
000000b0: 9e80 dc3e 747a ba3d e939 b0bd ecad 45be
000000c0: 3cec 64be 8611 5e3e ee49 aa3e 53c1 84be
000000d0: 55cd a0be 7906 853e ff7b 65be 7b17 673e
000000e0: 3bb9 c13e c942 833f 479d 013d 75fe 98be
000000f0: 2cac 0c3d 9857 f2be cb18 cb3e 157d 20bf
00000100: 6ab9 f23e 89be 85bd 1bd4 f5be c734 723f
00000110: d656 c43e 239e 673f 21c1 793f 5c0a 9b3f
00000120: e275 e23e 5bfc fabe 142c e3be 11d1 06bf
00000130: bf2a 0fbe a1e8 fbbe f9c0 f9bc 7e13 e0be
00000140: 87a0 823e 2832 aabe 715d 293e e5a0 ce3e
00000150: d2be f9bd 7f01 53bf 3a27 a2bd a88d dfbe
00000160: 5cf8 1b3f ae46 c13c 2455 9f3e daa1 19bf
00000170: a5ca f5be 6028 073d 13e2 8fbf 6707 1dbf
00000180: 2d64 2cbf e595 183f c3b3 853d 7d42 1c3f
00000190: eb18 3a3f fc6d 743f a36a b2be 25bf 3b3f
000001a0: 47e8 04bf 109a 6f3e 7d27 253e 3d76 95bc
000001b0: 1554 78bd 7d80 213f 44c7 123f 9774 203d
000001c0: e7be 0abe e0b6 b03e 637d fc3d 7149 c3bd
000001d0: c284 023f d5e3 e8be d378 d23e 3eb6 e7be
000001e0: 5cb2 913f a809 493e c18f 4fbd 9354 16bf
000001f0: 21d7 383e 971c 803e 02f1 113e d2df cf3d
00000200: 6147 5ebe 0187 2c3e b039 6c3e fb0c a3be
00000210: 6663 153d 336c 05bf 8c4b 1b3e 5467 79be
00000220: 3035 4a3e 82d1 e5bc 3919 c8be 60b5 ec3d
00000230: ec3a 18be c18c 013e 1b0c 25bf dfd8 0c3f
00000240: 521d 823d 2b41 24bf 2857 8abd 701f 9dbe
00000250: 8161 003c a23e a33d 2d3f 0d3e 042a a53e
00000260: ba81 413e 7168 15be 15c1 893d 864c 5dbe
00000270: 9568 55be c8e7 6e3f 3471 a4be af2a 4b3f
00000280: a2bd 4fbf f598 6fbf 7828 23bf 0c52 5c3e
00000290: acce a5be 2935 983d a3dc 85be f9a9 cd3e
000002a0: e596 6a3c 0778 633e 36e9 533f 7aa4 943e
000002b0: 30e8 b1bd 20b7 1c3f f437 96be 3d49 4ebf
000002c0: dfec 0c3f 5279 943d da5f b93e 2469 cb3d
000002d0: e716 373e c92b 833e 4296 22bf a4c2 bb3f
000002e0: 62c4 8f3e 1bac ae3e 67f1 16bd 9681 d93d
000002f0: c064 da3e 6759 cfbc 90e6 9ebb 0c37 c63d
00000300: ae8b cb3d ffd6 863e ef7f 533e ce2e 4d3e
00000310: 0569 18bf 9722 a83e b2d4 3dbe fbc4 9ebc
00000320: 7ff4 b1be a715 1fbe 797b 6f3e 1309 7cbf
00000330: ae03 ffbe 959b b83e 1476 b73f 3e8f c4be
00000340: c0ac 17bd a8ce a6be 0d7e 4a3f 34b8 24be
00000350: 0e16 63be a5a4 d5bd 56bf 81be ca3e 3ebe
00000360: 1ab6 c23e b88e d1bd 1db9 523d 87bb 903e
00000370: 3885 653e 2da7 c23d 2a2a 6fbe 55c2 25bf
00000380: 59de 48be ac0d 5cbe 61bc 2d3f 2d0c 59bf
00000390: fa04 df3d 8cf3 e6bc 61b9 14bf 4699 e0bc
000003a0: 5385 173d 5fe5 68bf c23b 50be ce98 8cbb
000003b0: d899 f5be 9aac 5b3e cb01 933e f9ac 5a3f
000003c0: 768a c8be aeda 8e3e 82cf bc3e c6ae 953e
000003d0: 663e eb3c 1108 07bf 7c77 3ebf 1faf 1cbf
000003e0: 8ac5 f8be 0422 78be 4be9 10bf 0a87 e73e
000003f0: ceb8 aa3d bb6d 5e3b 1832 983e f28f 073e
0.47478962 -0.4248581 -0.39591843 -0.66184515 0.35493967 0.59674424 -0.3808346 0.2753348
-0.668425 0.28450042 -0.038864672 0.47810534 0.77905 -0.4592033 -0.007589373 -0.29140168
0.76037604 0.22435126 0.226898 0.6190253 0.7789319 -1.0565051 0.6863617 0.33018476
-0.20585088 0.37049744 -0.40532598 -0.12273539 -0.07834208 -0.4322765 0.6095613 0.10789365
-0.09732664 -0.39822388 0.2684337 0.106462836 -0.22653791 -0.57930326 0.16251189 0.8273437
-0.23459803 0.6579752 0.09255699 0.0003236617 0.43066877 0.09105387 -0.086047955 -0.19304627
-0.22355741 0.21686372 0.3325953 -0.25928745 -0.31406656 0.259815 -0.22410582 0.22567551
0.37836632 1.0254756 0.031644132 -0.29881635 0.034343883 -0.47332454 0.39667353 -0.6269086
0.47407085 -0.06530482 -0.48013386 0.9461178 0.383475 0.9047567 0.97560316 1.2112536
0.44230562 -0.49020657 -0.44369566 -0.5266276 -0.1398115 -0.4920092 -0.030487524 -0.4376487
0.25513098 -0.3324139 0.16539551 0.40357128 -0.12194599 -0.8242416 -0.07917638 -0.43662763
0.6092584 0.023593273 0.31119645 -0.6001259 -0.48006168 0.03299749 -1.1240867 -0.6133942
-0.67340356 0.5960372 0.065284275 0.61038953 0.7269427 0.9548032 -0.34846982 0.7333854
-0.5191693 0.23398614 0.16128345 -0.018244857 -0.060627062 0.6308668 0.57335305 0.03917369
-0.13549386 0.34514523 0.12328603 -0.09535492 0.5098382 -0.45486322 0.41107807 -0.45256227
1.1382556 0.1963259 -0.050674204 -0.587228 0.18050815 0.25021812 0.14252093 0.10150112
-0.21706916 0.16848375 0.23068881 -0.3184584 0.036471747 -0.52118224 0.15165538 -0.24355823
0.19746852 -0.028054003 -0.39081743 0.11558032 -0.14866227 0.1265135 -0.64471596 0.5501842
0.06353249 -0.6416194 -0.06754905 -0.30688047 0.007835747 0.07970931 0.13793631 0.32258618
0.18897143 -0.14590622 0.067262806 -0.21611223 -0.20840676 0.9332242 -0.32117617 0.79362005
-0.8114873 -0.9359277 -0.63733625 0.21515673 -0.3238424 0.074320145 -0.26144895 0.4016874
0.014318203 0.22213756 0.82777727 0.29031736 -0.086868644 0.61216927 -0.29339564 -0.805805
0.55048937 0.072497025 0.3620594 0.09932163 0.1787983 0.25619343 -0.63510525 1.4668775
0.28079516 0.3411568 -0.036851313 0.1062042 0.4265499 -0.025311185 -0.0048492625 0.09678468
0.09938751 0.26335904 0.20654272 0.20037386 -0.5953525 0.3283889 -0.18538168 -0.019381037
-0.34756848 -0.15535603 0.23386945 -0.98451346 -0.49807495 0.360562 1.433291 -0.38390535
-0.03702998 -0.3257954 0.7909859 -0.16085893 -0.22176382 -0.10431794 -0.2534129 -0.1857864
0.38029557 -0.102322996 0.05144607 0.28268072 0.224141 0.095045425 -0.23355928 -0.6474965
-0.19616069 -0.2148959 0.6786557 -0.84784204 0.10889621 -0.028192304 -0.58095366 -0.027416836
0.036992382 -0.9097499 -0.20335296 -0.0042906767 -0.47968936 0.21452561 0.28712305 0.85420185
-0.39168137 0.27901214 0.36877066 0.29234904 0.028716277 -0.52746683 -0.7440107 -0.61204714
-0.4858821 -0.24231726 -0.56605977 0.45220214 0.0833603 0.0033939916 0.29725718 0.13238505

lstm.weight_hh_l0 f4 [512, 128]
00000000: d89a 22be 4871 40bf b16b e7be dc0d 713f
00000010: 36e5 f23e 1c9f ba3e c99c 263f c883 873e
00000020: 91dc f33e f59d 4e3d e5a2 6abe 06e9 f0be
00000030: 9e0f 6fbd ee77 163f 673d 5b3e 9864 ec3e
00000040: d0eb 9cbe d956 b6be 8234 9bbe 2577 9abe
00000050: aeca 76be c873 653e c915 17bf 5418 a23d
00000060: de72 41bf 15da c9be 7176 0bbf 8b1e a7bd
00000070: 14e2 9a3f f70c f43e 1ced 1a3e 0ffd 9bbe
00000080: 7163 ea3e 61ac 94be b09b 0bbe d9ef 183f
00000090: 2cfb 3d3f f415 163f 6319 a93d 2fda 103f
000000a0: 475c 153f e97c 2a3f 939f f43d 577f d4bb
000000b0: caf7 81be 10cd e4be 71f5 543f 5fbc 00bf
000000c0: 05e2 83be af78 313f f510 7c3d 7a68 8b3f
000000d0: e4ae 243f 964e 953e 53e6 acbe fef6 aabe
000000e0: 1d84 05bf cdb6 2d3e 9050 85be 4322 c53d
000000f0: a0a2 47be 085b 6f3e 7265 863d 876c 153e
00000100: b932 283e 12b1 5dbe cf4d 0ebe 882f 2bbe
00000110: ddf4 ccbd dd5b 1a3f f1bb 7dbf 1197 cf3e
00000120: 143a a73d 58d1 033f d0df bc3b e44f 0f3d
00000130: 358d e73e d43d c43e 9946 af3e 0f5a 353e
00000140: 410b 7f3e e4b0 29bf f317 62be 49e6 9c3e
00000150: 609d ef3e f70a 2dbe ad35 4fbf 670d b03e
00000160: 2537 a9bd 3418 973e 43c1 4c3f 5249 f43d
00000170: cb61 0bbe 4203 283e 405e 49be 82c2 5e3f
00000180: 1ebc ffbe 7149 c7be c503 6e3e 4ce3 31bd
00000190: 6b44 e93e 533b 463e a945 b03e 6130 edbe
000001a0: 648b 31bf edc2 6cbd b818 97bc 7af9 43bd
000001b0: ec5f 5ebd e856 04bf bb54 d53e 4547 f0bd
000001c0: 3d64 3abe 5911 d5bd 0a9a db3e 4450 423e
000001d0: b5e8 0cbf 9b2e bb3e 92f6 1cbc 2732 7c3e
000001e0: 1377 a1bd 6835 91bf 3598 88bf 3080 34be
000001f0: 4d36 d2be 1f9a 13bf 42f9 dabe 1d40 f3be
00000200: fdf6 91be 3f13 c53e 74e2 363e e740 3dbe
00000210: 56fc c33e dc12 d43e b169 9dbe b7a6 843e
00000220: aad2 60bc f5e3 793e 2f1e b2bd 921d b6be
00000230: 8acd 1e3e b06d da3e 73d4 d2bd 57fa c5be
00000240: 92aa 723e d6cb 1d3e 8378 4a3e 1945 b23d
00000250: 0e77 3b3f 92d8 b33e 7610 b83e 4963 a73e
00000260: 9a8c 11be 118b 5b3c 01b4 983e 0cd8 bd3e
00000270: 1ab4 2d3e 0b9e 193e 7b41 283e ee35 4ebe
00000280: 2e9d 3e3e 8876 503f f66e 973e 7d0b 553f
00000290: abe7 153f 00da b03e 8133 413e 2f8d babd
000002a0: 29bb 5d3f dab6 babe c7cb 91be 7743 3fbd
000002b0: fc7f 993e 358e 7fbe 642e 16be da4e 823e
000002c0: f7e3 833e 5e18 29bf 8b4c 003f 3c44 48bc
000002d0: ccec 46be b4b1 a6be a904 5dbe ea4f 093e
000002e0: 0115 c2bd 0914 83be bef2 14bf 671b 003f
000002f0: fa3d 913d ad5c abbd db77 003e 4ba1 703e
00000300: ce37 223f 54f0 89be 77d8 6a3d 009d e83d
00000310: e596 953d 63d9 a43d ae61 f53e 7b18 f9bd
00000320: 3591 193d 464d 993d 3383 9e3d 8cc7 21be
00000330: bd93 e93d 15f4 9fbd 9eac adbe 110a fdbd
00000340: 7c7e adbe 7ea2 37be accb 92be d516 16be
00000350: f0c8 3abe 8ba0 813e 90a9 04bf ed2a 40be
00000360: d823 5dbf c6d4 95bd e36f b1be f088 b33d
00000370: 20ad 2cbd c1b2 22be 7bba e9be 46c5 ca3d
00000380: b408 9a3e 89e9 713e 4081 0dbf ceee 86be
00000390: 4542 0a3f cb19 a4bc 4c1c 203f 8b34 84be
000003a0: 03b6 0d3f 5336 c63d 1bf5 36bf 0ec2 6fbb
000003b0: 4b99 ebbe dc86 953e 3f2e 1f3f 00d0 e8be
000003c0: bb23 6d3e 2284 d0bc 7798 e6bd 1113 213e
000003d0: f2b9 ee3e 4e8a 97be 251f 09be d567 11be
000003e0: ebe7 003e d7e1 c6be 0e07 86bc 3f16 113e
000003f0: 129c 3bbf 6bf4 903e 64ad 073f 6e62 7fbe
-0.1587938 -0.75172853 -0.4519935 0.9416177 0.474405 0.36449516 0.65082985 0.2646773
0.47629216 0.05044361 -0.22913702 -0.47052783 -0.058364503 0.5877675 0.21410142 0.46170497
-0.3064866 -0.35613135 -0.30313498 -0.30169025 -0.24100754 0.22407448 -0.59017617 0.079147965
-0.755659 -0.39424196 -0.544776 -0.081601225 1.2100244 0.4766614 0.15129513 -0.30466506
0.45778993 -0.29037765 -0.13633609 0.5974098 0.7421138 0.5862725 0.08256795 0.5658292
0.5834393 0.6659685 0.11944499 -0.0064849067 -0.2538436 -0.446877 0.83187014 -0.5028743
-0.25758377 0.69324774 0.06153961 1.0891259 0.6432936 0.2916152 -0.33769473 -0.33391565
-0.52154714 0.16964264 -0.26038027 0.096256755 -0.1949563 0.2337457 0.06562318 0.14592181
0.16425599 -0.21649578 -0.13896869 -0.1671735 -0.100076415 0.6029642 -0.991149 0.40544942
0.081653744 0.5149131 0.005763985 0.0349883 0.4522492 0.3832842 0.3423355 0.17710136
0.24906637 -0.6628554 -0.22079448 0.30644444 0.46799755 -0.16898714 -0.8094128 0.34385225
-0.08262471 0.29510653 0.79982394 0.11928047 -0.13611524 0.16407493 -0.1966486 0.87015545
-0.4994821 -0.3892322 0.23243625 -0.043429658 0.4556001 0.19358568 0.34428146 -0.46325973
-0.6935332 -0.057803083 -0.018444404 -0.04784534 -0.054290697 -0.5169511 0.41666207 -0.117323436
-0.182023 -0.104036994 0.4289096 0.18975931 -0.5504258 0.36558995 -0.009580271 0.24628507
-0.0788404 -1.1344423 -1.067145 -0.17627025 -0.41057053 -0.57657045 -0.42768294 -0.47509852
-0.2850875 0.38491246 0.17859823 -0.1848179 0.38278455 0.4142064 -0.307447 0.25908443
-0.013722101 0.24403365 -0.08697163 -0.35569435 0.15508094 0.4266181 -0.10294428 -0.38667557
0.2369788 0.15409788 0.19772534 0.087045856 0.7322854 0.35126168 0.3595006 0.32692936
-0.14213791 0.013399855 0.29824832 0.37078893 0.16963235 0.15001695 0.16431229 -0.2013776
0.18614647 0.81430864 0.29576844 0.83220655 0.5855662 0.3454132 0.18867303 -0.0910896
0.8661371 -0.3646763 -0.28475782 -0.0466952 0.29980457 -0.24956591 -0.14666134 0.25450784
0.2575986 -0.66052806 0.50116795 -0.0122233 -0.19426268 -0.32557452 -0.21583809 0.13409391
-0.094766624 -0.25601223 -0.58182895 0.5004181 0.07091899 -0.08367286 0.12545721 0.23499028
0.633664 -0.26941168 0.057335343 0.113580704 0.073041715 0.08049276 0.47926086 -0.121628724
0.037491996 0.07485442 0.07739868 -0.15798777 0.11405132 -0.07810227 -0.3392076 -0.12355436
-0.33885562 -0.1793308 -0.28671014 -0.14657147 -0.18240714 0.25317797 -0.5182123 -0.18766375
-0.8638282 -0.07315974 -0.34655675 0.08766353 -0.042157292 -0.15888502 -0.45650086 0.09900908
0.30084765 0.23624243 -0.55275345 -0.2635407 0.5400737 -0.02003183 0.6254318 -0.25821337
0.5535585 0.0967833 -0.7146775 -0.0036584171 -0.4601539 0.29204452 0.6217994 -0.4547119
0.23158161 -0.02545363 -0.11259549 0.1572993 0.4662624 -0.29597706 -0.13390787 -0.14199765
0.1258847 -0.38844177 -0.016360786 0.14168642 -0.7328502 0.28311476 0.5299895 -0.24939892

lstm.bias_ih_l0 f4 [512]
00000000: 1020 4abf 01a5 0fbf 198e 92be ec42 bdbe
00000010: d0e9 5ebe e442 3fbf 1106 30bf 088d ebbe
00000020: a71d 6cbf 5b2c 10bf f2fe 8bbe a861 2abf
00000030: 563d 7dbf 3322 90be d5a5 48be fbd0 19be
00000040: de3d d8be be70 2dbf 5cf0 eabe 2529 b0be
00000050: ffd4 983d 58c1 f7be df85 1abf f17a afbe
00000060: c130 e0be d196 42be 2164 8abe b787 f0be
00000070: 0249 c13d ed6e 26bf 5478 27bf a5f4 44bf
00000080: dc3f 1cbf 60d1 8dbe 76b9 b0bd e357 54be
00000090: 2d34 24bf 80de f1be 2b4a 7ebe 7a80 12bf
000000a0: c7ef dcbe f8f9 acbe 43d4 07bf 20cb 16bf
000000b0: b88d b9be d291 18bf 0c7c 0d3b a055 16bf
000000c0: f664 80bf 642a 0fbf 4b80 4ebf e042 183e
000000d0: 3f71 a5be 5a17 8cbe e306 50bf c780 3abe
000000e0: bbfe 25be 8bc7 0fbf 72c2 67be 9ea2 05bf
000000f0: 7a1e 18bf 67cc 16bf 139e d6be 413d 1abf
00000100: e5e6 8c3e a2a6 3cbf 6d04 17bf ccfd 45bf
00000110: f818 4fbf bfeb 3abf ee79 40bf 6658 f1be
00000120: 97a2 16bf e06a a0be 2ffd 77bf 674c 42bf
00000130: e99f bebe bf5b eebe f116 20bf 180f 29bf
00000140: f9b5 fdbe 8311 e4be 05dc 14bf 09b1 32bf
00000150: 29fd 08bf 4ba7 17bf a63b 09bf 1206 e9be
00000160: 4d07 cabe 23c8 9ebe 4547 1ebe a0b3 cebe
00000170: 6543 73bf 21ec 1abf ad19 42bf 21b8 03bf
00000180: c2b9 50be 43b3 20bf 6a69 08bf 8c95 e5be
00000190: e547 6cbf f111 e8be f29e c5be d1c8 04bf
000001a0: d995 acbe 01d8 75bf 7190 17bf 26d2 e2be
000001b0: a234 60bf a15d 25bf fb41 07be dfa7 30be
000001c0: 65ba 1fbf 935d 99be ecc4 60be 0e1c 99be
000001d0: f5fd dbbe 3621 96bf bab9 46bf 8c6d 6abe
000001e0: f406 10bf 469b a2bd d7e7 b33d f221 23bf
000001f0: 2ac9 8ebe 6dfb 52be ebac 0cbf 200d fcbe
00000200: 135c d93e caa2 05bf 53a6 b03e 8265 a03d
00000210: e426 f33d 587c 5cbd 3546 2abf bceb 15be
00000220: efd1 c63a 3c20 8d3e e81f 453f 2b03 333f
00000230: b340 00bf 6f7c 04be 26ed 633e 2bc6 50bd
00000240: 6b11 b2be 3b17 4ebf 1521 48bf 90a9 4dbd
00000250: 65de b53d 39aa c6be 1774 0ebf d17c ecbd
00000260: c2f2 ab3d 770a c5be de6d fa3e 8d9e 393f
00000270: 69cb d83e 3613 29bf 50e7 703d 52cf c9be
00000280: 1f4e 1bbf 9027 66be 37aa ffbe 949d cabe
00000290: d757 23bf f107 51be b628 653d 0c28 af3e
000002a0: dd72 eebe e41b d1be 7829 b5be f42f 9c3e
000002b0: 346b e93c 2143 20be bebd cb3e 789c 3e3c
000002c0: aabb eabe cc5f e43e 5726 a2bc 0422 0d3d
000002d0: a3d6 9e3d d320 4dbd f83c 353e c39b b1bd
000002e0: 9bda 283f 296f 0bbf 19ab a2bc 0b07 763e
000002f0: 480a afbe ba30 fbbe 707a 31bf 7faf 05bf
00000300: 4102 293f 42db 40bf 16ac 283e 574f 8ebe
00000310: ed0f f6be e82f 44bf b23d 18be 4176 f5bd
00000320: 6014 fc3c 96e2 1e3e 645a f0be 8792 27bf
00000330: 2be8 0cbe e3d9 bb3e f21e 14bf 4c18 efbd
00000340: fa56 c8be 36a2 fabe 9075 07be 7f30 eabe
00000350: 208b 91be 7a93 cbbe 0aa0 c8bd f251 47be
00000360: b0e1 28be 7593 4fbe e6b6 f63d a2c0 25bf
00000370: 5948 f33e 05ae 02bf 4d6b 7abe 28a8 043f
00000380: e094 d0be 64af 26bf 3c36 5abc e87b 75be
00000390: 987f 2abe f7e0 57be 828c 4fbe 6595 683d
000003a0: 9f21 7cbb ffb7 c4be b211 303e e6f4 b4be
000003b0: 7e12 823d e7d4 7dbe 2e3a 863e e6c3 a2bd
000003c0: aafa dfbe fd36 e33d a057 083e 4591 f0be
000003d0: 3125 b5bd 74fb 013e 79f3 c6be 9e27 c4bd
000003e0: b50f 33be a1bb 33bd 80bd aabe a6ab ebbe
000003f0: c4df a5be 7fdf 13bf 3d69 06bf 8dc3 9e3e
-0.78955173 -0.5611115 -0.28624037 -0.3696512 -0.2176888 -0.7471144 -0.68759257 -0.46006036
-0.92232746 -0.5631768 -0.27342945 -0.6655526 -0.98921716 -0.28151092 -0.1959451 -0.15021126
-0.422347 -0.67750156 -0.45886505 -0.3440639 0.07462501 -0.48389697 -0.6036052 -0.34273484
-0.43787196 -0.19002844 -0.27029517 -0.46978542 0.09437753 -0.6501301 -0.6541798 -0.769358
-0.6103494 -0.27698803 -0.08629124 -0.20736651 -0.64142114 -0.47240067 -0.2483298 -0.5722729
-0.43151686 -0.3378446 -0.5305826 -0.58903694 -0.36240935 -0.59597504 0.002158883 -0.58724403
-1.0030811 -0.5592406 -0.8066451 0.14869261 -0.32312962 -0.27361566 -0.8126051 -0.18213187
-0.16210453 -0.56163853 -0.22632769 -0.5220126 -0.59421504 -0.58905643 -0.41917476 -0.60249716
0.2751991 -0.7369176 -0.5899113 -0.7734039 -0.80897474 -0.7301597 -0.7518605 -0.47137755
-0.5884184 -0.3133154 -0.968707 -0.7589783 -0.37231377 -0.46554372 -0.62535006 -0.66038656
-0.49552897 -0.4454461 -0.58148223 -0.69801384 -0.5351129 -0.59239644 -0.5360664 -0.45512444
-0.39458695 -0.31012067 -0.15456875 -0.40371418 -0.9502471 -0.60516554 -0.7582043 -0.51452833
-0.20383361 -0.6277353 -0.5328585 -0.44840658 -0.922972 -0.45326188 -0.38597828 -0.5186892
-0.33708075 -0.9603272 -0.59204775 -0.44300956 -0.8758031 -0.6459599 -0.13208763 -0.17251538
-0.6239379 -0.29954204 -0.2195012 -0.29904217 -0.4296719 -1.1728885 -0.77627146 -0.22893351
-0.5626061 -0.07939772 0.08784454 -0.6372367 -0.2788785 -0.20603724 -0.5495135 -0.49228764
0.4245306 -0.5220152 0.34501895 0.07831861 0.11872652 -0.05382952 -0.6651338 -0.14640707
0.0015168766 0.27563655 0.7700181 0.6992671 -0.50098723 -0.12938093 0.22258434 -0.050970238
-0.34778914 -0.80504197 -0.7817548 -0.050210536 0.08880309 -0.38801745 -0.5564589 -0.11547244
0.08395912 -0.38484547 0.48911947 0.72507554 0.4234269 -0.6604494 0.058814347 -0.39415985
-0.6066608 -0.2247603 -0.4993455 -0.39573348 -0.6380591 -0.20413186 0.055947028 0.3421024
-0.4657201 -0.4084159 -0.353832 0.30505335 0.028493501 -0.15650608 0.397932 0.011633985
-0.458463 0.44604337 -0.019793672 0.034456268 0.077557825 -0.05008013 0.17699039 -0.08672287
0.65958565 -0.5446649 -0.019856976 0.24026124 -0.3418753 -0.49060613 -0.6932745 -0.5222091
0.66019064 -0.7533456 0.16471896 -0.27794906 -0.48059025 -0.766356 -0.14867285 -0.11985446
0.030771434 0.15516123 -0.46943963 -0.6545796 -0.1376044 0.36689672 -0.5785972 -0.11674556
-0.39128858 -0.48951882 -0.1322844 -0.45740125 -0.28426456 -0.39760953 -0.0979615 -0.19464853
-0.16492343 -0.20271094 0.12046604 -0.6474706 0.47516134 -0.5104678 -0.24454994 0.51819086
-0.40738583 -0.65111375 -0.013318595 -0.23973048 -0.16650236 -0.21081911 -0.20268443 0.0567831
-0.0038472188 -0.38421628 0.1719425 -0.35343093 0.06351183 -0.24788247 0.26216263 -0.07947521
-0.4374593 0.110944726 0.13314676 -0.46985832 -0.08844984 0.12693578 -0.3885763 -0.09577869
-0.1748646 -0.04388011 -0.33347702 -0.46029395 -0.32397282 -0.577629 -0.5250433 0.31008568

lstm.bias_hh_l0 f4 [512]
00000000: 9e30 58bf ed2a 14bf 4f3a cebe 5ad2 b5be
00000010: 40c6 93be eb78 21bf fb48 3dbf 8748 d1be
00000020: 8556 78bf f18c 27bf 245e 95be e38c 12bf
00000030: c071 5cbf af55 82be 5278 42be a257 1ebe
00000040: d666 a2be 0843 3ebf 4605 efbe 0596 36be
00000050: 3b54 1d3e cba5 e0be 76b2 34bf 023b b9be
00000060: b13e f2be 540f 75be b7fe 77be 7588 05bf
00000070: ec5b 113e f9fe 38bf 65b4 21bf f83a 5cbf
00000080: 1f5b 2cbf 2249 8bbe 956c 4fbe 807c 2fbe
00000090: e5c1 2bbf 632a efbe 8978 59be 4df7 18bf
000000a0: fa57 e5be 51e2 a1be 8884 00bf e60f 2bbf
000000b0: 69c2 8ebe bc37 1ebf 2c18 a03d 0001 edbe
000000c0: 617b 5dbf 1e16 22bf ac2e 54bf f428 573d
000000d0: a70e c3be c2f8 99be fa66 56bf a4ae 26be
000000e0: 8e9b a2be 1531 02bf f340 39be cecb 07bf
000000f0: 7222 15bf 4621 18bf b70b 03bf 95ec 11bf
00000100: 8f0f fc3d 5245 4fbf 4eda 0abf dc5c 5fbf
00000110: b8b5 6bbf cfcc 3ebf d275 28bf 70a1 f9be
00000120: ecdd 1abf f579 bdbe cedd 57bf bd95 5dbf
00000130: bb1a c6be e8fd dcbe bc2a 2bbf acea 24bf
00000140: d84c f5be d586 03bf 1abd 17bf 2231 1bbf
00000150: 8f04 16bf 53c3 11bf 36df 00bf ee32 acbe
00000160: 7c4e a9be c599 d1be b029 3bbe 5c12 06bf
00000170: 920d 69bf b625 19bf b443 4fbf b36c fcbe
00000180: 6d24 97be 9c15 08bf 3dc1 d7be d0da e1be
00000190: 41d7 66bf acf5 d9be 1df3 73be 6f5a f6be
000001a0: f6f9 81be cb00 66bf 327c 1dbf be13 cbbe
000001b0: 098f 38bf 6cf6 1cbf a264 57be 1255 4cbe
000001c0: 687b 35bf 25b4 93be a29d 59be 86bc 78be
000001d0: 8596 c4be 18e8 97bf 1c17 4cbf 1b69 71be
000001e0: 4179 2dbf 4188 e0bd 3b14 553d 3aba 23bf
000001f0: 3ac5 c2be 9dab 5abe fbdf e7be f683 0abf
00000200: 8283 043f b561 10bf df3b e23e eb9d 463e
00000210: f091 043e bbc5 b63c 062f 41bf 3f78 8abd
00000220: 74d1 94bb 26e7 5c3e 22fe 213f 09a9 3b3f
00000230: a6aa 28bf f962 ddbd c504 8f3e 08c6 87bd
00000240: 53a6 b3be e6cf 36bf 2858 32bf 696b e0bd
00000250: 049d c43c 6529 bcbe ea84 1fbf 9270 89bd
00000260: d38b 203e 88f0 8ebe bfd0 163f 7be3 193f
00000270: d9cd 0c3f d992 41bf c886 263d bab3 77be
00000280: 992d 37bf 3b2c 51be 68b0 e9be 646f d4be
00000290: 117d 3cbf 1bd2 aabe c989 243c 5bdb b43e
000002a0: 550d 06bf 3363 bebe aa28 87be 7644 ef3e
000002b0: d626 adbd 49b0 55be a1a0 0d3f 07c2 84bc
000002c0: cc6d cabe 2311 b93e d612 13bb 5914 0a3e
000002d0: 0ff0 c93d 60db 20bd 922c f33d 9cf4 c8bd
000002e0: a13f 303f f78e ddbe 362d 163c 6ab7 2d3e
000002f0: 446c 9cbe 4a49 f8be b9c7 2dbf 300a b6be
00000300: eeba 103f cad2 31bf 2ecf 033e 4b52 dabe
00000310: 76a0 12bf 2247 2abf 57e6 23be c83a 03bd
00000320: 7aec 1b3d dc75 303e b6c8 e2be 5a17 29bf
00000330: 4187 85be 3aa8 ca3e 5a74 fabe 8732 47be
00000340: 2229 a5be bfaa 0abf cdb5 b4bd d770 05bf
00000350: 3c2b b2be 666f c2be 5580 54bd 3747 4dbe
00000360: d04d a0be fcc3 9bbe 14f5 9f3d 4ab2 16bf
00000370: e22e df3e 856f f7be e295 a0be d698 123f
00000380: 2320 adbe 4b5a 34bf 4c4e 043c b374 a9be
00000390: 0520 02bd 5c2c dfbd eba9 21be 2ec9 ac3d
000003a0: 8e3b 2a3d 2eb5 01bf 71e2 853d 5a26 7cbe
000003b0: 4a35 1fbd 18a1 96be 3ad0 5f3e 0032 15be
000003c0: 25ee b4be 414a d43b ad2d a93d 1999 efbe
000003d0: b461 8ebd 9167 583e bf9a 74be 278f acbd
000003e0: 1bc6 84be 2e3f 603c ac0d 94be e469 09bf
000003f0: dba1 b5be f441 0cbf acc5 1dbf 6642 783e
-0.84449184 -0.57878 -0.4027886 -0.35512048 -0.2886219 -0.6307513 -0.73939484 -0.40875646
-0.9700702 -0.65449435 -0.29173386 -0.57246226 -0.8611107 -0.25455996 -0.18991211 -0.15463117
-0.31719083 -0.7432103 -0.4668371 -0.17830665 0.15364163 -0.4387649 -0.7058481 -0.36177832
-0.47313455 -0.23931628 -0.2421826 -0.5216134 0.14195222 -0.7226406 -0.63165885 -0.8602748
-0.6732654 -0.27204233 -0.20256265 -0.17137337 -0.67092735 -0.46712026 -0.21237387 -0.5975235
-0.44793683 -0.31617978 -0.50202227 -0.66821134 -0.27882698 -0.61803794 0.078171104 -0.46289825
-0.86516386 -0.63315 -0.82883716 0.05252929 -0.38097116 -0.300726 -0.8375088 -0.16277558
-0.31759304 -0.50856143 -0.18091182 -0.53045356 -0.58255684 -0.5942577 -0.5118975 -0.5700162
0.12307655 -0.8096515 -0.54239357 -0.8725107 -0.92074156 -0.74531263 -0.6580478 -0.4875598
-0.60494876 -0.37007108 -0.8432282 -0.8655661 -0.3869227 -0.43162465 -0.6686208 -0.6442058
-0.4791019 -0.5137761 -0.5927292 -0.60621846 -0.58600706 -0.56938666 -0.5034059 -0.33632606
-0.3306769 -0.4093763 -0.18277621 -0.52371764 -0.9103633 -0.5982317 -0.8096268 -0.4930168
-0.29519978 -0.53157973 -0.42139617 -0.44112253 -0.901722 -0.42570245 -0.23823209 -0.4811587
-0.25386018 -0.8984496 -0.6151763 -0.396635 -0.72093254 -0.6131351 -0.21034482 -0.19954327
-0.7089143 -0.28848377 -0.21251538 -0.24290666 -0.38396087 -1.1867704 -0.7972276 -0.23575251
-0.67763144 -0.10963488 0.052021246 -0.63956034 -0.38041097 -0.21354528 -0.4528807 -0.54107606
0.51763165 -0.5639909 0.44186303 0.19396178 0.12946296 0.022311082 -0.7546238 -0.06761216
-0.0045415703 0.21572551 0.632784 0.733048 -0.6588539 -0.10809893 0.27933326 -0.06629568
-0.35087833 -0.7141098 -0.69665766 -0.10957987 0.024000652 -0.36750332 -0.62312186 -0.06710924
0.15678339 -0.27917886 0.5891227 0.6011273 0.550016 -0.75614697 0.04065588 -0.24189654
-0.7155395 -0.20427029 -0.456424 -0.41491234 -0.73628336 -0.33363423 0.010042616 0.35323605
-0.52364093 -0.37185058 -0.26398212 0.4673192 -0.08454673 -0.20868029 0.55323225 -0.0162058
-0.39536893 0.36145887 -0.0022441647 0.13484325 0.09860241 -0.039271712 0.118737355 -0.098122805
0.6884709 -0.43273136 0.009166053 0.16964498 -0.3055135 -0.48493415 -0.6788288 -0.35554647
0.5653523 -0.69462264 0.12872002 -0.4264091 -0.57276094 -0.6651479 -0.16005836 -0.03203848
0.03806732 0.1723246 -0.44293755 -0.66051257 -0.26079753 0.39581472 -0.48916894 -0.19452868
-0.32257944 -0.5416679 -0.08823738 -0.52125305 -0.3479861 -0.37975615 -0.0518802 -0.20046698
-0.31309366 -0.30422962 0.07810417 -0.588658 0.43590456 -0.4832727 -0.31364352 0.5726446
-0.3381358 -0.70450276 0.008075308 -0.33096847 -0.031768817 -0.10897133 -0.15787475 0.084368095
0.041560702 -0.50667083 0.06537331 -0.24624005 -0.03886918 -0.2941978 0.21856776 -0.14569855
-0.3533794 0.0064785783 0.08260665 -0.46796492 -0.06952229 0.21133257 -0.23887156 -0.08425742
-0.25932392 0.013686938 -0.2891668 -0.536772 -0.35475048 -0.54788136 -0.6162975 0.24244079

fc1.weight f4 [64, 128]
00000000: e5ba 8f3c 10a6 2a3e 3890 33be bd99 91be
00000010: 5851 60be 6e94 c4be faa3 523e bbb3 1f3e
00000020: bac5 c2be ae2e efbd 2d8b 87be e44d dd3e
00000030: 99b3 ccbd 0c82 d8bd 7a42 1cbf 7fea a2bd
00000040: 6e97 013f e5aa cc3d 33a8 afbd edc1 983e
00000050: 09a7 743e 6543 ecbe 984f ffbe 7893 cabe
00000060: 0f26 4b3e 0e8a a23e 2971 47bd 71b2 87bd
00000070: 6045 2cbe ad24 ce3e d0c5 403e 2a35 8ebe
00000080: 0d4c 62be 0bf1 88bd 4fca e6be f5f5 35bc
00000090: 4934 93be 4a58 a73e 4ab0 d33c 12cf fdbd
000000a0: 2450 fdbe 45e0 babe 64c5 75be 5f00 99be
000000b0: 2358 c2be 994b 37be a908 633e 01e2 063e
000000c0: ad16 0b3d 7dd7 683e 4d3e 87be 01dd 4fbe
000000d0: 2ff6 713e f3c0 993d 8620 923b c611 483d
000000e0: d4cb 72be 77eb 80be 703c 18bd cf4f 5bbe
000000f0: 778c b93e 0cb1 123e 952b 0b3f a188 72be
00000100: d348 d6be 3f1f be3d 21e6 87be ad40 9abc
00000110: 7e09 08bf 7cf6 8ebe e6b5 993d 43ce 323e
00000120: 7e31 b3be ab08 0fbe d80b 1a3e c5d1 10be
00000130: 88ae 813e 1491 cd3e eec3 47be 91b4 a7bd
00000140: 5d44 dbbe d53b e53c 198c 3fbd 1b09 423e
00000150: 89f9 16be 97b7 833d bbf7 673d 96ea 89be
00000160: 78fd cc3e 45c8 19bd 0670 733c f448 c33b
00000170: a74e b23e b743 a9bd 7cb1 febd 908d b63f
00000180: 0a10 df3e 1e16 613e 7139 863d 200d 5ebe
00000190: 6a45 1f3d 64b4 9abe b09f 28bb 9754 d6bd
000001a0: 365c 133e 45a1 8c3e e144 88be eecd 243f
000001b0: d705 693c ad85 aa3e f4ab 0cbd cf93 b0bc
000001c0: b229 2dbe edca 673c 539a 90bd c6cf 073e
000001d0: a5a2 adbd 3101 bfbc c3a5 cc3d b0da 8b3e
000001e0: 45ef a2be 381f cfbe 8697 8ebe 447a 233b
000001f0: 6d5b 313e c11a b0be 6f44 73be 4526 a4be
00000200: aa2f 803e 9b57 973d 9e85 b1be ac4b babe
00000210: d1ef edbd 6798 06bf b81f 923e c5c3 1e3e
00000220: f2e4 a6be a148 e4bd abdf 1c3c 5843 6f3e
00000230: 0f91 8abe 2bfa 04bf 3a85 a8be 421a 413e
00000240: 77d1 403e d0bd 253f 374b 25bf 51ce c7be
00000250: ce84 293f dbe3 02be 687e cfbe 4094 27be
00000260: 7bae a63e 9e55 1fbe 0983 ac3e 3cb5 343d
00000270: 5ede 3bbe 656e 2f3f 0dc4 bd3e 3661 b1bd
00000280: 56b8 01bd 915e 3dbe 2d19 123d d233 9a3e
00000290: c84d aebe 3091 aebd 8789 053e 22a7 273e
000002a0: 0ce1 823e 6bed ddbe 44d4 323e c6df 2bbf
000002b0: de6a fb3d 0f21 13bf 213b 03bf 1308 9d3d
000002c0: 8342 6fbe d268 a0bd 660b 173f a60c 67be
000002d0: 85f3 98be 872c 01be 5913 b23e be02 2dbe
000002e0: ca88 6abd 0aea 503e 9bba 1d3e 81a1 8a3d
000002f0: 0a51 16bc 11be b63d 51ac 103e c49b 89bd
00000300: f13b e13d 9d00 b0be cf1b 173e 8979 a53e
00000310: d847 28bf eb0a 8d3d 29f1 fe3e bc48 b73e
00000320: b56d 6fbd 3820 06be d99a 46be dd51 e63d
00000330: c462 c0bd 9322 d6bd 463a 49be 6014 96bd
00000340: a071 eebe d41f 21bf b4ce 4ebf f08a 81be
00000350: 8b9b 66bd 0061 eabe 92b9 1cbe 0963 8dbb
00000360: 14fe 883e bede 303d d66a 0b3e ff22 fd3e
00000370: 46bb 9d3e 5a71 713e 713d a6be 782a 943f
00000380: a597 7fbd 4ca1 a43e 203a b53d ec77 7abe
00000390: 7b0f b2be 2e1c 4a3f bc03 08be 7e2d babe
000003a0: b826 8ebe cc2a 633e 413c 09bf af8b 2b3f
000003b0: dd7e 273e e97d ab3e 56bd a33e 4989 a83e
000003c0: 60f6 02bf 0e49 953e a48e c2bc 797f 6cbd
000003d0: 8358 953e 7415 9cbe b5c8 72be b155 13bf
000003e0: 7505 5f3e 806a 8fbe 74e2 d7be 40e5 6ebe
000003f0: 5654 133e c316 ed3e 153c d0bc 97ca 993d
0.017545173 0.1666491 -0.17535484 -0.28437606 -0.2190603 -0.38394493 0.20570365 0.15595905
-0.38041478 -0.11678825 -0.2647337 0.43223488 -0.09995193 -0.105716795 -0.61038935 -0.07954883
0.5062169 0.09993533 -0.08577003 0.29835454 0.23891844 -0.46145168 -0.49865413 -0.39565635
0.19838737 0.31745952 -0.048691902 -0.06625832 -0.1682334 0.40262356 0.1882546 -0.27774936
-0.22099324 -0.066866 -0.45076224 -0.011106004 -0.28750828 0.32684547 0.025840897 -0.12393011
-0.49475205 -0.3649923 -0.2400108 -0.29883096 -0.37957868 -0.17899932 0.22171272 0.13172151
0.033957172 0.22738452 -0.2641472 -0.2029915 0.23629068 0.07507505 0.0044594435 0.048845075
-0.23710567 -0.25179645 -0.037167013 -0.21417163 0.3623998 0.1432535 0.54363376 -0.23684932
-0.41852435 0.092833035 -0.26542762 -0.018829668 -0.53139484 -0.27922428 0.075053975 0.17461495
-0.34998697 -0.1396815 0.1504358 -0.1414252 0.2532847 0.40149748 -0.19508335 -0.08188737
-0.42825595 0.027982632 -0.046764467 0.18948786 -0.14743628 0.06431501 0.05663274 -0.26936787
0.4003713 -0.037544508 0.014858251 0.0059596244 0.34825632 -0.08264869 -0.12436196 1.4261951
0.43566924 0.21981093 0.06553925 -0.21684694 0.038884558 -0.30215752 -0.0025729947 -0.10465353
0.14390644 0.2746679 -0.2661505 0.64376724 0.014222584 0.33305112 -0.034343675 -0.021554856
-0.16910437 0.014147502 -0.07060685 0.13262853 -0.084782876 -0.023315998 0.09992554 0.27315283
-0.31823173 -0.40453506 -0.27849978 0.0024944702 0.17320032 -0.34395412 -0.23756574 -0.32060447
0.25036365 0.07389756 -0.34672254 -0.36385858 -0.11618007 -0.525763 0.28539824 0.15504368
-0.32596546 -0.11146665 0.009574811 0.23365533 -0.27063796 -0.51944226 -0.32914144 0.18857673
0.18829904 0.64742756 -0.64567894 -0.39024594 0.6621827 -0.12782232 -0.40526128 -0.16365147
0.32554993 -0.15560004 0.33693722 0.04411815 -0.18346545 0.68527824 0.37063637 -0.0866112
-0.031669937 -0.18493105 0.03566854 0.3011766 -0.34043717 -0.08523786 0.13040744 0.1637235
0.25562322 -0.43345198 0.17463785 -0.67138326 0.12276243 -0.5747232 -0.512621 0.07667556
-0.23365216 -0.07832493 0.5900177 -0.22563419 -0.2987329 -0.12614642 0.34780386 -0.16895577
-0.05725936 0.20401779 0.15403216 0.06769086 -0.009174595 0.08922971 0.14128233 -0.06719163
0.10997761 -0.34375468 0.14756702 0.32319286 -0.65734625 0.06886848 0.49793366 0.3579768
-0.058454234 -0.13098228 -0.19395007 0.11246083 -0.09393838 -0.10455813 -0.19651136 -0.07328105
-0.46571064 -0.6293919 -0.80784154 -0.25301313 -0.05630068 -0.4577713 -0.15305164 -0.0043147844
0.26756346 0.043181174 0.13614973 0.49440762 0.3080694 0.23578396 -0.3246875 1.157546
-0.06240048 0.3215431 0.08848977 -0.24459809 -0.34777436 0.7894925 -0.13282675 -0.36362833
-0.27763915 0.22184294 -0.53607565 0.67010015 0.16356988 0.334945 0.3198039 0.3291724
-0.5115719 0.291573 -0.023749657 -0.057738755 0.29169092 -0.30485117 -0.23709376 -0.5755263
0.21779425 -0.2801094 -0.42164958 -0.2332964 0.1438764 0.46306428 -0.025419274 0.07509344

fc1.bias f4 [64]
00000000: 855e 8c3d 3c04 523d bf4e 4bbd d4e7 2fbc
00000010: 106c 393d d5bb 203d f7ff 303d 5c5a aebc
00000020: 7dac 3c3b e371 88bd 2c44 a03b 89bb 42bd
00000030: d150 1ebc 2ace 1cbd 57e6 f6bd 7641 60bc
00000040: e551 4e3d eee1 023e 47e5 9bbd 6ea6 6d3d
00000050: 616a 753b bbdb 50bd b730 dabd ce6d e93c
00000060: dd8d 9c3d c546 913d 1ca1 8bbc 9695 bc3d
00000070: 22b4 99bd 3ce6 7b3d eb5a 4dbd 2900 623d
00000080: 5ebf 783c 5507 07bd e291 7abd 5f1e 4b3d
00000090: be54 b03d d077 9abb 6943 8abc 04e6 783d
000000a0: 2036 a4bc 7fd5 e8bc 3b1b d93d d243 ff3d
000000b0: 0b76 bf3d ac5a 063e d937 8fbd e021 1f3e
000000c0: e9ed 253e 09d3 ff3c 4185 8d3d c0dc 2b3d
000000d0: d39c 923d 28d7 50bc a26e 7a3c 04f3 413d
000000e0: d502 673d f75b c93c dd9c 8dbd d4e0 0a3e
000000f0: 207b de3c ecef 063d 8abb b33c f94f 7bbd
0.06853966 0.05127357 -0.049635645 -0.0107364245 0.045269072 0.03924163 0.043212857 -0.021283321
0.0028789334 -0.06662347 0.004890939 -0.04754213 -0.009662823 -0.03828255 -0.120556526 -0.013687482
0.05037107 0.12781498 -0.076120906 0.058020048 0.003744744 -0.0509908 -0.10653823 0.028494742
0.07644246 0.07093576 -0.017044596 0.09208219 -0.07505061 0.061498865 -0.050135534 0.055175934
0.015182344 -0.032965977 -0.06117428 0.04958951 0.08609913 -0.00471399 -0.016877847 0.060766235
-0.02004534 -0.028422115 0.10600897 0.124641076 0.09348687 0.13120526 -0.06993074 0.15540266
0.16204037 0.03122856 0.06910182 0.04195857 0.07158818 -0.01274661 0.015285166 0.0473509
0.056399185 0.024579985 -0.06914685 0.13562328 0.02715832 0.03294365 0.021940012 -0.061355565

bn1.weight f4 [64]
00000000: 4b41 8e3f 81cb 8d3f 0f70 4a3f 8ac5 9d3f
00000010: 8d9d 6a3f f1bd 953f ec9c 6f3f bb1c bc3f
00000020: 9ce7 853f 3149 a03f e365 8e3f f8db 833f
00000030: 222c 923f c5f2 a63f 1e26 a73f 3ec3 a83f
00000040: 01c8 933f 2a07 943f b739 ab3f 66a8 9b3f
00000050: 7854 ac3f 4603 4c3f 2045 633f da29 a93f
00000060: 6784 c73f e2b1 9c3f 9538 703f e45d 773f
00000070: 11b1 783f 6671 a23f ae6f 7a3f 2c5f 983f
00000080: 0d69 703f bc1a 9e3f e496 a73f 496d b23f
00000090: 5121 883f 35b5 a03f 3883 5c3f 60ea ac3f
000000a0: 45fd 913f 4cd9 8b3f fdec 8f3f 1252 a63f
000000b0: 7fb5 7f3f 93e7 543f 6824 8c3f e270 923f
000000c0: dc8c 513f 637e 873f 4800 983f 41db 9e3f
000000d0: 1852 9b3f abee 903f 9938 a33f 9c57 373f
000000e0: c068 693f 4ea9 b13f 6ea8 9d3f d90c 813f
000000f0: cf5a 9a3f 3893 823f 973f 623f 4910 843f
1.1113676 1.107773 0.7907724 1.2325909 0.91646653 1.169859 0.9359882 1.4696268
1.0461307 1.2522336 1.1124843 1.0301504 1.1419718 1.3042837 1.3058507 1.3184583
1.1545411 1.1564686 1.3376988 1.2160766 1.3463278 0.79692495 0.8877735 1.3215897
1.5587281 1.2241786 0.9383634 0.9662764 0.9714518 1.2690856 0.9782666 1.1904044
0.93910295 1.2351909 1.3092923 1.3939601 1.0635167 1.25553 0.86137724 1.3509026
1.1405417 1.0925689 1.1244198 1.2993796 0.99886316 0.83165854 1.094861 1.1440699
0.8185556 1.0585445 1.1875086 1.2410661 1.2134428 1.1322836 1.2751647 0.71618056
0.9117546 1.3879793 1.2317026 1.0082046 1.2058963 1.0201178 0.8837828 1.031747

bn1.bias f4 [64]
00000000: 4325 43be 5cc5 7ebd 1cd9 9f3e 6cf3 3ebd
00000010: da48 c43e ede6 2c3e 9b44 423e eda4 ad3e
00000020: 4cb9 2fbe 3d1a cc3e f5fe 043e 8c1f 38bd
00000030: 600c 673e e7e7 473d 079a 993e b781 07be
00000040: d197 223e 10c7 493e 9ccd b2be f7c5 46bd
00000050: 448d a13d 4a17 dc3e 9d0b f1bb b4e8 843e
00000060: e865 803e da1c 5f3d 4b50 933e 8784 da3e
00000070: 8d7f 683d eaf7 89bd 4c5d a83d dc6a 963e
00000080: 1e89 e53e 9fe7 cc3e 74ae a93d 5eac 56bc
00000090: bd9b 02be 30b5 e23d ffdd dc3e 63e3 4b3e
000000a0: 024e 823e a805 f23e f858 783d a9a2 583e
000000b0: 73b3 ca3e 8d4e 923e 8b81 093e 10cb fe3e
000000c0: a312 f33e 83c7 91be ab2c df3e 06ea 2f3d
000000d0: b720 ee3d 2509 c63e d52d 523e 26da 103f
000000e0: 9885 cd3e 5d2e 0e3f fc04 b43e c869 bd3c
000000f0: 654d 81bd 7014 d93e 3b09 063f 445c be3e
-0.19057183 -0.062199935 0.3122033 -0.046618864 0.3833683 0.16884966 0.18971483 0.3391489
-0.17160529 0.39863768 0.12987883 -0.04495196 0.22563314 0.048805144 0.30000326 -0.13233076
0.15878226 0.19704843 -0.34922493 -0.048528638 0.078882724 0.42986518 -0.0073561207 0.25958788
0.25077748 0.054470874 0.28772196 0.42679235 0.056762267 -0.06736739 0.0822092 0.29378402
0.44831175 0.40020463 0.082852274 -0.013102619 -0.12754722 0.11069715 0.4313812 0.1991096
0.2545014 0.4726994 0.060631722 0.211558 0.39590034 0.28575554 0.13428323 0.497643
0.47475156 -0.28472528 0.43588766 0.04294779 0.116273336 0.38678852 0.20525296 0.5658287
0.40140986 0.55539495 0.35160053 0.02312173 -0.0631359 0.42398405 0.52357835 0.37179768

bn1.running_mean f4 [64]
00000000: 4bac 353f 1fae 1b3f d872 0f3e 636a 593f
00000010: 76a2 0a3f e010 f53e 6e6e d53e ef28 14be
00000020: 86ea 1a3f 0486 f0bd 46d7 01be 7a46 ee3e
00000030: 9ebf 383e 2769 c23e 677a d73e 7c5a 2d3f
00000040: 8555 c33e 122f 013e 8faf 93be 9076 c93e
00000050: 4762 cf3e b657 8bbe be63 fa3e fddb 0cbf
00000060: 2604 1a3f 5cf5 873e 7265 dabd 1682 02be
00000070: d975 a53e d5b3 1d3e 4c8a c0be d74d b83e
00000080: 69a3 b73c 7176 103f 90c5 163f 0428 febe
00000090: c8f7 7f3f af3a cd3e f07b e3bd 3d3f 1dbe
000000a0: 9db2 9f3f 5ae6 93be 37e5 683f ac74 063d
000000b0: a8ec 8dbd 7cfb 103f 85eb 023f fd9b 3fbe
000000c0: 078f 173e 4056 763d 755b 7bbe dcc2 fe3e
000000d0: 1f27 123e daef b8be 3b77 cd3d 3015 4fbe
000000e0: 7745 4abe ce84 04bf 6390 ee3e eee3 033f
000000f0: 06ac 423f 918e ecbe 53c0 023e ee81 c5be
0.70966023 0.6081256 0.14008653 0.8492796 0.54154146 0.47864437 0.41685814 -0.1446874
0.60514104 -0.117443115 -0.12679777 0.46538144 0.18041846 0.3797085 0.42085573 0.67716193
0.38151184 0.12615612 -0.28844878 0.39348269 0.40504667 -0.27215356 0.48904222 -0.55023175
0.6016258 0.26554382 -0.106638804 -0.12744936 0.32316473 0.15400632 -0.37605512 0.35996887
0.022416787 0.5643073 0.58895206 -0.49639904 0.9998746 0.40083835 -0.111076236 -0.15356155
1.2476383 -0.28886682 0.90974754 0.03282611 -0.06929904 0.56633735 0.51140624 -0.18711849
0.14800654 0.06014085 -0.24546607 0.4975804 0.14272736 -0.36120492 0.10032507 -0.20222926
-0.19753061 -0.51765144 0.46594533 0.5151967 0.76043737 -0.4620252 0.12768678 -0.3857569

bn1.running_var f4 [64]
00000000: 073d ce3f 3e37 fc3f 4808 1540 3e67 0240
00000010: 1b4e 3e40 d2c0 5440 1457 cb3f 1d42 0f40
00000020: fd70 1d40 9786 1140 a8e8 993f 7ab8 1d40
00000030: 2d33 0f40 b82a 1d40 3f3c 1c40 27b4 fd3f
00000040: e485 0240 e979 2e40 e8c6 5240 6c3a 1440
00000050: 1e1c 1c40 8544 1940 c277 0240 a0d3 ee3f
00000060: d227 3140 cfb8 7d40 5634 0540 7c14 4040
00000070: 4f62 b93f 437d 4040 f16c fe3f f13d 0240
00000080: 22fe 1340 e48c 1040 11e0 0540 a533 2d40
00000090: 3466 5040 3198 4240 d71c c63f 9022 be3f
000000a0: 6801 2840 5ccf 1c40 642b 0540 b2e9 1240
000000b0: 6bb3 1c40 5fd4 3040 4c57 0340 5368 2f40
000000c0: d39b f53f 4b41 5840 62eb 3940 62e8 0740
000000d0: a010 1840 f2ad 2240 e63f 1740 3c39 2440
000000e0: 64cf 3540 524a 1940 ca69 0b40 f545 c63f
000000f0: 50e7 ff3f 7691 6940 fae4 1840 3a66 5140
1.6112374 1.9704359 2.3286304 2.0375514 2.9735172 3.3242688 1.5885949 2.2384102
2.4600213 2.2738397 1.2024126 2.4643846 2.2374985 2.4557323 2.4411771 1.9820603
2.039422 2.7261908 3.2933903 2.3160658 2.4392161 2.394807 2.0385594 1.8658333
2.7680554 3.9644048 2.0813193 3.0012503 1.4483126 3.0076454 1.9876996 2.0350306
2.312386 2.2585993 2.091801 2.7062771 3.256238 3.040539 1.5477551 1.4854298
2.6250858 2.4501562 2.0807734 2.2955136 2.4484508 2.762962 2.0522032 2.7407424
1.9188179 3.3789852 2.9049916 2.1235585 2.3760147 2.5418668 2.363275 2.5659933
2.840783 2.3951612 2.1783319 1.5490099 1.9992466 3.6495032 2.3889756 3.2718644

fc2.weight f4 [4, 64]
00000000: d484 1bbc 9b0c 0bbe d118 2f3e 709c 80bb
00000010: 2e45 9e3e 5cef aa3e ef17 e8bc 0857 103e
00000020: 5cdb 0fbe 6cf9 693e 1bc7 d93b 1acb 84be
00000030: c21c c13d ef69 8bbe 4699 993e 0d2d abbc
00000040: dd2a 983d 4087 a83e 0718 133d 0964 33be
00000050: e82d fd3d 0aa4 363e 0fdb 3f3e 7646 243e
00000060: 2523 513d 69a2 1c3d 119a 1b3e 7945 923e
00000070: 12a0 153e 6b43 d03e 47fc 733e 83da 8a3b
00000080: 2d33 bc3e d668 1b3e 5da3 7d3e 7425 853d
00000090: e34d a5be eac2 05bf 7244 a53e c11e 2b3d
000000a0: c50e a0be 10e8 583e def2 ab3e fc5e 853d
000000b0: 37f5 e33e c844 8cbe 0e2d 4e3d 2e14 d63e
000000c0: de5b 483e 601b 56bd b1e0 a93e 5cb9 043e
000000d0: dff9 61bd c513 943e 7981 8bbd ffcc 903e
000000e0: 4102 9a3e 7787 053e 1de4 a73d 0e89 45be
000000f0: add9 093d 35e9 bc3e eb0a 823e dd94 aa3e
00000100: f889 b2be 9d9a 97be a36b 06bf 1d3d 96be
00000110: e2f5 96be 0568 95be 657a 32bf 8a46 4abf
00000120: ba31 a53e 0e67 c83e cde8 18bf 28cc 543e
00000130: edd0 b43e e816 2b3e fb19 b03e 76a7 893e
00000140: a9c5 cdbe 28d9 86be 1a03 75be 69c4 bb3e
00000150: aadf be3e 178a 13bf eba4 aabe 3023 ddbe
00000160: ec37 f73e 3fc7 1e3e f940 10bf 2d02 05bf
00000170: ca85 f9be 00ae e4bc 99aa 58bf aa08 47be
00000180: 2858 b9be d41e 943e 7c82 e83e 590d 6fbe
00000190: ef37 3a3e 23ca 573e 9357 20bf dc26 ae3e
000001a0: a606 2a3e df3c 03bf 646a fcbe 28a6 52bf
000001b0: ada8 b3be d47b 6f3e 901a bc3e 956c 1ebf
000001c0: 46b3 53bf 5d5a 5c3e 9f26 50be 56af c5be
000001d0: f6ac 41bf 9d05 1cbf 5c7e 8f3e 8ed9 02bf
000001e0: d2bc d0be 8942 46bf bb4f c8be f458 f3be
000001f0: 573f cfbe 6bde 1bbe 16d2 09bf c2f4 31be
00000200: c085 a23e c37d 843e 6306 393e c0dc e63e
00000210: 8542 55be 2a63 b4be 66c5 893e dc05 63bf
00000220: ecb8 993d f392 fbbe 41b7 693e 5f9a 2d3e
00000230: 6876 e2be 7a9e 953e e8b0 e3be bd09 9bbe
00000240: 5c69 943e 2c63 e3bd 52d6 b4be a852 18bf
00000250: 7f47 f0be 99bf 803e 34e9 9abe cd5a f4be
00000260: 3989 febe f389 38bf 7f53 9a3d be0e e6bd
00000270: fd24 a23e 090d 1ebe a27a 27be 6c46 b83e
00000280: 077e 7b3c 13d1 b0be 08e5 efbe 110a 3cbf
00000290: cebb fb3d d743 823e b059 243e 9449 8dbe
000002a0: 109a 313e 8099 693c 9467 8abd a23e 5abf
000002b0: bfd4 05be 864a ea3d cee2 adbe 031f 67bd
000002c0: afc9 953e 3680 fbbe 0bab 19be 8916 3dbf
000002d0: 983e 03bf a504 103e 4c61 50bf c420 9dbe
000002e0: b706 54bc d579 10bf 78d4 d43e fe10 113e
000002f0: 7e47 cd3e 240d 46be 39cb 193d f398 49be
00000300: 6bd3 3dbf 01bb dc3d f0d2 85bf 80c3 7fbe
00000310: b846 14be 92c4 a2bd e92f a23e fb52 843e
00000320: fc58 5fbf ce67 21bf 7b4d b93e 42b3 3cbf
00000330: be6b d7be 9aba 85bf c18c 05bf 8dc9 41bf
00000340: 373d 8bbf d63b 3fbe e6ab 0e3f 508c 7b3e
00000350: e1fc 00bf 629e 6cbf 29b2 3a3e b8bc de3e
00000360: ac5c 10bf d7cf 933e 0c22 04be f414 12be
00000370: db4b 50bf feb1 d9be 6bcf b23d e38c 89bf
00000380: 3781 cabe 8ebb 8abf 0421 e2be ed34 b23e
00000390: 8254 633d d77b cb3e ea1a 03bf 3787 77bf
000003a0: c410 82bf 1c64 0cbf dacc 44be a3f7 a33e
000003b0: 8113 93bd 643a 9d3e 4607 febe feb1 8cbe
000003c0: bbc4 04bf facb b63e 98ab 24bf 08a3 a73e
000003d0: c03b bd3e bcbd 73bf 4a36 af3e 8264 de3d
000003e0: 64e2 aebe da6a d33e 2350 31bf 0e37 953e
000003f0: 445e 00bf 12c8 c8be aa5d c3be e810 eabe
-0.009492118 -0.13579027 0.1709931 -0.003924899 0.30912155 0.33385742 -0.028331725 0.140957
-0.14048523 0.22849053 0.0066460497 -0.25936204 0.09429313 -0.27229258 0.2999975 -0.020895505
0.074300505 0.32915688 0.035911586 -0.17518629 0.123622715 0.17836013 0.18735908 0.16042504
0.051058907 0.038240824 0.1519549 0.28568628 0.14611843 0.40676436 0.23826705 0.0042374744
0.36757794 0.1517671 0.2476935 0.06501284 -0.32285985 -0.5225054 0.32278782 0.041777376
-0.31261268 0.21182275 0.3358373 0.065122575 0.44523022 -0.27396226 0.050335936 0.4181227
0.19566295 -0.0522722 0.33179238 0.12961334 -0.055169936 0.28921333 -0.06811804 0.282814
0.30079845 0.13039957 0.08197806 -0.19290563 0.033654857 0.36896673 0.25398955 0.333167
-0.34870887 -0.29610148 -0.5250799 -0.293435 -0.2948447 -0.29180923 -0.6971801 -0.79013884
0.322645 0.39141124 -0.59730226 0.20781004 0.35315648 0.16707957 0.34394822 0.26885575
-0.40189865 -0.26337552 -0.23926964 0.36673287 0.37280017 -0.57632583 -0.33328947 -0.43190908
0.48284853 0.15505694 -0.5634914 -0.51956445 -0.48734885 -0.027915 -0.8463531 -0.19436899
-0.3620007 0.2892977 0.45412052 -0.23344935 0.181854 0.21073203 -0.6263363 0.34014022
0.16604099 -0.51264757 -0.4929992 -0.82284784 -0.35089627 0.2338708 0.36739016 -0.61884433
-0.82695425 0.21518846 -0.20327233 -0.38610333 -0.7565454 -0.60946065 0.28026092 -0.5111321
-0.40769058 -0.77445275 -0.3912333 -0.47528803 -0.40478012 -0.15221564 -0.5383619 -0.17378524
0.31742668 0.258772 0.18068843 0.45090294 -0.20826156 -0.35231906 0.26908416 -0.88680816
0.07505974 -0.4913555 0.22823812 0.16953419 -0.44230962 0.2922247 -0.44470906 -0.30280867
0.28986633 -0.111029 -0.35319763 -0.59501123 -0.46929547 0.25146177 -0.30256045 -0.47725525
-0.49714068 -0.72085494 0.07535457 -0.112332806 0.31668845 -0.1543466 -0.16355374 0.35991228
0.0153498715 -0.3453451 -0.46854424 -0.7345286 0.1229168 0.25442383 0.16049838 -0.27595198
0.17343926 0.014257789 -0.06758037 -0.8525182 -0.13069437 0.114399955 -0.339621 -0.05642606
0.29255435 -0.49121255 -0.15006654 -0.7386251 -0.51267385 0.14064272 -0.81398463 -0.3068906
-0.012941054 -0.564359 0.4156835 0.14166638 0.40093607 -0.1934095 0.037547324 -0.19687252
-0.74150723 0.10777856 -1.0454998 -0.24976921 -0.14480102 -0.07947649 0.31677178 0.2584456
-0.87245154 -0.6304902 0.36191925 -0.73711026 -0.42074388 -1.0447571 -0.521679 -0.7569817
-1.0878056 -0.1867517 0.55731046 0.24565244 -0.5038586 -0.92429173 0.18232025 0.43503356
-0.56391406 0.28869507 -0.12903613 -0.14265805 -0.81365746 -0.4251861 0.08730968 -1.074612
-0.39551708 -1.0838487 -0.44165814 0.34806004 0.055500515 0.3974292 -0.5121294 -0.96690696
-1.0161366 -0.54840255 -0.1921877 0.3202487 -0.071814544 0.3070861 -0.49614924 -0.27479547
-0.51862687 0.35702497 -0.6432433 0.3274157 0.36959648 -0.95211387 0.34221107 0.10859014
-0.34157097 0.4129246 -0.69262904 0.29143566 -0.5014384 -0.39215142 -0.38157398 -0.45716023

fc2.bias f4 [4]
00000000: 0c62 ae3e 2054 9ebe e62a 59bd 6a2b 9fbe
0.3405918 -0.30923557 -0.053019427 -0.3108781
