Models/model_tools_real_1.pt (torch, 317387 bytes, 12 tensors)

lstm.weight_ih_l0 f4 [512, 6]
0	0x3f07cdad	0.5304821
1	0x3e3e36bc	0.18575567
2	0xbe05dd28	-0.13072646
3	0xbab48ec4	-0.0013775458
4	0xbd65183f	-0.055931326
5	0xbe1f1ba3	-0.15537886
6	0xbe49bbde	-0.19700572
7	0x3e921626	0.28532523
8	0xbe4c1e0a	-0.19933334
9	0xbc362a96	-0.011118552
10	0x3db693dd	0.089149214
11	0x3eaf9d77	0.34299824
12	0xbd0e5591	-0.03474957
13	0x3ebfc7a8	0.37457013
14	0x3e4a50ea	0.19757429
15	0x3dc28e63	0.09499814
16	0x3f05d42b	0.5227687
17	0xbf040251	-0.51566035
18	0xbe66ca83	-0.2253819
19	0xbd8cd3d9	-0.06876344
20	0xbee7785d	-0.45209017
21	0xbea159ba	-0.31513768
22	0x3e82f9ff	0.25581357
23	0x3e97ef8f	0.29674956
24	0xbdc1ce13	-0.09463134
25	0x3de325af	0.11091172
26	0x3e813a63	0.25239858
27	0x3e152e01	0.1456833
28	0x3d25f08e	0.040512614
29	0xbe674bec	-0.22587556
30	0xbe346995	-0.17618401
31	0xbd30ab4b	-0.043132108
32	0xbec30795	-0.38091722
33	0xbe58627b	-0.21131317
34	0xbdff0e37	-0.12453883
35	0x3e813114	0.25232756
36	0x3d5eed9f	0.054425832
37	0x3e087744	0.13326746
38	0x3e5015e3	0.20320849
39	0x3e07b074	0.13250905
40	0x3e265eb7	0.16247068
41	0xbcc087b8	-0.023502216
42	0xbd27d7ee	-0.04097741
43	0x3b27acab	0.0025585096
44	0xbd525d0c	-0.051358268
45	0xbdb62909	-0.088945456
46	0xbe9886e2	-0.29790407
47	0x3d078df9	0.03309438
48	0xbe3a598c	-0.18198222
49	0x3eb97e56	0.362292
50	0x3e501ec3	0.20324235
51	0x3ea2e3c6	0.31814402
52	0xbf518148	-0.8183789
53	0xbcd2f210	-0.02575019
54	0xbe7c1e06	-0.24620828
55	0xbe94336f	-0.2894549
56	0xbe11bc9c	-0.14232105
57	0x3e36a286	0.17835435
58	0xbf6b6455	-0.9194997
59	0x3f98dad3	1.194178
60	0x3ebd7726	0.37004966
61	0x3eea184d	0.45721665
62	0xbdb55272	-0.08853616
63	0x3c84708b	0.016166946
64	0x3d7ed659	0.062216137
65	0xbdb24ea5	-0.087064065
66	0xbe5d5e96	-0.21618113
67	0x3e12936d	0.14314051
68	0xbe225752	-0.15853623
69	0xbea9afbe	-0.33141893
70	0xbc58e77f	-0.013238787
71	0x3e4d0285	0.20020492
72	0x3c83cfdc	0.016090326
73	0xbe49ee7b	-0.1971988
74	0x3e7cb974	0.2468012
75	0x3ea2c017	0.31787178
76	0xbddb498c	-0.10707387
77	0x3dc61d57	0.09673565
78	0x3d06ace2	0.032879718
79	0x3e21b574	0.15791875
80	0x3ea23a60	0.31685162
81	0x3d1eff51	0.038817707
82	0x3e575e32	0.21032026
83	0xbd7595c4	-0.05995728
84	0xbe092abf	-0.13395213
85	0x3d5ee394	0.054416254
86	0x3e8cd262	0.2750426
87	0x3e3749bb	0.1789922
88	0xbe792042	-0.24328712
89	0xbd67fb36	-0.056636058
90	0x3d59cc5a	0.0531734
91	0xbdded5af	-0.10880601
92	0xbe278edb	-0.16363089
93	0x3cbb2837	0.022846324
94	0x3d4eaf2e	0.050460033
95	0x3ea99798	0.3312347
96	0x3e9a85e4	0.30180275
97	0x3eaef2a5	0.34169498
98	0xbd8e6b19	-0.06954021
99	0xbe07b0ae	-0.13250992
100	0x3d5b4662	0.05353392
101	0xbe771fbd	-0.24133201
102	0xbed08c2b	-0.4073194
103	0x3ca5b389	0.02022721
104	0xbd7bc5c9	-0.06146792
105	0xbed0465a	-0.40678674
106	0x3ed6a712	0.4192434
107	0x3e192efc	0.1495933
108	0x3c578bf0	0.013155922
109	0x3dda4044	0.10656789
110	0xbe2ba819	-0.16763343
111	0x3ec83750	0.391047
112	0x3d4a0ee9	0.049330626
113	0x3e18062c	0.14846104
114	0x3811adce	3.4732562e-05
115	0x3d5e4024	0.054260388
116	0x3dbe427f	0.09290027
117	0xbe81456a	-0.2524827
118	0x3e13d0a4	0.14435059
119	0xbe05cdd9	-0.13066806
120	0xbdf4dedf	-0.11956572
121	0xbda8cd99	-0.0824234
122	0xbdb29899	-0.08720512
123	0x3c78c173	0.015182841
124	0x3e713ab1	0.23557545
125	0xbda44de7	-0.08022671
126	0xbe25154b	-0.16121404
127	0x3f0db756	0.55357873
128	0xbefb671d	-0.49102107
129	0x3e413dfc	0.18871301
130	0x3d6fa428	0.05850616
131	0x3e1b18c0	0.1514616
132	0x3d4034a4	0.046925202
133	0x3db89519	0.09012813
134	0xbd2da5f5	-0.042394597
135	0xbdcb67aa	-0.09931882
136	0xbdab24c4	-0.08356622
137	0xbd910955	-0.07081858
138	0xbde66cdf	-0.11251234
139	0xbd1df957	-0.038567867
140	0x3d22b695	0.039724905
141	0x3ea2c662	0.3179198
142	0x3e964104	0.29346478
143	0xbdfb012c	-0.12256083
144	0xbdf249aa	-0.118304566
145	0x3e73d6f5	0.23812468
146	0x3db8276d	0.08991895
147	0xbdce4c0f	-0.10073101
148	0xbdbeb3e9	-0.09311659
149	0xbddb4789	-0.107070036
150	0x3e582491	0.21107699
151	0xbd697981	-0.05700064
152	0x3e8886ac	0.26665246
153	0xbe518a78	-0.20462978
154	0xbd032ab5	-0.03202315
155	0xbed04ec5	-0.40685096
156	0xbe5001b6	-0.20313153
157	0x3f052a46	0.5201763
158	0xbee27247	-0.44227812
159	0x3e806351	0.25075772
160	0x3c9481c6	0.018128287
161	0xbd5f7da7	-0.05456319
162	0x3dcc651d	0.09980223
163	0xbca950dc	-0.02066844
164	0x3c32e2b5	0.010918309
165	0x3de6b88c	0.11265668
166	0xbd61ee00	-0.055158615
167	0x3ccf7c6e	0.025327887
168	0x3df4a090	0.11944687
169	0x3e8ee0ca	0.27905875
170	0x3dcc70bf	0.09982442
171	0xbc6e5e73	-0.014548886
172	0x3f03c4a2	0.5147191
173	0x3e843311	0.2582021
174	0xbc457121	-0.012050898
175	0xbe21120e	-0.15729544
176	0x3ecacee5	0.39610973
177	0xbd667524	-0.056264058
178	0x3e8b2cd5	0.27182642
179	0xbdb74139	-0.08947987
180	0xbd7bd9b8	-0.06148693
181	0x3f09aeaf	0.5378217
182	0xbd9e3dbe	-0.0772662
183	0x3ed923da	0.42410165
184	0x3e4616a7	0.19344579
185	0xbd7a131a	-0.061053373
186	0x3c3b68a1	0.01143852
187	0x3dd1076c	0.10206494
188	0xbea2cfed	-0.3179926
189	0xbea9d916	-0.33173436
190	0x3f0ec58c	0.5577018
191	0xbdf51be5	-0.11968211
192	0xbc919622	-0.017771784
193	0xbd040b61	-0.032237414
194	0xbef715c7	-0.48258802
195	0xbf3ba6c5	-0.73301345
196	0xbd971a60	-0.073780775
197	0xbebc030d	-0.36721078
198	0xbf2a5c2b	-0.6654689
199	0xbe66ba25	-0.22531946
200	0x3dd1deb1	0.10247553
201	0x3e6b8df3	0.23003368
202	0xbdbf12c1	-0.09329749
203	0xbe501f8b	-0.20324533
204	0x3e2a2526	0.16615734
205	0x3db1eb0f	0.08687412
206	0x3d55d98b	0.05220942
207	0x3e454617	0.19265018
208	0x3dbd169a	0.092328265
209	0xbda1c410	-0.07898724
210	0x3e1d2469	0.1534592
211	0x3e4f0511	0.20216776
212	0xbd1d0db7	-0.038343158
213	0xbe9def55	-0.30846658
214	0x3de676ab	0.11253103
215	0x3d85a04b	0.06524714
216	0x3e19e0df	0.15027188
217	0xbebdd0a7	-0.37073252
218	0x3d01ee4f	0.03172141
219	0x3efaf1b7	0.4901254
220	0x3dbb17ff	0.09135436
221	0x3eadd710	0.33953142
222	0x3f106f45	0.56419784
223	0xbdb2eebb	-0.087369405
224	0xbdd1e905	-0.10249523
225	0x3dc2b650	0.095074296
226	0x3e9848f3	0.29743156
227	0x3eb0e698	0.3455093
228	0xbe46f704	-0.19430166
229	0x3e26a65d	0.162744
230	0x3e176ec3	0.14788346
231	0x3ddf2825	0.10896329
232	0xbf2ac8ae	-0.6671246
233	0x3cfb5552	0.030680332
234	0xbd431146	-0.047623895
235	0x3d08558d	0.033284713
236	0xbec9aed2	-0.3939119
237	0x3d2dc619	0.04242525
238	0x3f011eb6	0.50437486
239	0x3d8d177a	0.068892434
240	0xbdb2c511	-0.08728994
241	0xbeca9b55	-0.39571634
242	0x3eceb025	0.40368763
243	0xbe6b8443	-0.22999673
244	0xbeaddf2d	-0.33959332
245	0xbdfe3586	-0.124125525
246	0xbd9f2ed5	-0.077726044
247	0xbe8a1cdd	-0.26975146
248	0x3e066bdc	0.13127083
249	0x3ec441a4	0.3833133
250	0xbe90a7db	-0.28253064
251	0xbf3da52d	-0.74080163
252	0x3d8dcab1	0.06923426
253	0x3e0a23b2	0.13490179
254	0xbeb2a189	-0.34888867
255	0xbef4767c	-0.47746646

lstm.weight_hh_l0 f4 [512, 128]
0	0x3e26d36b	0.16291587
1	0xbddf3cf9	-0.109003015
2	0xbe62057f	-0.22072409
3	0x3ea59562	0.32340533
4	0x3d751845	0.0598376
5	0xbda092e1	-0.07840515
6	0x3e19919b	0.1499695
7	0x3d802128	0.06256324
8	0x3eec5bd4	0.4616381
9	0xbca15069	-0.019691663
10	0x3d8235bb	0.063579045
11	0xbe26fb27	-0.16306745
12	0xbdcec192	-0.10095514
13	0x3ea26369	0.3171647
14	0x3e62d764	0.22152478
15	0xbd20b652	-0.039236374
16	0xbe9ba85c	-0.30401886
17	0xbc96ce62	-0.018408958
18	0x3a0190fb	0.0004942563
19	0xbe4a5299	-0.19758071
20	0x3ee76fed	0.4520258
21	0x3d744612	0.059637137
22	0xbe910cd7	-0.2833011
23	0xbdff4768	-0.124647915
24	0x3dee5040	0.116364
25	0x3e9c0568	0.30472875
26	0x3ec3c0a7	0.3823292
27	0x3da98a5d	0.08278344
28	0x3ea8f847	0.3300192
29	0xbe517a7f	-0.20456885
30	0xbe9826de	-0.29717153
31	0xbe827c0a	-0.2548526
32	0x3e4d00e2	0.20019868
33	0x3e8dd82a	0.27703983
34	0xbdd46807	-0.10371404
35	0xbd92a7b5	-0.07160894
36	0xbee3359a	-0.44376832
37	0x3eaa00a2	0.33203608
38	0xbdfe8609	-0.12427909
39	0x3e97d245	0.2965261
40	0x3d536480	0.051609516
41	0xbe8b4e3d	-0.2720813
42	0x3eabcbd5	0.3355395
43	0x3e8f2e20	0.27964878
44	0x3dd20d55	0.10256449
45	0xbd97faa7	-0.07420855
46	0xbe87d29a	-0.26527864
47	0x3cef7c5e	0.029234108
48	0x3e946b34	0.2898804
49	0x3c89ee0b	0.01683714
50	0x3da01824	0.078171045
51	0xbeb2e86b	-0.34942946
52	0xbdcfd8c8	-0.101487696
53	0xbd27626f	-0.040865358
54	0x3d32e522	0.04367555
55	0x3e32fe6d	0.17479868
56	0x3e8255f5	0.25456205
57	0x3e52623d	0.20545287
58	0x3ceb7315	0.028741399
59	0x3d956042	0.0729375
60	0xbe1be937	-0.15225683
61	0x3d085fa7	0.033294346
62	0x3e43dac1	0.19126417
63	0x3ea111a0	0.3145876
64	0x3e5e07dd	0.21682687
65	0xbe015b88	-0.12632573
66	0xbd73d5a2	-0.059529908
67	0x3d1a2146	0.03762939
68	0xbca43251	-0.020043524
69	0xbd2b0f62	-0.041762717
70	0x3e9681cc	0.29395902
71	0xbbb7da09	-0.0056107086
72	0x3e207084	0.15667921
73	0x3e7fcd92	0.24980763
74	0x3e356ee9	0.1771809
75	0xbe0f1df9	-0.13976277
76	0xbec46fe2	-0.3836661
77	0x3d888d6c	0.06667599
78	0x3ea64fe7	0.32482836
79	0x3daa4e83	0.08315756
80	0x3e9750e7	0.2955391
81	0x3d3f2304	0.046664253
82	0x3ebed451	0.3727136
83	0x3dc2b1b3	0.0950655
84	0xbe8e1a5c	-0.27754486
85	0xbdc8efe1	-0.09811378
86	0x3e65cb49	0.22440828
87	0xbd7bd57f	-0.061482903
88	0xbe038690	-0.128443
89	0xbeabb15a	-0.33533746
90	0xbe6692bc	-0.22516912
91	0xbd1c9e17	-0.038236704
92	0xbe33b62f	-0.17549966
93	0x3e8a84a8	0.27054334
94	0x3ec0a9ff	0.37629697
95	0xbd879f4d	-0.06622181
96	0xbab4584c	-0.0013759225
97	0x3c122953	0.008920985
98	0xbdd0ebb3	-0.10201206
99	0x3c10669c	0.0088135265
100	0xbc34e3bd	-0.011040625
101	0x3db92a09	0.09041221
102	0xbe115f0e	-0.14196417
103	0xbd8d5d39	-0.069025464
104	0xbe076ea0	-0.13225794
105	0xbc43fe51	-0.011962489
106	0xbe4884e4	-0.19581944
107	0xbd986cd0	-0.07442629
108	0x3db9c519	0.090707965
109	0x3d695ab6	0.056971274
110	0xbe128c93	-0.14311437
111	0x3f1347f0	0.5753164
112	0x3c82b6f4	0.01595638
113	0x3db584bd	0.088632084
114	0xbb98ad04	-0.004659297
115	0x3e9528ea	0.29132777
116	0xbe23c340	-0.1599245
117	0xbd3ee93d	-0.046609152
118	0xbebdc15c	-0.37061584
119	0x3e4e7eee	0.20165607
120	0x3d8d83ff	0.06909942
121	0xbc6e1e37	-0.014533571
122	0x3da1e079	0.07904143
123	0xbd0fcc3b	-0.03510688
124	0x3d4b8d18	0.049695104
125	0x3db46f04	0.08810237
126	0x3dee7cb4	0.11644879
127	0x3d593619	0.053030107
128	0x3e35d1d5	0.17755826
129	0x3c3bc684	0.011460904
130	0xbd2569d7	-0.04038414
131	0xbd8bd635	-0.06827966
132	0xbdb0b4c0	-0.08628225
133	0x3e152821	0.14566089
134	0xbb48e7e1	-0.0030655789
135	0x3e0971c6	0.13422307
136	0x3d6ba724	0.057532445
137	0x3dbe76a2	0.09299971
138	0xbe89e2ec	-0.2693094
139	0x3ac9d9a1	0.0015399941
140	0x3e334acf	0.17509006
141	0xbdffaf9a	-0.12484665
142	0x3e353697	0.17696606
143	0x3e3c3ea1	0.18383266
144	0x3e993c8c	0.29929006
145	0xbd669129	-0.05629078
146	0x3eb3e21c	0.35133445
147	0xbde98e44	-0.11404088
148	0xbec0a5e7	-0.37626573
149	0xbc5ba3a7	-0.013405717
150	0x3e01c35e	0.12672183
151	0xbe21c4b6	-0.15797696
152	0x3d43ee69	0.047834788
153	0xbe8e43bc	-0.27786052
154	0xbe178578	-0.14797008
155	0xbdcb926a	-0.09940036
156	0xbdd8d805	-0.105880775
157	0xbcfa2c1c	-0.030538611
158	0x3ca9481e	0.020664271
159	0xbc7d40d4	-0.015457351
160	0xbe61d14b	-0.22052495
161	0x3deebf20	0.11657548
162	0xbd6410e1	-0.05568016
163	0xbe866401	-0.26248172
164	0x3e394dca	0.1809608
165	0xbe54049e	-0.20704886
166	0x3d36b5d1	0.044606987
167	0xbd112ab9	-0.035441134
168	0x3d85e1f1	0.065372355
169	0xbef54be0	-0.4790945
170	0xbe428862	-0.18997338
171	0x3dec5407	0.115394644
172	0x3d217884	0.039421573
173	0x3a04c349	0.00050645
174	0xbdc02db5	-0.09383718
175	0xbc95e33a	-0.018296827
176	0x3e0ac1ec	0.13550538
177	0x3dd2cb21	0.1029265
178	0xbb5c1d7e	-0.0033586915
179	0xbd475c67	-0.048672106
180	0x3e91013c	0.28321254
181	0x3c4e1c44	0.012579981
182	0xbe723e1c	-0.23656505
183	0xbd2c022a	-0.04199425
184	0x3e7a7709	0.24459471
185	0xbdef890e	-0.11696063
186	0xbda6a34f	-0.081366174
187	0xbe150474	-0.1455248
188	0xbe93465d	-0.2876462
189	0x3e018aad	0.12650557
190	0xbd11e0bb	-0.03561471
191	0x3c8d7ebb	0.017272344
192	0x3de57412	0.11203779
193	0x3de129d2	0.10994305
194	0x3d5e9783	0.05434371
195	0x3c58041f	0.013184576
196	0x3d34af53	0.044112515
197	0xbe5be30c	-0.2147333
198	0x3d5b767d	0.053579796
199	0x3e61a8fc	0.22037119
200	0x3dcaf7fc	0.099105805
201	0x3ea059a8	0.31318402
202	0xbde9f1ea	-0.114230946
203	0xbe4540f4	-0.19263059
204	0x3d9d2460	0.076729536
205	0x3da69ecd	0.081357576
206	0xbe22e631	-0.15908124
207	0x3bc4d2fb	0.006006596
208	0x3d56c73c	0.0524361
209	0xbe859a59	-0.2609432
210	0x3dfd8735	0.12379304
211	0xbc9efec9	-0.0194086
212	0x3d2ce1bf	0.042207476
213	0xbe1f3a00	-0.15549469
214	0xbddb2389	-0.10700137
215	0x3e8a3b04	0.2699815
216	0xbe9e977a	-0.30974942
217	0x3d7d039e	0.061771028
218	0xbe43fae8	-0.19138682
219	0x3db449b3	0.088031195
220	0xbd1761da	-0.036958553
221	0x3d9c8cac	0.076440185
222	0x3e329cbd	0.17442603
223	0xbc438102	-0.011932613
224	0xbe284d24	-0.16435677
225	0x3e3ff27a	0.18744841
226	0xbdad42ec	-0.0846003
227	0xbd27ecca	-0.040997304
228	0x3e555824	0.20834404
229	0xbda203a1	-0.079108484
230	0xbe6632d4	-0.22480327
231	0x3e2381d1	0.1596749
232	0xbcd0a731	-0.025470348
233	0xbd4962dd	-0.04916655
234	0x3e20c452	0.1569989
235	0x3ea3863a	0.31938344
236	0x3dab2283	0.08356192
237	0xbea20298	-0.31642604
238	0x3e0efc7f	0.13963507
239	0x3ed90ec1	0.4239407
240	0xbea82cba	-0.32846624
241	0x3c9a2469	0.01881619
242	0xbc98d84f	-0.018657831
243	0x3cef4e78	0.029212222
244	0x3d56fb96	0.052486025
245	0xbdab7192	-0.08371271
246	0x3e4af7c8	0.19821084
247	0x3def9afa	0.11699481
248	0x3e77fe73	0.24218158
249	0xbd8c0d44	-0.06838468
250	0x3ebc1c58	0.36740375
251	0x3db67be0	0.08910346
252	0xbdfdaf29	-0.12386925
253	0xbe921e26	-0.28538626
254	0x3d9434e7	0.07236653
255	0xbe730f88	-0.23736393

lstm.bias_ih_l0 f4 [512]
0	0xbe2aa5ca	-0.16664806
1	0xbe86be22	-0.26316935
2	0xbe6287c8	-0.22122109
3	0xbe95320d	-0.29139748
4	0xbe354582	-0.17702296
5	0xbed7d530	-0.42154837
6	0xbcb49b05	-0.022046575
7	0x3e866371	0.26247743
8	0xbd8272eb	-0.06369575
9	0xbe1fb7a8	-0.15597403
10	0xbdbeccf2	-0.09316434
11	0xbe8179e9	-0.25288323
12	0xbe8397d2	-0.25701767
13	0xbe236e84	-0.15960127
14	0x3da87881	0.08226109
15	0xbeda4484	-0.42630398
16	0x3d40c3e0	0.0470618
17	0xbdc1eaa2	-0.09468581
18	0xbeb7b325	-0.35878864
19	0xbe38ef9a	-0.1806015
20	0xbea44603	-0.32084665
21	0xbe24e4cc	-0.16102904
22	0xbe82bf89	-0.25536755
23	0xbe62daac	-0.22153729
24	0xbe43a691	-0.19106509
25	0xbe934738	-0.28765273
26	0xbe58847d	-0.2114429
27	0xbe93bef6	-0.2885663
28	0xbe838271	-0.25685456
29	0xbdc85b3a	-0.09783025
30	0xbe674e82	-0.22588542
31	0xbe884cb7	-0.2662103
32	0xbd499853	-0.049217533
33	0xbec891dd	-0.39173785
34	0xbd8d7c8f	-0.06908523
35	0xbe8396ac	-0.2570089
36	0x3c39bf0a	0.011337051
37	0xbddeadbc	-0.10872981
38	0xbcee4963	-0.029087728
39	0xbe834154	-0.2563578
40	0x3a35256c	0.00069101783
41	0xbe5b717f	-0.21430014
42	0xbe9a7950	-0.3017068
43	0xbeb1ab19	-0.3470085
44	0xbeb7fa73	-0.35933265
45	0xbdc0ab80	-0.09407711
46	0xbdf09b80	-0.11748409
47	0xbea0e292	-0.3142286
48	0xbebe7f56	-0.37206525
49	0xbeae52b1	-0.34047464
50	0x3d2b8efe	0.041884415
51	0xbda2f137	-0.07956164
52	0xbdd309e1	-0.103046186
53	0xbe6d5ab6	-0.23179135
54	0xbe0affaa	-0.1357409
55	0xbe192b44	-0.14957911
56	0xbdd7c48e	-0.10535537
57	0xbde7fb78	-0.11327261
58	0xbeaaf91c	-0.3339318
59	0xbe0a1a7f	-0.1348667
60	0xbe27cf68	-0.16387713
61	0x3dcf041b	0.10108205
62	0xbdfe7f2c	-0.124266
63	0xbec444d0	-0.3833375
64	0xbe69a71d	-0.22817655
65	0xbe745590	-0.23860765
66	0x3bd309fd	0.0064403997
67	0xbdb4f9dc	-0.088367194
68	0xbdcb7563	-0.09934499
69	0xbd873f63	-0.06603887
70	0xbe229ef9	-0.15880956
71	0xbe5364b7	-0.20643888
72	0xbe3bfd18	-0.18358266
73	0xbe12a34d	-0.14320107
74	0xbe25bd6b	-0.16185538
75	0xbea74c46	-0.3267538
76	0xbec4b02a	-0.38415653
77	0xbe3b04d9	-0.18263568
78	0xbe8ba75a	-0.27276117
79	0xbe114cd9	-0.14189471
80	0xbe5e2f4a	-0.21697727
81	0x3d0490d2	0.032364674
82	0xbdb4da79	-0.08830733
83	0xbea133f8	-0.31484962
84	0xbeaa6e57	-0.33287308
85	0xbe3e695e	-0.18594882
86	0xbe43cc6b	-0.19120948
87	0xbcfec838	-0.031101331
88	0xbe1c4522	-0.15260747
89	0xbc2054d4	-0.00978585
90	0x3caf9f8e	0.021438386
91	0xbedfbe92	-0.4370008
92	0xbe92fc11	-0.28707936
93	0xbed74ca6	-0.42050666
94	0x3d560541	0.052251104
95	0xbe7171ae	-0.23578522
96	0xbece490c	-0.40290105
97	0xbd943180	-0.07236004
98	0xbe802605	-0.25029007
99	0xbd82fea1	-0.06396223
100	0x3dd3799d	0.1032593
101	0xbdaf0cfd	-0.08547399
102	0x3e099cbb	0.13438694
103	0xbe8e42c8	-0.27785325
104	0xbee5747e	-0.4481544
105	0xbe29addf	-0.16570233
106	0xbec77e93	-0.38963756
107	0xbd58a9a2	-0.05289615
108	0xbec8ab85	-0.3919336
109	0xbd54d011	-0.05195624
110	0xbe2105d8	-0.15724885
111	0xbd06d3fa	-0.032917
112	0xbe95c888	-0.29254556
113	0xbe6d51fe	-0.23175809
114	0xbd3e5514	-0.046467856
115	0xbe5cc083	-0.21557812
116	0xbc0a8500	-0.008454561
117	0xbe7d6f4d	-0.24749489
118	0xbe1a3235	-0.15058215
119	0xba88062b	-0.0010377815
120	0x3e4a4cc3	0.19755845
121	0xbec1b924	-0.37836564
122	0xbe517464	-0.20454556
123	0xbe911292	-0.2833448
124	0xbe456576	-0.19276986
125	0x3c6c55c1	0.014424742
126	0xbe464cb7	-0.19365202
127	0xbe517f84	-0.204588
128	0x3ec4a638	0.38408065
129	0xbe2bd756	-0.16781363
130	0x3e38d6e8	0.1805073
131	0x39828e06	0.00024901348
132	0xbda8aa3c	-0.08235595
133	0xbe3f50ff	-0.18683241
134	0xbe554da9	-0.20830406
135	0x3e3c0a72	0.1836336
136	0x3e5fedaf	0.21868013
137	0x3e1041f5	0.1408766
138	0x3d5061a4	0.050874367
139	0x3d202c1e	0.039104573
140	0xbe50a25b	-0.20374434
141	0xbe437741	-0.1908846
142	0x3e042c5e	0.1290755
143	0xbe139a23	-0.14414267
144	0x3e43e268	0.19129336
145	0x3e09f6f5	0.13473113
146	0xbea6b9ba	-0.32563573
147	0xbe30aa7c	-0.17252535
148	0xbeada689	-0.3391612
149	0xbbc0c567	-0.005882907
150	0xbe413e96	-0.18871531
151	0xbdb8545b	-0.090004645
152	0x3e0b5fe8	0.13610804
153	0x3ce7fec3	0.028319722
154	0x3e885998	0.26630855
155	0xbe88ef5b	-0.26745114
156	0xbe2c42e2	-0.16822389
157	0xbc23096d	-0.009950978
158	0x3cbc49c6	0.022984397
159	0xbea073b9	-0.3133829
160	0x3ed22931	0.41047052
161	0xbdad15ff	-0.08451461
162	0xbd214a7e	-0.039377682
163	0xbd879d63	-0.06621816
164	0x3c0d21e7	0.00861404
165	0xbced9ff7	-0.029006941
166	0xbc8165a9	-0.015795546
167	0x3dd925c4	0.10602906
168	0xbe11e8f2	-0.14249018
169	0xbdd85477	-0.105629854
170	0xbd5775d6	-0.05260261
171	0xbe6376ec	-0.22213334
172	0xbef2a760	-0.47393322
173	0x3d4e0c27	0.050304558
174	0xbdb97b08	-0.090566695
175	0x3d4c756f	0.04991668
176	0x3cd29df1	0.025710078
177	0xbd7913a3	-0.060809743
178	0xbe1ade59	-0.15123881
179	0xb9d75ab0	-0.00041075563
180	0xbddb9860	-0.107224226
181	0xbb5feb84	-0.0034167478
182	0x3d329cbf	0.043606516
183	0xbdbc4b51	-0.09194053
184	0xbd87f751	-0.06638969
185	0x3e17d155	0.14825948
186	0x3e9d46c5	0.30718055
187	0x3debbb51	0.11510337
188	0xbea5fabb	-0.32417855
189	0xbe02614e	-0.12732431
190	0xbdd1d31d	-0.10245345
191	0xbdd590af	-0.10427987
192	0xbe2c3a1e	-0.16819045
193	0xbe498f06	-0.19683465
194	0xbeb69a47	-0.3566458
195	0x3b932782	0.0044907937
196	0x3eaeaba2	0.3411532
197	0xbb9ae3cd	-0.004726863
198	0x3da9f655	0.08298937
199	0xbda44d29	-0.0802253
200	0xbdae2491	-0.08503068
201	0xbe214e46	-0.15752515
202	0x3d137897	0.036003675
203	0xbec3a6df	-0.3821325
204	0x3ee84823	0.45367536
205	0xbdc659c4	-0.0968509
206	0xbe1a41b5	-0.15064128
207	0xbe740b97	-0.23832546
208	0xbe695ba9	-0.22788872
209	0x3cf2362f	0.029566852
210	0xbdfaaa92	-0.12239565
211	0xbda9fbb8	-0.08299965
212	0xbe6170da	-0.22015706
213	0x3d65ec58	0.056133598
214	0x3ecf9e54	0.40550482
215	0x3d68d2c9	0.056841645
216	0x3d678a3e	0.056528322
217	0x3e6d1b49	0.2315494
218	0x3ea0aa87	0.31380102
219	0x3ded7bb3	0.115958594
220	0xbe5993dc	-0.2124781
221	0xbe56b7ae	-0.20968506
222	0x3e26fc9e	0.16307303
223	0xbe1bd95f	-0.15219639
224	0xbe4cf786	-0.20016298
225	0xbe31260d	-0.17299671
226	0xbdcaafee	-0.09896837
227	0xbe1c2d6b	-0.152517
228	0xbdd90255	-0.10596148
229	0x3d7a5140	0.061112642
230	0x3dbbe438	0.09174389
231	0xbdf95069	-0.1217354
232	0xbeab9caa	-0.33517963
233	0xbdf7b244	-0.12094548
234	0x3ead9c71	0.33908418
235	0xbd62cf4e	-0.055373482
236	0xbdfd2c5e	-0.12361978
237	0x3e0a3d96	0.13500056
238	0xbe69c507	-0.22829066
239	0x3dbafb97	0.09130018
240	0xbe3c508c	-0.18390101
241	0xbe928350	-0.28615808
242	0xbdfe24f5	-0.12409393
243	0xbb89b393	-0.004202315
244	0xbe1aec3e	-0.15129182
245	0xbe4355a5	-0.1907564
246	0x3e170c51	0.14750792
247	0x3e0a6053	0.13513307
248	0x3e884b28	0.2661984
249	0xbe922f4e	-0.28551716
250	0xbe6b96c5	-0.23006733
251	0x3c161ea8	0.009162582
252	0xbd3ba1db	-0.045808654
253	0x3d32b9fb	0.043634396
254	0x3cdbeb32	0.026845548
255	0xbe0dbb80	-0.13841057

lstm.bias_hh_l0 f4 [512]
0	0xbe83a0c5	-0.25708595
1	0xbe7416ad	-0.23836775
2	0xbda66a9c	-0.08125803
3	0xbea30049	-0.31836155
4	0xbe8081b7	-0.25098965
5	0xbec1502f	-0.37756488
6	0xbe189392	-0.14900044
7	0x3ec09e82	0.37620932
8	0x3ab34573	0.0013677314
9	0xbda6919a	-0.0813324
10	0xbd2198b2	-0.039452262
11	0xbe5fa2a5	-0.21839388
12	0xbe10640f	-0.1410067
13	0xbde238bb	-0.11045977
14	0x3e127775	0.14303382
15	0xbeb5edfd	-0.35533133
16	0xbc98c350	-0.01864782
17	0xbe2b2481	-0.16713144
18	0xbe990deb	-0.2989343
19	0xbe6257da	-0.22103825
20	0xbe5d1e45	-0.21593578
21	0xbde38ba7	-0.11110621
22	0xbea66ca1	-0.32504752
23	0xbe1c51ac	-0.1526553
24	0xbe30d06b	-0.17267005
25	0xbe73ef99	-0.23821868
26	0xbe7f437f	-0.24928091
27	0xbe649381	-0.22321893
28	0xbeb72eb9	-0.35777834
29	0xbdc21488	-0.09476572
30	0xbebd799a	-0.37006837
31	0xbe40cc8a	-0.18828025
32	0xbd2ebcea	-0.04266063
33	0xbe83d0f5	-0.2574536
34	0xbe4d91b6	-0.20075116
35	0xbe0cf674	-0.1376589
36	0x3d80d16b	0.06289943
37	0xbdfd64d8	-0.1237275
38	0xbcf809e0	-0.030278146
39	0xbe34aa07	-0.17642985
40	0xbd593f97	-0.05303916
41	0xbe6a8da0	-0.22905588
42	0xbe5218aa	-0.20517221
43	0xbebcc686	-0.3687021
44	0xbeefe66a	-0.4685548
45	0xbd9cbdea	-0.07653411
46	0xbe205dae	-0.15660736
47	0xbe978fc2	-0.29601866
48	0xbe99da5c	-0.30049407
49	0xbe769b46	-0.2408267
50	0x3c2b15f2	0.010442244
51	0xbde20537	-0.11036151
52	0xbe08067f	-0.13283728
53	0xbe3ebf1f	-0.18627594
54	0xbde0fd66	-0.10985832
55	0xbe1f708d	-0.15570278
56	0x3cac3d49	0.021025317
57	0xbbe7edc7	-0.007077906
58	0xbeea3d0f	-0.4574971
59	0xbe0cfef1	-0.13769127
60	0xbe53bff3	-0.20678692
61	0x3dd4f1d2	0.10397686
62	0xbe322bdf	-0.17399548
63	0xbe801dbf	-0.25022694
64	0xbe663749	-0.22482027
65	0xbe2fc810	-0.17166162
66	0xbd514ab3	-0.05109663
67	0xbdbb4704	-0.091444045
68	0x3d7f530c	0.06233506
69	0xbe265bfb	-0.16246025
70	0xbe42a4da	-0.19008198
71	0xbe6bce3a	-0.23027888
72	0xbdbd5cbf	-0.092462055
73	0xbdebb488	-0.11509043
74	0xbe63b68c	-0.22237605
75	0xbe94514f	-0.28968284
76	0xbebfc898	-0.37457728
77	0xbe590288	-0.21192372
78	0xbe0ebbc2	-0.13938811
79	0xbdf07d77	-0.117426805
80	0xbd4efa8b	-0.050531905
81	0x3da27bf4	0.079337984
82	0xbe260057	-0.16211067
83	0xbe1b4373	-0.15162449
84	0xbe911d78	-0.28342795
85	0xbc82a69f	-0.015948592
86	0xbe6334e6	-0.22188148
87	0x3da1767a	0.07883926
88	0xbe62339c	-0.2209
89	0xbd221155	-0.03956731
90	0x3d9577a0	0.07298207
91	0xbedea133	-0.4348236
92	0xbe770d37	-0.24126135
93	0xbeebd63d	-0.46061888
94	0xbdb6dbc8	-0.08928639
95	0xbe7cc2e4	-0.2468372
96	0xbeba6f46	-0.3641302
97	0xbdcbb71f	-0.09947037
98	0xbeb67594	-0.3563658
99	0xbd14da55	-0.03634103
100	0x3dada4b4	0.0847868
101	0xbcd4cb27	-0.025975777
102	0x3dcfbfaf	0.101439826
103	0xbe8680bd	-0.26270095
104	0xbebf68b4	-0.3738457
105	0xbe7fa803	-0.24966435
106	0xbec4359b	-0.38322148
107	0xbe3d1ac3	-0.1846724
108	0xbeca6a5c	-0.3953427
109	0xbdd14cb2	-0.102197066
110	0xbe17a99a	-0.14810792
111	0x3d010cce	0.031506352
112	0xbe365ce6	-0.17808875
113	0xbe328b8a	-0.17436042
114	0xbd3b1978	-0.045678586
115	0xbe925eb2	-0.28587872
116	0xbd6c458b	-0.05768351
117	0xbeb742a1	-0.3579302
118	0xbded72aa	-0.11594136
119	0xbb07f58d	-0.0020745725
120	0x3e3860c8	0.18005669
121	0xbeb671a2	-0.3563357
122	0xbe123597	-0.14278255
123	0xbe8ad4bc	-0.27115428
124	0xbe93efc1	-0.28893855
125	0xbdc6fc0a	-0.097160414
126	0xbe817f9f	-0.2529268
127	0xbe1f72ed	-0.15571184
128	0x3e8db3f1	0.27676347
129	0xbdebe3b1	-0.11518038
130	0x3e3c7821	0.184052
131	0xbda42712	-0.080152646
132	0xbde42202	-0.11139299
133	0xbe4e38e8	-0.20138896
134	0xbe574717	-0.21023212
135	0x3d80f1a7	0.062960915
136	0x3e074556	0.13210043
137	0x3e0791ce	0.13239214
138	0x3d9598a2	0.07304503
139	0x3dd367ee	0.103225574
140	0xbd8ef666	-0.069805905
141	0xbe4932bf	-0.19648264
142	0x3dcbe3ab	0.099555336
143	0xbe0fb8e1	-0.1403537
144	0x3db4a1f9	0.08819956
145	0xbc17b147	-0.009258575
146	0xbec61a6a	-0.38692027
147	0xbe297d00	-0.1655159
148	0xbe84eb2a	-0.25960666
149	0x3df59da4	0.11992958
150	0xbde4a627	-0.111645035
151	0xbe3f0fcd	-0.18658371
152	0x3d90f0f7	0.070772104
153	0xbd1c9c0a	-0.038234748
154	0x3e81761b	0.2528542
155	0xbe76a8a9	-0.24087776
156	0xbd034bd4	-0.032054737
157	0xbd09f180	-0.033677578
158	0x3da06594	0.078318745
159	0xbec933a1	-0.39297202
160	0x3eb23f01	0.34813693
161	0xbd186ad3	-0.03721125
162	0x3d003e4a	0.031309403
163	0xbe17371a	-0.14767113
164	0x3c554d73	0.013018954
165	0xbe0f39fd	-0.13986965
166	0xbd000ce1	-0.031262282
167	0x3c8addd2	0.016951475
168	0xbdd39634	-0.10331383
169	0xbdf86db9	-0.12130303
170	0xbe008b7a	-0.12553206
171	0xbe44bd1d	-0.19212766
172	0xbf00ad9d	-0.5026491
173	0xbd7bd56d	-0.061482836
174	0xbe244f17	-0.16045795
175	0x3ca4d82e	0.020122614
176	0x3e375690	0.17904115
177	0x3b850318	0.0040592067
178	0xbe4f4c74	-0.20244008
179	0xbe217102	-0.15765765
180	0xbad253de	-0.0016046723
181	0xbd41285c	-0.04715763
182	0x3e2f28fa	0.17105475
183	0xbdd999fe	-0.10625075
184	0xbe308ff1	-0.1724241
185	0x3e273705	0.16329582
186	0x3eba16be	0.36345476
187	0x3e330bc1	0.17484953
188	0xbe835477	-0.2565038
189	0xbdf08515	-0.117441334
190	0xbd9b052b	-0.07569345
191	0xbd3bd662	-0.04585875
192	0xbe297376	-0.16547951
193	0xbd868c61	-0.06569744
194	0xbe427493	-0.18989782
195	0xbd828025	-0.06372098
196	0x3ea72f62	0.32653338
197	0x3d022085	0.031769294
198	0x3cd0359e	0.025416192
199	0xbe474f83	-0.19463925
200	0xbdd6a6c5	-0.104810275
201	0xbe3e1435	-0.18562396
202	0xbd51c621	-0.05121434
203	0xbec8c891	-0.3921552
204	0x3ee8632f	0.4538817
205	0x3c8ba128	0.017044619
206	0xbe30291d	-0.17203183
207	0xbe5eecde	-0.21770045
208	0xbe6ccf25	-0.23125894
209	0x3dc8763e	0.09788178
210	0xbe3c89ae	-0.18411896
211	0xbdfde5d6	-0.12397353
212	0xbdec5a1e	-0.11540626
213	0x3b820f75	0.003969128
214	0x3ec1ecec	0.3787607
215	0x3e30338f	0.17207168
216	0x3dbe0dac	0.092799515
217	0x3e75756e	0.23970577
218	0x3eddfa65	0.43355098
219	0x3e595f0a	0.21227661
220	0xbe58dba6	-0.21177539
221	0xbded857c	-0.11597726
222	0x3e7ac444	0.24488932
223	0xbe36200c	-0.17785662
224	0xbe9926eb	-0.29912505
225	0xbe744460	-0.23854208
226	0xbd5c8300	-0.05383587
227	0xbdb0c1be	-0.086307034
228	0xbe4d8c7a	-0.20073119
229	0xbcc0af5f	-0.023521123
230	0x3e407ef4	0.18798429
231	0xbd0aa8f7	-0.033852544
232	0xbe664768	-0.22488177
233	0xbdb4ddc5	-0.08831362
234	0x3ecc0d1d	0.39853755
235	0xbe3bbaf2	-0.18333033
236	0xbe1ea9b1	-0.1549442
237	0x3d9ebd4b	0.077509485
238	0xbe9004ac	-0.28128564
239	0x3d86701b	0.06564351
240	0xbe001b8f	-0.12510513
241	0xbeb4d2a0	-0.35316944
242	0xbe2f89b7	-0.17142378
243	0xbdbe04b3	-0.0927824
244	0xbd980fdc	-0.074249
245	0xbe954689	-0.29155377
246	0x3da4ef90	0.080535054
247	0x3da9392c	0.08262858
248	0x3ea41398	0.320462
249	0xbe7c73da	-0.24653569
250	0xbe1d823e	-0.15381715
251	0xbdcd967b	-0.100384675
252	0xbe167aed	-0.1469533
253	0x3dc3daed	0.09563241
254	0x3df09d61	0.11748768
255	0xbe30e04d	-0.17273064

fc1.weight f4 [64, 128]
0	0xbca23f03	-0.019805437
1	0x3e064df3	0.13115673
2	0xbd215d74	-0.039395764
3	0xbde43777	-0.111433916
4	0x3d3dfa8e	0.046381526
5	0x3cc53497	0.024072928
6	0xbc22421c	-0.009903457
7	0xbdc4f44f	-0.09616911
8	0x3de3865d	0.11109612
9	0xbd4220d6	-0.047394596
10	0xbd3eb0ad	-0.04655521
11	0x3de3249f	0.11090969
12	0x3dc028a3	0.09382751
13	0x3dba59ae	0.09099136
14	0xbd09e82c	-0.033668682
15	0x3c2e38e5	0.010633682
16	0x3c105fe6	0.0088119265
17	0xbdb1b3a2	-0.0867684
18	0xbdd91351	-0.105993874
19	0x3e1789bf	0.1479864
20	0x3e4943dc	0.19654793
21	0x3d86d698	0.06583899
22	0x3cbb65cf	0.022875695
23	0xbe0a2429	-0.13490357
24	0xbd7ca610	-0.061681807
25	0x3ed26076	0.4108922
26	0xbe7e20ce	-0.24817201
27	0xbd98061d	-0.07423041
28	0x3dcfb2d9	0.10141534
29	0x3bbeb406	0.0058198003
30	0x3da20c34	0.07912484
31	0x3d9f98a2	0.07792784
32	0x3e8fc481	0.28079608
33	0x3cb67bd5	0.022275845
34	0xbdae421f	-0.08508705
35	0x3d49f0a0	0.049301744
36	0x3cb29ecf	0.021804241
37	0x3e06c847	0.13162337
38	0x3db5fb0d	0.08885775
39	0xbdd5b147	-0.104342036
40	0x3e17d797	0.14828335
41	0x3e867ec4	0.2626859
42	0xbcb9ecb7	-0.022695882
43	0xbd475070	-0.048660696
44	0xbd684a32	-0.056711383
45	0x3dce478a	0.10072239
46	0x3ea082c8	0.31349778
47	0x3aa8108a	0.0012822312
48	0x3c33d2d5	0.010975559
49	0xbcf7f19e	-0.03026658
50	0xbd8f1a59	-0.06987447
51	0x3db9f14d	0.090792276
52	0xbda87f29	-0.08227379
53	0x3dc918b5	0.098191656
54	0xbc3ed979	-0.011648529
55	0x3e21f837	0.15817343
56	0xbcc0a3fa	-0.02351569
57	0xbd48cf8b	-0.049026053
58	0xbd2f52fc	-0.04280375
59	0xbd9bcd2e	-0.07607494
60	0xbd7c77f5	-0.061637837
61	0xbe13208d	-0.14367886
62	0x3dff0ef5	0.12454025
63	0x3d4d2371	0.050082628
64	0x3a70cd4b	0.00091858645
65	0xbd97dd70	-0.07415283
66	0xbdc68654	-0.0969359
67	0xbcdd2282	-0.026993994
68	0xbd8fdb97	-0.07024305
69	0xbd1426f8	-0.036169976
70	0xbd309af7	-0.043116536
71	0xbd5322c6	-0.051546834
72	0x3d1f229c	0.038851365
73	0xb8f90043	-0.00011873294
74	0xbe22f31a	-0.15913048
75	0x3dc5d885	0.096604384
76	0x3aee5b55	0.0018185178
77	0xbcfc2dc5	-0.030783543
78	0xbe39a8e9	-0.1813084
79	0xbdcd8262	-0.10034634
80	0xbc29cfab	-0.010364453
81	0xbe364802	-0.17800906
82	0xbd93bff0	-0.072143435
83	0x3d25e5a1	0.040502194
84	0xbe373bef	-0.17893957
85	0xbdfc6573	-0.123240374
86	0xbd77b6d5	-0.060477097
87	0xbe028329	-0.12745346
88	0x3d1c3d29	0.038144264
89	0x3dd81d86	0.10552506
90	0x3c69c886	0.014269
91	0xbd6ea451	-0.058262173
92	0x3c8846b9	0.016635286
93	0xbe35ec8d	-0.17766018
94	0x3afb9fb6	0.0019197378
95	0x3de9a8dd	0.11409161
96	0xbc2e90fd	-0.010654685
97	0xbdaa2fc8	-0.08309895
98	0xbc79afb3	-0.015239644
99	0x3e5b9050	0.2144177
100	0x3d1450c5	0.03620984
101	0xbe54e91e	-0.20792052
102	0xbdafd77c	-0.08586022
103	0x3dd2b9e6	0.102893636
104	0xbd8da1e5	-0.069156446
105	0x3c0bbea9	0.008529344
106	0x3ede2948	0.4339087
107	0xbda33251	-0.079685815
108	0x3d339949	0.043847356
109	0xbd838d97	-0.064234905
110	0x3cebf6fb	0.028804293
111	0xbd29080a	-0.041267432
112	0x3e676f53	0.2260106
113	0xbdd75bfb	-0.10515591
114	0xbd36696a	-0.044534124
115	0xbe0e0eed	-0.13872881
116	0xbd40c99a	-0.047067262
117	0x3dab98ee	0.083787784
118	0x3c3aeddf	0.011409252
119	0xbe1a0442	-0.15040687
120	0xbe285d9f	-0.16441964
121	0x3dc118c5	0.094285525
122	0xbdd9aec6	-0.106290385
123	0xbd60b24c	-0.054857537
124	0xbe42b875	-0.19015677
125	0xbdb8ac32	-0.09017219
126	0xbd86b622	-0.06577708
127	0xbdd60fc2	-0.10452224
128	0x3e90e6fb	0.28301224
129	0xbcafd64d	-0.021464491
130	0x3e42abed	0.19010897
131	0xbcdb868f	-0.026797561
132	0xbd9e2827	-0.07722502
133	0xbe100a0b	-0.14066331
134	0x3d019c49	0.031643186
135	0xbc24c474	-0.010056604
136	0x3dec86fd	0.115491845
137	0x3e8b1ff1	0.27172807
138	0xbd829126	-0.06375341
139	0xbe722cd9	-0.2364992
140	0x3e0233dc	0.12715095
141	0x3ccc059b	0.024905017
142	0x3d4aec1a	0.04954157
143	0xbd8cc524	-0.06873539
144	0xbda97ff1	-0.08276356
145	0xbe1943d5	-0.14967282
146	0xbe0944bf	-0.13405131
147	0xbe20eefd	-0.15716167
148	0xbdd2af36	-0.10287325
149	0x3d8faf4a	0.070158556
150	0xbca17e29	-0.019713478
151	0xbd30f230	-0.043199718
152	0x3d0ad7fb	0.03389738
153	0xbe8d6088	-0.2761271
154	0x3dd0ceeb	0.101957165
155	0xbda876c6	-0.08225779
156	0xbd1629f0	-0.03666109
157	0x3e2d5dea	0.16930357
158	0xbe8e0311	-0.27736714
159	0xbe049c86	-0.12950334
160	0xbe9df1c5	-0.30848518
161	0xbdac46aa	-0.084119156
162	0x3e0c6eb6	0.13714108
163	0xbe0d336e	-0.1378915
164	0x3d564137	0.052308287
165	0x3e8ebed0	0.27879953
166	0x3e48418a	0.19556251
167	0x3cf483bb	0.02984797
168	0xbe72357e	-0.23653218
169	0xbd1275a9	-0.03575674
170	0xbdcf5678	-0.101239145
171	0x3d58ae23	0.052900445
172	0xbd893239	-0.06699032
173	0xbc02feaa	-0.007995287
174	0xbc7f0b01	-0.015566588
175	0x3d89712c	0.06711039
176	0xbd958a94	-0.07301822
177	0x3c121e05	0.00891829
178	0xbd7dcb37	-0.06196138
179	0xbd9e0504	-0.077158004
180	0x3c84bf81	0.016204597
181	0x3cfb9c59	0.0307142
182	0xbde4a327	-0.11163931
183	0xbe4dad34	-0.20085603
184	0x3e5bc09e	0.21460196
185	0xbd9849a2	-0.07435919
186	0x3c873c4f	0.01650825
187	0xbd91d750	-0.07121146
188	0xbde509de	-0.11183523
189	0xbd2beb1b	-0.04197226
190	0x3d8d3981	0.068957336
191	0xbd8debcc	-0.0692974
192	0xbdc32225	-0.09527997
193	0x3c5697ce	0.0130977165
194	0xbd822393	-0.063544415
195	0xbd40d8a3	-0.0470816
196	0xbe05e430	-0.13075328
197	0xbd6e16f5	-0.058127362
198	0x3e46257c	0.19350237
199	0xbc752808	-0.0149631575
200	0x3d375992	0.044763155
201	0xbcc86399	-0.024461554
202	0x3e00ecac	0.12590283
203	0xbe1605cc	-0.14650649
204	0xbd1dc9bc	-0.038522467
205	0xbc6e54b0	-0.014546558
206	0xbe1ab07d	-0.15106387
207	0xbd96ed67	-0.073695
208	0x3e458fdb	0.19293158
209	0x3b8a2f92	0.0042170966
210	0xbddc031c	-0.107427806
211	0xbdeb689d	-0.11494563
212	0xbc2164da	-0.009850705
213	0xbe214d2e	-0.15752098
214	0xbd05fa0b	-0.032709163
215	0x3e685a40	0.22690678
216	0xbe000a67	-0.12503968
217	0x3dc6dc12	0.09709944
218	0x3de58cbd	0.11208484
219	0xbdfce3dd	-0.12348149
220	0xbc24f76e	-0.010068757
221	0x3e102b22	0.14078954
222	0x3d28e97f	0.041238304
223	0xbd3f6e64	-0.046736136
224	0x3d1c4274	0.038149312
225	0x3cf27bbb	0.029600015
226	0xbdfa4dfa	-0.12221904
227	0xbc5c9425	-0.013463055
228	0x3e17cacd	0.14823456
229	0x3d58adc9	0.05290011
230	0x3d873f8c	0.066039175
231	0x3db13b35	0.08653871
232	0x3a31f209	0.000678808
233	0xbdc0dbfa	-0.09416957
234	0xbef7f10b	-0.4842609
235	0xbd69d46b	-0.057087343
236	0x3d328c87	0.04359105
237	0xbdadb913	-0.08482566
238	0x3dd7d5e8	0.10538846
239	0xbd619122	-0.05507005
240	0xbe525940	-0.20541859
241	0x3e363631	0.1779411
242	0xbe0fce35	-0.14043505
243	0x3d4e7768	0.050406843
244	0xbddba6bc	-0.107251614
245	0xbd93a7cf	-0.07209741
246	0x3dddd3b3	0.10831394
247	0x3e8d762c	0.2762922
248	0x3dd8bf27	0.105833344
249	0xbd7c40d6	-0.06158527
250	0x3d5010d8	0.050797313
251	0x3e1c4f79	0.15264691
252	0x3e673ffc	0.22583002
253	0xbe08c1f4	-0.13355237
254	0x3ddb22f2	0.10700025
255	0xbd386e53	-0.04502709

fc1.bias f4 [64]
0	0xbb682e16	-0.003542786
1	0xbd9ca91b	-0.07649442
2	0x3db0f3f1	0.08640278
3	0x3d1eed5a	0.038800575
4	0x3da25b37	0.07927554
5	0x3d5776bb	0.052603465
6	0x3e329761	0.17440559
7	0x3dac1c51	0.084038384
8	0x3d7256d7	0.05916485
9	0xbbbd5124	-0.005777495
10	0xbd9d50bf	-0.07681417
11	0xbd7574a9	-0.05992571
12	0xb990d0e5	-0.0002762146
13	0xbc98f6da	-0.018672395
14	0xbca5e94f	-0.020252852
15	0xba6bb722	-0.00089918275
16	0xbb824a2a	-0.003976126
17	0x3ca4ccce	0.02011719
18	0xbd893861	-0.067002065
19	0xbd60bafc	-0.054865822
20	0x3d913e8b	0.07092007
21	0x3d6c0e96	0.057631098
22	0x3d8d0b2f	0.06886899
23	0x3dada97e	0.08479594
24	0xbd0fc892	-0.035103388
25	0x3ce85cb6	0.02836452
26	0xbd44390d	-0.04790597
27	0x3e0cee34	0.13762742
28	0xbc8c65a2	-0.017138306
29	0x3df271d8	0.1183812
30	0xbdca2ddf	-0.098720305
31	0x3d2a1e18	0.041532606
32	0x3c81abe7	0.01582904
33	0xbe1db62b	-0.15401523
34	0x3de2be60	0.110714674
35	0x3d09525a	0.033525802
36	0xbd6d0ce9	-0.05787364
37	0xbd672f78	-0.056441754
38	0xbd00ad8a	-0.0314155
39	0x3dc750f3	0.09732237
40	0x3d2e7a6a	0.042597212
41	0x3cfa11eb	0.030526122
42	0xbcbbf278	-0.022942767
43	0x3cee07c1	0.029056432
44	0x3db0a1fe	0.086246476
45	0xbd1f6bf5	-0.038921315
46	0x3d6a0dcc	0.057142064
47	0xbda29c00	-0.07939911
48	0x3dda9706	0.10673337
49	0x3e0413a8	0.12898123
50	0x3b37b868	0.0028033499
51	0xbcf64638	-0.03006278
52	0x3c18a5c6	0.009316867
53	0x3d12996c	0.035790846
54	0x3ba2d7b9	0.004969564
55	0xbdb7c1e6	-0.0897253
56	0x3c8fab61	0.017537775
57	0x3d2dcb53	0.042430233
58	0x3d901f13	0.07037177
59	0xbd6ea8af	-0.058266338
60	0xbd80d410	-0.06290448
61	0x3d85f2ba	0.06540437
62	0xbd73acab	-0.05949084
63	0xbd8574ff	-0.06516456

bn1.weight f4 [64]
0	0x3fa9ccd6	1.3265636
1	0x3f9cc246	1.2246788
2	0x3f9a3156	1.2046306
3	0x3f8dfa00	1.1091919
4	0x3f86c926	1.0530136
5	0x3f98c96a	1.1936467
6	0x3f9e4c64	1.2367063
7	0x3faa2650	1.3292942
8	0x3f9ff5ce	1.2496889
9	0x3f89b124	1.0757184
10	0x3fb10329	1.3829089
11	0x3fa3760a	1.2770398
12	0x3f997b09	1.1990672
13	0x3f927576	1.1442096
14	0x3f9443ae	1.1583154
15	0x3f8d5d66	1.1044128
16	0x3f8e06eb	1.1095861
17	0x3f841ee4	1.0321927
18	0x3fa9b38c	1.3257918
19	0x3f8a9137	1.0825566
20	0x3f9fcb9b	1.248401
21	0x3f962aad	1.1731774
22	0x3f9c4472	1.2208388
23	0x3f90ad8d	1.1302963
24	0x3f88f96f	1.0701121
25	0x3f9070bb	1.1284403
26	0x3f8e4524	1.111485
27	0x3f9abb53	1.2088417
28	0x3fbd3ff0	1.4785137
29	0x3f9e2c48	1.2357264
30	0x3faf58e8	1.3699007
31	0x3f90bb75	1.1307207
32	0x3f8c1421	1.0943643
33	0x3f89c91c	1.0764499
34	0x3f8bdd0c	1.0926833
35	0x3f974d00	1.1820374
36	0x3f993f65	1.1972471
37	0x3f869abf	1.0515975
38	0x3f8612aa	1.0474446
39	0x3f95c09d	1.1699406
40	0x3f83230e	1.0245073
41	0x3fb83428	1.4390917
42	0x3f8adc32	1.0848448
43	0x3f962624	1.173039
44	0x3f98f79b	1.1950563
45	0x3f977653	1.1832985
46	0x3f9de84c	1.2336516
47	0x3f967e25	1.1757246
48	0x3f9d5fc0	1.2294846
49	0x3f8fca24	1.1233563
50	0x3f9a3bc9	1.2049495
51	0x3f978cfb	1.1839899
52	0x3f992614	1.1964746
53	0x3f826699	1.018756
54	0x3f88bf5b	1.0683397
55	0x3f9f0fbd	1.2426678
56	0x3fab2111	1.3369466
57	0x3f9b5eab	1.2138265
58	0x3fa77cde	1.3084981
59	0x3f79f173	0.9763405
60	0x3fa8386b	1.3142217
61	0x3f9fd3fd	1.2486569
62	0x3f8c0521	1.0939065
63	0x3fb351f0	1.400938

bn1.bias f4 [64]
0	0x3de99e95	0.114072
1	0x3ec4d6d8	0.38445163
2	0xbe126cd2	-0.14299324
3	0x3e01cf1f	0.12676667
4	0xbe3d2626	-0.18471584
5	0x3e799772	0.24374178
6	0x3ea4cc3d	0.3218707
7	0xbce8e3f3	-0.028429007
8	0x3ee101a9	0.4394658
9	0x3e86b829	0.26312378
10	0x3f22d32f	0.6360349
11	0x3dd7eff1	0.10543812
12	0x3ac2654a	0.0014831212
13	0x3daafd5a	0.08349104
14	0x3c87f194	0.016594686
15	0x3e9e4c0f	0.30917403
16	0x3eae02a5	0.33986393
17	0xbdb9a4a2	-0.09064604
18	0x3e2bccd4	0.16777354
19	0xbd828538	-0.06373066
20	0xbb3ce020	-0.0028820112
21	0x3dd7166e	0.10502325
22	0x3e3c5dd8	0.18395174
23	0x3e235414	0.15950042
24	0x3c630e5d	0.013858405
25	0x3e7cee19	0.24700202
26	0x3e8610e8	0.26184773
27	0x3ea9549d	0.33072367
28	0x3eb564a1	0.35428336
29	0x3e3aff8b	0.18261544
30	0x3e1cae52	0.15300873
31	0xbe28a96c	-0.1647088
32	0xbe7cd63e	-0.24691102
33	0x3eff094d	0.49811783
34	0xbe8dd4b8	-0.27701354
35	0x3e8e8c93	0.27841625
36	0x3e3d4105	0.18481834
37	0x3bc7c695	0.006096671
38	0x3dce25b6	0.100657865
39	0xbda212fc	-0.07913777
40	0xbe386111	-0.18005778
41	0x3ee4154e	0.44547504
42	0xbdcb04b5	-0.09913007
43	0x3d0414dc	0.032246456
44	0x3e68da16	0.22739443
45	0x3d944d53	0.07241311
46	0x3e56f7b5	0.2099293
47	0x3e86107b	0.2618445
48	0x3e5bcadd	0.21464105
49	0x3db8b193	0.090182446
50	0x3e2ff44a	0.17183033
51	0x3e2b5f54	0.16735584
52	0x3e0d3eda	0.13793507
53	0xbe028760	-0.12746954
54	0x3e9b0294	0.30275404
55	0x3e880bc2	0.2657147
56	0x3ebcc99e	0.36872572
57	0x3e809c5a	0.25119287
58	0xbd966ccd	-0.07344971
59	0xbdbe27eb	-0.092849575
60	0x3e7824f9	0.24232854
61	0x3e69546d	0.22786112
62	0xbc287532	-0.010281848
63	0x3e87ec01	0.26547244

bn1.running_mean f4 [64]
0	0x3eb0c583	0.3452569
1	0xbdfb4963	-0.12269857
2	0x3f416e2a	0.7555872
3	0xbdcf402e	-0.10119663
4	0x3ea0d742	0.3141423
5	0xbf2d787d	-0.67761976
6	0xbe2a7ad9	-0.16648425
7	0x3e7ad276	0.24494347
8	0xbf0aed81	-0.5426865
9	0x3daac4f0	0.08338344
10	0xbf066307	-0.52494854
11	0x3d550d3e	0.05201458
12	0x3e89c595	0.26908556
13	0x3d2fab57	0.04288801
14	0x3f050d2b	0.5197322
15	0xbdf664d4	-0.1203095
16	0xbea8d14c	-0.3297218
17	0x3e7555ce	0.23958513
18	0xbd0b2604	-0.0339718
19	0x3ed0e579	0.40800074
20	0xbec6c10d	-0.3881916
21	0xbe3c1ca5	-0.18370302
22	0x3d8ae088	0.06781107
23	0x3cee238d	0.029069686
24	0xbd1bfa1a	-0.038080312
25	0x3db2ea00	0.08736038
26	0xbf1cc8b7	-0.61243767
27	0xbe3cf788	-0.184538
28	0xbf0259fb	-0.5091855
29	0xbe4aed1a	-0.1981701
30	0xbed16fae	-0.40905517
31	0x3f213298	0.62967825
32	0x3daf4aeb	0.08559211
33	0xbee5cedc	-0.44884384
34	0x3ea0cd52	0.31406647
35	0xbe0ca8f1	-0.13736321
36	0xbf0a4673	-0.54013747
37	0xbe91fc7c	-0.28512943
38	0xbe6e06d7	-0.23244797
39	0x3d6b5344	0.057452455
40	0x3efc0f33	0.49230346
41	0x3d969b6e	0.073538646
42	0x3ecc0850	0.39850092
43	0x3cc93a5f	0.024563966
44	0xbe1ec0a9	-0.15503182
45	0xbeb8961d	-0.36052027
46	0xbd85bc8a	-0.065301016
47	0xbf13468c	-0.5752952
48	0x3c2c66a9	0.010522523
49	0xbef8a286	-0.48561496
50	0x3d78f151	0.060777012
51	0xbf0d4a4b	-0.5519149
52	0x3eabd7a0	0.33562946
53	0x3f1f79ed	0.6229542
54	0x3e8cb31b	0.27480397
55	0xbea9bf8f	-0.3315396
56	0xbf4dc83d	-0.80383664
57	0xbe6cfc48	-0.23143113
58	0xbd7e22bc	-0.062044844
59	0x3f1ea07f	0.6196365
60	0xbe3accfc	-0.18242258
61	0xbedca8b2	-0.43097454
62	0x3b07ccc1	0.0020721408
63	0xbe7bf406	-0.24604806

bn1.running_var f4 [64]
0	0x3f0c601e	0.54834163
1	0x3f4b1c2a	0.7933985
2	0x3f485f3e	0.7827033
3	0x3f2a2eae	0.6647748
4	0x3f7c6f6e	0.9860753
5	0x3f634256	0.88773096
6	0x3f3ff37a	0.7498089
7	0x3f196725	0.5992301
8	0x3fa8d27a	1.3189232
9	0x3f18951e	0.59602535
10	0x3f4d990e	0.8031167
11	0x3f37adfc	0.71749854
12	0x3f558fd1	0.8342257
13	0x3f43d3f2	0.7649528
14	0x3ed01a68	0.40645146
15	0x3f1ed9ca	0.6205107
16	0x3f39bf6a	0.725577
17	0x3ec39dfe	0.38206476
18	0x3f8a8701	1.082245
19	0x3f326ede	0.6970042
20	0x3f514cce	0.8175782
21	0x3f2c1ae1	0.67228514
22	0x3f2c3744	0.6727183
23	0x3f1b318c	0.6062248
24	0x3ecdf135	0.4022309
25	0x3f2c1c83	0.67231005
26	0x3f2b5631	0.6692839
27	0x3ec34bf3	0.38143882
28	0x3f4c9f15	0.7993024
29	0x3f5af9a7	0.8553719
30	0x3f851dbe	1.0399702
31	0x3fbae1d6	1.460017
32	0x3f2c6860	0.67346764
33	0x3f6e7e4c	0.93161464
34	0x3f29ba14	0.6629956
35	0x3f607b2b	0.8768794
36	0x3edb8255	0.42872873
37	0x3f0f6d45	0.5602611
38	0x3ede85ae	0.43461365
39	0x3eee2672	0.46513706
40	0x3f29078b	0.66027135
41	0x3fa20c1d	1.2659947
42	0x3f258682	0.6465837
43	0x3f3299bc	0.6976583
44	0x3f17f338	0.593555
45	0x3f1cb1ec	0.6120899
46	0x3f5c6411	0.8609019
47	0x3f211433	0.62921447
48	0x3ebda40b	0.37039217
49	0x3f3cb260	0.7370968
50	0x3f1ed673	0.62045974
51	0x3f74abca	0.9557463
52	0x3f0a3c0f	0.5399789
53	0x3f8ea601	1.114441
54	0x3ed796e8	0.4210732
55	0x3f75e90b	0.9605872
56	0x3f5d32bb	0.86405534
57	0x3f37cb58	0.7179465
58	0x3f549a44	0.8304789
59	0x3f3a19c3	0.7269556
60	0x3f0fdce4	0.5619643
61	0x3f54296d	0.8287571
62	0x3efe208b	0.49634203
63	0x3f5b4892	0.8565761

fc2.weight f4 [4, 64]
0	0x3db0280f	0.086013906
1	0xbc98ea3b	-0.018666377
2	0xbeb44f3c	-0.352167
3	0x3d34442b	0.044010323
4	0xbe7db007	-0.2477418
5	0x3eab4fe1	0.3345938
6	0x3e962128	0.2932217
7	0x3d5f758b	0.054555457
8	0x3eb0665d	0.34453097
9	0x3e4aee9f	0.19817589
10	0x3d15b2ef	0.036547597
11	0xbe3324ec	-0.17494553
12	0x3d8aef75	0.06783954
13	0x3da4a59a	0.080393985
14	0xbe2c26a0	-0.1681161
15	0x3e7dd2bf	0.24787425
16	0x3e88514d	0.26624528
17	0x3d145ada	0.036219455
18	0x3dfdeaf8	0.12398332
19	0xbe062001	-0.13098146
20	0x3e907885	0.2821695
21	0x3dbbae2e	0.091640815
22	0x3dbb1f38	0.09136814
23	0x3e61c1ea	0.22046629
24	0x3c8df61d	0.01732927
25	0x3e855904	0.26044476
26	0x3e779eea	0.24181715
27	0x3e450e12	0.19243649
28	0x3d5f7b0a	0.0545607
29	0x3e8bd03b	0.27307305
30	0x3df35d0d	0.118829824
31	0xbe8b2f53	-0.27184543
32	0x3d16174e	0.03664332
33	0x3eb00818	0.34381175
34	0xbe0c84d5	-0.13722546
35	0x3e979a72	0.2961002
36	0x3db57062	0.08859326
37	0x3d5308f8	0.051522225
38	0x3df5d557	0.12003582
39	0xbdc1d92e	-0.09465252
40	0xbe393dab	-0.1808993
41	0x3e475f9c	0.19470066
42	0xbe05f979	-0.13083448
43	0x3df1de23	0.11809947
44	0x3e1b346c	0.15156716
45	0x3df9dab8	0.121999204
46	0x3e730786	0.23733339
47	0x3ea77434	0.32705843
48	0x3da10749	0.07862718
49	0x3de754fd	0.11295507
50	0x3e224bff	0.15849303
51	0x3e98871c	0.2979058
52	0x3d831992	0.064013615
53	0xbe7bfd07	-0.24608241
54	0x3cd6dd1d	0.026228482
55	0x3e8f89d0	0.2803483
56	0x3ec46adf	0.38362786
57	0x3e85c4da	0.26126748
58	0xbdc778c5	-0.09739832
59	0xbde41118	-0.11136073
60	0x3e4480e2	0.1918979
61	0x3e196782	0.14980891
62	0xbcba0d2f	-0.022711365
63	0x3e2c7d9d	0.16844793
64	0xbe9dac34	-0.30795443
65	0x3e529e80	0.20568275
66	0x3db29ad1	0.08720935
67	0xbe9e95a5	-0.30973545
68	0x3e042057	0.12902962
69	0x3d452d48	0.048138887
70	0xbd560376	-0.052249394
71	0xbe448260	-0.19190359
72	0xbdb0f53d	-0.086405255
73	0xbe832768	-0.25616002
74	0x3e75a9bd	0.23990531
75	0x3de04fed	0.10952745
76	0xbebb7a12	-0.3661657
77	0xbe970cbf	-0.29501912
78	0xbeca6f9c	-0.39538276
79	0x3ddba919	0.10725612
80	0xbe779b42	-0.2418032
81	0xbe67e42e	-0.22645637
82	0xbdf49641	-0.11942721
83	0xbea0ec42	-0.3143025
84	0xbe7a2681	-0.2442875
85	0xbe89c852	-0.26910645
86	0x3e4cf1c9	0.20014109
87	0xbcd58c40	-0.026067853
88	0xbea75e13	-0.3268896
89	0xbe476dcc	-0.19475478
90	0x3ce8c3b8	0.028413638
91	0x3d86bdfa	0.06579204
92	0x3e7ff77b	0.2499675
93	0xbe0f7aba	-0.1401166
94	0xbea03440	-0.31289864
95	0x3dd60153	0.10449471
96	0x3e9e1235	0.30873266
97	0x3d97a5a8	0.07404643
98	0xbe4e9685	-0.20174606
99	0xbe4ab7b4	-0.1979664
100	0x3e81f61a	0.25383073
101	0x3e3a138c	0.18171519
102	0xbe7613fb	-0.2403106
103	0x3e6d9b5a	0.23203793
104	0x3e2cb72f	0.16866754
105	0xbea7a3dd	-0.32742205
106	0x3e269e71	0.16271378
107	0xbebe1564	-0.37125695
108	0xbec19748	-0.3781073
109	0x3e91b106	0.2845537
110	0xbe17bae1	-0.14817382
111	0xbe33532f	-0.17512201
112	0xbe3f19df	-0.18662213
113	0x3e7792dc	0.24177116
114	0xbeb0ad18	-0.3450706
115	0xbdcb869f	-0.09937786
116	0xbe6683ef	-0.22511266
117	0xbd001e28	-0.03127876
118	0xbe80f26f	-0.25184962
119	0xbdc00600	-0.093761444
120	0xbd571c11	-0.052517
121	0xbd982516	-0.074289486
122	0x3e860c9e	0.261815
123	0x3e0e86bc	0.13918585
124	0xbe71adc6	-0.23601446
125	0x3e9d2431	0.30691674
126	0xbbc49822	-0.005999581
127	0x3ea24e9d	0.31700602
128	0xbea3d820	-0.32000828
129	0x3e0a3821	0.13497974
130	0x3e13e09d	0.14441152
131	0x3e2884a6	0.16456851
132	0x3e23032c	0.15919179
133	0xbdea0597	-0.114268474
134	0xbe149b54	-0.14512378
135	0xbed1d59d	-0.40983286
136	0xbe94412d	-0.28955975
137	0xbd85f6f1	-0.06541241
138	0xbf0bc39d	-0.5459536
139	0x3e37a61c	0.1793446
140	0xbe6255b5	-0.22103007
141	0x3e866d38	0.26255202
142	0x3e80ad00	0.2513199
143	0xbe06f530	-0.13179469
144	0xbd4a9503	-0.049458515
145	0x3e1a05f4	0.15041333
146	0xbe86aa39	-0.26301745
147	0x3e26fb21	0.16306736
148	0xbd9ebcad	-0.07750831
149	0xbe21c47a	-0.15797606
150	0xbe71e839	-0.23623742
151	0xbe1dc6d0	-0.15407872
152	0x3e4894fa	0.1958808
153	0xbe1f5be7	-0.15562402
154	0xbe87c341	-0.26516154
155	0xbecb54ea	-0.39713222
156	0xbef0bf2a	-0.47020847
157	0xbe6e9c66	-0.23301849
158	0xbeb5f411	-0.3553777
159	0x3e006bfc	0.12541193
160	0xbe9a4768	-0.30132604
161	0xbe844f5d	-0.258418
162	0xbe2c7bbf	-0.1684408
163	0xbd1aa86c	-0.037758276
164	0xbea50131	-0.3222747
165	0xbe46a3a3	-0.1939836
166	0xbea929a9	-0.33039597
167	0xbea17dbb	-0.31541237
168	0x3dfc6f16	0.123258755
169	0xbed7f198	-0.4217651
170	0x3e890823	0.2676402
171	0xbe561f3b	-0.20910351
172	0x3e4b359d	0.1984467
173	0xbe34d680	-0.1765995
174	0xbe53a1e3	-0.20667224
175	0xbd66f05d	-0.056381572
176	0x3eab3326	0.3343746
177	0xbe97942f	-0.29605243
178	0xbea381bf	-0.31934926
179	0xbe281d78	-0.16417491
180	0x3e9bad60	0.30405712
181	0x3ddce89c	0.10786554
182	0x3e926d93	0.28599223
183	0xbe1d8728	-0.1538359
184	0xbe44a4b3	-0.19203453
185	0xbec6a49d	-0.38797465
186	0xbeb2da98	-0.349324
187	0x3e32d24e	0.17463037
188	0xbf017d98	-0.50582266
189	0xbea64e30	-0.32481527
190	0xbeb4ef24	-0.353387
191	0xbe4d02b9	-0.2002057
192	0x3e8b933f	0.27260777
193	0xbf166ebe	-0.5876273
194	0x3dd1dff2	0.10247792
195	0xbe1b7d1f	-0.15184449
196	0xbd993f2a	-0.07482751
197	0xbcc8f8af	-0.024532644
198	0xbe2b2694	-0.16713935
199	0x3e6860a1	0.22693111
200	0xbd8442ad	-0.0645803
201	0xbe108704	-0.14114004
202	0xbea87c3d	-0.32907286
203	0xbefd75ae	-0.49503845
204	0x3e1ce9d0	0.15323567
205	0xbe6b050e	-0.22951147
206	0x3deafdc7	0.114741854
207	0xbe250a4a	-0.16117206
208	0xbd83cd56	-0.06435649
209	0xbe54f71a	-0.20797387
210	0x3e93fd19	0.28904036
211	0x3dd2ccab	0.102929436
212	0xbdd54c12	-0.104149
213	0x3e73d332	0.23811033
214	0xbedc702c	-0.4305433
215	0xbebbeb63	-0.36703023
216	0x3dd986fd	0.1062145
217	0xbcf1bbd9	-0.029508518
218	0xbea817a0	-0.32830524
219	0xbeb25d01	-0.3483658
220	0xbea4d932	-0.32196957
221	0x3c43bf89	0.011947521
222	0x3e9dd822	0.3082896
223	0x3e4aa175	0.19788153
224	0xbe29a346	-0.1656619
225	0xbe14f068	-0.14544833
226	0x3e1a206d	0.15051432
227	0xbd87f682	-0.066388145
228	0xbeb338db	-0.35004315
229	0xbe7e60d4	-0.24841624
230	0x3e45b935	0.19308932
231	0x3e5093aa	0.2036883
232	0xbda1ec35	-0.07906381
233	0x3e5490a6	0.20758304
234	0xbe71fb53	-0.23631029
235	0x3e496649	0.19667925
236	0xbe8a44c8	-0.270056
237	0xbe8083fb	-0.25100693
238	0xbea6817d	-0.32520667
239	0xbe521651	-0.20516326
240	0xbeb4e083	-0.3532754
241	0xbe498baa	-0.19682184
242	0x3e64e129	0.22351517
243	0xbe128893	-0.14309911
244	0xbe276563	-0.1634727
245	0x3dd9e661	0.106396444
246	0xbdd2227d	-0.10260484
247	0xbe77d9fc	-0.24204248
248	0xbd920979	-0.07130713
249	0x3e0a1662	0.13485101
250	0x3e604e18	0.2190479
251	0xbd8d51f7	-0.06900399
252	0x3e47f02e	0.19525215
253	0xbe405e2c	-0.18785924
254	0x3e2beee8	0.16790354
255	0xbeda2e6f	-0.4261355

fc2.bias f4 [4]
0	0x3ec75b6e	0.38936943
1	0xbe80a84e	-0.25128406
2	0xbc133e63	-0.008987042
3	0xbe96c11c	-0.29444206
