Models/model_19rec_earlystop_weights.pt (torch, 317583 bytes, 12 tensors)

lstm.weight_ih_l0 f4 [512, 6]
-0.05842042 -0.04276204 -0.1246577 -0.00039577574 0.0035618097 -0.03835236 -0.048572894 0.14435758
-0.05480322 -0.13120423 -0.023194317 -0.2760935 0.009015666 0.036159996 -0.018070355 -0.3971685
0.12680322 0.35365966 -0.15943183 0.02364972 -0.03206817 -0.08302119 -0.0037410974 0.14659093
0.29219252 -0.044536307 -0.20410703 -0.38042834 0.18183048 0.15316601 0.21353272 0.114931874
-0.18326478 0.10944552 -0.061045196 -0.112947844 0.13053946 -0.12752241 0.06756534 0.36871815
0.04209836 0.056435525 -0.06752815 0.12643038 0.041353665 0.1556115 -0.18151906 0.3453847
-0.3405965 0.21681796 -0.20211866 0.02800857 0.07856088 0.19933479 0.23770997 0.1347682
-0.029773856 0.3153019 -0.05740025 0.10566332 0.1522893 0.11488321 0.13829641 -0.06720099
-0.3993655 0.8209034 0.21832512 0.21482228 -0.43823317 0.20820029 0.04120097 0.14292116
0.12354805 -0.13877429 0.05679645 0.098032884 0.09022455 -0.022131767 0.14620669 -0.057686854
-0.0865419 0.13636078 -0.08951752 0.017332489 -0.06473483 -0.11412821 0.11287757 0.10595373
-0.09596258 0.13224576 0.42377457 0.072734155 -0.53280634 -0.19622168 0.32539353 -0.47608042
0.028469976 -0.027505558 0.02827231 -0.15942696 -0.08769414 -0.23493308 0.012068403 0.07248378
0.0757628 0.1304095 -0.04474555 -0.018943753 -0.09828635 0.07117877 0.0951811 -0.13832101
0.045470558 -0.15599245 0.14874938 0.050899856 0.20003848 -0.14450769 -0.09659813 -0.11733018
-0.5395223 0.16904698 -0.17414623 0.56459033 -0.07691585 0.097432055 0.15851976 -0.055184856
0.12448711 0.010737657 -0.22626321 -0.07036286 0.021577131 -0.059879918 0.057613194 -0.62829536
0.03368516 -0.040200494 -0.019665465 0.36732435 -0.31731486 0.2000402 0.027592534 0.14617082
-0.034058914 0.10991661 -0.020045372 0.10045394 -0.046496928 0.32498014 -0.11268361 -0.049099635
0.01741557 -0.36055163 0.012249644 0.103038035 -0.05722234 0.20942818 0.027649678 0.028552989
0.070356846 -0.09621573 -0.06828194 0.10569178 -0.058274336 0.045270648 -0.11361872 0.018215653
0.036422778 0.25564688 -0.111768715 0.41067398 -0.0005184073 0.04011439 -0.22290015 0.42628887
-0.25030074 0.17044115 -0.028920427 0.011628021 -0.16058345 0.12082706 -0.00020172057 -0.11861832
0.07434544 -0.11044754 -0.27232265 0.27542 0.039618783 0.10560079 0.11978928 0.30681723
0.018654106 -0.005376784 -0.020361481 0.052179188 -0.0052926387 0.18392064 0.12515938 0.057833325
-0.20486006 0.16412997 0.112584315 -0.015519534 0.24872027 -0.12271904 0.1422607 -0.010117752
0.12247969 0.11136498 0.10165387 -0.17368157 -0.14137635 -0.22295688 -0.1939523 0.122007415
0.10699578 0.01942116 0.21475317 0.18231578 0.159125 0.0788158 0.0051940093 -0.08024397
0.018512541 -0.35986274 -0.17521495 0.07594445 0.0021885273 -0.09741471 -0.11701478 -0.006821059
-0.0026570766 0.20275854 -0.069774166 0.13521406 -0.102766104 -0.19722293 0.074151464 0.20936806
0.716888 -0.54517096 0.18310496 0.0561376 -0.1459752 0.05154214 -0.14710274 -0.19368948
-0.18368238 0.051302124 0.09176881 0.06846169 0.16193375 0.11055404 -0.21865058 0.07435908
00000000: 404a 6fbd 4027 2fbd 894c ffbd 1f80 cfb9
00000010: 406d 693b 5d17 1dbd 5ff4 46bd 79d2 133e
00000020: 5779 60bd 675a 06be 0202 bebc 215c 8dbe
00000030: 72b6 133c 811c 143d 4808 94bc ab59 cbbe
00000040: b4d8 013e e112 b53e 1942 23be 0fbd c13c
00000050: ea59 03bd 0307 aabd 332d 75bb ef1b 163e
00000060: 429a 953e b46b 36bd 6f01 51be 81c7 c2be
00000070: c531 3a3e 8dd7 1c3e 52a8 5a3e 6761 eb3d
00000080: c3a9 3bbe f924 e03d 870a 7abd 3351 e7bd
00000090: 23ac 053e 3c95 02be b25f 8a3d a0c8 bc3e
000000a0: 546f 2c3d f028 673d 334c 8abd f776 013e
000000b0: 7662 293d 9f58 1f3e 22e0 39be 43d6 b03e
000000c0: aa62 aebe 8705 5e3e 32f8 4ebe 3b72 e53c
000000d0: 87e4 a03d 6b1e 4c3e 3e6a 733e ad00 0a3e
000000e0: 4de8 f3bc 406f a13e 861c 6bbd 0366 d83d
000000f0: baf1 1b3e e347 eb3d 939d 0d3e aca0 89bd
00000100: a379 ccbe ba26 523f 9f90 5f3e 5ffa 5b3e
00000110: 1960 e0be 7532 553e 59c2 283d ed59 123e
00000120: c306 fd3d d91a 0ebe 65a3 683d 77c5 c83d
00000130: a6c7 b83d ae4d b5bc 35b7 153e 0d49 6cbd
00000140: e13c b1bd 29a2 0b3e f654 b7bd ddfc 8d3c
00000150: b293 84bd 0dbc e9bd 5b2c e73d 45fe d83d
00000160: 0788 c4bd 6f6b 073e fbf8 d83e a5f5 943d
00000170: ff65 08bf 56ee 48be fb99 a63e d0c0 f3be
00000180: de39 e93c 5653 e1bc 559b e73c d240 23be
00000190: fc98 b3bd 4c92 70be 8dba 453c 6072 943d
000001a0: 8729 9b3d 118a 053e 1c47 37bd ee2f 9bbc
000001b0: 5b4a c9bd 2dc6 913d 4fee c23d 06a4 0dbe
000001c0: 563f 3a3d 7cbc 1fbe c251 183e 5e7c 503d
000001d0: e3d6 4c3e d3f9 13be 3ed5 c5bd ce4a f0bd
000001e0: 221e 0abf a71a 2d3e 6453 32be fe88 103f
000001f0: 0f86 9dbd 758a c73d 0153 223e 8409 62bd
00000200: 19f3 fe3d ffec 2f3c 8bb1 67be 671a 90bd
00000210: 86c2 b03c a544 75bd d0fb 6b3d f7d7 20bf
00000220: 73f9 093d 46a9 24bd 7819 a1bc f011 bc3e
00000230: 1877 a2be 57d7 4c3e bd09 e23c cead 153e
00000240: 5c81 0bbd f61b e13d 3136 a4bc ccba cd3d
00000250: 9073 3ebd cc63 a63e aac6 e6bd b31c 49bd
00000260: 19ab 8e3c 399a b8be bbb2 483c 9b05 d33d
00000270: f961 6abd 5774 563e 9481 e23c f5e7 e93c
00000280: 4017 903d c10c c5bd 67d7 8bbd ef74 d83d
00000290: 12b1 6ebd b76d 393d eeb0 e8bd fe38 953c
000002a0: 0d30 153d 26e4 823e ffe6 e4bd dc43 d23e
000002b0: bae5 07ba fd4e 243d f03f 64be 8942 da3e
000002c0: 6b27 80be 2088 2e3e 88ea ecbc 7483 3e3c
000002d0: fd6f 24be 2d74 f73d f484 53b9 29ee f2bd
000002e0: 6c42 983d 5232 e2bd e06d 8bbe da03 8d3e
000002f0: 4e47 223d 3a45 d83d 1554 f53d 2617 9d3e
00000300: 7fd0 983c bc2f b0bb 1fcd a6bc d8b9 553d
00000310: df6d adbb b155 3c3e c829 003e a3e2 6c3d
00000320: d6c6 51be b011 283e 9b92 e63d a545 7ebc
00000330: 87b0 7e3e 1f54 fbbd caac 113e edc4 25bc
00000340: a2d6 fa3d 5313 e43d e72f d03d 95d9 31be
00000350: f6c4 10be cf4e 64be 6f9b 46be 06df f93d
00000360: 9a20 db3d 2019 9f3c 41e8 5b3e fdb0 3a3e
00000370: aaf1 223e 2e6a a13d 8232 aa3b f356 a4bd
00000380: 9da7 973c ee3f b8be 8c6b 33be c488 9b3d
00000390: 656d 0f3b 5d81 c7bd 72a5 efbd 3183 dfbb
000003a0: 5922 2ebb ef9f 4f3e c2e5 8ebd 8e75 0a3e
000003b0: 0977 d2bd cff4 49be b9dc 973d 9564 563e
000003c0: f985 373f 5390 0bbf de7f 3b3e 8af0 653d
000003d0: 867a 15be da1d 533d 1aa2 16be 8956 46be
000003e0: 3c17 3cbe 2d22 523d 49f1 bb3d a435 8c3d
000003f0: f6d1 253e 286a e23d f0e5 5fbe 9349 983d

lstm.weight_hh_l0 f4 [512, 128]
0.07830094 -0.16835642 0.020334838 -0.036703814 -0.1639898 0.12191431 -0.009783452 0.09431627
-0.19336437 -0.2156413 -0.038083762 0.10595699 0.102216475 0.06574468 -0.022352459 -0.012313927
-0.0123475455 -0.061952334 -0.10805611 0.013005023 0.046333585 0.039205205 -0.058212392 -0.09493431
0.0762334 -0.047777884 0.0749529 0.04227309 -0.10905213 0.0074351225 0.048815604 -0.3038278
0.027440928 -0.056093767 -0.088288024 -0.2078757 -0.08814394 0.06254282 -0.009868484 0.077633105
-0.031289328 -0.062097516 0.10909392 0.09255907 -0.20407587 -0.23127866 -0.0029984352 -0.15416016
-0.045410533 0.08512378 -0.024268378 -0.00084906234 -0.1794572 0.07913396 -0.11853747 0.043398537
0.14914271 0.16071582 0.09484993 -0.04610446 -0.19771087 0.12588032 -0.08751794 -0.055310532
0.0019712145 -0.20628306 0.039151516 0.002953558 -0.004461021 -0.16688444 -0.13496359 -0.047416363
-0.023618065 0.013995258 -0.0368692 -0.055422287 -0.04430981 -0.084711224 -0.009148241 -0.08984552
0.070052594 0.020190468 -0.16119535 -0.027743202 -0.07009256 -0.016472295 0.050691396 0.015453476
0.10681175 0.07018518 0.019312985 -0.14677985 0.12872864 -0.06417299 -0.20713909 -0.0034659046
-0.00085624075 0.10184161 0.051418256 0.098394714 -0.005681927 -0.009703315 0.16897212 -0.065904066
-0.13435945 0.03711004 -0.06814669 -0.15233205 0.09781117 0.17028157 -0.064934134 0.029466826
0.00802912 0.02679112 -0.16114 0.06617623 -0.031374596 0.13130195 0.07799842 -0.06633394
-0.06165052 0.11206493 -0.05783888 -0.05885008 -0.16367719 0.12885632 0.010915358 0.042401407
0.11498351 0.08054236 -0.09378811 -0.05675755 -0.12507714 0.19402757 -0.084241584 0.26387635
0.24478856 0.008081029 0.079295926 -0.10917451 0.012894671 0.011202803 -0.17455602 -0.06585851
0.08124265 -0.11308239 -0.06804743 -0.059991755 0.14931779 -0.05852229 0.09682914 -0.08680412
-0.2850159 0.060228873 -0.017511757 -0.0077807265 -0.019822227 -0.19504865 0.14169143 -0.06902723
0.26562902 -0.13817872 -0.150642 -0.23401713 -0.19302303 0.009824145 0.10339042 -0.050862975
-0.05610942 -0.10910032 0.12997076 -0.057903852 -0.27067873 0.025789801 -0.0064165485 -0.16997741
0.04397223 -0.05887987 -0.101949945 -0.049995508 0.04781556 0.10850554 -0.1816826 0.099159755
0.11044197 0.14608656 0.08590776 -0.07568895 -0.08912243 0.06945431 0.00834661 0.07892975
-0.06874957 -0.015653662 0.10471063 0.1675162 -0.18529919 -0.25038934 -0.09518678 -0.0060549728
-0.03395243 -0.20276435 0.080183305 -0.034890197 0.12530017 -0.044610057 0.109976254 -0.1319559
0.0990237 -0.13660017 0.081709765 0.11627671 -0.07781191 -0.35763615 0.040485956 0.03622144
0.056232985 -0.0043523205 0.029734934 -0.10148205 -0.09511015 -0.030976564 0.078184344 -0.023202443
-0.023372965 -0.02662554 -0.121034116 -0.07612266 -0.16360086 -0.09967188 0.1509787 -0.06589469
0.049746428 0.020966148 0.14102225 -0.24537098 0.0006840078 0.070917524 -0.10197297 0.1349857
0.0062710354 -0.07574695 -0.25569782 0.15779881 -0.11319402 0.13745672 0.0054698074 0.06595745
-0.04893378 0.20425957 -0.0060698073 0.029818347 -0.080284074 0.038890697 0.04523133 -0.0051647755
00000000: 3e5c a03d a065 2cbe 3f95 a63c bd56 16bd
00000010: f1ec 27be 36ae f93d c64a 20bc e328 c13d
00000020: 4f01 46be 13d1 5cbe b8fd 1bbd faff d83d
00000030: df56 d13d 26a5 863d 811c b7bc 5ac0 49bc
00000040: 5c4d 4abc bbc1 7dbd 864c ddbd 0513 553c
00000050: 49c8 3d3d a395 203d 1e70 6ebd eb6c c2bd
00000060: 4220 9c3d beb2 43bd e880 993d 8c26 2d3d
00000070: b956 dfbd 54a2 f33b dff2 473d 518f 9bbe
00000080: cccb e03c 94c2 65bd 5ad0 b4bd 5edd 54be
00000090: cf84 b4bd 7316 803d 6caf 21bc 1bfe 9e3d
000000a0: 3d29 00bd f759 7ebd a26c df3d 9c8f bd3d
000000b0: 44f9 50be 50d4 6cbe 6581 44bb 29dc 1dbe
000000c0: 6500 3abd 6055 ae3d 7ace c6bc 9c93 5eba
000000d0: a1c3 37be fc10 a23d c6c3 f2bd aac2 313d
000000e0: deb8 183e b092 243e ae40 c23d 08d8 3cbd
000000f0: b874 4abe c5e6 003e 9b3c b3bd 4c8d 62bd
00000100: 7e2f 013b de3b 53be 575d 203d 7b90 413b
00000110: c22d 92bb c1e3 2abe e533 0abe a937 42bd
00000120: ac7a c1bc 5e4c 653c 2904 17bd 7b02 63bd
00000130: 347e 35bd 147d adbd 81e2 15bc ee00 b8bd
00000140: bc77 8f3d 7b66 a53c 6510 25be b645 e3bc
00000150: b08c 8fbd e8f0 86bc c8a1 4f3d 9430 7d3c
00000160: 1ec0 da3d 3fbd 8f3d 4436 9e3c 754d 16be
00000170: 71d1 033e 216d 83bd 451c 54be 3b24 63bb
00000180: 5875 60ba 5692 d03d f39b 523d 2b83 c93d
00000190: 752f babb a7fa 1ebc 0707 2d3e b6f8 86bd
000001a0: 8695 09be b300 183d 7e90 8bbd effc 1bbe
000001b0: 3951 c83d 4b5e 2e3e 30fc 84bd 6a64 f13c
000001c0: 928c 033c 0d79 db3c e201 25be 6787 873d
000001d0: a682 00bd 0574 063e a3bd 9f3d 17da 87bd
000001e0: 4185 7cbd 4c82 e53d 76e8 6cbd c80c 71bd
000001f0: fe9a 27be e9f2 033e 54d6 323c 19ad 2d3d
00000200: 797c eb3d 65f3 a43d fb13 c0bd 9b7a 68bd
00000210: 3914 00be 2aaf 463e da86 acbd cd1a 873e
00000220: daa9 7a3e 4b66 043c e765 a23d e396 dfbd
00000230: 2c44 533c f68b 373c d0be 32be d4e0 86bd
00000240: 8c62 a63d bd97 e7bd 735c 8bbd eab9 75bd
00000250: c3e6 183e 12b5 6fbd 5b4e c63d 5cc6 b1bd
00000260: 9bed 91be 8db2 763d d174 8fbc 77f5 febb
00000270: 3962 a2bc d5ba 47be 8f17 113e 265e 8dbd
00000280: 8700 883e b97e 0dbe e541 1abe 30a2 6fbe
00000290: d4a7 45be 73f5 203c 5bbe d33d b255 50bd
000002a0: fed2 65bd fd6f dfbd 0e17 053e 972c 6dbd
000002b0: 6796 8abe 2245 d33c e941 d2bb 8f0e 2ebe
000002c0: 3a1c 343d 052c 71bd 22cb d0bd 17c8 4cbd
000002d0: 40da 433d 2738 de3d 010b 3abe 4514 cb3d
000002e0: 662f e23d b797 153e 68f0 af3d cf02 9bbd
000002f0: d285 b6bd 103e 8e3d 38c0 083c eca5 a13d
00000300: 93cc 8cbd 1c3c 80bc 8772 d63d 5e89 2b3e
00000310: 12bf 3dbe 0833 80be 49f1 c2bd cb68 c6bb
00000320: b411 0bbd 75a1 4fbe 2537 a43d 06e9 0ebd
00000330: b04e 003e 09b9 36bd 3b3b e13d 731f 07be
00000340: f0cc ca3d eae0 0bbe 7357 a73d 7c22 ee3d
00000350: da5b 9fbd 161c b7be 9ad4 253d ef5c 143d
00000360: 8f54 663d e99d 8ebb ad96 f33c d2d5 cfbd
00000370: 1cc9 c2bd 90c2 fdbc 1d1f a03d 0d13 bebc
00000380: a978 bfbc ce1d dabc bce0 f7bd 32e6 9bbd
00000390: fc86 27be c520 ccbd 299a 1a3e ccf3 86bd
000003a0: e9c2 4b3d 33c1 ab3c 2368 103e 8842 7bbe
000003b0: fd4e 333a 353d 913d 34d7 d0bd b139 0a3e
000003c0: 427d cd3b 3821 9bbd d3ea 82be 0396 213e
000003d0: 44d2 e7bd 74c1 0c3e 123c b33b b314 873d
000003e0: ca6e 48bd 6c29 513e 3ce5 c6bb 9b45 f43c
000003f0: fa6b a4bd da4b 1f3d 7d44 393d 473d a9bb

lstm.bias_ih_l0 f4 [512]
-0.105126224 -0.34577662 -0.2825094 -0.03594837 -0.12654957 0.1319647 -0.20453739 -0.1036525
-0.18405661 -0.009543768 -0.1531178 0.04573723 -0.21795061 -0.044842746 -0.07666591 -0.24062356
0.027056757 -0.19984172 -0.28798702 -0.13392621 0.13910943 -0.08709736 -0.19371957 0.011336426
-0.05030725 -0.27506816 -0.15977621 -0.2680324 -0.11063283 -0.19319546 0.059425496 -0.04872984
0.07431532 -0.23549984 -0.10991213 -0.23248374 -0.15665449 -0.15949684 -0.12407629 -0.003551036
-0.3467762 -0.20543301 -0.24295394 -0.13339183 -0.21858242 0.03493286 -0.04570238 0.018749857
-0.018430604 -0.25624183 -0.06206634 -0.22793609 0.01710107 -0.16362053 -0.09727619 -0.15703171
-0.107866205 -0.14906886 -0.28252825 -0.08267129 -0.26458317 -0.05646765 -0.138249 -0.12942158
-0.30470613 -0.17273039 0.014949953 -0.30250323 -0.18302983 -0.13815995 -0.02199075 -0.24077117
-0.0019653148 0.062042534 -0.2488159 -0.4982825 -0.112459525 -0.14818421 -0.1812223 -0.086439215
-0.17398599 -0.1668986 -0.17796181 -0.32962155 -0.26062217 0.16360737 -0.29466254 -0.06458515
-0.21627548 -0.037315737 0.05030251 -0.09170698 -0.03749813 -0.3172563 -0.05938558 -0.18792665
-0.11704331 -0.14672431 -0.069005564 -0.34225985 0.009459253 -0.120168194 0.13450852 -0.2341643
-0.13017094 -0.08528386 -0.24992546 -0.045977823 -0.06851986 -0.04786928 -0.21703418 -0.07310022
-0.010074116 -0.09584465 0.07739632 -0.012790251 -0.12276442 -0.006572288 -0.13791172 -0.006055493
-0.086046375 -0.15219712 -0.07151566 0.003713527 -0.20226617 -0.059896894 -0.17452596 -0.053023245
-0.0057501476 -0.14988695 -0.23807096 -0.049431603 0.20288453 -0.011205937 -0.023431037 -0.029341958
-0.18831001 -0.009920508 0.24122499 0.060596637 -0.12273992 0.0014978317 0.05384224 0.08392948
-0.04997529 -0.07993573 -0.29431853 0.0965843 -0.072475694 -0.14617392 0.15671387 -0.019723475
-0.100757696 -0.009413414 -0.010356887 -0.09964653 -0.10838802 -0.19750379 -0.040971614 -0.026434906
-0.017296968 -0.028410273 -0.18202803 -0.19439192 -0.19053724 0.011922378 -0.020080538 0.08059108
0.21773897 -0.18035655 -0.06976673 0.021555267 -0.15554959 0.0052187266 -0.14509992 0.1428705
0.13187897 -0.19530804 -0.08718726 -0.044725265 0.17136863 -0.10511759 0.015450926 -0.06070026
-0.11456189 0.010364338 -0.11435375 0.1087321 -0.0912337 0.30211174 -0.0733774 -0.17318138
-0.21754342 -0.038213924 -0.09163264 -0.20355324 0.030995905 0.05375099 -0.16939 -0.056467522
-0.060190596 0.1099642 -0.10581743 0.2006715 -0.1952357 -0.05160682 -0.11198971 -0.023710562
-0.0050930036 -0.123893715 -0.0458517 -0.099817745 -0.03356015 0.13506141 -0.26739717 0.13032298
-0.10621706 -0.1336468 -0.059790917 0.12204644 0.4113816 -0.007744724 -0.036223765 -0.21248455
0.19214773 -0.092524715 0.037026756 0.4746592 -0.08777815 -0.10868752 0.20168658 0.0025420906
-0.08524592 0.0244818 -0.02072484 0.21959892 0.04276844 -0.06377372 0.03846796 -0.12797011
-0.14728889 0.16475843 0.49736398 0.001847319 0.07835827 0.15151894 -0.07185957 -0.019813482
-0.13115853 -0.05266539 0.06306983 -0.07103262 -0.17053352 -0.093722045 -0.026926404 -0.011015164
00000000: 6b4c d7bd a209 b1be 12a5 90be 993e 13bd
00000010: 3696 01be c121 073e 4072 51be c347 d4bd
00000020: 5679 3cbe 775d 1cbc eaca 1cbe f656 3b3d
00000030: 722e 5fbe 07ad 37bd 0403 9dbd 0666 76be
00000040: 22a6 dd3c 4fa3 4cbe 0973 93be f423 09be
00000050: b472 0e3e 1a60 b2bd 6c5e 46be 6bbc 393c
00000060: fa0e 4ebd bcd5 8cbe 609c 23be 8b3b 89be
00000070: 7793 e2bd 08d5 45be 2668 733d f198 47bd
00000080: a132 983d df26 71be 9c19 e1bd 3810 6ebe
00000090: 096a 20be 2453 23be b61b febd 7fb8 68bb
000000a0: a68c b1be 085d 52be ebc8 78be de97 08be
000000b0: 12d4 5fbe c215 0f3d 6b32 3bbd 4d99 993c
000000c0: c7fb 96bc 2132 83be 4639 7ebd 1468 69be
000000d0: 8b17 8c3c 248c 27be bd38 c7bd eccc 20be
000000e0: f5e8 dcbd 82a5 18be 8ba7 90be 914f a9bd
000000f0: 7277 87be 9f4a 67bd 2591 0dbe 1787 04be
00000100: 7102 9cbe 3ce0 30be a6f0 743c b4e1 9abe
00000110: 2c6c 3bbe cd79 0dbe f225 b4bc b88c 76be
00000120: 83cc 00bb 5020 7e3d 98c9 7ebe e21e ffbe
00000130: 2e51 e6bd 9abd 17be 5792 39be 0b07 b1bd
00000140: 6229 32be 77e7 2abe 9f3b 36be 28c4 a8be
00000150: 4570 85be b188 273e 02de 96be 3845 84bd
00000160: 5277 5dbe 63d8 18bd 010a 4e3d ded0 bbbd
00000170: a497 19bd 6b6f a2be 4b3e 73bd d86f 40be
00000180: 67b4 efbd e63e 16be ca52 8dbd af3c afbe
00000190: fcfa 1a3c be1a f6bd 9abc 093e c4c8 6fbe
000001a0: 884b 05be 4ea9 aebd 76ec 7fbe 3e53 3cbd
000001b0: 2454 8cbd 9412 44bd 353e 5ebe 91b5 95bd
000001c0: e80d 25bc 334a c4bd f681 9e3d 338e 51bc
000001d0: ea6b fbbd 595c d7bb bb38 0dbe 286d c6bb
000001e0: 1539 b0bd 90d9 1bbe cd76 92bd a55e 733b
000001f0: dd1e 4fbe 7256 75bd efb6 32be e72e 59bd
00000200: bc6b bcbb f77b 19be e0c8 73be cb78 4abd
00000210: f6c0 4f3e 1b99 37bc 72f2 bfbc 8c5e f0bc
00000220: 57d4 40be a089 22bc af03 773e 2e34 783d
00000230: 115f fbbd e452 c43a ae89 5c3d 38e3 ab3d
00000240: e4b2 4cbd 58b5 a3bd ebb0 96be fdcd c53d
00000250: 236e 94bd 9eae 15be 9a79 203e 2093 a1bc
00000260: 0d5a cebd b83a 1abc efaf 29bc 7b13 ccbd
00000270: 8afa ddbd 6f3e 4abe dad1 27bd 048e d8bc
00000280: 5fb2 8dbc a9bc e8bc 8e65 3abe ad0e 47be
00000290: 321c 43be 1456 433c f17f a4bc f00c a53d
000002a0: f7f6 5e3e 63af 38be dce1 8ebd ac94 b03c
000002b0: 6448 1fbe da01 ab3b 1395 14be a54c 123e
000002c0: 480b 073e d5fe 47be 3c8f b2bd d731 37bd
000002d0: 427b 2f3e e447 d7bd e125 7d3c d6a0 78bd
000002e0: 6d9f eabd 2fcf 293c 4d32 eabd efae de3d
000002f0: bcd8 babd 64ae 9a3e e446 96bd 7656 31be
00000300: b4c3 5ebe 3486 1cbd e5a9 bbbd 4370 50be
00000310: 20eb fd3c 002a 5c3d 9274 2dbe 7d4a 67bd
00000320: 6a8a 76bd e934 e13d cfb6 d8bd d47c 4d3e
00000330: deeb 47be ac61 53bd dc5a e5bd a73c c2bc
00000340: 36e3 a6bb fdbb fdbd fece 3bbd 3f6d ccbd
00000350: 5e76 09bd 8a4d 0a3e 48e8 88be 6373 053e
00000360: 5488 d9bd b5da 08be 52e7 74bd 7cf3 f93d
00000370: 9ca0 d23e 74c7 fdbb 5f5f 14bd 8d95 59be
00000380: 60c2 443e 997d bdbd 5ea9 173d 8806 f33e
00000390: 08c5 b3bd 9097 debd ed86 4e3e 3499 263b
000003a0: 6a95 aebd 0e8e c83c 24c7 a9bc 8ade 603e
000003b0: f62d 2f3d cc9b 82bd 9490 1d3d 990a 03be
000003c0: e6d2 16be 6fb6 283e 7ea6 fe3e bd21 f23a
000003d0: 4d7a a03d c827 1b3e 1c2b 93bd e24f a2bc
000003e0: 6c4e 06be aab7 57bd c12a 813d 8d79 91bd
000003f0: 57a0 2ebe 58f1 bfbd c394 dcbc f278 34bc

lstm.bias_hh_l0 f4 [512]
-0.080673575 -0.26079595 -0.17972514 -0.0034496507 -0.08823351 0.0103211505 -0.19092388 -0.09508552
-0.24794748 -0.06317689 -0.052434694 -0.07215026 -0.22087218 -0.13668154 -0.08331668 -0.35557702
-0.07190147 -0.23548357 -0.24289376 -0.03577444 0.062995166 0.017197408 -0.21420689 0.0029523019
-0.09531213 -0.21956158 -0.026082516 -0.2638352 -0.08360148 -0.1577118 0.05619954 -0.04346731
-0.013251228 -0.2075698 -0.15322849 -0.22284758 -0.06338937 -0.14317119 -0.16637564 -0.088141315
-0.38870424 -0.18644074 -0.31686285 -0.034319934 -0.14589609 -0.011813269 -0.12333988 0.039492995
-0.092684664 -0.22945586 0.007220749 -0.26818776 0.06539642 -0.117943846 -0.14074574 -0.20571715
-0.122066446 -0.16359158 -0.19873758 -0.034951597 -0.30103755 -0.20464924 -0.18624142 -0.12943546
-0.28044114 -0.11389099 -0.035682242 -0.16637428 -0.105418675 -0.072566636 -0.028587474 -0.27645707
-0.08865096 0.10478158 -0.08955028 -0.5636279 -0.12355566 -0.12144834 -0.09666019 -0.09974069
-0.02161858 -0.17368892 -0.14751038 -0.26116344 -0.22266048 0.17206375 -0.35335007 -0.028751614
-0.21949846 -0.1850988 0.06572951 -0.08507884 0.011547384 -0.24888577 -0.13856825 -0.14380595
-0.087237194 -0.072252765 -0.08992917 -0.3237789 0.015923297 -0.037069257 0.058678664 -0.30869782
-0.06409804 -0.10386138 -0.205875 0.056382883 -0.2223779 -0.0699968 -0.30993032 -0.20450492
-0.034882784 -0.04552018 0.032724187 0.015370836 -0.017893588 0.048753053 -0.08615314 -0.15153137
-0.09033374 -0.22620176 -0.101166695 0.041689344 -0.14619473 -0.06592307 -0.16152261 -0.042059492
-0.12661044 -0.29038432 -0.117890015 -0.13552538 0.053408362 -0.0040782676 0.010202721 0.073012635
-0.22719511 -0.033991884 0.13301241 0.11537195 -0.19340283 -0.054799914 -0.09690109 0.1529885
-0.14436182 -0.102368556 -0.3062942 0.01681337 0.005739524 -0.07512296 0.07335661 0.0030180668
-0.082677394 -0.1491224 -0.08633965 -0.16549686 -0.12556875 -0.3122389 -0.097170785 -0.01847988
0.13819888 0.015132709 -0.069618076 -0.13016129 -0.121858366 -0.05454503 -0.061271038 0.12979132
0.17459014 -0.15983379 -0.17257732 -0.07624515 -0.084534355 0.0034132523 -0.08248027 0.12396798
0.051535305 -0.16591626 -0.11731577 -0.102897026 0.15059644 -0.1420758 -0.12144043 -0.07695963
-0.14718387 -0.1440148 -0.049681377 0.02377938 0.0046981266 0.25035885 -0.06279868 -0.15595295
-0.13835345 0.0643355 0.017880365 -0.117541306 -0.0085610645 0.1497515 -0.083971836 0.036611225
-0.08131387 0.14566338 -0.17204933 0.20061436 -0.14032096 -0.032546807 -0.13638544 -0.039757676
0.045058466 -0.05821741 -0.112291865 -0.19916308 0.00017088871 0.17208292 -0.22138458 0.055158712
-0.037398163 -0.16089171 -0.11904998 0.08628663 0.4573927 -0.02624578 0.02938905 -0.1709472
0.046671797 -0.08222826 0.04137802 0.36354595 -0.038320236 0.03908545 0.15416789 -0.0609009
-0.068778396 -0.0214903 -0.023037586 0.12042857 -0.0913384 -0.08954324 0.1086616 -0.110501274
-0.13390404 0.004992594 0.38108018 -0.044216305 0.004626067 0.14367644 -0.13444006 -0.055798013
-0.11747854 -0.029932285 -0.040547676 -0.06350596 -0.17458926 -0.014928295 0.051086877 -0.042424317
00000000: 3038 a5bd 0c87 85be de09 38be 8913 62bb
00000010: c5b3 b4bd 0b1a 293c 8d81 43be 32bc c2bd
00000020: f2e5 7dbe e362 81bd c3c5 56bd 84c3 93bd
00000030: 512c 62be 3ff6 0bbe efa1 aabd 310e b6be
00000040: 1441 93bd 9b22 71be 24b9 78be 3888 12bd
00000050: 9c03 813d 94e1 8c3c 0d59 5bbe 687b 413b
00000060: 0233 c3bd c0d4 60be 00ab d5bc 6815 87be
00000070: 4137 abbd 347f 21be 7d31 663d c70a 32bd
00000080: ae1b 59bc 2d8d 54be eee7 1cbe 2832 64be
00000090: 49d2 81bd 789b 12be 605e 2abe 6f83 b4bd
000000a0: 3e04 c7be 52ea 3ebe d93b a2be 0f93 0cbd
000000b0: c965 15be 718c 41bc 9e99 fcbd 68c3 213d
000000c0: 75d1 bdbd 7af6 6abe 089c ec3b e84f 89be
000000d0: 8fee 853d 8b8c f1bd a71f 10be 84a7 52be
000000e0: f9fd f9bd 8d84 27be dd81 4bbe 6829 0fbd
000000f0: 9821 9abe 928f 51be 12b6 3ebe bb8a 04be
00000100: fb95 8fbe ae3f e9bd 8b27 12bd 055e 2abe
00000110: bfe5 d7bd d19d 94bd 4730 eabc c88b 8dbe
00000120: a28e b5bd ba97 d63d 2366 b7bd eb49 10bf
00000130: c00a fdbd e8b9 f8bd c7f5 c5bd d944 ccbd
00000140: 7319 b1bc 82db 31be f60c 17be 37b7 85be
00000150: 1c01 64be 7b31 303e 4dea b4be 8188 ebbc
00000160: 34c4 60be 8a8a 3dbe 319d 863d d13d aebd
00000170: 3d31 3d3c e9db 7ebe d6e4 0dbe de41 13be
00000180: 6aa9 b2bd 42f9 93bd c92c b8bd 59c6 a5be
00000190: 9371 823c efd5 17bd 0a59 703d a40d 9ebe
000001a0: d545 83bd 46b5 d4bd e5d0 52be bdf1 663d
000001b0: 08b7 63be 7b5a 8fbd 30af 9ebe bd69 51be
000001c0: 40e1 0ebd 5e73 3abd cc09 063d f5d5 7b3c
000001d0: 9395 92bc 48b1 473d 0f71 b0bd 0a2b 1bbe
000001e0: e500 b9bd 6fa1 67be 7c30 cfbd 72c2 2a3d
000001f0: 12b4 15be ad02 87bd 2f66 25be 9346 2cbd
00000200: 2ba6 01be 41ad 94be 5270 f1bd 2ac7 0abe
00000210: bac2 5a3d fda2 85bb 5029 273c a687 953d
00000220: d6a5 68be 133b 0bbd 6834 083e 2148 ec3d
00000230: 640b 46be e075 60bd 1474 c6bd 04a9 1c3e
00000240: 96d3 13be 9ba6 d1bd 98d2 9cbe 31bc 893c
00000250: 9e12 bc3b 11da 99bd fe3b 963d c2ca 453b
00000260: c452 a9bd 8bb3 18be d8d2 b0bd 0278 29be
00000270: 1895 00be c7dd 9fbe 7a01 c7bd 1e63 97bc
00000280: 0284 0d3e 2fef 773c ec93 8ebd 0049 05be
00000290: e190 f9bd 9c6a 5fbd 57f7 7abd 04e8 043e
000002a0: c2c7 323e 78ab 23be 1cb8 30be 6b26 9cbd
000002b0: 5920 adbd dfb0 5f3b 6aeb a8bd ede2 fd3d
000002c0: af16 533d f4e5 29be 4043 f0bd adbb d2bd
000002d0: f435 1a3e 527c 11be c3b5 f8bd 039d 9dbd
000002e0: 5eb7 16be 9e78 13be b37e 4bbd f9cc c23c
000002f0: bef2 993b 092f 803e 989c 80bd 21b2 1fbe
00000300: 87ac 0dbe 55c2 833d d879 923c 7fb9 f0bd
00000310: b543 0cbc 7558 193e 6df9 abbd a7f5 153d
00000320: e387 a6bd c828 153e b32d 30be da6d 4d3e
00000330: 4cb0 0fbe cd4f 05bd a0a8 0bbe f2d8 22bd
00000340: 3a8f 383d 6175 6ebd 47f9 e5bd 68f1 4bbe
00000350: 9730 3339 8136 303e a4b2 62be 1aee 613d
00000360: d12e 19bd ccc0 24be 7ad0 f3bd 0bb7 b03d
00000370: 602f ea3e 6401 d7bc 4ec1 f03c c80c 2fbe
00000380: ed2a 3f3d 4a67 a8bd 007c 293d b222 ba3e
00000390: aef5 1cbd 1118 203d 30de 1d3e 3973 79bd
000003a0: b0db 8cbd 6d0c b0bc 52b9 bcbc 41a3 f63d
000003b0: a10f bbbd 7262 b7bd f989 de3d 7e4e e2bd
000003c0: 241e 09be ea98 a33b f11c c33e 281c 35bd
000003d0: 4396 973b eb1f 133e a8aa 09be 758c 64bd
000003e0: 9798 f0bd 8d34 f5bc 5215 26bd 6a0f 82bd
000003f0: 87c7 32be cf95 74bc 7940 513d 1fc5 2dbd

fc1.weight f4 [64, 128]
0.0593302 0.0118768895 -0.05667539 -0.089864925 -0.07596101 0.22209258 -0.29830253 0.01763441
-0.10137305 -0.081711516 0.23360516 -0.09962426 -0.10504295 0.0935486 -0.07467643 -0.13912705
0.033429574 0.16013645 -0.06306957 0.13622817 -0.09366522 -0.17025258 0.036497667 0.025888106
-0.052138258 -0.09964826 0.09563497 -0.10210351 -0.15548666 -0.055426225 -0.0005206926 -0.18471964
0.22469822 -0.12517162 0.025439678 0.15586628 -0.036094382 -0.17371176 0.06661376 0.008916732
0.37749302 0.0970495 0.10045871 0.12912998 0.029975299 -0.1590469 -0.059266042 -0.3019884
-0.058347117 -0.25352848 -0.06221767 0.14152534 -0.2640515 -0.25412562 0.20976451 0.057128556
0.065579824 -0.14312573 -0.062999144 -0.035959892 0.03542086 -0.2592246 -0.0034557641 0.001145497
0.05873827 0.24583775 0.19028898 -0.0332958 0.16643414 -0.24413091 -0.08090212 -0.11089673
0.029529937 -0.1657015 0.046520744 -0.8351971 0.24513754 -0.33725867 -0.2453863 -0.006639115
0.08780206 -0.009495862 -0.114989325 -0.0981958 0.10024597 -0.08601235 -0.23733608 0.14270344
0.030484354 0.020013131 -0.3397043 -0.47144055 -0.09748861 0.033097122 -0.27831617 -0.04226827
-0.030250806 -0.09484198 -0.2587757 -0.1797139 0.054380637 -0.14157997 -0.20770156 -0.0053981934
-0.019147512 -0.122831725 0.18719743 -0.121432714 -0.018925615 0.34824955 -0.031130822 -0.008486674
-0.033742316 -0.017184224 0.0607552 0.07080128 0.1234772 0.04936171 0.014954822 -0.12140943
-0.061667636 -0.095237255 0.09013055 0.12514572 0.03982686 -0.12408968 0.23482151 -0.082061045
-0.032492105 0.0118418075 0.023873923 -0.062077433 0.17868371 -0.20155755 0.15423915 -0.08808724
-0.15734953 -0.0037723773 -0.14342064 0.1735907 -0.03838588 -0.027600853 -0.044111066 -0.11194058
-0.04344145 -0.04394445 -0.021566063 0.08696497 0.079070374 0.009024066 -0.0012211251 -0.13125534
0.048037197 -0.02710983 0.0066568675 0.028627848 0.030063815 -0.00021849803 0.10236422 -0.039628964
0.09861987 -0.07960533 0.16740645 -0.021514758 0.07122261 0.049044967 -0.014234968 -0.15712658
-0.18818212 0.040476173 0.1850516 -0.028462993 0.24592297 0.13987663 0.038353503 0.11960065
0.037089217 0.17614357 0.006947855 0.02644953 0.20295873 0.10010635 -0.07516102 -0.09403931
-0.24082297 -0.049132794 -0.0814596 0.13384813 -0.10731191 0.04482298 0.113273226 -0.08806557
0.028103933 -0.1565682 0.10271547 0.012329518 0.1950827 -0.018669084 0.15975016 0.08124919
0.003480821 -0.036628954 0.14599876 0.12188115 -0.25454354 0.15738815 -0.22184168 -0.009689736
-0.08956234 -0.13230342 0.004793458 -0.15078337 -0.10709553 0.007224763 0.18355015 -0.05939695
-0.32795525 -0.04012503 -0.22620755 0.26249525 -0.2140064 0.088281594 0.08376264 0.12641343
-0.039348982 -0.12883519 -0.049812775 0.31689718 0.11903054 0.13535362 -0.11375068 0.058131237
0.06247798 0.38964528 -0.028541988 0.17282167 -0.00870012 -0.032265466 -0.29737356 0.03738898
-0.069986105 -0.37863907 0.11191828 -0.18547957 -0.1804994 0.0072593433 0.08779893 0.12322991
-0.054889057 0.16732684 0.10070034 -0.09724641 0.046595022 -0.21225539 -0.036137693 0.011043159
00000000: 3904 733d 4997 423c 7424 68bd 1a0b b8bd
00000010: 7291 9bbd 3d6c 633e 1cbb 98be 0a76 903c
00000020: ac9c cfbd 5e58 a7bd 3136 6f3e ce07 ccbd
00000030: c220 d7bd 6996 bf3d f5ef 98bd 5277 0ebe
00000040: 73ed 083d cffa 233e 9e2a 81bd 667f 0b3e
00000050: 8dd3 bfbd b156 2ebe 947e 153d 4b13 d43c
00000060: ed8e 55bd 6314 ccbd 44dc c33d a51b d1bd
00000070: e537 1fbe 9c06 63bd 177f 08ba 2527 3dbe
00000080: 4a17 663e fd2c 00be df66 d03c 699b 1f3e
00000090: b4d7 13bd 7fe1 31be cc6c 883d 7c17 123c
000000a0: c446 c13e e3c1 c63d 4cbd cd3d a63a 043e
000000b0: c28e f53c 31dd 22be f3c0 72bd 399e 9abe
000000c0: 63fd 6ebd 7cce 81be f5d7 7ebd 05ec 103e
000000d0: c231 87be c11c 82be 82cc 563e a2ff 693d
000000e0: b74e 863d 8d8f 12be b205 81bd ae4a 13bd
000000f0: 7715 113d 16b9 84be 1a7a 62bb 8024 963a
00000100: 8a97 703d e4bc 7b3e 1ddb 423e 2d61 08bd
00000110: b66d 2a3e 74fd 79be 03b0 a5bd d31d e3bd
00000120: c4e8 f13c a7ad 29be 898c 3e3d 7acf 55bf
00000130: 5605 7b3e 2bad acbe 8c46 7bbe ef8c d9bb
00000140: 91d1 b33d 8894 1bbc 867f ebbd e11a c9bd
00000150: c24d cd3d 3e27 b0bd 3b08 73be da20 123e
00000160: 53ba f93c 94f2 a33c b9ed adbe a860 f1be
00000170: 1ca8 c7bd d990 073d 757f 8ebe 7e21 2dbd
00000180: 8ad0 f7bc 833c c2bd 407e 84be ec06 38be
00000190: 3bbe 5e3d 57fa 10be b8af 54be 54e3 b0bb
000001a0: 3edb 9cbc 338f fbbd afb0 3f3e b7b1 f8bd
000001b0: e409 9bbc c44d b23e 1106 ffbc b10b 0bbc
000001c0: 6235 0abd eec5 8cbc 72da 783d 4300 913d
000001d0: 9de1 fc3d 812f 4a3d 1205 753c 82a5 f8bd
000001e0: 3497 7cbd c00b c3bd 5e96 b83d 3326 003e
000001f0: 7d21 233d bb22 febd 0d75 703e 9f0f a8bd
00000200: 7116 05bd 2404 423c 3f93 c33c e844 7ebd
00000210: ddf8 363e 1a65 4ebe def0 1d3e 1567 b4bd
00000220: 3c20 21be fd39 77bb dcdc 12be c3c1 313e
00000230: 833a 1dbd 2f1b e2bc cead 34bd 1a41 e5bd
00000240: a9ef 31bd 18ff 33bd 50ab b0bc b11a b23d
00000250: a6ef a13d add9 133c 290e a0ba cd67 06be
00000260: a7c2 443d 6f15 debc da21 da3b f384 ea3c
00000270: 6448 f63c 9e1c 65b9 55a4 d13d fb51 22bd
00000280: 37f9 c93d 1f08 a3bd 996c 2b3e b83f b0bc
00000290: 29dd 913d 60e3 483d c939 69bc cae5 20be
000002a0: d0b2 40be 58ca 253d 2b7e 3d3e 392b e9bc
000002b0: 3bd3 7b3e d23b 0f3e 9018 1d3d 30f1 f43d
000002c0: ddea 173d fb5e 343e d5aa e33b afac d83c
000002d0: 6ad4 4f3e 8f04 cd3d 05ee 99bd af97 c0bd
000002e0: 4c9a 76be 783f 49bd 4ad4 a6bd 7c0f 093e
000002f0: 59c6 dbbd 4d98 373d cbfb e73d b95b b4bd
00000300: 383a e63c 6a53 20be 7d5c d23d bf01 4a3c
00000310: c2c3 473e e8ef 98bc 8c95 233e fa65 a63d
00000320: 7c1e 643b 3e08 16bd b380 153e d39c f93d
00000330: 8853 82be 5c2a 213e 772a 63be b3c1 1ebc
00000340: 766c b7bd 8c7a 07be 7112 9d3b f566 1abe
00000350: e754 dbbd b4bd ec3b 92f4 3b3e 374a 73bd
00000360: c0e9 a7be 255a 24bd f4a2 67be c765 863e
00000370: 7e24 5bbe fbcc b43d bf8b ab3d 8672 013e
00000380: 662c 21bd 5fed 03be 7b08 4cbd 5940 a23e
00000390: 49c6 f33d 249a 0a3e 1ef6 e8bd 051b 6e3d
000003a0: e9e8 7f3d 967f c73e e3d0 e9bc 2af8 303e
000003b0: f38a 0ebc cb28 04bd 5941 98be 3025 193d
000003c0: e054 8fbd fbdc c1be 6935 e53d 5bee 3dbe
000003d0: d6d4 38be c9df ed3b edcf b33d f75f fc3d
000003e0: 59d3 60bd ba57 2b3e fb3b ce3d 2029 c7bd
000003f0: 6cda 3e3d 7a59 59be 1e05 14bd 5eee 343c

fc1.bias f4 [64]
0.09171033 -0.08595837 -0.008940594 0.0173967 -0.12438863 0.088249095 -0.018339042 0.06421027
-0.020866547 0.11013256 0.037053492 0.08369205 -0.021327678 0.13638355 -0.05952541 -0.08310561
0.010529823 0.20066553 0.016295087 0.065928094 0.11998353 -0.023472503 0.027729902 0.09056399
-0.012163445 -0.08458116 -0.100125104 0.10870946 0.10103688 -0.14096828 -0.021361656 0.09275778
-0.10547676 -0.002466718 0.017017283 -0.050202776 0.09434868 0.13915147 0.09156176 -0.06780892
-0.006249327 -0.11492541 0.070357025 -0.03810746 0.047430895 -0.016082138 0.027350463 -0.0981833
-0.079985246 -0.1431337 0.13549456 0.09270978 -0.001365814 0.001184972 -0.02545561 -0.03722256
0.095242046 0.011344829 -0.12965548 -0.084089406 -0.01579932 0.016053133 0.070106305 -0.055041023
00000000: a0d2 bb3d f10a b0bd 927b 12bc 8683 8e3c
00000010: 77bf febd f1bb b43d c23b 96bc ad80 833d
00000020: 52f0 aabc 2e8d e13d 67c5 173d bd66 ab3d
00000030: 62b7 aebc 21a8 0b3e ebd0 73bd 4633 aabd
00000040: 4785 2c3c 447b 4d3e 467d 853c 4f05 873d
00000050: edb9 f53d 6849 c0bc d229 e33c 9d79 b93d
00000060: 3049 47bc e338 adbd 640e cdbd 11a3 de3d
00000070: 6cec ce3d fd59 10be a4fe aebc caf7 bd3d
00000080: 3304 d8bd a9a8 21bb d467 8b3c 6da1 4dbd
00000090: e139 c13d b97d 0e3e bb84 bb3d 67df 8abd
000000a0: 28c7 ccbb 035e ebbd 5817 903d 9116 1cbd
000000b0: e646 423d b0be 83bc 140e e03c 5314 c9bd
000000c0: 4ecf a3bd a491 12be 16bf 0a3e a0de bd3d
000000d0: 1d05 b3ba 1051 9b3a 4988 d0bc af76 18bd
000000e0: 430e c33d a9df 393c 68c4 04be 1137 acbd
000000f0: 936d 81bc dc81 833c e593 8f3d b272 61bd

bn1.weight f4 [64]
0.9956402 0.9638944 1.22931 0.8341376 0.96924734 1.0404433 0.9641823 1.0594687
0.7284165 1.2100306 0.92418635 1.010158 0.96307194 1.0804367 1.1234242 1.1459322
1.0949233 1.1387355 0.9755461 0.9982384 0.95740044 0.9889162 1.1626378 0.9366915
0.9382659 1.0024067 0.9523071 1.2257638 1.1330595 1.2229536 0.9949863 1.0453185
1.1424435 0.9935637 0.9334069 0.9563459 1.0306911 1.0841334 0.816258 1.0545512
1.135373 0.9797796 0.9153862 1.0430399 0.9311335 0.98454714 1.1095358 0.92288727
0.8090006 1.0775154 0.96095663 1.1764588 1.0050098 0.80384004 1.0865947 0.9731797
1.0478979 1.210295 1.1446099 1.0810403 0.9812305 0.7564845 1.0096391 1.0398208
00000000: 47e2 7e3f c9c1 763f 085a 9d3f 0b8a 553f
00000010: 9820 783f 3f2d 853f a7d4 763f ac9c 873f
00000020: 8179 3a3f 48e2 9a3f 7a97 6c3f db4c 813f
00000030: e28b 763f c04b 8a3f 5dcc 8f3f e8ad 923f
00000040: 7226 8c3f 16c2 913f 64bd 793f 8d8c 7f3f
00000050: 3218 753f 9d29 7d3f 51d1 943f 04cb 6f3f
00000060: 3232 703f dd4e 803f 66ca 733f d4e5 9c3f
00000070: 1808 913f be89 9c3f 6cb7 7e3f ffcc 853f
00000080: 973b 923f 315a 7e3f c1f3 6e3f 16d3 743f
00000090: b0ed 833f e2c4 8a3f 49f6 503f 89fb 863f
000000a0: e753 913f d6d2 7a3f c056 6a3f 5582 853f
000000b0: c45e 6e3f 480b 7c3f 4505 8e3f 5742 6c3f
000000c0: aa1a 4f3f 06ec 893f 4101 763f 3496 963f
000000d0: 29a4 803f 76c8 4d3f 8915 8b3f 4e22 793f
000000e0: 8521 863f f2ea 9a3f 9482 923f 875f 8a3f
000000f0: ec31 7b3f f8a8 413f db3b 813f d918 853f

bn1.bias f4 [64]
0.2361788 -0.2593297 0.37837517 -0.2683979 0.36109275 -0.2631027 0.15738696 0.30380383
0.014072571 0.07672961 0.37211102 -0.21784693 -0.26577333 0.19099887 0.25430363 0.47739628
0.35544747 0.17448193 0.14973848 0.1975835 0.041946232 0.0013347386 0.17236187 -0.15510514
-0.23277456 0.34075636 -0.32777613 0.004829217 -0.12421427 0.32538545 0.24307197 0.32592136
0.33226404 0.4348387 0.3163017 0.5219805 -0.014729208 -0.055156037 -0.3444325 0.1823193
-0.08729816 0.20299877 -0.20782317 0.20968102 0.3158609 0.21485573 0.08078277 0.20158744
-0.2278263 0.19407275 -0.16763659 -0.13407756 0.20345801 -0.20822638 0.38722664 0.07025848
0.11000178 0.21511611 0.3135663 -0.139288 -0.25418893 -0.3447292 -0.15152135 0.2704875
00000000: dbd8 713e ddc6 84be 64ba c13e 736b 89be
00000010: 26e1 b83e 66b5 86be 0c2a 213e 2d8c 9b3e
00000020: a490 663c 6a24 9d3d 5685 be3e 4413 5fbe
00000030: 7113 88be 3595 433e 1634 823e 496d f43e
00000040: 36fd b53e 64ab 323e 0b55 193e 5453 4a3e
00000050: d0cf 2b3d 65f2 ae3a a17f 303e e2d3 1ebe
00000060: 745c 6ebe 9e77 ae3e 46d2 a7be 693e 9e3b
00000070: 0d64 febd ec98 a63e dce7 783e 2adf a63e
00000080: 831e aa3e 2ea3 de3e 4cf2 a13e 84a0 053f
00000090: c752 71bc 4ceb 61bd 7559 b0be e9b1 3a3e
000000a0: 61c9 b2bd e9de 4f3e 99cf 54be 9fb6 563e
000000b0: 85b8 a13e 2403 5c3e 7071 a53d f06c 4e3e
000000c0: 4c4b 69be 02bb 463e eda8 2bbe a14b 09be
000000d0: 4c57 503e 4c39 55be 9242 c63e aee3 8f3d
000000e0: 9d48 e13d 6647 5c3e c38b a03e 83a1 0ebe
000000f0: 0d25 82be 5880 b0be 6a28 1bbe 567d 8a3e

bn1.running_mean f4 [64]
-0.9149474 0.8889527 -0.67689514 0.3622363 0.45990628 0.6514568 0.28700036 0.073522195
-0.01515708 -0.9052493 -0.883118 0.71574396 0.24065737 -0.17988046 0.21476164 0.17689042
0.7923161 0.85040754 -0.36428905 0.640266 0.78471625 0.6730553 -0.088161565 0.37394696
0.060841143 -0.8413181 -0.47940215 0.54347956 0.5754707 0.82514215 0.2610053 0.12777305
0.03346049 0.46386194 0.41629568 -1.0752921 -0.7218895 -0.8390207 0.20557417 -0.2655673
0.48862368 0.18709597 0.6542434 0.7457716 0.386125 0.04012733 0.27615446 0.50674075
-0.43824416 -0.6354429 0.8635149 -0.4601046 -0.39674672 0.7333117 -0.4678861 -0.25026083
-0.98735803 0.7873597 -0.7940504 0.5365222 0.19381532 0.16882351 0.5112229 0.7061852
00000000: fe39 6abf 6792 633f 0049 2dbf 0977 b93e
00000010: d678 eb3e dfc5 263f b6f1 923e ce92 963d
00000020: 6755 78bc 6bbe 67bf 0514 62bf ff3a 373f
00000030: e36e 763e 9532 38be 7aea 5b3e c322 353e
00000040: 3ad5 4a3f 4fb4 593f 1884 babe 79e8 233f
00000050: 2ae3 483f 5a4d 2c3f 0d8e b4bd fa75 bf3e
00000060: 9034 793d 9f60 57bf 3374 f5be 7a21 0b3f
00000070: 0c52 133f 843c 533f 7da2 853e f0d6 023e
00000080: de0d 093d 507f ed3e b524 d53e 2ca3 89bf
00000090: c0cd 38bf 10ca 56bf 0982 523e 70f8 87be
000000a0: e22c fa3e 1696 3f3e 7f7c 273f e3ea 3e3f
000000b0: 2db2 c53e 8e5c 243d 1e64 8d3e c3b9 013f
000000c0: 8a61 e0be 63ac 22bf 500f 5d3f d592 ebbe
000000d0: 6322 cbbe 51ba 3b3f c48e efbe 3022 80be
000000e0: 7fc3 7cbf 6890 493f e346 4bbf 8559 093f
000000f0: 8677 463e 12e0 2c3e 81df 023f 8ec8 343f

bn1.running_var f4 [64]
0.66785675 0.5092565 0.63303113 0.38339877 0.51752913 0.24018566 0.32397267 0.5733388
0.05946546 0.6633238 0.51323384 0.50369436 0.80775434 0.6721898 0.5703778 0.66474736
0.6504014 0.7570559 0.3507091 0.5001866 0.55832326 0.32258523 0.6516489 0.43564105
0.47759032 0.4224214 0.31427613 0.6075424 0.78273135 1.1205322 0.57264525 0.42381072
0.9082272 0.5967156 0.62156117 0.36976764 0.6706601 0.55722684 0.42039302 0.2376748
0.5212849 0.43651283 0.35770395 0.7873886 0.88919604 0.41942203 0.5460848 0.3689273
0.23602377 0.38413423 0.522865 0.43538713 0.28388757 0.57087415 0.62931234 0.6629334
0.32783172 0.80739623 0.5828806 0.68910056 1.0407668 0.73175436 0.37437704 0.66071326
00000000: a9f8 2a3f a25e 023f 540e 223f d84c c43e
00000010: ca7c 043f 3bf3 753e bfdf a53e 55c6 123f
00000020: 0e92 733d 97cf 293f 4b63 033f 1df2 003f
00000030: fdc8 4e3f a114 2c3f 4804 123f e22c 2a3f
00000040: b580 263f 6ace 413f 2590 b33e 3b0c 003f
00000050: 46ee 0e3f e429 a53e 76d2 263f 580c df3e
00000060: b886 f43e 9e47 d83e cde8 a03e e687 1b3f
00000070: 1561 483f 996d 8f3f e198 123f b8fd d83e
00000080: 9481 683f 5bc2 183f a21e 1f3f 2f52 bd3e
00000090: 61b0 2b3f 6ba6 0e3f c13d d73e 0661 733e
000000a0: ed72 053f 9c7e df3e f924 b73e 4d92 493f
000000b0: 5aa2 633f 7cbe d63e 37cc 0b3f 0ae4 bc3e
000000c0: 37b0 713e 3ead c43e 7bda 053f 10eb de3e
000000d0: b659 913e cf24 123f 9d1a 213f 01b6 293f
000000e0: 8fd9 a73e 85b1 4e3f aa37 153f e568 303f
000000f0: d937 853f 4154 3b3f 59ae bf3e 8124 293f

fc2.weight f4 [4, 64]
0.05072318 0.008684491 0.1408567 -0.15858053 0.23010553 -0.029277604 0.03824026 0.2858682
0.0389246 0.08123309 0.2216151 -0.23361649 0.010036947 0.11902361 -0.078697555 0.23706904
0.13230798 0.14671205 0.17599796 0.23592125 -0.08835913 -0.12818657 0.13753054 0.010400716
-0.13025285 0.16338968 -0.14197022 0.04194795 -0.0017935464 0.1559564 0.07676425 0.24488011
0.32555777 0.2913895 0.099283494 0.26371223 -0.026669512 0.061549954 -0.052252587 0.06060596
-0.07248377 0.21989371 -0.16680282 0.2024048 0.118071705 0.17812927 -0.08220375 0.17735001
0.0006280996 0.22121648 -0.22755708 -0.03899194 0.1941396 -0.11865254 0.078208074 0.051922057
0.21044149 -0.0017782738 0.13247485 -0.1677477 -0.25699982 -0.040613458 -0.09209404 0.18266425
-0.22418621 -0.09448847 -0.34120423 0.019652974 -0.2015117 -0.10492971 0.16276692 -0.17145807
-0.05340224 -0.30935794 -0.1678264 0.12847097 0.2629907 -0.27736577 0.122659616 -0.29312512
-0.22164637 -0.18486592 0.18045923 -0.06101063 0.15504022 0.16390663 -0.2581967 0.22207247
-0.043260965 -0.24729775 -0.18880633 -0.22355834 -0.0005656292 -0.11415495 -0.3100832 -0.15731594
-0.21045355 -0.06413661 -0.05553642 -0.18722564 0.001805818 0.0068981056 0.17309016 -0.25041997
0.14208034 -0.078479655 -0.030097445 -0.14652899 -0.15005931 -0.14242549 0.21549039 -0.052633297
0.056424 -0.077815905 0.1898902 -0.23202668 -0.17759785 0.051936466 0.05971333 0.13834998
-0.115513444 -0.17649788 -0.3561751 0.21394967 0.115595154 0.061954085 0.1381271 -0.22558941
-0.29558975 0.2146065 -0.34167168 -0.004329783 -0.10636654 -0.321705 -0.08114126 0.006409101
-0.0677901 -0.17698254 -0.024050012 0.09502784 -0.092277 -0.167206 0.16549015 0.23339741
0.2543145 0.26790994 -0.28973055 0.05775127 0.13845558 -0.049968738 0.24142176 0.1566965
0.18611638 -0.26626444 -0.090134814 -0.32356948 0.31315917 0.26369658 0.09610277 -0.095787354
-0.113193266 -0.15588295 -0.30977657 -0.22952855 -0.35468033 -0.41342437 -0.22210236 0.16321123
0.1665775 -0.12227775 0.13094915 -0.06643868 -0.20506336 -0.072546065 -0.2581826 -0.06103842
-0.1332358 -0.1589717 0.053708564 -0.29866478 0.007942949 0.18150713 -0.49284124 -0.23771445
-0.0923584 0.2640598 -0.18323468 0.111940086 -0.07519886 -0.046305656 0.085714854 0.18093556
0.13965997 -0.17075905 0.2472496 0.15723881 -0.052117713 0.2377015 -0.38183823 -0.016319385
0.025403736 0.30988798 0.13066578 -0.2201991 -0.041121837 0.22126707 -0.4023985 -0.2725059
-0.15177916 -0.22885494 -0.069094725 -0.16304015 -0.3499356 -0.38151217 -0.016432045 -0.14280626
-0.15535153 -0.0037979924 0.21065888 0.30169958 -0.21765843 -0.33054215 -0.13395584 0.033831954
0.020518472 -0.02524611 -0.097550176 0.025895648 0.17733923 0.149702 -0.040366102 -0.07704379
-0.4175384 -0.11905918 -0.03028213 -0.19078583 -0.070191 -0.12740646 0.20357499 -0.11060399
-0.14245473 -0.10925607 0.11683323 0.25009772 -0.10225658 -0.09504365 -0.116698675 -0.15083903
-0.04788309 -0.3955236 0.2429754 -0.30980983 0.1860326 0.17232916 -0.2967334 -0.19158867
00000000: 1cc3 4f3d 6549 0e3c bd3c 103e ef62 22be
00000010: c9a0 6b3e 96d7 efbc d2a1 1c3d 515d 923e
00000020: 676f 1f3d 895d a63d 12ef 623e 2939 6fbe
00000030: 0272 243c a7c2 f33d 2f2c a1bd 3ac2 723e
00000040: be7b 073e af3b 163e cf38 343e 5795 713e
00000050: a2f5 b4bd 5743 03be ced4 0c3e c467 2a3c
00000060: 0161 05be a04f 273e a460 11be 9dd1 2b3d
00000070: 6e15 ebba 09b3 1f3e 9336 9d3d dac1 7a3e
00000080: 82af a63e 0131 953e 2555 cb3d 4a05 873e
00000090: 057a dabc ce1b 7c3d cf06 56bd f53d 783d
000000a0: 5f72 94bd d12b 613e 5cce 2abe 3443 4f3e
000000b0: 94cf f13d 8567 363e 715a a8bd 3e9b 353e
000000c0: 0da7 243a 9386 623e b904 69be 03b6 1fbd
000000d0: 88cc 463e 1a00 f3bd 8e2b a03d 39ac 543d
000000e0: f97d 573e f814 e9ba 7da7 073e 0ec6 2bbe
000000f0: 7b95 83be 4c5a 26bd cd9b bcbd 560c 3b3e
00000100: 1291 65be 2c83 c1bd 52b2 aebe 46ff a03c
00000110: 1559 4ebe 63e5 d6bd 5fac 263e b492 2fbe
00000120: 4fbc 5abd 2a64 9ebe afda 2bbe e58d 033e
00000130: b8a6 863e e302 8ebe f734 fb3d 7f14 96be
00000140: 44f7 62be 7e4d 3dbe 4eca 383e 48e6 79bd
00000150: ddc2 1e3e 24d7 273e 5c32 84be f766 633e
00000160: 6932 31bd 9f3b 7dbe 7256 41be 7aec 64be
00000170: bc46 14ba 12ca e9bd 3ac3 9ebe 6e17 21be
00000180: 2381 57be 0e5a 83bd 287a 63bd 14b8 3fbe
00000190: 33b1 ec3a 8109 e23b 8c3e 313e 0c37 80be
000001a0: 827d 113e f1b9 a0bd eb8e f6bc b20b 16be
000001b0: 26a9 19be fdd7 11be 83a9 5c3e 0396 57bd
000001c0: da1c 673d f25d 9fbd 9472 423e 6798 6dbe
000001d0: 36dc 35be 55bb 543d f795 743d 9eab 0d3e
000001e0: 5092 ecbd dcbb 34be 955c b6be 9f15 5b3e
000001f0: 27bd ec3d 91c3 7d3d 3171 0d3e e900 67be
00000200: 8a57 97be cec1 5b3e 97ef aebe dae0 8dbb
00000210: b3d6 d9bd 85b6 a4be 642d a6bd 7003 d23b
00000220: 89d5 8abd e93a 35be 8804 c5bc f59d c23d
00000230: b9fb bcbd 0d38 2bbe 4076 293e bbff 6e3e
00000240: 8335 823e 7e2b 893e 9057 94be 988c 6c3d
00000250: 4dc7 0d3e 05ac 4cbd 4437 773e 0c75 203e
00000260: 4b95 3e3e d053 88be 9a98 b8bd e6aa a5be
00000270: 6656 a03e 3d03 873e 87d1 c43d 292c c4bd
00000280: dfd1 e7bd c89f 1fbe 099b 9ebe 8809 6bbe
00000290: a998 b5be 5cac d3be cd6e 63be d820 273e
000002a0: 4b93 2a3e c26c fabd 8917 063e 0111 88bd
000002b0: 21fc 51be 0893 94bd 8230 84be 6c03 7abd
000002c0: f76e 08be 7ac9 22be 83fd 5b3d 97ea 98be
000002d0: 2523 023c 01dd 393e b055 fcbe 6b6b 73be
000002e0: 6726 bdbd d932 873e dfa1 3bbe d840 e53d
000002f0: dc01 9abd 00ab 3dbd 458b af3d 2c47 393e
00000300: 0603 0f3e 76db 2ebe 002f 7d3e 3603 213e
00000310: 6279 55bd 0668 733e 4d80 c3be 3bb0 85bc
00000320: 7f1b d03c a3a9 9e3e 40cd 053e df7b 61be
00000330: 5f6f 28bd d693 623e 2d07 cebe e585 8bbe
00000340: ff6b 1bbe f358 6abe 8981 8dbd fff3 26be
00000350: c22a b3be 9055 c3be 7f9c 86bc ce3b 12be
00000360: 7914 1fbe bde7 78bb f6b6 573e 5e78 9a3e
00000370: dae1 5ebe d23c a9be b82b 09be 6093 0a3d
00000380: 5b16 a83c eed0 cebc 63c8 c7bd 1c23 d43c
00000390: 6a98 353e 7b4b 193e ed56 25bd 22c9 9dbd
000003a0: 98c7 d5be 4dd5 f3bd 3b12 f8bc 5c5d 43be
000003b0: 4dc0 8fbd d776 02be f675 503e 5884 e2bd
000003c0: a7df 11be a5c1 dfbd 4346 ef3d cf0c 803e
000003d0: e66b d1bd 3fa6 c2bd b7ff eebd 8c75 1abe
000003e0: 0f21 44bd 1282 cabe 8bce 783e 659f 9ebe
000003f0: 547f 3e3e 0e77 303e 71ed 97be d22f 44be

fc2.bias f4 [4]
0.58884525 -0.10836803 -0.4639245 -0.48561227
00000000: 90be 163f 0ff0 ddbd 8387 edbe 2ca2 f8be
