Models/model_19rec_0.005_70.pt (torch, 952207 bytes, 32 tensors)

lstm.weight_ih_l0 f4 [512, 6]
00000000: 2b68 3fbe 03dd aa3e 8a85 9bbe 8818 b2be
00000010: f8f6 583e b28b 03be c3cf 253e 2790 c5be
00000020: 7e9e 353d a253 23bf 0d02 563d 3e3a 873e
00000030: 1579 0abe 5a9e dd3d cb97 d93d f87a 8bbd
00000040: aff3 29be cf6a d8bd d779 babe 013e b2bc
00000050: 06fc babe e158 80be 67b5 0d3f 1774 2dbe
00000060: 5020 c83e 996a f9bd d9db aabb b77b 543d
00000070: dbc1 83be 791e 943e 85b1 2d3d b07f e2bd
00000080: f927 313e 1eb8 893d 012f 9fbe e525 423e
00000090: 1e5d 35be fcbb 3fbd d450 19bd c570 113e
000000a0: fd2f 48be 981f 24be 9431 67bd 6e31 9ebe
000000b0: 35ad 533e cc47 833b 38e4 1abc c7b8 30be
000000c0: 9e13 7cbe 39cb ab3e 3870 c93e 70e3 be3d
000000d0: 4748 15be 3018 56be a580 7ebe 5676 c5bd
000000e0: d44b a13e cb3c 273e e40b 973d ec61 24be
000000f0: 9e63 15be ef27 bbbe 7755 863e 70eb b63d
00000100: 171e 3fbe 4a8b 06be ccef a5be c56c 27be
00000110: 2b7e b63d 9138 89bd 50d1 92be adda 853e
00000120: efc0 d53d 53ef 603e 8d1c 523d ff2e 393e
00000130: 30b3 9bbe 69f3 09bd 11af c13e 0662 24bd
00000140: 7034 143e 3183 33bc 034e 15be 2b7c 9bbd
00000150: 106b 8fbe 537a d83e 9d46 0ebd 7c39 b03e
00000160: e3d5 80be b99e 74be 9f65 463e 0236 14be
00000170: 6a69 afbd d4a8 48bd 3869 16be a77a e43d
00000180: d041 3b3e a387 a83c 1e5f edbd 1903 0bbf
00000190: 9d4d 87be 271b 883d 78ca ff3e 7d68 d83e
000001a0: 1368 093f 1bc9 943e e495 f6bd 8d56 903d
000001b0: cf6e a03a 418a 7a3d 9ab3 4fbe 40b8 97bd
000001c0: 7b08 353e f10e 11be a6f4 d7bd 721b 823e
000001d0: ee94 223e 6f1e eb3d 9adf bebd cd56 303d
000001e0: 1c8b 233f 551e b9be cf0f 1abf f21e b13e
000001f0: f5ca 8e3e 6212 ea3e 3824 babe c4d6 a53e
00000200: c478 423d e9c6 023f 79db 88be e03c e43d
00000210: 6ba7 2ebe b3dd 41be 273b 4a3e 8e9b d9bd
00000220: 3737 52be e486 dcbd 5798 3ebd ae83 0cbe
00000230: cbd1 083e ae81 37bc 21c8 82be b64d d43e
00000240: fc3d a1be 4882 013f 8513 48be 1a7c babd
00000250: 28c6 753e fdb3 8cbe 716b 5e3d 9a2d f13e
00000260: 1742 c73e db62 253e 496e 04be 3e0b 78be
00000270: 2daa e13e 8a67 68bd fd1c dc3e 1f9d 0fbe
00000280: 18d2 acbe e310 16bf f202 d5bd 5080 f5be
00000290: 9c93 aa3d 7448 88bd 157d a33d 0edf 183d
000002a0: 140a ae3c 28c2 953d 3bf8 4dbd 067a 443e
000002b0: 7f1a 1f3e f88c 793c e3f9 2cbe 9a75 d6bd
000002c0: 6fea d93e b1cd a0be 5992 4ebe 8956 2bbe
000002d0: 4beb 893e 0008 203e d84a 7dbd 5c9a f43e
000002e0: de8c e5bd e32b bb3e d759 43be 8c82 2bbd
000002f0: 55dc e23c 1a34 d53c 0bdd 1cbe 5de3 0c3c
00000300: 258b d43d 0305 c43d 8b95 0fbd 92b3 043f
00000310: 3a3e 01be 5b84 46be 908d 52be 766c 5b3e
00000320: 35e4 adbe ff8c 053e 8bb4 a6bc 5487 12be
00000330: 7f40 f3bd 6861 18bf ebdc dd3e e8bc c9be
00000340: 4349 98be 5c48 4e3e 7d24 e1bd d036 003f
00000350: b0bc 3a3e 12fa 3cbe 44d7 823e a1d7 643e
00000360: 4fa4 903e e6c5 843d db96 0b3e 7411 013d
00000370: c116 96be 809e e6bd 52b9 4c3f 8b67 913e
00000380: 95bb 083d ac71 0fbe f2b1 29be e576 db3e
00000390: 7807 92bd 75d3 02be 2e1f 193d 457e 1ebe
000003a0: a066 df3d 65f1 62be 1932 bf3a 6392 24be
000003b0: 70c1 73bc affb 963e 17c5 82be 14ba 8b3e
000003c0: 9568 e4bd 9b7b 95be d95c 74be 7a1d 323e
000003d0: cd52 86be e62c 773e cc81 3dbe 6a8a dcbc
000003e0: ad96 603d c54f 843f 7ac8 b7be ba65 913e
000003f0: 7daf b0bc b12c c4bd 8105 b5be d5f4 b2bd
-0.1869208 0.33371744 -0.3037532 -0.3478434 0.21187961 -0.12846258 0.16192536 -0.38586542
0.044340603 -0.6379949 0.05224805 0.26411623 -0.13522752 0.10821219 0.10624655 -0.06810564
-0.16596864 -0.10567247 -0.3642108 -0.021758081 -0.36520404 -0.2506781 0.55354923 -0.16938816
0.39087152 -0.12178535 -0.005214196 0.051875796 -0.25733837 0.289295 0.042405624 -0.11059511
0.17300405 0.06724571 -0.3109055 0.18959768 -0.17711303 -0.046810135 -0.0374306 0.14203174
-0.19549556 -0.16027677 -0.056443766 -0.30897087 0.20671542 0.0040063616 -0.009453826 -0.17257987
-0.24616858 0.33553484 0.3934343 0.09320724 -0.14578353 -0.20907664 -0.24853761 -0.096417114
0.31503165 0.16331784 0.07375315 -0.16052979 -0.14588782 -0.36553904 0.2623708 0.08931625
-0.18663822 -0.13139072 -0.32409513 -0.16350086 0.089107834 -0.06700242 -0.28675318 0.261434
0.1043719 0.21966295 0.05129676 0.18084334 -0.30410147 -0.0336794 0.37828878 -0.040132545
0.14473128 -0.010956571 -0.1458054 -0.075920425 -0.2801137 0.42280826 -0.03473531 0.34418857
-0.25163183 -0.23888673 0.19374703 -0.14473727 -0.08565028 -0.048989132 -0.14688575 0.111562066
0.18286824 0.02057249 -0.11590408 -0.543016 -0.26426402 0.06645804 0.4995916 0.42267218
0.5367443 0.2905968 -0.12040308 0.07047758 0.0012240055 0.061167005 -0.20283356 -0.0740819
0.17679016 -0.14165856 -0.1054471 0.25411564 0.15877125 0.11480414 -0.09319992 0.04305153
0.6388414 -0.36155954 -0.6018037 0.34593922 0.2788922 0.4571715 -0.36355758 0.32390416
0.047478452 0.5108476 -0.26729944 0.111444235 -0.17056052 -0.18932228 0.19749127 -0.10625373
-0.20528875 -0.10767916 -0.046532 -0.13722107 0.1336128 -0.011200352 -0.2554331 0.4146554
-0.31492603 0.5058942 -0.19538696 -0.09105702 0.24001372 -0.2748107 0.054301683 0.47105104
0.3891761 0.16150992 -0.12932695 -0.24223039 0.44075146 -0.056739368 0.42990866 -0.1402478
-0.3375404 -0.5861952 -0.104009524 -0.47949457 0.083289355 -0.06654444 0.07982842 0.037322097
0.02124504 0.07312423 -0.05028556 0.19187173 0.15537451 0.0152313635 -0.16892199 -0.104716495
0.4256167 -0.3140693 -0.20173015 -0.1673223 0.26937327 0.15628052 -0.061838955 0.47774017
-0.11208509 0.3655692 -0.1907724 -0.041872546 0.027692953 0.02602582 -0.15318696 0.0085991295
0.10378102 0.095712684 -0.035054725 0.518365 -0.12621394 -0.19386427 -0.20561814 0.21428093
-0.3396317 0.13042067 -0.020349761 -0.14309436 -0.11877536 -0.5952363 0.4333261 -0.39401937
-0.29743394 0.2014479 -0.10993288 0.5008364 0.18236041 -0.18454769 0.2555486 0.22347881
0.28250358 0.06483059 0.13631766 0.031510785 -0.29314235 -0.112607 0.79970276 0.2839931
0.033382017 -0.14008206 -0.16571787 0.42864147 -0.07130331 -0.12775977 0.03738325 -0.15477856
0.10908246 -0.22162397 0.0014587074 -0.16071467 -0.014877662 0.29488894 -0.25540993 0.27290404
-0.1115276 -0.29195866 -0.23863544 0.17394057 -0.26235047 0.24138221 -0.18506545 -0.02692147
0.054831196 1.0336844 -0.3589514 0.28397924 -0.021568054 -0.09578837 -0.35355762 -0.08738104

lstm.weight_hh_l0 f4 [512, 128]
00000000: e006 ac3d e4e7 8e3d bf6e 353e cb60 afbe
00000010: a88e f13d 516b 9a3d 7543 253d f30b 563e
00000020: 26e5 c3be 21be acbe c5cd ee3e d4c4 2bbe
00000030: 3178 8d3c bcf2 8cbd 289d 4cbc 1a1f b3bc
00000040: 7e97 27be 4494 1ebb a747 b73d 3243 523e
00000050: 83c1 edbe 0007 a13e e455 863d 88be f7bd
00000060: 79b6 5c3e 17d3 a4bd 4368 2abe 7cde d7bd
00000070: 6e70 c23e bebf 8dbe a5a6 8b3d 27fe a5be
00000080: 4f1c 09be 7585 a93e ae4d 833e 837a 493e
00000090: b129 12be ab20 a1be 6746 1a3e 5a23 243e
000000a0: e55a 20be a2f4 e73d 465b dbbd 7fb8 883e
000000b0: 7486 9bbd 981d 00be 0305 453e 2431 c13e
000000c0: 42bc 64be 7f47 8cbe 2471 89bd 05d7 5cbe
000000d0: 7665 03be 9fbb bb3e c2cd 25bd b347 753d
000000e0: 02f6 2cbd 8242 4dbe ad27 753e 3c77 093e
000000f0: cf8f 48be 2090 4cbc f12c 5b3e f128 acbc
00000100: decb 333f 75b3 cb3e 4db1 86bd 8216 b3bd
00000110: b41b 0ebc ee6a 4d3d 861d 38be 9d25 553e
00000120: 7a54 68bd af19 08bf 6bdf 5dbe 6e04 1bbc
00000130: bc7c a83d b8f3 5a3e c6b7 02bf 1035 093e
00000140: 216a ea3c e9b5 143f 2293 5c3e bbdb 1abe
00000150: 3269 1cbe d8c2 203e db16 3bbe 5ed8 173e
00000160: 0c63 503e c7a1 8bbe 9482 8abd 87d4 953e
00000170: f147 80bd 956b ccbc a6ce c1bd 1eb6 c4be
00000180: a429 0d3d 813a a1be 9f63 b8be cfbb e23d
00000190: f9e4 19be 1fe8 40be b475 f43b b67e 22bc
000001a0: 47be 073d 0719 c2bd cb5a ae3d 90d4 803d
000001b0: f071 9c3e 71b9 67be 7d6a a13d 4a1a c6bd
000001c0: 28e3 b63e d8f0 1c3e c774 0abd 1609 40be
000001d0: f979 d23e 9e5a cabe 30ec fd3c 4000 89be
000001e0: 8eae b6be 85ed 413d 013c adbd 1437 4ebe
000001f0: 26a9 36be f95f aebe a895 8e3e c9e5 663e
00000200: ebae 6cbd 4c30 8dbe 6d5a f73d 7a4b 3fbe
00000210: 7b83 c43c 0b3c 563e 0ab8 1c3e 1c03 483c
00000220: 9770 54be 5b40 82bd ae66 e13d e552 dabd
00000230: f695 883c 2f76 a53a 4a78 0ebc 64e4 29be
00000240: 865e 473e 2e5f a93e d2e3 56bd 7477 28be
00000250: db8d 3a3b bee5 5a3e 785e d3bc a2e5 f53d
00000260: 528b 053e 39a7 1d3e a23b 2bbe c297 043d
00000270: be18 433c ae8d d6bc 69c2 d63d 3f15 a0bd
00000280: 3813 e03d 2d29 483e 567d 193d 52c6 333e
00000290: 6f5e 35bd 76e2 943e 99da c6bc 6a81 fd3d
000002a0: e2e9 19be 2439 ec3d 8c06 85be 5b9a cb3d
000002b0: 0df7 71bd 95bb 323d 3d17 f13e 4218 b13e
000002c0: a827 4f3d 316f 2dbe 2bf6 b1be 5834 d6bd
000002d0: c789 f1bd e115 303e 54df afbb ba25 3ebd
000002e0: 3403 d13d d7e6 4bbd 95b1 bebc 0810 b63d
000002f0: 8fbb 47be c5fe 9b3c d068 103e c7e9 393e
00000300: b850 b63e 7793 ddbd 1ded a13e c9a5 b03d
00000310: 8b4d 53be 313d 32bd c117 043d 4e7c 053e
00000320: ba87 90bd 9440 4abd 2527 063e ee91 3b3d
00000330: 8ef6 33be 8699 db3c d60b a8bd 16d3 4f3e
00000340: 8638 26be 887f fcbd f12f a5bd ec3e fa3c
00000350: ea0e 92bd 821a aa3d c25f 55be 507e b63c
00000360: 6f83 6c3d fd5a 43be 29ee dc3a b099 553e
00000370: e8f4 0d3e 4966 fcbc 8a86 f9bd 4e06 f63d
00000380: bd4e e93d 7aeb 5ebe 839d ec3d 5070 4a3e
00000390: 6db1 69be 5ab7 fdbd f3a2 f7bd 86e9 28be
000003a0: 71c1 eebd 3bb0 0b3c 0a58 ee3d 8abd 3e3e
000003b0: 1c8b a73d b7bd 15be 2941 0dbe d0eb b9bc
000003c0: 386a 263e 78df 2d3e f5ad a1be 1d1c 5e3d
000003d0: 401a 463e 2e47 dd3e 0188 0abe 19c8 b9bd
000003e0: f8b9 c1bd d229 933d 3c74 8ebd 66e7 7d3e
000003f0: 393a 95bd 16bf ac3b ac7d 763e 3224 243e
0.08399749 0.069778234 0.17718028 -0.34253535 0.11794788 0.0754 0.040347535 0.20902996
-0.38260764 -0.33738807 0.46641365 -0.16774303 0.017269226 -0.068822354 -0.012488641 -0.021865416
-0.16366383 -0.002419726 0.089492135 0.20533445 -0.464367 0.31450653 0.06559351 -0.12096888
0.21553983 -0.08048075 -0.16641335 -0.105404824 0.37976402 -0.2768535 0.06818894 -0.32420465
-0.13389705 0.33109632 0.25645202 0.19675641 -0.14273717 -0.31470236 0.15065919 0.1602911
-0.15659674 0.11325957 -0.107107684 0.2670326 -0.07594004 -0.12511289 0.19240193 0.37732804
-0.2233744 -0.27398297 -0.06711033 -0.21566398 -0.12831673 0.3666658 -0.04047943 0.05988283
-0.0422268 -0.20044902 0.23940916 0.1342439 -0.19586109 -0.012485534 0.21403863 -0.021015616
0.7023295 0.39785352 -0.06576786 -0.087445274 -0.008673597 0.050150804 -0.17980012 0.2081513
-0.056721188 -0.5316419 -0.21667258 -0.009461505 0.08226916 0.21382034 -0.51061666 0.13399148
0.02861506 0.5809007 0.21540502 -0.15122883 -0.15274504 0.15699327 -0.18270437 0.14828631
0.20350283 -0.27271864 -0.06763187 0.29263708 -0.06263722 -0.024953643 -0.09463243 -0.38420194
0.03446354 -0.31489947 -0.36013505 0.11070978 -0.15028752 -0.18838547 0.0074603204 -0.009917906
0.033140447 -0.0947743 0.08513411 0.06290543 0.30555677 -0.22629334 0.07881639 -0.09672983
0.3572018 0.1532625 -0.033802774 -0.18753466 0.41108683 -0.3952226 0.030996412 -0.26758003
-0.3568005 0.047345657 -0.084587105 -0.20138198 -0.17837963 -0.34057596 0.27848554 0.22548594
-0.057784002 -0.2757591 0.12077794 -0.18681136 0.023988476 0.20921342 0.1530458 0.012207773
-0.20746075 -0.06359931 0.11005913 -0.10660342 0.01667307 0.0012623722 -0.008695671 -0.1659103
0.19469652 0.3308043 -0.05246336 -0.16451818 0.00284659 0.21376702 -0.025801882 0.120066896
0.13041428 0.15395822 -0.16721967 0.03237129 0.0119077545 -0.026190605 0.104862995 -0.07816552
0.10941166 0.19546957 0.037473045 0.17556122 -0.044279512 0.29079026 -0.024274157 0.123781994
-0.15030625 0.11534336 -0.25981557 0.0994155 -0.059073497 0.043635923 0.47088042 0.3458882
0.05057493 -0.16936947 -0.34758124 -0.104592025 -0.11793857 0.17195846 -0.005367199 -0.046422698
0.10205689 -0.049780693 -0.023278037 0.088897765 -0.19505142 0.019042382 0.14102483 0.18155585
0.3560846 -0.10819142 0.31626216 0.08625371 -0.20635049 -0.043515388 0.032249216 0.130357
-0.07057138 -0.049377993 0.1310087 0.045793466 -0.17574522 0.026806604 -0.082053825 0.20295367
-0.162325 -0.12329012 -0.08065785 0.030547582 -0.07131751 0.08305837 -0.2083731 0.022277027
0.057742532 -0.19077678 0.0016855645 0.20859408 0.13862956 -0.030810492 -0.121838644 0.12012921
0.11391971 -0.21769515 0.115534805 0.19769406 -0.22821589 -0.12388487 -0.12091627 -0.16495332
-0.1165799 0.008525903 0.11637886 0.18626991 0.0818083 -0.14623152 -0.13794388 -0.022695452
0.16251457 0.16979778 -0.3157803 0.05422603 0.19345951 0.43218368 -0.13528444 -0.09071369
-0.09459299 0.07185711 -0.06955764 0.24795303 -0.07286496 0.0052718027 0.24071378 0.16029432

lstm.bias_ih_l0 f4 [512]
00000000: cb12 16be c384 8abe e1d0 7ebe 9a7e 7dbe
00000010: 2576 92be 238f fabe 2df6 b9be afdb 2bbe
00000020: a4bb 2d3e 723a 05be 7587 0a3e f63f 973c
00000030: 904d 93be a5c0 1c3c 6a3e db3d ee9c 2ebe
00000040: 3741 a63d 99dc b1be d7a9 58be 01ca a7be
00000050: adfe 99be 4506 cf3a 6009 c5be c2c4 c6bd
00000060: 8aea 00be 3e99 543d 4e4b 46be 9a10 0ebe
00000070: 286a 363e ee58 47be 9df0 c53d 68f5 f8bc
00000080: d6f0 0cbe 7bf0 5ebd 07f8 cfbd c427 9c3d
00000090: dcc3 9dbe de36 9abe 1518 32be aebc 91be
000000a0: eddb 08be 79de a43c 8bc0 fabc 23a8 01bf
000000b0: 0580 7abe f84f 73be 0871 99be d663 1dbe
000000c0: 5924 5dbc 98f9 edbe 9fc7 00be ce9c 54be
000000d0: 797b 06be 2610 083e 78e0 ddbe cae1 38be
000000e0: 94b9 cabd f9ef bfbe bcb8 3bbe 2be5 95bd
000000f0: 5230 9dbe 01dc c13d 5536 b7be 7225 2fbe
00000100: 4dc7 9dbc ff0a 95be 68ae 87be c5c6 9dbd
00000110: 3a16 823d 71b3 31be a751 35be 733e de3d
00000120: ca84 bbbc 4acb db3c 5333 773e 630b d7bd
00000130: c2b2 883d 92e7 b73d 002f 32bd 88f2 073e
00000140: 3230 82bd 29ff b7bd e8f3 3bbe fd89 02be
00000150: eb09 95be e41b ddbd 44f9 1ebd 6b8b b53c
00000160: 9ee8 d8bd 0a95 79be 40e1 4dbe 99a0 0b3d
00000170: a4af 773d 2d19 4b3d 69e6 60be d191 d43c
00000180: 6915 31be 9631 54bd e5d8 2dbe 08cd 50bd
00000190: a520 e03d 1fef 61be 36c0 68be 7b1c 38be
000001a0: 067e 8cbe 2d7c fbbe 26ec b3bd bcb4 1fbe
000001b0: e594 9e3c 2b61 263d 0667 733d e913 95be
000001c0: e06d 1abd 08e5 01bf a1b1 4b3e e147 32be
000001d0: 6f4d 13be 46f0 babe 5e92 5ebe 2bc8 0fbe
000001e0: 2300 56be 1e74 0bbe 334e 7dbe 080e 97be
000001f0: 372a 083c 6a17 84bd 4390 f23b d7a6 a53e
00000200: da8b 23bd e86e 2fbd 789c 55be 8ec0 35bd
00000210: 5070 7dbe 2f00 83be 17a8 7abe b744 2bbe
00000220: 4772 e33d 594e 6a3d 3696 c73d 0cda 99bd
00000230: e5d0 49be f758 983e 1eb9 b63e ed09 5f3e
00000240: d7b0 d4bd b577 173d 4756 63be db3e b0be
00000250: 3271 1a3f 02db 493e 4eb6 a3be 89e3 22be
00000260: 1476 65be db8a 9f3d aa52 62be 8948 2ebe
00000270: 430b 04be 7f21 06be 4a2a 343e 4987 69be
00000280: 3f5b 18be fb83 86bd ea9c 15be 8c28 d1bd
00000290: b77b 023e cfe5 acbe 65a8 53bd f069 98be
000002a0: f75d 04be 583f 48be 246b aa3d ba02 62be
000002b0: 66be ff3d 5433 b7be 2683 d43e 41e0 06be
000002c0: 162b 25bc 190e a3bc f1bc a5be e6be febb
000002d0: 223b 19bb 7a9d 243e f4ac 553e 40fb 76bc
000002e0: 78b5 70be eddf 50be 74f0 633d 8428 a43e
000002f0: 224e 96bd 4899 7e3d 3df8 c1be f0d7 34be
00000300: 23e9 0dbe bd22 aebd bc24 a8bd 47b7 cfbd
00000310: c307 febc c4d7 ecbd 8a94 50bc 55cf 3d3d
00000320: 6596 453d fae5 123d 3794 a53e 0fb1 32bc
00000330: 7ebe 9b3d 0c87 4c3e 3ffe 91bc 7ae1 113e
00000340: 36c5 92be 2423 07bd 425a 8c3a 3714 23be
00000350: 21b4 97be 460b c63d 8609 2ebe e956 de3d
00000360: 6cba 833d 3358 82be 0312 39be 3f4b d5be
00000370: ef7d dc3d 561e 303f 2dc3 d9bd 58b7 4ebe
00000380: 23ed bb3d 1fb0 893c 217c 8f3e 3a43 5abe
00000390: b5e5 403d 1baf 7c3e a6d8 07be 54db b7be
000003a0: 0e36 fd3c 7d09 4fbe 2d07 563d 87d3 01be
000003b0: 468c 52be 2804 23bd 9e8e d3bd b722 01be
000003c0: 6536 95bd 6046 e2be 7848 ae3e 1da0 e7bd
000003d0: 57e2 bb3d c686 a43c 292b 49be 9b36 b13e
000003e0: 3796 253e e017 8cbd 2b95 12be 8a95 2b3e
000003f0: b16f acbd cf04 f9bd 74c4 493e 6f5b ec3e
-0.14655606 -0.27054414 -0.24884368 -0.24755326 -0.28605762 -0.4893733 -0.3632063 -0.16783021
0.1696611 -0.13010576 0.13528235 0.018463116 -0.28770113 0.009567414 0.10705264 -0.17052051
0.081179075 -0.34738615 -0.21158539 -0.32771304 -0.30077115 0.0015794715 -0.38483715 -0.09705497
-0.1258947 0.051903956 -0.19364664 -0.1387352 0.17813933 -0.19467518 0.09665034 -0.030390456
-0.13763747 -0.05442856 -0.10154729 0.07624772 -0.3081349 -0.30119985 -0.17391999 -0.28464264
-0.13365145 0.020125614 -0.03060939 -0.5064718 -0.24462898 -0.23760974 -0.29969049 -0.15370116
-0.0134974355 -0.46479487 -0.1257615 -0.20762941 -0.13133039 0.1328741 -0.4333532 -0.18054882
-0.098986775 -0.37487772 -0.1833219 -0.07319101 -0.30700928 0.094657905 -0.3578364 -0.17104128
-0.019260073 -0.29109952 -0.2650025 -0.07703928 0.06351896 -0.17353608 -0.17706929 0.10851755
-0.022890467 0.026830334 0.24140672 -0.10500219 0.0667472 0.089797154 -0.043501854 0.13276112
-0.06356849 -0.08984215 -0.18354762 -0.12747951 -0.2910913 -0.10796335 -0.038811937 0.022161206
-0.10591243 -0.2437326 -0.20105457 0.034088705 0.06047024 0.049584556 -0.21962894 0.025948437
-0.17293324 -0.0518051 -0.1697727 -0.050976783 0.109437265 -0.22063874 -0.22729573 -0.17979614
-0.27439898 -0.49118176 -0.08785276 -0.15596288 0.019358108 0.04062001 0.059424423 -0.29116753
-0.03770244 -0.507401 0.19891979 -0.17410232 -0.14385007 -0.3651144 -0.21735522 -0.14041202
-0.2089849 -0.13618514 -0.24736862 -0.29502892 0.008310846 -0.064497784 0.0074024512 0.3235385
-0.039928295 -0.042830378 -0.2086047 -0.044373088 -0.24749875 -0.25586078 -0.24478184 -0.16725431
0.11105781 0.057203624 0.09745447 -0.07512292 -0.19708593 0.29755375 0.35688108 0.2178113
-0.10385292 0.036979396 -0.22200881 -0.34422955 0.6032897 0.19712451 -0.31975025 -0.1590711
-0.22408324 0.077901565 -0.22101846 -0.17019857 -0.12894921 -0.13098715 0.17594257 -0.22805513
-0.14878558 -0.06568142 -0.14610639 -0.10212812 0.12742506 -0.3376908 -0.051674265 -0.29768324
-0.1292647 -0.19555414 0.08321217 -0.22071353 0.124874875 -0.35781348 0.41506308 -0.13171484
-0.010081073 -0.019904183 -0.32370713 -0.0077742217 -0.0023381193 0.16075698 0.20866758 -0.015074551
-0.23506725 -0.20397921 0.055649236 0.3206216 -0.073391214 0.0621579 -0.37884703 -0.17660499
-0.13858466 -0.085027196 -0.082101315 -0.10142379 -0.03100956 -0.115645915 -0.012730727 0.046340305
0.04823913 0.035863854 0.3233964 -0.010906472 0.07604693 0.19973391 -0.01782143 0.14246169
-0.28666085 -0.032992497 0.0010708051 -0.1592568 -0.29629615 0.09670119 -0.1699582 0.108564205
0.064320415 -0.25457916 -0.18073277 -0.4165897 0.107662074 0.6879629 -0.1063293 -0.20187128
0.091760896 0.016807614 0.2802439 -0.21314707 0.047094066 0.24676172 -0.13266239 -0.35909522
0.030909564 -0.20218463 0.052252937 -0.12678348 -0.20561323 -0.039798886 -0.103299364 -0.12610899
-0.072857656 -0.44194317 0.34039664 -0.11309836 0.0917403 0.020083796 -0.1964537 0.34611973
0.16170584 -0.06840491 -0.14314716 0.16756263 -0.08419741 -0.1215912 0.19703847 0.46163508

lstm.bias_hh_l0 f4 [512]
00000000: 36a7 7bbe 5932 f2bd c66b 9bbe 1998 55be
00000010: cb42 95be 8c61 cbbe f95c 04bf 1164 44be
00000020: 2ca9 fd3d f12d 95bc e107 b23d df06 62bc
00000030: bf9e c4be 4bda b9bd a304 483d d118 dabd
00000040: 48bb ef3d d853 e5be f566 53be bb8c c5be
00000050: 66f3 4ebe cf69 743d 68b3 f4be 5689 ffbd
00000060: bd6d 29be 12b2 f33d 2c77 86be 211c 73be
00000070: 52c1 183e 0b09 59be f3da ae3d 9b44 69bd
00000080: 1832 77be b614 54be 12a4 30bd 1e79 20bd
00000090: b612 8bbe 1bb6 67be 939b 62be 6efc b1be
000000a0: 6452 78be c453 5fbc b8f3 11be 7137 d5be
000000b0: 35a7 a3be 81a3 9dbe cfec 94be dfe5 66be
000000c0: 8148 ccbd 9064 95be 56e6 19be faf0 05be
000000d0: 017a 0abe 5f14 d43d ed51 ebbe a820 02be
000000e0: 1131 80be 9a30 b6be 5747 06be 0b58 4e3c
000000f0: c8b8 b4be c72d 3b3e 4ace acbe 824f 29be
00000100: 9968 053d 9308 52be d4c5 92be 51b9 0fbe
00000110: 1292 48bd b22f e8bd 1022 7bbd 236c 64bd
00000120: 00d8 28be ad0f cfbc 647d 203e 427a 013d
00000130: 3f22 fdbc 520a 123e e8b1 303d 46be 473c
00000140: 4fec b2bd 0b0f 86bd 0e43 22be 9730 29bd
00000150: c5f2 98be 6f6c 78bc 9921 83bd 20f7 00bc
00000160: 26a5 663d 468f a7be 96de debd 3ac7 b73d
00000170: 7731 59bd db22 3f3d 3a6a 9fbe 8704 a1bd
00000180: 0935 25be 1bf1 32bd 3a61 0abe 7aba 9ebd
00000190: 6dda 283e 1d27 63be 8bd1 3ebe 9096 2cbe
000001a0: 3290 b7be 55cd bebe c796 9abd c48d 8fbe
000001b0: 183d c5bd 8dd2 9d3d 1f42 ddbc 8b38 6bbe
000001c0: a011 5ebd 630a fdbe 8adf ba3d 4868 98be
000001d0: 12d2 41bd b227 a2be c89f 86be 0342 44be
000001e0: 6c85 bfbd 6319 39be 6e14 debd 5c53 80be
000001f0: b4d5 4a3d 4052 64bd 8e8f 05bd 1cc5 4d3e
00000200: 7835 0cbe 9754 4bbd d539 9cbd aeb3 cbbd
00000210: c7ca 9fbe d8b9 b9be 8564 6dbe 15f7 2bbd
00000220: 7ba9 cabb 4d33 e93d 86c3 ce3d 04e7 b9bc
00000230: 4d3e 22be 8d31 663e 190d d03e 2d4e 143e
00000240: c2de 84bd 240f cebc 8ee6 3cbe e029 c2be
00000250: 02f1 313f cabc ec3d e9e0 42be 8cd2 00be
00000260: d96d 1dbe e76b 38bb aa7b f1bd 888e d6bd
00000270: c790 2abe af57 6abd cde1 033e bc60 71be
00000280: 9b04 49be d3ec d9bd d3ad f3bd ac7b 81bd
00000290: 49fd e03d aaaa a4be fb43 42be 4622 66be
000002a0: 193a 12be d030 afbe 232b 2e3d 050f 66be
000002b0: a94d 2e3e 9e86 d9be dc6b a83e 244f 553c
000002c0: b253 c5bd 7354 0cbe 3a59 4abe 99c8 4fbc
000002d0: 3aa7 2b3c df3c dc3d e622 533e 5698 7cbd
000002e0: f76e 04be e8a8 3bbe 2590 8c3c bd55 813e
000002f0: 661a dbbd 1eff a83d 5201 d0be d79f 5abe
00000300: eed0 5cbe aff8 aa3b 9de6 1cbe 37d8 adbd
00000310: c8ae 2bbe 29ee 43be b137 2cbd 8f75 093e
00000320: d830 b8bb bd3a babd bf5c bd3e aed5 a1bd
00000330: 7114 fd3a 40c1 813e f313 893d f0a6 d93c
00000340: f886 0cbe 6b31 c2bc 6f1c b03d 70b8 16be
00000350: f6b0 95be 38fe cdbc 132c 9abe 5b2b b43d
00000360: 0bcb ff3d f6c0 92be 0876 68be 2139 c5be
00000370: 906f ae3d 9015 163f 11c0 10be 1c29 3fbe
00000380: aac7 563d dd45 f93b b9bc 913e 0215 2bbe
00000390: 3a81 193d 9892 d43e 3049 64bd c220 b3be
000003a0: 9824 c73c 843f a3be 8023 94bd 25f6 efbd
000003b0: d691 5abe 6892 013c 61a6 82bd 8b85 29bd
000003c0: b50a 24be c8ed c9be 4dc4 e83e 47e6 0dbe
000003d0: 3723 453e 3e66 6b3b 0a7a 4dbe 512a 353e
000003e0: f2b4 043e 8219 973d da41 c1bd 0725 913e
000003f0: a406 f3bc bf87 a1bc f247 cf3d 4a47 c13e
-0.24575505 -0.11826009 -0.30355662 -0.20858802 -0.29152521 -0.3972286 -0.51704365 -0.19178797
0.123857826 -0.018210383 0.08692909 -0.0137955835 -0.38402364 -0.09074839 0.048832547 -0.106492646
0.11705643 -0.4479053 -0.20644744 -0.3858393 -0.20210037 0.05967122 -0.47793126 -0.124773666
-0.16545768 0.118991986 -0.26262796 -0.23741199 0.14917496 -0.21194856 0.08537855 -0.056950193
-0.24140203 -0.20711026 -0.04312522 -0.039178006 -0.27162713 -0.22628061 -0.2212966 -0.347629
-0.2425018 -0.013630811 -0.14253128 -0.4164386 -0.31963506 -0.30788806 -0.2908692 -0.22548626
-0.099747665 -0.29178286 -0.15029272 -0.13080207 -0.13523103 0.10355448 -0.45960942 -0.1270777
-0.25037435 -0.35583955 -0.13113151 0.012594233 -0.35297227 0.18279181 -0.33751136 -0.16534236
0.032570455 -0.20511083 -0.28666556 -0.14035536 -0.04896743 -0.11337222 -0.06131178 -0.05576719
-0.16488647 -0.02527603 0.15672833 0.031610735 -0.030900119 0.1426175 0.043138415 0.012191361
-0.087364785 -0.06545838 -0.15845892 -0.041306105 -0.29872718 -0.015162571 -0.064028926 -0.007871419
0.05630984 -0.32726496 -0.10882299 0.08973546 -0.05302569 0.0466641 -0.31135732 -0.07862192
-0.16133513 -0.043686967 -0.13513651 -0.07750411 0.16489573 -0.2218289 -0.18634622 -0.1685431
-0.358522 -0.3726603 -0.0754829 -0.28037846 -0.09630793 0.07706175 -0.027009068 -0.22970788
-0.054216027 -0.49421987 0.09124668 -0.2976706 -0.04731948 -0.3167091 -0.26293778 -0.19165806
-0.0935162 -0.1807609 -0.108437404 -0.25063598 0.04952021 -0.055742502 -0.032607608 0.20094723
-0.13692272 -0.049641218 -0.07628218 -0.099463806 -0.31209394 -0.362746 -0.23182876 -0.041983683
-0.0061847544 0.11386738 0.10095887 -0.022693165 -0.15844078 0.2247984 0.40634993 0.14482947
-0.064878 -0.025153704 -0.18447325 -0.37922573 0.69508374 0.11559446 -0.19031109 -0.12580317
-0.15373935 -0.0028140487 -0.11791165 -0.104764044 -0.1665679 -0.057212528 0.12879105 -0.23572057
-0.19630663 -0.10640874 -0.11898389 -0.06322417 0.1098581 -0.32161456 -0.18971245 -0.22474012
-0.14279975 -0.34216928 0.042521607 -0.22466667 0.17021812 -0.42485517 0.3289479 0.013019357
-0.09635104 -0.1370409 -0.197606 -0.012682104 0.010476882 0.10753798 0.20618781 -0.061668716
-0.12932955 -0.18326151 0.017158577 0.25260726 -0.106983945 0.08251785 -0.40626007 -0.21350037
-0.21564075 0.0052176337 -0.15322347 -0.08488505 -0.16765893 -0.1913382 -0.0420453 0.13423751
-0.005621057 -0.09093235 0.36984822 -0.07902084 0.001930846 0.2534275 0.06693258 0.02656886
-0.13723361 -0.023705205 0.08599173 -0.14718795 -0.29236573 -0.025145635 -0.3011175 0.08797332
0.12489899 -0.28662843 -0.22701275 -0.38520148 0.085173726 0.5862665 -0.14135768 -0.18668026
0.05243651 0.0076072053 0.28464296 -0.16707233 0.037476756 0.41518092 -0.05573386 -0.3498593
0.024309441 -0.31884396 -0.072333336 -0.1171687 -0.21344694 0.007908441 -0.063793905 -0.041387122
-0.1601971 -0.39439225 0.45462266 -0.13857375 0.19251715 0.0035919095 -0.20066085 0.17691924
0.1295965 0.07377912 -0.09436388 0.28348562 -0.029666252 -0.01971805 0.10121144 0.37749702

fc1.weight f4 [64, 128]
00000000: 119a c3bd 21f0 7a3e 4e70 05be a316 503e
00000010: 78b5 d1bd bf8d ec3d 3a47 6a3d 8456 64bd
00000020: 2ec3 96bc ea0c 62bd ecd5 d3bd 9a1e 7ebd
00000030: 2c14 d1bc 700b 273e 2cde 8d3d 4ab4 c2bc
00000040: 41e2 0abc b6ab 86be 9698 e23d dfcf 823d
00000050: c3ae 103e f2da 14bd 7f6d e03c 5394 07be
00000060: 034c 9fbe 52d1 903e 8541 75be f8bf 0cbe
00000070: 1138 523d ce45 00be 4678 1d3d 46a1 84bd
00000080: 1254 b2ba 7608 48bc 4c33 1abe 1417 32be
00000090: 51fd 61bd ffc6 443e fc22 1a3e 9532 c23d
000000a0: 0ef5 09bb bfb0 8b3e 2a19 74bb 3eba 543c
000000b0: ca98 3a3e a7d6 53be cf66 18be d397 6bbe
000000c0: 13d6 5d3d 7cb5 453e 32b8 383e 03dc f03d
000000d0: 5a34 df3d 3fdf 87bd 5101 743e cfd6 ebbd
000000e0: 1088 f63c 53a4 3e3d fca7 043e 7d3b debd
000000f0: 5e30 3abc e829 bcbd 4f29 2a3d 3c10 14be
00000100: ca0f 14be fbf2 603a 16b5 27bd e705 46be
00000110: b69b e83e 8f10 03bf 241e 86be 624f 8a3d
00000120: 3e13 213d 3075 b9be c5fd 523d 1337 bebd
00000130: c0a8 37bd 3455 173c 0477 bcbe 98af 303e
00000140: 56f0 a43b 5a35 33be 8597 91bd e009 48bd
00000150: a147 003e ecb4 013d 3d7f 5b3d 0b65 003e
00000160: 6b7a 943c 2382 5ebd 7cf7 be3d b05b acbe
00000170: 88e2 183e 7873 4a3e 19d8 cb3e 1645 373d
00000180: 8d19 7d3e fc7f 773e 2a91 ac3e c58c b93d
00000190: 8fe3 97bd 433b 08be 4286 2bbd e4fb fabd
000001a0: ffe6 8a3d bfff 4dbd 83ca 27be 2c56 a63d
000001b0: 8e8f 2c3d d177 6b3d 0d14 0a3c 503b a3be
000001c0: 1b90 9a3d 522e fcbd 281a 843e 3b31 863d
000001d0: 62af 90be 63da 133d d4ed f5bd 230b 9ebe
000001e0: ea9f 20be 7216 cfbd 3641 74be 996a 013e
000001f0: 5c6b e83d f786 6ebe 10a8 313d cc12 e7bd
00000200: aecf 613e e02e d7bd f259 26bd 7054 44be
00000210: 37c8 873c cb49 72bd aac8 8d3a 0385 45be
00000220: 13ac b9bc a9f9 393e 69f3 183d 5e28 bc3d
00000230: 30ab 29bc 1f9e 463e dad4 a7be 8a96 a33e
00000240: 2fb3 0dbf 4ed0 643e 467d c4bd f53e e33b
00000250: 2ebb 4fbe e5f4 303d 6af4 a9bd 2891 05be
00000260: 84a7 c0bd feae 7cbe 91b1 c43d bec4 be3d
00000270: 1eb7 97be 54a4 90be a895 38bc 341e 32be
00000280: 8d3a 27bc 2c9c a3bc c125 a93c e34d e3bd
00000290: e900 9abc 5403 393d c0de 70bd e21d 4abd
000002a0: d795 ac3d 4441 91bc 1275 673e 3c87 953d
000002b0: 10ac 4bbd 59f4 98bd 0f16 94be 93f5 4f3e
000002c0: 390e 25bd 2fff 823c ab53 33be 32f4 5a3e
000002d0: f695 1dbd 25f6 b2bd 251b 4ebd 709f 273e
000002e0: 8625 ccbd 3c60 34bd 43ef a8bd 6d1c ae3d
000002f0: dd89 a4bc 738b b9be 3766 3dbe 240d 9dbd
00000300: fe7b e4bd c136 413e f9b2 e5bd d358 5dbd
00000310: af91 72be 70b1 ae3e 9d2a 5c3c da27 8f3d
00000320: 4424 d93d 9377 333e 0b49 67be 4e18 1b3f
00000330: 3609 a0bd 97a8 aa3d 4776 883e 4b0d 38bd
00000340: 25e8 7e3b abf9 193e 24f8 a43e 359d 15bb
00000350: 1eff 78bc 34f8 52bd 6bf4 043e ffca 70bd
00000360: b653 22bd 64e7 933c b176 51bd 98b1 e5be
00000370: 0145 36be 184a 17be 1c67 eebd 10e3 b2bd
00000380: 0e11 70bd ea3f 593d 66c2 5fbd 64d7 b53d
00000390: bfd2 003e 01cf d8bd 8a65 b3bd 2691 c43e
000003a0: 2135 d4bd 6da5 e23d f060 37bd 21ea febc
000003b0: a7cd 053e 6d12 e33d 8bc1 333c c917 6c3e
000003c0: 8e57 f2bd cca5 c23c 4c76 babb 7063 83be
000003d0: 1024 2f3e 1701 24be bf05 ef3c 6b57 5abd
000003e0: b401 46bd 003d a53e d1d2 4d3d 75f2 c3bd
000003f0: 2ab6 09be e6dd 643c 2266 d6bd f76d 2bbd
-0.0955087 0.24505664 -0.13031122 0.20321135 -0.102396905 0.115504734 0.057196833 -0.05574657
-0.018403616 -0.055188097 -0.10343537 -0.062040903 -0.025522314 0.16312957 0.069271415 -0.02376761
-0.008476795 -0.2630288 0.1106426 0.063873045 0.14129166 -0.036341615 0.027395962 -0.13240175
-0.3111268 0.282847 -0.23950775 -0.13745105 0.051323 -0.12526628 0.03844478 -0.06476073
-0.0013605377 -0.0122090485 -0.1505863 -0.17391616 -0.055173222 0.19216536 0.15052408 0.09482304
-0.0021050605 0.27283284 -0.0037246444 0.012983857 0.18222347 -0.20687352 -0.14882968 -0.23007135
0.054159235 0.19307512 0.18039015 0.11760714 0.10898657 -0.06634378 0.23828627 -0.11515581
0.030094177 0.04654343 0.12954706 -0.1085119 -0.011364071 -0.091876805 0.0415433 -0.14459318
-0.14459148 0.0008581129 -0.04094418 -0.19338189 0.45431298 -0.5119714 -0.2619487 0.06753422
0.03932499 -0.3622222 0.051511545 -0.09287848 -0.044838667 0.009236623 -0.36809552 0.17254484
0.005033533 -0.17500821 -0.07108978 -0.048837543 0.12527324 0.03166668 0.05358814 0.12538545
0.01812478 -0.054323327 0.09324548 -0.33663702 0.14930165 0.1977061 0.39813307 0.04474362
0.24716778 0.24169916 0.337045 0.09060053 -0.0741645 -0.13303857 -0.041876085 -0.122550756
0.0678234 -0.050292727 -0.16385846 0.08121905 0.042129092 0.057487313 0.008427632 -0.3188119
0.07547017 -0.123135224 0.25801206 0.06552359 -0.28258806 0.03609694 -0.12008253 -0.30867872
-0.15686002 -0.10111703 -0.23853001 0.1263832 0.11348602 -0.23293673 0.043373168 -0.11282882
0.2205188 -0.105069876 -0.040613122 -0.19172835 0.016574962 -0.059152406 0.0010817249 -0.19289021
-0.02266506 0.18161644 0.03734151 0.09187387 -0.010355756 0.19396256 -0.3277958 0.3195079
-0.5535154 0.22345087 -0.095942065 0.0069349953 -0.20286247 0.0432023 -0.082985714 -0.13043654
-0.09406951 -0.24676129 0.096041806 0.09314869 -0.29631895 -0.28250372 -0.01126615 -0.17394334
-0.010206831 -0.01997193 0.020647885 -0.1109884 -0.018799262 0.04516919 -0.05880618 -0.049344905
0.08427017 -0.017731316 0.22603253 0.073011845 -0.04972464 -0.074684806 -0.2892308 0.20308523
-0.040296767 0.015990822 -0.17512386 0.21382216 -0.038473092 -0.087383546 -0.050318856 0.16369414
-0.099680945 -0.04403709 -0.082487606 0.085015155 -0.02008527 -0.36239204 -0.18496023 -0.07668522
-0.11156462 0.18868543 -0.11215777 -0.054039788 -0.23688386 0.3411975 0.013437894 0.06990023
0.1060262 0.17526083 -0.22586457 0.6058396 -0.07814257 0.08332937 0.26652738 -0.044934552
0.0038895693 0.15036647 0.32220566 -0.0022829298 -0.015197543 -0.051506236 0.12983863 -0.058787342
-0.039630614 0.018054672 -0.051138584 -0.44862056 -0.1779976 -0.14774358 -0.1164076 -0.08734715
-0.058610015 0.05303947 -0.054628752 0.08878973 0.12580393 -0.10586358 -0.087596014 0.3839199
-0.10361696 0.11066709 -0.04477018 -0.0311175 0.13066731 0.11087499 0.010971437 0.23055948
-0.11833106 0.023760699 -0.0056903716 -0.25661802 0.171036 -0.1601604 0.029177545 -0.053306025
-0.048341468 0.32273102 0.05024988 -0.095677294 -0.13448396 0.01396892 -0.10468699 -0.041852918

fc1.bias f4 [64]
00000000: b5bd 083d 978c e5bd a887 3a3d ac7f 443c
00000010: e270 c0bd bcb9 babd 7af8 20bd 7780 e5bd
00000020: 0437 fdbc 5353 a9bd 9c5c a1bb e3e0 1939
00000030: 02a0 ccbd 8ac9 8fbc 72fe 48be db39 393c
00000040: 07bb dd3d f039 293e fe50 cdbc 04cb aabc
00000050: 981e b33d 922c ab3d 6d54 7abd 81c7 b3bd
00000060: 85bc 043e be3c d03e eee9 10bd c724 0b3d
00000070: 351c 313d 91f6 b1bd 7f3f 1f3e cc29 2b3e
00000080: fd82 a43d 56a6 c8bd 79ec 193e 219f 013d
00000090: d868 b03d 8f45 cc3d 40e5 c83d f60d ba3d
000000a0: 0c16 20be 79b9 0a3e 483d 29bd 615f 12bc
000000b0: 8441 c93b cec0 b83d a62d 5d3d 84f4 90bb
000000c0: ccfb babd c325 e5ba 0520 8ebd 856b dcbd
000000d0: 14ea d73a 66da 743d 06ba 7cbc cda3 9f3d
000000e0: 5362 b03c e20f 363e d9d4 e33d 3656 1e3e
000000f0: 98c4 db3c 95a2 733e 0cd3 5a3b df1e 6a3d
0.033384044 -0.11208456 0.045539528 0.01199333 -0.09396531 -0.09117457 -0.039299466 -0.11206143
-0.030910023 -0.08267846 -0.00492437 0.00014674994 -0.099914566 -0.017552156 -0.19628313 0.011305298
0.10826688 0.16526008 -0.025063034 -0.020848759 0.0874607 0.083581105 -0.06111567 -0.08778287
0.1296254 0.40671343 -0.035379343 0.03397062 0.04323979 -0.08689607 0.15551566 0.16715163
0.080327965 -0.09797351 0.15031613 0.031645898 0.08613747 0.09974205 0.09809351 0.09084694
-0.1563341 0.13547315 -0.041318208 -0.008933873 0.0061418433 0.090211496 0.053998612 -0.00442368
-0.09130058 -0.0017482567 -0.06939701 -0.10762695 0.0016472959 0.059778593 -0.015425211 0.077949144
0.02153126 0.17779496 0.11124582 0.15462574 0.026827142 0.23792489 0.0033389954 0.057158347

bn1.weight f4 [64]
00000000: a299 6e3f 2497 8b3f 67a2 883f af19 893f
00000010: 440e 803f 0166 743f a2d1 833f 6d5a 7f3f
00000020: ed90 7b3f be9c 8a3f bfbf 6b3f 4ab1 833f
00000030: 3b4c 933f 5fd6 8b3f a1ae 853f 944f 7f3f
00000040: 7417 773f ddd1 923f 3607 813f 49b2 673f
00000050: 1c9f 963f f7d4 8f3f 9fd4 623f f327 313f
00000060: be3b 9a3f 3510 913f f9c6 6c3f cde4 8c3f
00000070: 3248 6b3f f8e2 4e3f 907e 893f bbf1 7d3f
00000080: d4c0 853f 9ce5 6b3f 894b 483f d864 843f
00000090: 6df7 9f3f b4a9 8d3f 54b3 603f ff2b 923f
000000a0: 1aa9 863f 73bf 703f 5f0e 853f 2339 883f
000000b0: b304 843f b1cb 8f3f ed4c 673f aaf8 743f
000000c0: 1ab8 673f bf3c 7a3f 71ea 8e3f a3d9 793f
000000d0: c9dc 853f b3d2 923f ced5 683f bdc4 9e3f
000000e0: 5d95 703f 1199 9d3f ecfa 8b3f dbe5 8b3f
000000f0: d2f2 6e3f 21c1 923f 0256 593f 1a78 953f
0.93203175 1.09055 1.0674561 1.0710963 1.0004354 0.95468146 1.029835 0.99747354
0.98268014 1.0829084 0.92089456 1.0288479 1.1507639 1.0924796 1.0443918 0.997308
0.9652016 1.1470295 1.0080326 0.90506417 1.1767306 1.1236867 0.88605684 0.6920158
1.2049482 1.1333071 0.9249111 1.1007324 0.91907036 0.80815077 1.0741749 0.99196976
1.0449471 0.9214723 0.7824026 1.0343275 1.2497383 1.1067414 0.87773633 1.1419677
1.0520356 0.9404213 1.0395011 1.0642437 1.0313934 1.1234037 0.90351754 0.9569193
0.9051529 0.9774894 1.1165296 0.9759771 1.0458003 1.147055 0.9095124 1.240379
0.9397791 1.2312337 1.093595 1.0929521 0.93339264 1.1465188 0.8489686 1.1677277

bn1.bias f4 [64]
00000000: cff9 753e 71ee 7fbe 5b66 533d ea52 c03e
00000010: 17ee b7be 7246 8a3e 5082 9abe 4310 e13e
00000020: e1d0 cf3d f8bd 963d 3160 d8bd cf24 aebe
00000030: ec8d c73d ca29 3b3e 69b5 72be 0358 58be
00000040: 4fce a53e 6d37 33be 6e93 cbbe 2ea7 493e
00000050: b7c3 223b 1797 2c3d 8385 6b3e c906 043f
00000060: d552 2a3e a61d f33d ef47 983e 0b95 07be
00000070: 5c31 823e 48a1 a03e 28c8 ca3e fb8e c8bd
00000080: ef64 9e3e c058 b3be 7911 df3e 99e8 4dbd
00000090: 8202 9c3e 4c63 0fbe 2d39 8cbd b482 893e
000000a0: 7620 903d c378 4f3e 126b b6bc c98e 043c
000000b0: be75 193e 3f7e 023e a7c8 013e e351 9cbe
000000c0: 8974 8a3e 4d0d 803e f481 a33e 0ff9 5f3e
000000d0: 80eb 153e 8077 533e e24b c5be 43e7 613d
000000e0: f275 cabd 8e33 2fbe d036 8fbd 581f 3abe
000000f0: 3dce 98be 12d8 f63e 2081 683e 4be8 dc3d
0.24021076 -0.24993302 0.051611286 0.37563258 -0.35923836 0.2700687 -0.30177546 0.4395772
0.10147262 0.073604524 -0.10565222 -0.34012458 0.09743866 0.1827766 -0.23702015 -0.21127324
0.32383963 -0.17501612 -0.39760917 0.1969268 0.0024835893 0.042136278 0.2300015 0.51572853
0.1663316 0.11870889 0.2974238 -0.13240449 0.25428283 0.31373048 0.39605832 -0.09792896
0.3093638 -0.35028648 0.43568018 -0.05027065 0.30470663 -0.14002723 -0.06846843 0.2685753
0.070374414 0.2026091 -0.022267852 0.008090683 0.14986321 0.12743472 0.12674199 -0.30531225
0.27042034 0.25010148 0.31935084 0.21872352 0.14640617 0.20651054 -0.38534456 0.05515219
-0.098857775 -0.1710951 -0.069928765 -0.18176019 -0.29844847 0.48211724 0.22705507 0.10786494

bn1.running_mean f4 [64]
00000000: 757c 093c 0983 82bd dbc0 88bd 8be9 11bf
00000010: 77d3 613f e372 da3e ef72 0d3f 409c f03e
00000020: 76bc 7b3e 73cc 1abf e45a 943d 909a 6f3f
00000030: 43c0 a13f 3183 883e 24b3 f33e e611 b5be
00000040: c7d1 18be 88b8 4dbf 443e b43e ce56 8c3f
00000050: 8edf f43e bcc1 fe3e b7d9 4a3f f0ac 25bf
00000060: 16df 22bf f2ff 803f 843a 823f 8a57 43be
00000070: 1311 8d3f 487f 8b3d 3157 2e3f 2e23 34bc
00000080: 695d d63e 2b9b 7b3f b3ed 4fbe 43f1 f73f
00000090: 1cb7 583f 674d d43e 8a60 a93e f259 693f
000000a0: 9bee a2bf 21da a1be 7c32 3a3f 2655 433d
000000b0: 7e39 b43f 8f8d 103f 962f 3e3f ea3e 953d
000000c0: 1311 383f 546b 2ebe fa49 0f3f e82a 5a3f
000000d0: 2d18 5cbf 7738 a4be 12df 743f a78f 423c
000000e0: 9d87 97bf bdc4 a63b 6e25 b7bf 7d3c d13d
000000f0: 6d4d 893e e2aa ac3f b024 103f 48c8 033f
0.008391489 -0.06372649 -0.06677409 -0.56996983 0.88213295 0.42665777 0.552535 0.4699421
0.24583611 -0.60468215 0.072438985 0.9359522 1.2636799 0.2666259 0.4759761 -0.35365218
-0.14923774 -0.803597 0.35203755 1.0963991 0.4782681 0.49757183 0.79238456 -0.64717007
-0.6362165 1.0078108 1.0174108 -0.19076362 1.1020836 0.06811386 0.68101794 -0.010994716
0.4186814 0.9828364 -0.20305519 1.9370502 0.846544 0.41465303 0.33081466 0.9115287
-1.2729067 -0.31611732 0.72733283 0.047688626 1.4080045 0.56466 0.7429136 0.072873905
0.71901053 -0.1703313 0.55972254 0.8522172 -0.8597439 -0.3207433 0.9565288 0.01187507
-1.1838261 0.005089371 -1.4308298 0.10216615 0.26816884 1.3489649 0.5630598 0.5147748

bn1.running_var f4 [64]
00000000: 376d 1b3f 85ba 043f 13ec 313f f0f0 1d3f
00000010: 3dbb 3f3f df45 3c3f a9a7 403f 090c 093f
00000020: 3482 113f 8f68 553f 0c01 033f 48e3 263f
00000030: d243 483f e870 b33e 55c3 e23e 1abf 083f
00000040: 0073 113f ae5e 9c3f a1a9 043f f918 3e3f
00000050: beac 3b3f c60b 8b3e 2fcd ad3f 18a9 073f
00000060: 0286 043f b16c a63e b6f5 bf3f 326f 9f3f
00000070: e2c0 933f ed52 ec3e b993 b43f 920c 2d3f
00000080: 49b9 363f 5831 c73f d1b9 9d3f 8691 a53f
00000090: f118 c73f 99ef 693f afc5 0e3f 43fa 423f
000000a0: ae77 823f 93ee 813f db2c 6b3f d4c9 4d3f
000000b0: b179 773f 3aa8 093f a213 953f 861c c53e
000000c0: 225c 763f bd53 d13e 641f 0f3f 5eff ab3e
000000d0: 0f08 723f a163 383f 8c43 c43e d48f b23e
000000e0: 0290 9a3e cb05 363f 7bbe 543f 2454 363f
000000f0: c03e 543f 7e06 e93e fde7 dd3e 96b9 4f3f
0.60713524 0.51847106 0.69500846 0.61695766 0.7489508 0.73544115 0.7525583 0.5353399
0.568393 0.8336267 0.5117347 0.65190554 0.78228486 0.35047078 0.44289652 0.534166
0.568161 1.2216394 0.51821333 0.74256855 0.7331046 0.2715742 1.3578242 0.5299239
0.5176698 0.325048 1.499686 1.2455809 1.1543238 0.46157017 1.4107581 0.67597306
0.7137647 1.5561934 1.2322332 1.2935035 1.5554487 0.9138122 0.5577039 0.7616312
1.0192773 1.0150932 0.9186532 0.8038609 0.9667006 0.5377232 1.1646616 0.38498324
0.96234334 0.408842 0.55907273 0.33593267 0.94543546 0.7202702 0.38332784 0.34875357
0.30187994 0.7110259 0.8310315 0.7122214 0.8290825 0.45512766 0.43341056 0.81142557

fc2.weight f4 [4, 64]
00000000: 7870 dc3d 0e21 9bbe 75c6 093d 78ba 343d
00000010: 2bbc 86be b9d6 a93d f53f d1bd c742 54bd
00000020: f7f4 5f3b 24b0 5d3d 02b3 45bd 2851 35be
00000030: 44e6 8c3e 80c3 2c3c 31ad 12bd 25af 95be
00000040: 29e3 953e 2846 903d 1bd4 f2bc bec3 883d
00000050: 3025 543b bee5 56bd 0a29 683e 69a8 773d
00000060: cab8 2f3d 8bcd 96bd 81c0 563e 63e8 393e
00000070: a0ef 423e a9b4 093e c5bc a83e 3898 afbb
00000080: 0a48 203d 2970 2ebe 69b3 853e e199 c2bd
00000090: e270 d73e 1bef 953c fce0 003e 98e2 f63d
000000a0: 1085 f63d f345 413e 9584 5e3d 4a7b 233d
000000b0: b6e9 273d 0b02 973e 24b4 353e 9310 eebd
000000c0: cb1e a2bd 9294 9e3b 4587 703e 7eea 253e
000000d0: 1942 9c3d 60d2 7a3d a2e5 7bbe 6c43 af3e
000000e0: 4123 9d3d f1f5 a7be 9ddd 493d 7fec eebe
000000f0: 8993 2dbe 65ee 633e 5e64 283e 41e2 5d3d
00000100: 0570 05bf 7b43 8f3e c0eb 71be 8040 7c3e
00000110: 2101 4ebe af00 9bbe 6f24 2fbf b9f3 743e
00000120: 8f7c a9be ff8e 42bf 202e babe a912 e3be
00000130: 8dbc c2be ee57 5e3d 2ef1 ed3d 9265 213e
00000140: 6156 d0be 11e2 963e e6e4 cb3d 4db9 87be
00000150: 307b 0fbf 4958 22bf d22d 79be b3bb dc3d
00000160: 4797 a63e a6cd 993d cc2b 61be dc21 a8be
00000170: c8b2 0abd 6f07 75be 53bf 98be cf64 eebe
00000180: 9f5d b0be 8d21 e0be 3c18 dabd b9d3 1ebf
00000190: 70ea f3be 940c 54bf fa67 c4bd 2afe 0abf
000001a0: ad94 493e c8a5 80be 2813 25bf 203a 9a3e
000001b0: f84c cabe ff6d bdbe 0df3 3dbe a4b5 8b3e
000001c0: 8d87 07bf bdf7 d63d d3cb 41be 8074 86be
000001d0: 0d4d b43d ba58 10bf 986c cebe 97ad 69be
000001e0: 66ed b0be 3030 433e 12a7 643e 17c3 343e
000001f0: 048c 133e 696d d5be 8ed3 11be 2930 8d3e
00000200: dda9 143d 1f72 debe 12a8 c5be 8e3d debe
00000210: e64f 403e 043d 96bd f859 763e 627c a93c
00000220: a8ac 17bf 5a45 8dbe f115 10bf 14ca 863e
00000230: ff7c aabe e5b2 d13d 0948 823e 1608 d63d
00000240: a861 8ebe 956a b7be 595b 7d3e 9941 a0be
00000250: dd06 4cbf 4aa9 81be 9c83 f0be 7eac 39be
00000260: 7104 ecbe 1ce8 813d de35 b9be e9f6 a0be
00000270: 51f8 b0be f103 a2bd 9f01 a3bd 6a9d d5be
00000280: c156 6abe d2ac 593e 9b8c 28bd 2d6a b13d
00000290: 6f61 fcbe 421f 423e f530 27be fee9 08bf
000002a0: b7bd fcbe 6376 e93c 851f cebe 3b33 e4bd
000002b0: f45f 21bf 8326 10bf 73b0 a1be d03b b03d
000002c0: 2786 1bbe fb54 91be 50eb 203c 33d0 343e
000002d0: f02c f3bd 22e4 0bbf d578 7f3d cb6d 9ebd
000002e0: a004 9fbe f322 fd3d 9513 88be acc4 0e3e
000002f0: 5d36 0c3e 50e0 ae3e 7a95 56be 992e ccbe
00000300: dd6c 163e b547 103e d987 613e 7ca2 6dbe
00000310: b50b 593e e055 c5be f145 9e3d cc24 85bf
00000320: 6ac4 223e 7baa 963e c45a 063e d4ad 363e
00000330: 5587 a0bd 1268 7ebf 345e 23bf e5a7 6d3d
00000340: 2f91 27be e117 e9be b998 21bf 8ee2 a4bd
00000350: db27 863e 32dd 553e ea9b 84be 2ca9 bcbe
00000360: 8771 22bf a48f 1dbf a383 d0bd c782 f9bc
00000370: 97ee 69bd 2455 2bbe f52d 94be 7830 ff3d
00000380: 09a8 9c3e df68 dc3d 487b ddbd 349b 673d
00000390: ad43 4fbe 016a 343e 9d5b 32be abeb 893e
000003a0: 3aeb 01bf 704a 54be 096e 7c3e c865 debe
000003b0: 7e74 1e3e 2a95 e5be 4bcc 9dbd d2b4 33bf
000003c0: 5e54 993d 63e1 fbbe 70a4 7fbe d36e cebe
000003d0: b6ff 5fbf 9c98 753e e5be 6f3e be28 b4be
000003e0: a336 3a3e a6cb b1bf 4fc6 04bf ae8b 613e
000003f0: f462 1bbf e906 3dbe 2e10 05be f421 0fbf
0.10763639 -0.30298656 0.03363653 0.044123143 -0.26315436 0.08292908 -0.10217277 -0.051821496
0.003417311 0.05412306 -0.04826642 -0.1770674 0.2751943 0.010544658 -0.0358097 -0.29235187
0.29274872 0.07044631 -0.029642155 0.0667796 0.0032370798 -0.052465193 0.22671905 0.060463343
0.042900838 -0.07363423 0.20971872 0.18155055 0.19036722 0.13447823 0.3295652 -0.005358722
0.0391312 -0.17034973 0.26113442 -0.09502006 0.4207831 0.018302491 0.12585825 0.12054938
0.120370984 0.1887434 0.05432566 0.0399125 0.04099437 0.29493746 0.177445 -0.11624255
-0.079160295 0.0048394883 0.23489101 0.16202733 0.076297946 0.061235785 -0.24599317 0.34231126
0.0767274 -0.32804826 0.049283613 -0.46664807 -0.16950811 0.22258909 0.16444537 0.05417085
-0.52124053 0.2798117 -0.23625088 0.2463398 -0.20117618 -0.3027396 -0.6841497 0.23921098
-0.33102843 -0.75999445 -0.36363316 -0.44350174 -0.38034478 0.054283075 0.11618267 0.15761402
-0.40690902 0.2946935 0.09955768 -0.2650856 -0.56047344 -0.6341596 -0.24333885 0.10777988
0.3253729 0.075099275 -0.21989363 -0.32838333 -0.033861905 -0.23928617 -0.2983347 -0.46561286
-0.34446427 -0.43775597 -0.106491536 -0.62041813 -0.476398 -0.8283169 -0.095901445 -0.54294074
0.19685622 -0.2512648 -0.64482355 0.3012247 -0.39511847 -0.36997983 -0.18549748 0.27287018
-0.5294121 0.10496471 -0.18925409 -0.26260757 0.08803759 -0.56385386 -0.40317225 -0.22820126
-0.3455612 0.19061351 0.22329357 0.17652546 0.1440888 -0.41685036 -0.14240858 0.27575806
0.036294807 -0.43446442 -0.3860479 -0.43406337 0.18780479 -0.073358566 0.24057758 0.020689193
-0.5924783 -0.27591974 -0.5628348 0.26326048 -0.3329849 0.102391995 0.25445583 0.10450761
-0.2780888 -0.35823503 0.24741878 -0.31300047 -0.7969797 -0.2532447 -0.4697541 -0.18132207
-0.4609714 0.063430995 -0.3617391 -0.31438377 -0.3456445 -0.07910908 -0.079592936 -0.4172166
-0.22884656 0.21257332 -0.041149717 0.086628295 -0.49293086 0.18957236 -0.1632727 -0.53482044
-0.4936349 0.028498834 -0.40258422 -0.11142584 -0.6303704 -0.56308764 -0.31579933 0.08605158
-0.15187894 -0.28385147 0.009821728 0.17657547 -0.118738055 -0.5464498 0.062371094 -0.07735785
-0.31058216 0.12360182 -0.2657744 0.13942212 0.13692613 0.34155512 -0.20955458 -0.398793
0.14689966 0.14089854 0.22024478 -0.23206514 0.21195872 -0.3854208 0.07728184 -1.0401855
0.15895239 0.2942694 0.13120562 0.17839748 -0.078383125 -0.9937755 -0.6381562 0.058021445
-0.16363977 -0.4552603 -0.6312366 -0.080510244 0.26202282 0.2088516 -0.25900203 -0.36847818
-0.6345448 -0.61547303 -0.10181358 -0.030457867 -0.057112303 -0.16731697 -0.28941312 0.124604166
0.3059695 0.1076219 -0.1081453 0.056544498 -0.2024066 0.17618562 -0.1741776 0.26937613
-0.5074955 -0.2073152 0.2465135 -0.43437028 0.15474126 -0.44840366 -0.077049814 -0.70197785
0.07486795 -0.49195394 -0.24965072 -0.40318927 -0.8749956 0.23983997 0.23412664 -0.35187334
0.18184905 -1.3890274 -0.51865095 0.2202594 -0.60697865 -0.18459667 -0.12994453 -0.55911183

fc2.bias f4 [4]
00000000: 4e34 be3e 2407 9abe 5511 96bc 9709 1cbf
0.3714928 -0.30083573 -0.018318811 -0.6095213
