Models/model_nopreproc_40.pt (torch, 317387 bytes, 12 tensors)

lstm.weight_ih_l0 f4 [512, 6]
0.08175109 -0.041661322 0.12031097 -0.3767746 -0.09143016 -0.122657605 -0.4099224 -0.05056036
-0.31341854 -0.39034796 -0.18233562 0.19443232 0.08302877 0.0024682127 0.32007524 -0.3474233
0.083630756 -0.45988327 0.013877745 0.35249317 0.166884 0.18048938 -0.13487217 -0.13935089
-0.13481556 0.24803172 -0.5120251 0.05348648 -0.04115947 0.13805 -0.10182846 -0.008704523
0.014377192 0.085635155 0.06459386 -0.28306293 0.22949694 0.017791813 0.39231107 0.35488603
-0.12588263 0.16104124 0.09612775 0.022771621 0.28787687 0.3313322 0.05250197 0.0726556
-0.015934695 0.19389658 -0.094661444 0.13045599 -0.29590404 -0.040659465 0.18820903 -0.27560046
-0.055691976 -0.07437954 -0.27027124 0.101887636 0.2636861 0.08147224 0.28257585 -0.3272046
-0.17012498 -0.28125927 -0.2050179 0.015371121 0.049629234 -0.2059059 -0.028123489 -0.071334355
-0.030008994 0.069542214 -0.2564749 0.16782218 0.17256889 0.36824816 -0.06650535 0.10454354
0.3532404 0.3319004 0.37472042 0.1828318 -0.23761906 -0.47942224 0.027205274 -0.5020259
0.090837136 -0.13965006 0.14061989 0.020530803 0.5126992 -0.14090027 -0.18479636 0.15102355
0.6687518 -0.101076126 -0.5891866 0.14557646 -0.10600737 -0.21638027 -0.09453767 0.12042395
0.09292894 0.15125024 0.1292676 -0.09790811 0.13443911 0.1226347 0.048619848 -0.07745735
0.23360662 -0.1790993 0.1940813 0.23187122 0.13981354 0.0990167 0.01154838 0.20042646
0.43740967 0.36144048 -0.021569887 -0.06342598 -0.10318342 -0.07533821 -0.15274432 0.23877303
0.11315707 -0.14991695 0.27009842 -0.11513676 -0.15049887 -0.082336366 0.07575912 -0.20958857
-0.0408332 -0.45118278 -0.11587044 -0.05884639 -0.47082478 -0.45084468 0.07550548 -0.4012317
0.3518815 -0.2040027 0.5498489 -0.0019114679 -0.2261679 -0.29086515 0.29596925 0.1491094
-0.33272898 -0.3195604 -0.10213255 0.044889234 -0.12200113 -0.3092851 -0.070818216 -0.054583047
0.0639769 -0.029492432 -0.08180217 -0.07645372 0.040258143 -0.07932978 0.067474 -0.108737126
0.14753082 -0.05688849 -0.11694809 0.011676529 -0.030355375 -0.10923532 -0.35786295 0.124908924
-0.26023835 -0.009823074 -0.2100687 -0.08453731 -0.13747853 -0.1732361 -0.17493951 -0.23513475
0.15649432 -0.3330784 0.1945935 0.29277253 0.017771387 0.18681005 0.1028576 0.24993472
0.056455716 -0.2477639 0.37252712 0.093993895 -0.31778535 1.6613185 -0.14045683 -0.062258285
0.11061774 -0.20172723 0.20501234 -0.188518 -0.3751273 0.09648081 -0.35258085 -0.13892901
-0.15232626 0.023320766 0.1022189 0.085249834 -0.19251263 -0.23948815 0.1381716 -0.42719242
0.44803938 0.3216132 -0.23105897 0.009106528 -0.08873538 0.00055198185 -0.16298084 0.12565078
-0.4163266 0.3209265 -0.10530582 0.69853175 -0.04307581 0.12413761 -0.25763634 -0.062044848
0.16756706 -0.3854696 -0.065967575 0.34253082 0.06511254 -0.8401464 0.14644903 -0.41755933
-0.05180029 0.048674908 -0.17788123 -0.21817002 0.102932006 0.08122343 -0.041814324 0.3730921
0.29788274 -0.049665872 -0.23277351 0.16021377 -0.3862749 0.54903096 0.09967336 0.123099074
00000000: 1e6d a73d 10a5 2abd 9965 f63d 9ae8 c0be
00000010: bc3f bbbd e933 fbbd 59e1 d1be 6118 4fbd
00000020: 6578 a0be b0db c7be 30b6 3abe 4419 473e
00000030: fd0a aa3d bdc1 213b e7e0 a33e 77e1 b1be
00000040: 9a46 ab3d d275 ebbe 7b5f 633c fc79 b43e
00000050: a4e3 2a3e 35d2 383e ee1b 0abe 00b2 0ebe
00000060: 170d 0abe 07fc 7d3e 1414 03bf a414 5b3d
00000070: d596 28bd fb5c 0d3e 718b d0bd 6a9d 0ebc
00000080: 508e 6b3c 7c61 af3d c949 843d a0ed 90be
00000090: 3f01 6b3e 23c0 913c ffdc c83e 9fb3 b53e
000000a0: 60e7 00be ffe7 243e a0de c43d 8d8b ba3c
000000b0: 9964 933e 60a4 a93e 4e0c 573d 76cc 943d
000000c0: 7a89 82bc d38c 463e dcdd c1bd 4196 053e
000000d0: bc80 97be 8a8a 26bd deb9 403e 811b 8dbe
000000e0: 451d 64bd 4d54 98bd fe60 8abe 77aa d03d
000000f0: dd01 873e ebda a63d c8ad 903e 5d87 a7be
00000100: 3e35 2ebe 3701 90be 36f0 51be 27d7 7b3c
00000110: 0648 4b3d ffd8 52be 3b63 e6bc bf17 92bd
00000120: 6cd5 f5bc 266c 8e3d ae50 83be 94d9 2b3e
00000130: e6b5 303e 068b bc3e f533 88bd ec1a d63d
00000140: eddb b43e d9ee a93e 5bdb bf3e 4238 3b3e
00000150: 6952 73be d576 f5be 98dd de3c c584 00bf
00000160: d208 ba3d 6d00 0fbe a9fe 0f3e 3730 a83c
00000170: 4140 033f 2948 10be 423b 3dbe eba5 1a3e
00000180: 5133 2b3f 0001 cfbd efd4 16bf ff11 153e
00000190: 641a d9bd ca92 5dbe f79c c1bd d5a0 f63d
000001a0: 8751 be3d 58e1 1a3e ba5e 043e 0c84 c8bd
000001b0: 68aa 093e e727 fb3d 9b25 473d f6a1 9ebd
000001c0: 9336 6f3e cf65 37be 40bd 463e a66f 6d3e
000001d0: 482b 0f3e 45c9 ca3d 6b35 3d3c 983c 4d3e
000001e0: 29f4 df3e ba0e b93e 55b3 b0bc 7be5 81bd
000001f0: d451 d3bd eb4a 9abd 0269 1cbe eb80 743e
00000200: e5be e73d d483 19be 574a 8a3e d2cc ebbd
00000210: 601c 1abe f89f a8bd 9927 9b3d 639e 56be
00000220: b740 27bd 6e01 e7be 7b4d edbd ea08 71bd
00000230: f20f f1be 1dd5 e6be 9ea2 9a3d 3e6e cdbe
00000240: d029 b43e 15e6 50be e6c2 0c3f 388a faba
00000250: 8f98 67be 47ec 94be 4889 973e 22b0 183e
00000260: 745b aabe 6c9d a3be df2a d1bd c6dd 373d
00000270: badb f9bd 9e5a 9ebe 2409 91bd 7992 5fbd
00000280: 5206 833d 1d9a f1bc e587 a7bd c593 9cbd
00000290: b9e5 243d a777 a2bd cf2f 8a3d 92b1 debd
000002a0: 5212 173e e803 69bd 7b82 efbd ea4e 3f3c
000002b0: d6ab f8bc c4b6 dfbd d039 b7be 40d0 ff3d
000002c0: f63d 85be f5f0 20bc 401c 57be e621 adbd
000002d0: 2cc7 0cbe ce64 31be 5823 33be 2ac7 70be
000002e0: 0c40 203e 4189 aabe 8543 473e 48e6 953e
000002f0: 4d95 913c 224b 3f3e 01a7 d23d e3ee 7f3e
00000300: 1c3e 673d d2b5 7dbe e0bb be3e df7f c03d
00000310: c3b4 a2be 16a6 d43f ead3 0fbe 8b02 7fbd
00000320: 8e8b e23d 9591 4ebe c1ee 513e dd0a 41be
00000330: af10 c0be bb97 c53d 7a85 b4be 6843 0ebe
00000340: 6afb 1bbe 310b bf3c 2558 d13d 7797 ae3d
00000350: 0822 45be 623c 75be db7c 0d3e f7b8 dabe
00000360: 6b65 e53e 7caa a43e b99a 6cbe 8c33 153c
00000370: e5ba b5bd e0b2 103a 73e4 26be 99aa 003e
00000380: c328 d5be 7a50 a43e 94aa d7bd fad2 323f
00000390: 4370 30bd dc3b fe3d e9e8 83be bd22 7ebd
000003a0: b396 2b3e 455c c5be 021a 87bd 3360 af3e
000003b0: b959 853d d613 57bf bcf6 153e 56ca d5be
000003c0: 8a2c 54bd 575f 473d 7f26 36be f667 5fbe
000003d0: 04ce d23d 7858 a63d 7f45 2bbd ed05 bf3e
000003e0: 1684 983e 716e 4bbd 2e5c 6ebe 140f 243e
000003f0: d3c5 c5be 4b8d 0c3f 8c21 cc3d 5e1b fc3d

lstm.weight_hh_l0 f4 [512, 128]
0.014233835 -0.12507924 0.12797296 0.26261407 -0.25205642 -0.087690696 -0.09585137 0.0020955869
0.22593667 -0.05579666 0.13947839 0.18701932 0.1775023 0.014310795 -0.010375541 0.04644444
-0.010579862 0.082760446 0.084492765 0.22799563 0.10331255 -0.013336781 -0.067236535 -0.15519452
-0.09881283 0.21023707 -0.16163935 0.088604145 0.027623488 -0.20926012 -0.076178014 0.040362835
-0.2029625 -0.02402558 -0.09119116 -0.008094066 -0.059739266 -0.33280668 -0.05857579 0.04429779
0.042438187 -0.11788538 -0.08732369 0.055233575 -0.14362821 -0.13615052 0.059420902 0.08352104
-0.41447628 -0.0029817598 -0.15241428 0.015648887 -0.024886647 0.059423655 -0.15743777 0.31750625
-0.24442416 -0.09180492 0.016458055 0.09756197 0.12739033 0.19411068 -0.003004157 -0.013231034
0.17178291 0.11496009 0.15130632 0.084110536 0.33637404 -0.04361867 -0.16032413 -0.047252867
0.16625807 -0.2033675 0.08015876 -0.17467505 0.0008543221 -0.27870727 0.07745688 -0.17662363
0.05902578 0.29637447 -0.050371908 -0.20545508 0.19833124 -0.07742132 -0.32712886 0.060952384
-0.03068391 0.08742313 0.09649488 0.009437805 0.0043928213 -0.11683861 -0.02924098 -0.052786414
0.0022192274 0.08965734 0.011617404 -0.19500153 0.22956176 -0.14007096 0.17134799 -0.257115
-0.019008886 -0.27384102 0.01618739 0.11613012 -0.24130619 0.10867111 -0.11678237 -0.28401563
0.086768135 0.17887539 -0.074258775 0.07795578 -0.19453837 -0.065758884 0.14670311 -0.09648631
0.14048627 -0.0028861286 -0.00017704653 -0.017857583 0.14840138 -0.012866966 -0.14954065 -0.11200022
-0.2492873 0.021518407 0.24098857 -0.1317584 0.28916672 -0.029255455 -0.39504808 0.018624818
0.04203691 -0.17480049 0.12514731 0.1622132 -0.25476772 0.26789087 -0.2976261 -0.030356955
0.23460954 -0.32104638 -0.11919641 -0.2300877 -0.02920695 -0.10842195 -0.17408375 -0.17718637
0.23974451 0.07324856 0.29225272 0.30624247 -0.37359405 0.20286174 -0.16354162 -0.20515701
-0.0049901195 -0.07444522 -0.006732274 -0.16496706 0.18308088 0.21444833 0.08279227 0.04781867
-0.118661195 0.1922548 -0.44640344 -0.32625812 0.05526544 -0.06038314 0.33929944 -0.14642859
0.14093284 -0.15114942 -0.059744775 -0.08076722 0.11041051 0.23370107 -0.07980524 0.37174872
0.14179716 0.20660731 0.06302802 0.04556261 0.42657992 -0.27585182 -0.023794577 -0.082872994
-0.100681715 -0.23513442 -0.04043846 -0.1030032 -0.13857982 0.24522267 0.24478798 -0.18126261
0.33993864 0.09229636 -0.071855836 0.062489465 -0.02440387 0.48300266 -0.10687459 0.097350314
-0.20775178 -0.18611418 -0.015856994 0.52306396 -0.17317763 0.116348065 0.29607186 -0.100596234
0.25278595 -0.044063583 -0.077847734 0.14668691 0.07711651 -0.14963314 -0.014452857 0.05837397
0.13183834 0.033322062 0.110238336 -0.09068793 0.15520662 0.09298714 0.29085588 0.046178706
-0.1253153 0.41504526 0.23202151 -0.0608125 -0.14312094 0.27632308 -0.082601145 0.14189279
-0.014754073 0.022188827 0.01910463 0.23472315 -0.24235411 -0.081492834 0.49163684 0.12911749
-0.29868174 0.12241162 0.07520124 0.14364037 -0.19698158 0.2212087 -0.19097921 0.5101682
00000000: 0835 693c c614 00be 580b 033e 5a75 863e
00000010: 8a0d 81be 2e97 b3bd b94d c4bd 1d56 093b
00000020: f15b 673e 0a8b 64bd 6cd3 0e3e fe81 3f3e
00000030: 2ac3 353e d377 6a3c 2cfe 29bc 863c 3e3d
00000040: 2857 2dbc 4f7e a93d 8b0a ad3d b077 693e
00000050: 8895 d33d 8482 5abc 4fb3 89bd 50eb 1ebe
00000060: 625e cabd 6348 573e c984 25be 1776 b53d
00000070: a74a e23c 4948 56be 3803 9cbd 8053 253d
00000080: 67d5 4fbe 4bd1 c4bc 6ec2 babd f99c 04bc
00000090: 29b1 74bd a365 aabe 2bed 6fbd 9971 353d
000000a0: aad3 2d3d e46d f1bd c3d6 b2bd 9a3c 623d
000000b0: 4613 13be 0b6b 0bbe 5563 733d 140d ab3d
000000c0: 3c36 d4be a169 43bb 7d12 1cbe 1832 803c
000000d0: 15df cbbc 3866 733d 5e37 21be 2e90 a23e
000000e0: 544a 7abe 3804 bcbd 0bd3 863c 92ce c73d
000000f0: 9c72 023e f3c4 463e 64e1 44bb fbc6 58bc
00000100: dce7 2f3e 3270 eb3d 0bf0 1a3e 2542 ac3d
00000110: 3839 ac3e 7ea9 32bd 022c 24be 398c 41bd
00000120: 8e3f 2a3e 923f 50be 472a a43d 04de 32be
00000130: 96f4 5f3a b8b2 8ebe b6a1 9e3d d3dc 34be
00000140: 04c5 713d 65be 973e c652 4ebd d162 52be
00000150: 5817 4b3e 128f 9ebd 6f7d a7be 35a9 793d
00000160: d35c fbbc e60a b33d 1c9f c53d 06a1 1a3c
00000170: a8f1 8f3b 1549 efbd c88a efbc 9136 58bd
00000180: 7570 113b 449e b73d ed56 3e3c 7bae 47be
00000190: 3d12 6b3e c36e 0fbe d975 2f3e 94a4 83be
000001a0: 86b8 9bbc e434 8cbe 6b9b 843c a1d5 ed3d
000001b0: f818 77be f58e de3d 982b efbd 7f6a 91be
000001c0: 7eb3 b13d 1c2b 373e fc14 98bd 48a7 9f3d
000001d0: 1135 47be 98ac 86bd 5739 163e 9d9a c5bd
000001e0: a2db 0f3e 3425 3dbb 91a5 39b9 114a 92bc
000001f0: 88f6 173e f8cf 52bc 2f21 19be 5f60 e5bd
00000200: 2c45 7fbe 5f47 b03c b5c5 763e adeb 06be
00000210: a90d 943e 23a9 efbc be43 cabe 1393 983c
00000220: e52e 2c3d e6fe 32be 9e26 003e 381b 263e
00000230: ea70 82be fe28 893e 7362 98be 26af f8bc
00000240: 7c3d 703e 3160 a4be 3f1d f4bd 1c9c 6bbe
00000250: 6a43 efbc 540c debd 0343 32be 5870 35be
00000260: 967f 753e 5703 963d 26a2 953e d0cb 9c3e
00000270: b847 bfbe fdba 4f3e 7477 27be ae14 52be
00000280: 2884 a3bb bc76 98bd 689a dcbb 20ed 28be
00000290: 8e79 3b3e 5898 5b3e fe8e a93d 82dd 433d
000002a0: a404 f3bd 71de 443e fe8e e4be 4e0b a7be
000002b0: 045e 623d 5054 77bd a8b8 ad3e 60f1 15be
000002c0: b350 103e eac6 1abe f0b6 74bd 4969 a5bd
000002d0: e81e e23d 554f 6f3e ee70 a3bd d955 be3e
000002e0: 4633 113e de90 533e d614 813d dc9f 3a3d
000002f0: af68 da3e 733c 8dbe d8ec c2bc 51b9 a9bd
00000300: 3732 cebd 14c7 70be cca2 25bd 57f3 d2bd
00000310: dee7 0dbe a71b 7b3e b3a9 7a3e e89c 39be
00000320: 700c ae3e e005 bd3d 2729 93bd f4f4 7f3d
00000330: a0ea c7bc 204c f73e 11e1 dabd 9a5f c73d
00000340: e2bc 54be b794 3ebe 87e6 81bc 85e7 053f
00000350: 7a55 31be e547 ee3d bb96 973e 6605 cebd
00000360: 296d 813e 047c 34bd a26e 9fbd 1835 163e
00000370: 43ef 9d3d 6e39 19be adcb 6cbc 8b19 6f3d
00000380: a100 073e b77c 083d a3c4 e13d 98ba b9bd
00000390: 7cee 1e3e 0b70 be3d 10eb 943e e225 3d3d
000003a0: a752 00be d080 d43e 0c97 6d3e 8716 79bd
000003b0: 4c8e 12be 387a 8d3e ca2a a9bd 584c 113e
000003c0: 11bb 71bc 58c5 b53c 5081 9c3c 445b 703e
000003d0: ad2b 78be b7e5 a6bd d3b7 fb3e 6037 043e
000003e0: d0ec 98be f2b2 fa3d 1c03 9a3d 7616 133e
000003f0: 8ab5 49be 8984 623e 0e90 43be 629a 023f

lstm.bias_ih_l0 f4 [512]
-0.1858611 -0.20444627 -0.15526825 -0.1596081 -0.21994816 -0.27018222 -0.35153952 -0.35795525
-0.2102281 -0.13078588 -0.101329945 -0.24513772 -0.12960066 -0.20594233 -0.24328847 -0.027365051
-0.038707923 -0.029849254 -0.27581152 -0.16362193 -0.25581065 -0.3716272 -0.08612667 -0.13720526
-0.075754076 0.08174182 -0.09050076 -0.14220071 0.029041162 -0.192063 -0.1896386 0.08822745
-0.44120207 -0.11620409 -0.3707396 -0.28940257 0.029222026 -0.25404298 -0.1958351 -0.25842512
-0.022391807 0.03314739 -0.047877926 -0.33772084 -0.13330483 0.08275291 -0.030394772 -0.15321349
-0.09359748 -0.1308148 -0.299119 -0.3033579 -0.26105425 -0.274054 -0.13896306 -0.18665454
-0.17356317 -0.17216824 -0.038038515 -0.2374719 -0.13297626 -0.29021186 -0.16357441 -0.13158284
0.1251656 -0.103433624 -0.15526904 -0.2804969 -0.023214644 -0.13479903 0.0059306007 -0.41330954
-0.35096622 -0.33247092 -0.3094105 -0.069313 -0.08652852 -0.066780925 -0.10151955 -0.2530196
-0.019125376 0.017712636 -0.31995475 -0.061807994 -0.390596 -0.40426815 -0.021258198 -0.28632614
-0.20850484 -0.33407584 -0.3137441 -0.054872833 -0.13224857 -0.14190976 -0.028595375 0.048839126
-0.15508215 -0.18253192 -0.18623093 -0.35350853 -0.25634912 -0.097501606 -0.11711487 -0.3614316
-0.28430578 -0.1339801 -0.30593085 -0.25023896 -0.21821792 -0.26662704 -0.3422478 0.19391915
-0.095773175 -0.012179231 -0.20953135 -0.18045364 -0.14185947 -0.17014846 -0.07259076 -0.19785307
-0.52099407 -0.22824189 -0.1020482 -0.30577883 -0.48733813 0.03784262 -0.13812913 -0.06638763
-0.26771116 -0.05377542 -0.0604494 0.32162017 0.089703314 -0.22495408 -0.13936237 -0.26428437
-0.049617365 -0.09284753 -0.014423318 -0.14542344 0.0009058169 -0.22778976 -0.17205818 -0.11976791
-0.09297742 0.21152389 -0.14036487 -0.046569496 0.018507224 -0.2345885 0.089221805 -0.1235161
0.19895501 0.2013215 0.032494776 -0.102083586 0.14644587 -0.15930693 -0.2342003 0.042691734
0.3998931 0.021648949 -0.2925862 -0.14831975 0.017514825 0.36493978 0.18149096 -0.13765663
-0.15272339 -0.053179357 0.03297089 -0.14091264 -0.26669577 0.0008209579 0.02621255 -0.21885183
-0.01575199 -0.19828217 -0.09832074 0.31771404 -0.28037098 0.510926 0.07774779 -0.12126033
-0.07466537 0.08336764 -0.15767714 0.039967664 0.16054149 -0.28352895 -0.07680969 -0.16501445
-0.17576465 -0.0644312 0.22417502 -0.20376441 0.12256968 -0.14012659 -0.11851608 0.2508872
-0.35415488 -0.17421491 -0.18763095 -0.15433879 0.22901987 0.2889956 -0.090220466 -0.009363446
0.15874223 -0.15472494 -0.007481395 0.29588214 -0.15791713 -0.21196288 -0.07235673 0.090079084
-0.20932373 -0.11993164 -0.24424572 -0.16282177 -0.045706425 -0.0453484 -0.0038677212 0.14938748
-0.13069664 -0.15408707 -0.00088085287 -0.23169327 -0.29451242 0.14813298 0.20898744 -0.29676962
0.08265562 -0.12767 -0.09958354 -0.36432773 -0.26009935 -0.21100749 -0.040175367 0.015346102
-0.19954062 -0.17979835 -0.119511075 -0.18318237 -0.121467315 -0.2282386 -0.050054356 -0.060210243
-0.29195896 -0.21387996 -0.03799768 -0.095975526 -0.28720918 0.13452521 -0.08176555 -0.04233427
00000000: 5f52 3ebe 5d5a 51be a4fe 1ebe 4e70 23be
00000010: 173a 61be 5355 8abe fdfc b3be e945 b7be
00000020: 0946 57be bcec 05be 1386 cfbd 6205 7bbe
00000030: 09b6 04be 8ce2 52be 9d20 79be ac2c e0bc
00000040: 338c 1ebd 6c86 f4bc 2b37 8dbe 828c 27be
00000050: 9df9 82be ec45 bebe 2e63 b0bd 897f 0cbe
00000060: f424 9bbd 4168 a73d 7658 b9bd 109d 11be
00000070: bbe7 ed3c 2aac 44be 9f30 42be 98b0 b43d
00000080: 3de5 e1be 69fc edbd 95d1 bdbe 932c 94be
00000090: 0863 ef3c ec11 82be ff88 48be 4c50 84be
000000a0: 066f b7bc 8fc5 073d a51b 44bd bfe9 acbe
000000b0: 1081 08be 5c7a a93d 75fe f8bc ffe3 1cbe
000000c0: 09b0 bfbd 51f4 05be 2026 99be ba51 9bbe
000000d0: e7a8 85be ce50 8cbe 554c 0ebe 5e22 3fbe
000000e0: 8bba 31be df4c 30be 46ce 1bbd d52b 73be
000000f0: ee2a 08be a696 94be 0d80 27be a7bd 06be
00000100: 692b 003e 02d5 d3bd d9fe 1ebe 4a9d 8fbe
00000110: a32c bebc c208 0abe 7c55 c23b 4f9d d3be
00000120: d8b1 b3be a139 aabe 0e6b 9ebe f9f3 8dbd
00000130: dd35 b1bd 70c4 88bd 7be9 cfbd c98b 81be
00000140: d2ac 9cbc 171a 913c 1cd1 a3be 612a 7dbd
00000150: 33fc c7be 3cfc cebe ac25 aebc 5799 92be
00000160: 4b82 55be fd0b abbe 11a3 a0be 56c2 60bd
00000170: 2b6c 07be cb50 11be d940 eabc 890b 483d
00000180: dbcd 1ebe a6e9 3abe 52b3 3ebe 12ff b4be
00000190: 3140 83be ecae c7bd ecd9 efbd 900d b9be
000001a0: 8790 91be 1432 09be f8a2 9cbe 521f 80be
000001b0: 8574 5fbe 5783 88be 1b3b afbe be92 463e
000001c0: ba24 c4bd 668b 47bc 638f 56be d7c8 38be
000001d0: 9c43 11be 663b 2ebe 77aa 94bd ff99 4abe
000001e0: de5f 05bf 3eb8 69be a6fe d0bd 0b8f 9cbe
000001f0: 6284 f9be dd00 1b3d b971 0dbe 3df6 87bd
00000200: 7011 89be 9d43 5cbd ca99 77bd 66ab a43e
00000210: 5fb6 b73d 5d5a 66be 02b5 0ebe 4850 87be
00000220: 943b 4bbd d926 bebd c84f 6cbc e2e9 14be
00000230: 5874 6d3a b841 69be 0530 30be e148 f5bd
00000240: f26a bebd b899 583e cfbb 0fbe a8bf 3ebd
00000250: 769c 973c f837 70be ecb9 b63d 02f6 fcbd
00000260: ddba 4b3e 3927 4e3e 3e19 053d 3311 d1bd
00000270: e8f5 153e 5b21 23be 34d2 6fbe 87dd 2e3d
00000280: cabe cc3e 2359 b13c dccd 95be 22e1 17be
00000290: 407b 8f3c 63d9 ba3e c4d8 393e dcf5 0cbe
000002a0: 8563 1cbe 99d2 59bd 7c0c 073d 674b 10be
000002b0: 598c 88be 8d35 573a b4bb d63c b21a 60be
000002c0: 510a 81bc 7b0a 4bbe 625c c9bd 6aab a23e
000002d0: c98c 8fbe 0ccc 023f 3c3a 9f3d 5657 f8bd
000002e0: 28ea 98bd a7bc aa3d 1e76 21be 22b5 233d
000002f0: fd64 243e b52a 91be 664e 9dbd 8cf9 28be
00000300: a6fb 33be 81f4 83bd 238e 653e 9ea7 50be
00000310: d005 fb3d 587d 0fbe 8fb8 f2bd 4974 803e
00000320: ca53 b5be 6565 32be 5422 40be fd0a 1ebe
00000330: 2f84 6a3e 3bf7 933e 82c5 b8bd 2469 19bc
00000340: 538d 223e 3770 1ebe 7d26 f5bb dd7d 973e
00000350: 07b5 21be cc0c 59be c42f 94bd 627b b83d
00000360: f658 56be b89e f5bd 8d1b 7abe c0ba 26be
00000370: a936 3bbd 3ebf 39bd 9879 7dbb 08f9 183e
00000380: 57d5 05be 00c9 1dbe 09e9 66ba 0041 6dbe
00000390: 55ca 96be 2cb0 173e ce00 563e 30f2 97be
000003a0: 5a47 a93d edbb 02be 74f2 cbbd 2a89 babe
000003b0: be2b 85be 5912 58be ed8e 24bd 386e 7b3c
000003c0: 6054 4cbe 0f1d 38be 39c2 f4bd 2994 3bbe
000003d0: dbc3 f8bd 61b7 69be cc05 4dbd 049f 76bd
000003e0: a57b 95be 5903 5bbe 75a3 1bbd d18e c4bd
000003f0: 150d 93be fac0 093e b274 a7bd b366 2dbd

lstm.bias_hh_l0 f4 [512]
-0.1618914 -0.21838146 -0.1931651 -0.11080141 -0.18953744 -0.293588 -0.24192053 -0.35795587
-0.14164816 -0.09455219 -0.12310503 -0.2265251 -0.2702517 -0.1759101 -0.17509972 -0.06315739
-0.0831318 -0.0204191 -0.20045204 -0.030781606 -0.17733376 -0.48130858 -0.11330344 -0.27591714
-0.15000197 0.06677201 -0.015429703 -0.26782653 -0.08487695 -0.34275007 -0.19302791 -0.065765515
-0.33718488 -0.08476206 -0.33137456 -0.301333 0.042049397 -0.31236318 -0.10203404 -0.23508532
0.060583822 0.124883495 -0.022614878 -0.33825868 -0.10849294 0.045084566 -0.15200576 -0.27208132
-0.052947104 -0.08054513 -0.18912911 -0.28323978 -0.257188 -0.11735113 -0.15917796 -0.18386477
-0.28487948 -0.15991385 -0.076521665 -0.26433092 -0.076046206 -0.1527418 -0.102491036 -0.10518687
-0.015994443 -0.13926788 -0.20877351 -0.25628296 -0.079990014 -0.21383554 -0.024816073 -0.45458028
-0.2520236 -0.2935421 -0.30787334 -0.05731734 -0.05485677 -0.09608394 -0.2332909 -0.24289091
-0.06842859 -0.030816497 -0.37600437 -0.03225984 -0.3533148 -0.2484782 -0.09904196 -0.30913705
-0.22833587 -0.20878269 -0.3563889 -0.10155442 -0.20469783 -0.03903543 0.045490403 0.053035896
-0.18033905 -0.13938688 -0.3187107 -0.33402658 -0.25198275 -0.020508716 -0.07809933 -0.296505
-0.18183228 -0.17616627 -0.3555965 -0.28775483 -0.2684668 -0.33046535 -0.32908946 0.16843335
-0.066783905 0.027158795 -0.19689505 -0.28908506 -0.044539038 -0.29094264 -0.059343345 -0.32790366
-0.53107995 -0.28468055 -0.24711213 -0.2950806 -0.5413653 0.04744391 -0.11973757 -0.14865012
-0.31128702 -0.10522735 -0.18390222 0.3982973 0.1186719 -0.20489113 -0.16438356 -0.31997558
-0.04129863 0.024115585 -0.10550922 -0.22790807 -0.018673273 -0.22189268 -0.11207752 -0.10586648
-0.18408658 0.20788991 -0.23376359 -0.04903737 -0.040309265 -0.13561034 0.03339357 -0.19096595
0.09431478 0.16367811 -0.03907069 -0.058986634 0.31358454 -0.19288993 -0.17269905 -0.00086121605
0.23611702 -0.08019799 -0.2535688 -0.17677537 -0.044166476 0.38928065 0.15942669 -0.27717102
-0.20621175 -0.0126479 -0.008941071 -0.117993586 -0.31839025 0.014632718 -0.07024462 -0.23543003
0.07770508 -0.18045275 -0.25859782 0.40759054 -0.32066724 0.44460368 0.07258765 -0.10377071
-0.1116443 0.0778396 -0.10626745 -0.0077387565 0.23367476 -0.16470866 -0.18323366 -0.13897686
-0.29340386 -0.015572517 0.2132723 -0.06796093 0.1089845 -0.1231783 -0.02252541 0.26090518
-0.2477126 -0.18951829 -0.3114119 -0.10050857 0.1887569 0.2948771 -0.09023916 -0.09059518
0.08526503 -0.16062267 -0.14645118 0.2434412 -0.14899749 -0.27560568 -0.0031235213 0.042398226
-0.22775184 -0.014159478 -0.24059726 -0.044696238 -0.11206014 0.01053296 0.06861209 0.2122512
-0.06533128 -0.2986035 0.06548916 -0.10285243 -0.19280925 0.14802323 0.18158148 -0.38814536
-0.0638277 -0.117067724 -0.09909173 -0.36045352 -0.189418 -0.14483318 -0.02357554 -0.04058317
-0.20369294 -0.117373325 -0.11242964 -0.1323841 -0.08583979 -0.18479155 -0.088048466 0.006479099
-0.32968783 -0.18126361 -0.12751125 -0.017261224 -0.23899305 0.13204771 -0.18321477 0.030773701
00000000: dcc6 25be 649f 5fbe 12cd 45be daeb e2bd
00000010: 1a16 42be 2b51 96be 04ba 77be fe45 b7be
00000020: 370c 11be 94a4 c1bd 7d1e fcbd 32f6 67be
00000030: 6e5e 8abe c721 34be 574d 33be a958 81bd
00000040: 0141 aabd f545 a7bc 4d43 4dbe b529 fcbc
00000050: fb96 35be 146e f6be a20b e8bd 0345 8dbe
00000060: 1e9a 19be c3bf 883d ddcc 7cbc 8f20 89be
00000070: f7d3 adbd f07c afbe 1ca9 45be 12b0 86bd
00000080: 7fa3 acbe bb97 adbd eda9 a9be 5248 9abe
00000090: fd3b 2c3d 11ee 9fbe 39f7 d0bd 35ba 70be
000000a0: be26 783d ebc2 ff3d d642 b9bc 3e30 adbe
000000b0: 8c31 debd 98aa 383d 66a7 1bbe 3e4e 8bbe
000000c0: 10df 58bd d8f4 a4bd 10ab 41be ce04 91be
000000d0: 25ae 83be ca55 f0bd 8cff 22be 0c47 3cbe
000000e0: b9db 91be 75c0 23be 64b7 9cbd 6256 87be
000000f0: 1dbe 9bbd 5968 1cbe d2e6 d1bd 376c d7bd
00000100: c706 83bc 3d9c 0ebe b9c8 55be 8537 83be
00000110: ced1 a3bd b4f7 5abe 144b cbbc bfbe e8be
00000120: 3d09 81be 264b 96be 93a1 9dbe 96c5 6abd
00000130: 7eb1 60bd a8c7 c4bd cfe3 6ebe 65b8 78be
00000140: 4a24 8cbd e172 fcbc a583 c0be e522 04bd
00000150: ade5 b4be 1271 7ebe 83d6 cabd 3647 9ebe
00000160: e1d0 69be 21cb 55be 9b78 b6be c4fb cfbd
00000170: 4f9c 51be 9de3 1fbd 2554 3a3d 2b3c 593d
00000180: cdaa 38be 6fbb 0ebe 0d2e a3be 8805 abbe
00000190: e203 81be e501 a8bc 8bf2 9fbd 81cf 97be
000001a0: 3e32 3abe ee64 34be bf10 b6be 9a54 93be
000001b0: 7b74 89be c132 a9be 6a7e a8be cb79 2c3e
000001c0: 00c6 88bd 1f7c de3c db9e 49be f502 94be
000001d0: 916e 36bd 6ff6 94be 0212 73bd fde2 a7be
000001e0: dbf4 07bf a6c1 91be f60a 7dbe ce14 97be
000001f0: eb96 0abf 8c54 423d f938 f5bd bd37 18be
00000200: 0361 9fbe 7081 d7bd dd50 3cbe a0ed cb3e
00000210: 410a f33d fbce 51be 2a54 28be d7d3 a3be
00000220: c128 29bd 0c8e c53c 3815 d8bd bc60 69be
00000230: b1f8 98bc d637 63be e688 e5bd 86d0 d8bd
00000240: 3181 3cbe 18e1 543e b95f 6fbe 69db 48bd
00000250: 541b 25bd 70dd 0abe b2c7 083d 948c 43be
00000260: 1b28 c13d 3c9b 273e 9608 20bd f89b 71bd
00000270: 278e a03e f084 45be 05d8 30be 3bc3 61ba
00000280: a9c8 713e d83e a4bd c5d3 81be 9a04 35be
00000290: e8e7 34bd cb4f c73e c040 233e 5ce9 8dbe
000002a0: 2c29 53be 2339 4fbc 927d 12bc 9fa6 f1bd
000002b0: 0c04 a3be 11be 6f3c 69dc 8fbd 9214 71be
000002c0: d723 9f3d 9bc8 38be ef66 84be b5af d03e
000002d0: 7f2e a4be 18a3 e33e d5a8 943d bd85 d4bd
000002e0: c4a5 e4bd 5e6a 9f3d c0a2 d9bd 6595 fdbb
000002f0: 7048 6f3e 63a9 28be 9ba1 3bbe f34f 0ebe
00000300: 0839 96be df23 7fbc 0e64 5a3e 1a2f 8bbd
00000310: 4433 df3d e844 fcbd 3587 b8bc 5d95 853e
00000320: 5fa8 7dbe 1511 42be 6171 9fbe 70d7 cdbd
00000330: 7d49 413e 22fa 963e 4fcf b8bd f789 b9bd
00000340: 6f9f ae3d 457a 24be 4cf7 15be a648 793e
00000350: cc92 18be 301c 8dbe feb3 4cbb c3a9 2d3d
00000360: c737 69be 28fd 67bc 215f 76be 6713 37bd
00000370: c97f e5bd 7092 2c3c 7f84 8c3d 6158 593e
00000380: 68cc 85bd 8fe2 98be 2e1f 863d 4ba4 d2bd
00000390: ca6f 45be 6793 173e 7ff0 393e fdba c6be
000003a0: 19b8 82bd 34c1 efbd 9bf0 cabd 5d8d b8be
000003b0: cbf6 41be 264f 14be 7e21 c1bc 8a3a 26bd
000003c0: e294 50be 6d61 f0bd 8341 e6bd b38f 07be
000003d0: c6cc afbd ff39 3dbe c152 b4bd 9f4e d43b
000003e0: d8cc a8be 2b9d 39be 4f92 02be 6967 8dbc
000003f0: 98ba 74be 8437 073e a79c 3bbe 2119 fc3c

fc1.weight f4 [64, 128]
-0.1864382 -0.12290973 0.1564305 -0.43593153 0.08113731 0.1493428 0.11308921 -0.06356692
0.3386407 -0.045455866 -0.19382028 -0.022299595 -0.07565427 -0.11552706 -0.17843764 -0.18853296
0.059555046 0.18004425 0.2561023 0.038513698 0.07780435 -0.09186604 -0.1413976 -0.052060332
0.49710062 0.051574107 0.097839504 -0.22084987 -0.12260734 -0.18844761 -0.117666386 0.06738062
-0.017489173 -0.062399954 -0.09107704 0.04718435 -0.094627745 0.42331773 -0.09869584 -0.05512645
0.10843165 -0.08003739 -0.12487921 -0.104487434 0.05207391 -0.0033730965 -0.0003722285 -0.23866783
-0.13175969 0.15746237 0.27192754 0.3431727 -0.21644667 0.21617325 -0.04915811 -0.2119588
-0.08101401 -0.08173264 -0.20523372 -0.00331314 -0.21906503 0.158761 0.010658429 0.03981288
0.12610975 0.15300053 -0.30738872 0.12738106 -0.37323695 -0.19685641 -0.09093592 -0.36700445
0.1309873 -0.17189635 -0.005666332 0.0780837 0.19211882 0.21106443 0.10222111 -0.047926474
-0.07398575 0.04846535 -0.2185278 -0.10975165 -0.20477642 0.24576789 -0.18749318 0.10592373
-0.016713012 -0.02729128 0.1571273 -0.00062194245 0.05062405 -0.10735739 0.16932686 -0.022954667
-0.024545442 0.15489177 -0.3319839 0.17693037 -0.004369541 0.06298399 0.07458337 -0.03284085
0.10667132 0.095116794 -0.08154937 -0.02300558 0.049838006 -0.018049901 0.06819846 -0.090428896
0.1338326 0.038375985 -0.024208348 -0.063120805 0.27501547 0.21477212 -0.12747002 0.090713106
-0.08420085 0.048140675 0.00016319261 0.2477014 -0.030839484 0.024295723 -0.15860721 0.17614987
0.08079668 0.2654901 0.20151335 0.11893271 0.124921344 -0.07203359 0.04792131 -0.15021646
-0.13558301 -0.044923443 0.075037055 -0.06651068 -0.29530707 -0.119574055 -0.14038377 -0.019823499
-0.4239196 -0.046212617 0.063506834 -0.07420369 0.18911488 0.05907748 0.04635601 0.04623758
-0.0064300955 -0.006706787 0.1945265 -0.20792848 0.04245243 0.29039556 -0.2120592 -0.042314157
-0.63119715 -0.2624669 0.26098263 0.09064358 -0.012241374 -0.1269867 -0.10531934 -0.11904119
0.19552031 -0.058313984 0.09933779 -0.13950849 -0.03038012 0.032496277 0.23020361 0.19056499
0.025330499 -0.17687884 -0.13280673 -0.050371565 -0.049518652 0.0058048028 0.16561265 -0.025722988
-0.19830666 0.30086714 -0.07509623 0.005778249 -0.3360438 0.13229623 -0.0004357873 0.04149068
0.107537 0.12164639 0.11975076 -0.06785754 -0.001746818 0.10183647 -0.030292032 0.014885298
0.0018696357 0.06840544 -0.2887956 -0.01009136 -0.046565272 -0.0541207 -0.14244136 0.08501588
0.0072977063 0.10661958 -0.106671035 -0.030142078 0.2750728 -0.22642076 -0.27775097 -0.09517032
-0.07950763 0.042126376 0.14763494 0.16539913 -0.14161877 -0.19453126 0.3699208 -0.05322301
0.0923574 -0.0772388 0.25796384 -0.09633601 -0.04989363 0.26282614 0.046513226 0.0669003
0.38382664 0.011106544 0.075522825 -0.1303008 -0.02572303 -0.07430837 0.18900518 -0.30207333
-0.031169364 -0.24862228 0.111428455 -0.22874612 -0.0033930463 0.02423014 0.12536758 0.09921866
-0.070732914 0.019814538 0.046038102 0.05495974 -0.28745207 0.026929481 -0.043016974 -0.04501676
00000000: a8e9 3ebe 19b8 fbbd 512f 203e 6b32 dfbe
00000010: 512b a63d 52ed 183e 519b e73d 602f 82bd
00000020: 5062 ad3e ee2f 3abd d378 46be a4ad b6bc
00000030: a0f0 9abd 7499 ecbd 5bb8 36be c90e 41be
00000040: feef 733d 855d 383e d71f 833e 8ac0 1d3d
00000050: e357 9f3d 4324 bcbd 88ca 10be 373d 55bd
00000060: f983 fe3e 5f3f 533d 1460 c83d 7826 62be
00000070: 8f19 fbbd 69f8 40be 13fb f0bd dafe 893d
00000080: 7445 8fbc 1897 7fbd 9986 babd 6144 413d
00000090: 31cc c1bd 1abd d83e 0b21 cabd 46cc 61bd
000000a0: 6a11 de3d a5ea a3bd acc0 ffbd 82fd d5bd
000000b0: 744b 553d 2b0f 5dbb aa27 c3b9 5765 74be
000000c0: 03ec 06be d13d 213e 163a 8b3e 55b4 af3e
000000d0: 32a4 5dbe 855c 5d3e 045a 49bd ba0b 59be
000000e0: acea a5bd 7163 a7bd ca28 52be 4421 59bb
000000f0: 9552 60be 3e92 223e b1a0 2e3c d512 233d
00000100: ea22 013e 2cac 1c3e 0e62 9dbe 2e70 023e
00000110: ea18 bfbe ba94 49be 9d3c babd 02e8 bbbe
00000120: 8921 063e 9905 30be a3ac b9bb 59ea 9f3d
00000130: ccba 443e 4621 583e 4d59 d13d 8d4e 44bd
00000140: d785 97bd 9a83 463d c0c5 5fbe 79c5 e0bd
00000150: e9b0 51be 94aa 7b3e 36fe 3fbe 8aee d83d
00000160: bae9 88bc f691 dfbc fbe5 203e da09 23ba
00000170: 2a5b 4f3d 31de dbbd 0564 2d3e 6d0b bcbc
00000180: 8613 c9bc f39b 1e3e cbf9 a9be 3c2d 353e
00000190: 5e2e 8fbb c0fd 803d 2abf 983d 2184 06bd
000001a0: 7e76 da3d 98cc c23d 5b03 a7bd 3376 bcbc
000001b0: f022 4c3d 63dd 93bc a2ab 8b3d c932 b9bd
000001c0: 6a0b 093e 2330 1d3d 9650 c6bc 7b45 81bd
000001d0: d4ce 8c3e 39ed 5b3e 8087 02be cbc7 b93d
000001e0: 7f71 acbd 282f 453d af1e 2b39 70a5 7d3e
000001f0: 16a3 fcbc d307 c73c ee69 22be a260 343e
00000200: bb78 a53d 52ee 873e 8459 4e3e fe92 f33d
00000210: c3d6 ff3d 5986 93bd 2349 443d 58d2 19be
00000220: 46d6 0abe a501 38bd 07ad 993d c036 88bd
00000230: 7d32 97be 3ee3 f4bd c3c0 0fbe e464 a2bc
00000240: fd0b d9be 7149 3dbd df0f 823d 1bf8 97bd
00000250: 55a7 413e 3afb 713d cddf 3d3d 9e63 3d3d
00000260: 8db3 d2bb 9bc4 dbbb f431 473e 34eb 54be
00000270: 99e2 2d3d baae 943e 0c26 59be 9c51 2dbd
00000280: 2396 21bf 1062 86be 849f 853e 57a3 b93d
00000290: 0b90 48bc cd08 02be abb1 d7bd decb f3bd
000002a0: 7a36 483e a5da 6ebd 9c71 cb3d 50db 0ebe
000002b0: bbdf f8bc d11a 053d 7fba 6b3e 7823 433e
000002c0: e881 cf3c ba1f 35be 7dfe 07be 6a52 4ebd
000002d0: 12d4 4abd 3736 be3b 5d96 293e 04b9 d2bc
000002e0: e710 4bbe 420b 9a3e 0dcc 99bd 7757 bd3b
000002f0: ef0d acbe aa78 073e 627a e4b9 22f2 293d
00000300: 5c3c dc3d be21 f93d e33f f53d e5f8 8abd
00000310: 7cf5 e4ba a48f d03d ff26 f8bc 77e1 733c
00000320: 900e f53a 2718 8c3d 04dd 93be 3b56 25bc
00000330: 3abb 3ebd abad 5dbd 26dc 11be ce1c ae3d
00000340: 9921 ef3b 5e5b da3d 5876 dabd 85ec f6bc
00000350: 58d6 8c3e d8da 67be 6035 8ebe a8e8 c2bd
00000360: e5d4 a2bd b58c 2c3d 9d2d 173e 645e 293e
00000370: 8304 11be 3433 47be 4266 bd3e 5f00 5abd
00000380: e025 bd3d 602f 9ebd d613 843e d04b c5bd
00000390: 435d 4cbd 2691 863e a784 3e3d 0603 893d
000003a0: ed84 c43e 39f8 353c b6ab 9a3d 936d 05be
000003b0: 1bb9 d2bc fd2e 98bd 938a 413e 5ba9 9abe
000003c0: e556 ffbc d796 7ebe 9a34 e43d 6c3c 6abe
000003d0: df5d 5ebb 497e c63c 5c60 003e 2733 cb3d
000003e0: 6bdc 90bd 1952 a23c 7392 3c3d 771d 613d
000003f0: eb2c 93be 379b dc3c 9132 30bd 7e63 38bd

fc1.bias f4 [64]
0.15512773 -0.11986802 0.013815894 0.037044857 0.10662104 -0.025360007 0.05685189 -0.08238024
0.033421915 0.04684472 0.12430815 -0.0687796 0.0002509879 0.021740915 0.05666852 -0.077445365
0.18910752 -0.06760575 0.11658085 -0.015181695 0.028852044 -0.05108379 0.142061 -0.048701044
-0.09884511 0.09469304 -0.00079776946 0.14919977 0.026703138 -0.075457335 -0.03095903 -0.056746624
0.05890454 0.007644948 0.014030879 -0.07843153 -0.028763933 0.09349479 0.12867056 0.054754946
-0.09777424 0.075635605 -0.0063024187 0.18258083 0.012662208 0.0015839522 0.00706414 0.054676447
-0.074571535 0.14915663 0.034398325 0.0401531 -0.032107454 0.16467653 -0.048667897 -0.095686145
-0.101474695 0.008952377 0.07233462 -0.047216672 0.06634054 -0.02316896 0.103129506 0.03963384
00000000: ced9 1e3e 5d7d f5bd 0f5c 623c 59bc 173d
00000010: 225c da3d cabf cfbc 87dd 683d f9b6 a8bd
00000020: 6be5 083d 40e0 3f3d 4595 fe3d 52dc 8cbd
00000030: 0797 8339 011a b23c 401d 683d ad9b 9ebd
00000040: 67a5 413e e274 8abd f1c1 ee3d a5bc 78bc
00000050: 1f5b ec3c 3c3d 51bd 7078 113e bf7a 47bd
00000060: 4e6f cabd 6dee c13d 6721 51ba d3c7 183e
00000070: 8ac0 da3c 6089 9abd cb9d fdbc 266f 68bd
00000080: e345 713d 7982 fa3b c6e1 653c b6a0 a0bd
00000090: 57a2 ebbc 327a bf3d 37c2 033e b946 603d
000000a0: dc3d c8bd d7e6 9a3d 8584 cebb 78f6 3a3e
000000b0: 2675 4f3c 9e9c cf3a 4d7a e73b 69f4 5f3d
000000c0: f6b8 98bd 84bc 183e 42e5 0c3d 9477 243d
000000d0: 1b83 03bd f7a0 283e fd57 47bd 19f7 c3bd
000000e0: f7d1 cfbd feac 123c 2c24 943d 4566 41bd
000000f0: 8ddd 873d d5cc bdbc 9035 d33d 1857 223d

bn1.weight f4 [64]
1.1123884 1.2183187 1.2370026 1.0799375 1.1325889 1.0562958 1.2505274 1.0769743
1.0633677 1.1731299 1.165296 1.1644003 1.1260731 1.2039368 1.0300332 1.3137661
1.0759603 1.1669799 1.0505418 1.1752557 1.0662401 1.0700445 0.91362035 1.0370522
1.2857727 1.1823756 1.1849207 1.1783658 1.1348515 1.3797568 1.1113881 1.1439564
1.2236496 1.255842 1.168456 1.3405772 1.1790427 1.1401799 1.1900626 0.8524676
1.3364121 1.1576681 1.2393898 1.155654 0.9960197 1.2151259 1.0521457 1.0365145
1.2213944 0.85192055 1.3707477 1.0592256 1.1442171 1.1718259 1.3218179 1.1707779
1.4318254 1.2197576 0.8363118 1.13252 1.1337289 1.0496219 1.1957788 1.095493
00000000: be62 8e3f def1 9b3f 1a56 9e3f 643b 8a3f
00000010: acf8 903f b334 873f 4811 a03f 4bda 893f
00000020: 6f1c 883f 1f29 963f 6b28 953f 120b 953f
00000030: 2a23 903f 9a1a 9a3f 21d8 833f 7d29 a83f
00000040: 11b9 893f 995f 953f 2778 863f c76e 963f
00000050: 8e7a 883f 38f7 883f 06e3 693f 20be 843f
00000060: 3394 a43f 1558 973f 7bab 973f b1d4 963f
00000070: d042 913f df9b b03f f741 8e3f 2a6d 923f
00000080: 8da0 9c3f 6ebf a03f f78f 953f 0998 ab3f
00000090: dfea 963f 6af1 913f f953 983f 513b 5a3f
000000a0: 8d0f ab3f 782e 943f 53a4 9e3f 78ec 933f
000000b0: 26fb 7e3f 3f89 9b3f b6ac 863f 82ac 843f
000000c0: a756 9c3f 7717 5a3f a974 af3f b494 873f
000000d0: b575 923f 64fe 953f 5431 a93f 0ddc 953f
000000e0: 0e46 b73f 0421 9c3f 8818 563f 6af6 903f
000000f0: 071e 913f 035a 863f 480f 993f 1d39 8c3f

bn1.bias f4 [64]
0.08029776 0.071042016 -0.14734927 0.079278134 0.05449626 0.14637636 0.3919692 -0.15677719
0.24670209 0.048448056 0.25310746 0.040185083 0.20145538 0.15504111 0.118203096 0.028839502
0.04281173 0.1299541 -0.31292504 -0.100686766 0.28037634 -0.0748164 -0.13636246 0.3075452
0.12945554 0.2453558 0.40099248 0.33404383 0.34516937 0.31951517 0.15968761 0.024244899
0.11613325 0.24577126 -0.060123622 -0.03534889 -0.058445472 0.3383204 0.33387285 0.3175964
-0.050389614 0.099060655 0.29868275 0.2745483 0.15845515 0.44103986 0.15836738 0.2433366
0.46871695 0.12247987 0.50652736 -0.15831412 0.25674853 0.23893088 0.24869217 -0.20251352
0.25189945 0.12014129 0.43719193 -0.26359555 0.29820487 0.20096028 0.33543605 -0.2303844
00000000: 2773 a43d 7a7e 913d bae2 16be 935c a23d
00000010: 7837 5f3d afe3 153e 30b0 c83e 338a 20be
00000020: 799f 7c3e 7871 463d 4d97 813e 1d99 243d
00000030: 524a 4e3e 19c3 1e3e 7714 f23d d240 ec3c
00000040: 5a5b 2f3d b012 053e b637 a0be dd34 cebd
00000050: 7d8d 8f3e 5739 99bd 9aa2 0bbe 9176 9d3e
00000060: fe8f 043e 8d3e 7b3e e34e cd3e cb07 ab3e
00000070: 0aba b03e 7e97 a33e 2685 233e 3d9d c63c
00000080: 45d7 ed3d 76ab 7b3e 3044 76bd ffc9 10bd
00000090: 8564 6fbd 5538 ad3e 62f1 aa3e ff9b a23e
000000a0: 5765 4ebd 50e0 ca3d f2ec 983e 9891 8c3e
000000b0: 1142 223e facf e13e 0f2b 223e 3b2d 793e
000000c0: abfb ef3e bad6 fa3d c7ab 013f 191d 22be
000000d0: 8b74 833e 4caa 743e 29a9 7e3e b45f 4fbe
000000e0: f7f8 803e a30c f63d 9fd7 df3e fff5 86be
000000f0: 4fae 983e 88c8 4d3e 46be ab3e e3e9 6bbe

bn1.running_mean f4 [64]
0.012593676 0.45186597 0.3818963 -1.0463128 0.92476267 -0.17101322 -0.04032425 0.010380433
-0.46357363 -0.19853897 -0.084921025 -1.2466655 -0.58572686 0.69577056 -0.80376744 0.014795381
-0.7585873 -0.6547258 0.20974451 -0.30491504 -0.97134763 -0.202971 0.41526312 0.07947333
-0.5925594 -0.5114529 0.5159163 0.40130544 -0.15330914 -0.61751956 0.27648997 0.020673908
0.40949824 -0.46422583 0.4477611 -0.007866422 0.3511168 1.1357574 -0.6148316 -0.46464857
0.7711492 0.43155876 0.8210994 -0.6140038 -1.0275767 -0.8238778 0.5693491 -0.38515785
0.21265945 0.22074099 -0.5192249 0.95477676 -1.0159266 -0.8195884 0.17554623 -0.6132563
-0.3816369 0.63363844 -0.22332875 0.48017883 0.31222722 -0.43760023 0.9926222 0.28404745
00000000: b555 4e3c fa5a e73e e987 c33e 94ed 85bf
00000010: 3fbd 6c3f 171e 2fbe 0a2b 25bd b112 2a3c
00000020: 8659 edbe cd4d 4bbe 13eb adbd bc92 9fbf
00000030: 32f2 15bf 051e 323f b4c3 4dbf 5368 723c
00000040: c732 42bf 1c9c 27bf 44c7 563e d31d 9cbe
00000050: 3daa 78bf a1d7 4fbe 5e9d d43e eac2 a23d
00000060: f9b1 17bf 94ee 02bf 1713 043f e877 cd3e
00000070: 12fd 1cbe c315 1ebf 1890 8d3e 545c a93c
00000080: c1a9 d13e 02af edbe f140 e53e 2ae2 00bc
00000090: 95c5 b33e 8060 913f 9b65 1dbf 6be6 edbe
000000a0: 096a 453f 45f5 dc3e 9233 523f 5a2f 1dbf
000000b0: a287 83bf a8e9 52bf ddc0 113f 6933 c5be
000000c0: 66c3 593e ed09 623e eceb 04bf 406c 743f
000000d0: e209 82bf 8cd0 51bf 64c2 333e 5dfe 1cbf
000000e0: e965 c3be 2136 223f 4bb0 64be 00da f53e
000000f0: 3fdc 9f3e 230d e0be 7d1c 7e3f ab6e 913e

bn1.running_var f4 [64]
1.4569044 0.72075015 0.8708202 0.879332 1.1296663 0.8815488 0.8205774 1.7301229
1.1880184 0.8041505 0.9081376 0.99435836 0.50981426 0.8986351 0.6966497 0.71553886
0.75492674 0.90786475 1.2919263 0.90215516 1.4414338 0.8096429 1.0979596 0.49434355
0.84962654 1.1494044 1.7573336 0.95956504 0.7602698 0.7174798 1.0637579 1.3866075
0.70478433 0.7055394 1.7525816 0.76607317 0.7410518 0.7691246 1.3498462 1.2522373
2.428652 0.8774098 1.3076663 1.1698233 1.0856746 0.6846724 0.9940464 0.9335526
0.7762271 0.7804636 0.8644691 1.1015602 1.0171678 0.94696826 0.88215184 0.40969515
0.8998232 1.0713238 1.240915 1.5247246 0.5119742 0.9281309 1.0278068 0.91529125
00000000: d87b ba3f 1583 383f 13ee 5e3f e71b 613f
00000010: e898 903f 2fad 613f 5c11 523f ab74 dd3f
00000020: fd10 983f cfdc 4d3f b57b 683f 458e 7e3f
00000030: 3083 023f f30c 663f a257 323f 8e2d 373f
00000040: e142 413f d369 683f d75d a53f a4f3 663f
00000050: e780 b83f c244 4f3f f189 8c3f 991a fd3e
00000060: 2081 593f af1f 933f 4ff0 e03f 0ea6 753f
00000070: 0ba1 423f c2ac 373f 3829 883f 5b7c b13f
00000080: bf6c 343f 3b9e 343f 9854 e03f 5f1d 443f
00000090: 92b5 3d3f 5ae5 443f c3c7 ac3f 5049 a03f
000000a0: 096f 1b40 ee9d 603f 9c61 a73f c5bc 953f
000000b0: 63f7 8a3f b146 2f3f d379 7e3f 4efd 6e3f
000000c0: d2b6 463f 76cc 473f d94d 5d3f edff 8c3f
000000d0: 8e32 823f 836c 723f b4d4 613f 90c3 d13e
000000e0: d05a 663f 2321 893f 4dd6 9e3f 2d2a c33f
000000f0: be10 033f fd99 6d3f 2c8f 833f 8750 6a3f

fc2.weight f4 [4, 64]
0.18494323 -0.043884374 -0.10407938 0.20493396 -0.067433044 0.20987101 0.0014744587 -0.1518736
0.29796493 -0.094281144 0.27027538 0.0797509 0.2533585 -0.16145396 0.21847533 0.06429082
0.15064058 -0.021233615 -0.08628803 -0.1327028 0.22696616 -0.03490151 -0.061341297 0.20752876
0.007993719 0.37342873 0.10519297 0.21308288 0.23630817 0.13036688 0.12652816 0.19292335
0.040370174 -0.10911652 -0.29512927 0.11856507 -0.18196015 0.17803307 0.26209924 0.20326099
-0.42465082 -0.03795361 0.20212193 -0.006392525 0.01837195 0.25866354 0.018601509 0.080368124
0.17605223 0.08675743 0.12761715 -0.062646836 0.080227174 0.07654873 0.18764494 -0.06521625
0.016935712 0.15750554 0.1857755 -0.25092983 0.2544644 0.25107136 0.14929351 -0.19333795
-0.31885958 -0.64816874 -0.5229943 -0.2917296 0.3088632 -0.24905698 0.14138998 0.17010337
-0.2166563 0.20758456 -0.09789948 0.14130868 -0.055739064 0.14367454 -0.23066272 -0.46848154
-0.31365514 0.18468104 0.044526454 -0.25934446 -0.043107994 0.14776778 -0.03920264 -0.18244241
-0.45858407 -0.08971363 -0.6765925 -0.24989489 -0.21561374 -0.42039883 -0.57387537 -0.4591729
-0.3508039 0.23948033 -0.005035966 0.28084216 0.092930935 -0.42586067 -0.3399978 -0.2849517
0.028308824 -0.5899053 -0.5362242 -0.53319746 -0.58922786 0.17545588 0.13955677 -0.052218143
-0.57495886 -0.14864346 0.31789526 0.19954504 -0.34635067 0.25169694 -0.50791043 -0.36133924
-0.4119106 -0.43767145 -0.15514676 0.20440267 -0.3139494 -0.15795451 -0.16247714 -0.33803377
-0.09452138 0.117974594 0.17558843 -0.0021785311 -0.05054874 -0.2606749 -0.3403858 -0.3023562
-0.16502962 -0.5211846 -0.21243878 -0.56642807 -0.2476916 0.1730487 -0.027235955 0.22568731
-0.5915459 -0.5629319 0.20403099 -0.46502635 -0.19840696 0.12526959 0.071912825 -0.031294182
-0.68227214 -0.18652768 -0.3955168 -0.29808632 -0.050135504 -0.45496553 -0.38647637 -0.22474629
0.23438455 -0.55290854 0.12219132 -0.43348053 0.22392325 0.21179119 -0.24884535 -0.085578315
0.07609526 0.14166161 -0.47470155 -0.35045236 -0.35575444 -0.43816856 -0.53093946 -0.24675255
-0.5115727 -0.0359507 -0.67961264 0.031152919 -0.4142198 -0.43675083 0.15869668 -0.4176169
0.24370894 -0.36051154 -0.059385866 0.21504411 0.17149459 -0.10505357 0.31393373 0.25066882
-0.07955538 0.2440059 0.17944801 -0.22969617 -0.55755067 0.047030505 -0.56194323 0.23868126
-0.28324154 0.28086624 -0.24978144 -0.033667866 -0.28841847 -0.54907477 -0.19640289 -0.54156506
0.16096814 -0.69743234 -0.41402382 0.13616379 -0.40562457 -0.63710076 -0.46106938 -0.43002558
0.21205892 -0.3096959 0.2621231 -0.19849123 -0.39947656 0.3135853 0.19693954 0.116282076
-0.39046156 0.09768718 0.15871948 -0.49085915 -0.5814894 -0.27246255 -0.28616014 -0.09249196
0.018775243 0.14073038 0.2450614 0.20090693 0.16860546 -0.43657437 -0.19874807 -0.2885644
0.16794476 -0.24751522 -0.5587932 -0.48003006 0.1646801 -0.3799139 -0.32350546 0.27635038
-0.51948154 0.17325243 -0.15017612 -7.567919e-06 -0.35605612 -0.2687912 -0.56544334 0.038417898
00000000: c261 3d3e 1ac0 33bd 9227 d5bd 35da 513e
00000010: 561a 8abd 6de8 563e a042 c13a c184 1bbe
00000020: dc8e 983e 7916 c1bd 8961 8a3e 7154 a33d
00000030: 35b8 813e 3054 25be ffb7 5f3e e8aa 833d
00000040: 8641 1a3e 1ef2 adbc c7b7 b0bd 3ee3 07be
00000050: d169 683e e3f4 0ebd 0341 7bbd 6b82 543e
00000060: 16f8 023c 0d32 bf3e 696f d73d 6632 5a3e
00000070: c5fa 713e e57e 053e 9990 013e b38d 453e
00000080: 325b 253d 7b78 dfbd 2f1b 97be 3ed2 f23d
00000090: c353 3abe 4d4e 363e df31 863e a623 503e
000000a0: d56b d9be 3f75 1bbd 0df9 4e3e 6378 d1bb
000000b0: c680 963c 8c6f 843e 3162 983c 0b98 a43d
000000c0: 0947 343e e1ad b13d 12ae 023e fc4c 80bd
000000d0: 254e a43d 95c5 9c3d ff25 403e 1990 85bd
000000e0: c3bc 8a3c 2249 213e ef3b 3e3e e079 80be
000000f0: 2849 823e 6d8c 803e 66e0 183e 62fa 45be
00000100: 9041 a3be 63ee 25bf f4e2 05bf 955d 95be
00000110: 5123 9e3e cb08 7fbe 89c8 103e 942f 2e3e
00000120: 26db 5dbe 0c91 543e 867f c8bd 39b3 103e
00000130: a54e 64bd 6b1f 133e d932 6cbe d0dc efbe
00000140: 6897 a0be 071d 3d3e 5f61 363d ccc8 84be
00000150: 0292 30bd 7050 173e f392 20bd 2fd2 3abe
00000160: 88cb eabe c8bb b7bd 2b35 2dbf 72e4 7fbe
00000170: d9c9 5cbe 843e d7be 7fe9 12bf b618 ebbe
00000180: 929c b3be 553a 753e bf04 a5bb 8bca 8f3e
00000190: 9352 be3d 690a dabe 3114 aebe 30e5 91be
000001a0: e8e7 e73c 0904 17bf fd45 09bf a17f 08bf
000001b0: a3d7 16bf b5aa 333e f8e7 0e3e b1e2 55bd
000001c0: 8130 13bf fe35 18be 2bc3 a23e 8955 4c3e
000001d0: e054 b1be 6cde 803e 6b06 02bf 7501 b9be
000001e0: f2e5 d2be 7916 e0be cbde 1ebe ef4e 513e
000001f0: fabd a0be d4be 21be 6860 26be c312 adbe
00000200: 6d94 c1bd aa9c f13d 74cd 333e b0c5 0ebb
00000210: 320c 4fbd 2e77 85be 0c47 aebe 6fce 9abe
00000220: 86fd 28be 5b6c 05bf 8d89 59be 6e01 11bf
00000230: dea2 7dbe ae33 313e f01d dfbc 931a 673e
00000240: 8d6f 17bf 4e1c 10bf 80ed 503e ef17 eebe
00000250: 322b 4bbe ac46 003e 0847 933d 542e 00bd
00000260: 63a9 2ebf 1d01 3fbe 2e81 cabe c59e 98be
00000270: e35a 4dbd 3ef1 e8be 3be0 c5be e423 66be
00000280: 8102 703e 6a8b 0dbf 713f fa3d 29f1 ddbe
00000290: 234c 653e cadf 583e 51d1 7ebe af43 afbd
000002a0: d5d7 9b3d be0f 113e 150c f3be 7e6e b3be
000002b0: 7225 b6be a157 e0be a6eb 07bf b3ac 7cbe
000002c0: 6ef6 02bf 0b41 13bd 18fb 2dbf 6834 ff3c
000002d0: 9e14 d4be ce9d dfbe 6281 223e e2d1 d5be
000002e0: d68e 793e f894 b8be 983e 73bd 8634 5c3e
000002f0: 479c 2f3e 5326 d7bd ecbb a03e aa57 803e
00000300: eeed a2bd afdc 793e 38c1 373e 7935 6bbe
00000310: a4bb 0ebf 0fa3 403d 83db 0fbf dc68 743e
00000320: 0905 91be b3cd 8f3e b5c6 7fbe 51e7 09bd
00000330: 96ab 93be 2a90 0cbf d71d 49be 02a4 0abf
00000340: d5d4 243e ed8a 32bf eefa d3be 856e 0b3e
00000350: 06ae cfbe 0919 23bf 4911 ecbe 502c dcbe
00000360: f925 593e 7690 9ebe 0035 863e 4941 4bbe
00000370: 3188 ccbe 418e a03e 85aa 493e 4c25 ee3d
00000380: 94ea c7be 3710 c83d 5c87 223e e451 fbbe
00000390: 7ddc 14bf 3680 8bbe 9583 92be 6d6c bdbd
000003a0: 8ace 993c a01b 103e 60f1 7a3e 8cba 4d3e
000003b0: e9a6 2c3e ad86 dfbe 9d84 4bbe b7be 93be
000003c0: b6f9 2b3e a174 7dbe 120d 0fbf 80c6 f5be
000003d0: e6a1 283e 1384 c2be 82a2 a5be cc7d 8d3e
000003e0: befc 04bf 1669 313e c5c7 19be eeef fdb6
000003f0: fd4c b6be 009f 89be e5c0 10bf 165c 1d3d

fc2.bias f4 [4]
0.19196348 -0.0001890181 -0.13210168 -0.35783756
00000000: 1392 443e 2933 46b9 aa45 07be 7c36 b7be
