Models/model_no_preprocess.pt (torch, 317399 bytes, 12 tensors)

lstm.weight_ih_l0 f4 [512, 6]
000000 d7 1f 16 bd 99 89 56 3d 25 b2 1b be ed b7 63 bd
       -0.03665146 0.052377317 -0.15204675 -0.055595327
000010 65 bb 04 3e e8 2b 42 3d 1a 31 43 be 61 51 3b 3e
       0.1296211 0.047405154 -0.190617 0.18292762
000020 60 be 78 3d 51 ee be bd 38 bd 39 3e fa 2e ba 3d
       0.06072843 -0.09322799 0.18138587 0.09090991
000030 e8 39 24 be d9 3e 93 bd c6 c1 22 be c4 9e 86 bd
       -0.16037714 -0.071897216 -0.15894231 -0.06573251
000040 9b 70 11 bd ce 22 17 3e 8b e1 da 3c ee 30 f7 3b
       -0.03550778 0.1475937 0.026718875 0.0075436747
000050 23 95 9e be 39 23 0b 3e 8c 78 2b 3e b8 c9 1c 3b
       -0.30973157 0.13587655 0.16745204 0.0023923945
000060 1c 41 26 be f9 04 dc 3c c6 7c 37 be 51 40 4e 3d
       -0.16235775 0.02685784 -0.17918691 0.050354306
000070 40 04 1d 3e a4 97 50 be 57 ca be bd 0c 69 11 3e
       0.15333652 -0.20370346 -0.09315937 0.14200228
000080 1c 1f 43 3d 25 51 87 be 21 e7 af 3c e5 49 6f 3e
       0.04763709 -0.26429096 0.021472516 0.23368032
000090 19 7d b8 3d 12 54 c0 bc 36 ec d8 bc f5 93 b1 3d
       0.090082355 -0.023477588 -0.026479822 0.08670799
0000a0 c5 71 20 bd d0 1b ab bd 89 58 0a 3e 66 7f e0 be
       -0.039171 -0.08354914 0.13510336 -0.43847197
0000b0 e1 32 a9 3d 7f f7 95 3d 81 75 4c 3e c2 cf e0 3d
       0.082616575 0.07322597 0.19966699 0.10977127
0000c0 65 41 57 3d 9c b4 38 3d 6d 7c 10 be f0 53 64 3d
       0.0525526 0.045094118 -0.14109965 0.05574411
0000d0 48 de 4a be 48 c4 67 3d 0f 2b d0 3d 81 7c e5 bd
       -0.19811356 0.056583673 0.10164463 -0.11205388
0000e0 4d 5f 1b 3e b9 df 76 3e 80 f3 84 be 41 8d d3 bd
       0.15173073 0.24108781 -0.25967026 -0.103296764
0000f0 d1 b9 5c bd 36 4a e6 3d a4 52 21 be b6 2a a1 bc
       -0.053888146 0.11244623 -0.15754181 -0.019673686
000100 c4 24 da 3d c8 18 5a be 81 3e 7a 3d 79 0e ba 3d
       0.10651544 -0.21298516 0.061094765 0.09084792
000110 02 d5 47 bd 79 39 3d 3e fa 98 91 bd e0 03 d8 3d
       -0.048787124 0.18478955 -0.07109256 0.10547614
000120 2b 62 7b be 45 06 d7 3e 3e 67 fe 3c 21 68 2c 3e
       -0.24549167 0.4199697 0.03105509 0.16836597
000130 dc 65 d0 3c c7 72 70 3d 06 24 8b 3e 66 18 bc be
       0.025439195 0.05870321 0.2717592 -0.36737365
000140 2e 88 61 be 84 ef df 3e 62 9f 7d be 42 56 4c 3e
       -0.22024605 0.43737423 -0.24767831 0.1995478
000150 aa b3 04 be 4c 70 79 bd 6c 4e aa bc 52 5a 19 bd
       -0.12959161 -0.06089811 -0.020789348 -0.03743965
000160 cb a2 1c b9 e9 aa a6 bd 38 b6 b9 bd 3a 5d 4a 3e
       -0.00014937964 -0.08138067 -0.090679586 0.19762126
000170 9e 21 17 be 19 65 89 3d 28 3b e7 bd dc be 55 3e
       -0.14758918 0.06708736 -0.1129058 0.20873588
000180 16 0b 00 3e bc 68 68 be 8b 46 d4 3e 5b 4e a6 3d
       0.12504229 -0.22696203 0.4146007 0.08120414
000190 61 6e 3c be a9 d7 f0 bc a1 00 a5 bd 18 d6 3c 3e
       -0.18401481 -0.02939971 -0.080567606 0.18441045
0001a0 37 4a 26 be e0 82 02 3e b4 ba c6 bc c8 99 3b 3e
       -0.16239248 0.12745237 -0.024258949 0.18320382
0001b0 50 61 11 be 3c 90 11 3e 5a 43 02 3d e1 eb a7 bd
       -0.14197278 0.14215177 0.031802513 -0.08199287
0001c0 32 6b 0e 3e 91 b9 5f be cd f7 22 be 60 67 32 3e
       0.1390808 -0.21848132 -0.15914841 0.17422247
0001d0 70 81 99 3d bd d8 8c be ab dc 81 bd a5 6d 6e 3e
       0.07495391 -0.27509108 -0.06340917 0.23284014
0001e0 a5 86 d2 bd 31 04 93 bc 6e 30 46 3e 26 34 2e 3d
       -0.10279588 -0.017946335 0.19354412 0.0425302
0001f0 00 1f dd bb 2c 03 b3 3d 0b 5f 4e 3e 04 6c 80 3c
       -0.0067480803 0.08740839 0.20153444 0.015676506
000200 22 00 a0 3d c8 01 af 3d e8 e1 a8 3c 50 b5 18 3e
       0.07812525 0.085452616 0.020615533 0.14912915
000210 af 5b 28 3e 7f a9 ba 3d ba ba fe bd 5d 44 9b 3d
       0.16441225 0.0911436 -0.12437959 0.07581399
000220 f5 f7 9d bd 84 2f 60 3e 4e 8b db bc 64 61 0d be
       -0.0771331 0.21893126 -0.026799824 -0.13806683
000230 76 ea 0e 3e eb 1e 42 3d ba 52 0b 3e 24 ea a1 3e
       0.13956627 0.047392767 0.13605776 0.31623948
000240 5b bb 71 3c a9 7b b3 3e 7b d4 42 3f 18 d0 8b be
       0.014754142 0.35055283 0.7610547 -0.273072
000250 3a 19 f4 3c fb cb d2 3e ca 78 c1 bb 2e c3 30 bc
       0.029797185 0.4117125 -0.0059042918 -0.010788722
000260 73 b5 f6 3b e1 ec 5a 3e b8 cf 1d be 5f e3 57 3e
       0.0075289547 0.21379425 -0.1541127 0.21082829
000270 b5 52 3b be 88 8f f8 3c d0 7a be bd 6e d9 b0 3d
       -0.18293269 0.030341879 -0.093007684 0.086352214
000280 42 1e 93 bd 89 b9 2d 3e e2 92 27 be fa f9 0c be
       -0.071835056 0.16965307 -0.16364625 -0.13767233
000290 5f 1a 88 3e 09 9a 50 3d 99 a6 03 be fe 30 59 bd
       0.2658262 0.05092815 -0.1285652 -0.05302524
0002a0 fb 79 d5 bd 56 29 03 3e b4 b4 8f 3c 40 c1 3e bc
       -0.104236566 0.12808737 0.01754222 -0.011642754
0002b0 26 f0 0c 3e 06 02 91 be 62 f3 3a 3e 8f 34 9a 3e
       0.13763484 -0.28321856 0.18256906 0.30118224
0002c0 72 a8 bb 3d 8f ef d3 3c d6 21 53 be f6 b7 52 be
       0.09162988 0.025871066 -0.20618376 -0.20577988
0002d0 17 ac e5 3d 1e df 80 be 5d 24 6d 3d 02 d0 3c 3e
       0.11214464 -0.25170225 0.057896007 0.18438724
0002e0 54 c7 6b be 97 1a c2 3e 34 27 41 3d 0f aa 89 3d
       -0.23025256 0.3791091 0.047156528 0.06721889
0002f0 1a 2f bd 3c 83 6c a9 3e 85 95 fc bd e5 2d 7e 3d
       0.023093749 0.330906 -0.12333206 0.062055487
000300 25 e4 84 3d da 5d 93 ba 84 9b e1 3d 36 73 6f 3e
       0.064888276 -0.001124318 0.110159904 0.23383793
000310 6e 09 a2 be 0b 73 09 3e 87 0e 21 be f4 b8 5a 3d
       -0.3164782 0.13422792 -0.15728198 0.05339904
000320 ec 57 77 3d 7f 15 3f bc 27 33 97 3d 2b af 11 bd
       0.060386583 -0.01166284 0.073828034 -0.035567444
000330 a8 7e 9c be 0b ff 93 be b7 fb 5e 3c f7 8d 37 be
       -0.3056538 -0.2890552 0.013609818 -0.17925249
000340 79 d6 9d 3e e9 cf f4 be 6e b9 8a 3e f2 91 c8 bd
       0.30827692 -0.47814873 0.27094597 -0.09793462
000350 5c 61 9f 3e 76 88 4a 3e d1 a6 66 be a8 37 5c bd
       0.31128967 0.19778618 -0.22524573 -0.053764015
000360 2f 0b 02 3e 33 98 21 be 60 bd f3 3d f4 33 f4 bd
       0.12699579 -0.15780716 0.11901355 -0.11923972
000370 0f e3 d6 3c 6c b7 79 be 60 7f f2 bd 6c 3d f0 3d
       0.026231317 -0.24386376 -0.11840701 0.11730465
000380 eb b4 05 bb 4a 66 3f be 5e c3 3d 3e c2 07 07 be
       -0.0020402025 -0.18691364 0.18531558 -0.13186553
000390 e7 10 ca 3d 2b 7d 05 be e3 11 63 3e 67 59 a8 3d
       0.09866505 -0.13036029 0.22174792 0.08220177
0003a0 b8 94 ed bd e3 a9 79 bd 2a 89 dd bd 9f 8b 08 be
       -0.116006315 -0.060953032 -0.108171776 -0.13334511
0003b0 ed f6 f6 3c db cc 8f 3c a8 0f 71 3d c3 cf 84 3e
       0.03014704 0.017553737 0.05885282 0.2593976
0003c0 67 71 02 3d 96 0b 84 bd d4 4c a3 bb 41 ce 88 3d
       0.03184643 -0.06447522 -0.004983524 0.06679965
0003d0 1a 7f 13 3e c3 b1 8e 3b c7 3a 95 bd 19 d2 0c 3e
       0.14403954 0.004354687 -0.072866015 0.13752021
0003e0 d9 ad 24 3b 97 2f 0a bd 8f 1f 01 be eb d4 b7 3d
       0.0025128035 -0.03373679 -0.12609695 0.08976158
0003f0 da a0 0a be c8 77 62 3e 0a 1f 07 3e 74 dd ca 3c
       -0.13537923 0.22116005 0.13195434 0.0247638

lstm.weight_hh_l0 f4 [512, 128]
000000 83 2b e1 3d 1d b9 0f 3d 20 5e 3b 3e e0 e1 5f 3d
       0.10994627 0.035088647 0.18297625 0.05465877
000010 8b 6a c5 bc 25 08 76 3e 6f 8b 22 3d 50 5a 38 bd
       -0.024098655 0.24026544 0.039683755 -0.045008004
000020 cf 9c 8d 3c 7f 5d 6d bc 38 87 3a be 3c 92 c4 3d
       0.017286686 -0.014487623 -0.18215644 0.095982045
000030 bf 6f 34 be 56 bf 22 3d 11 f1 a8 3d 37 1f 52 3d
       -0.17620753 0.039733253 0.08249105 0.0512993
000040 00 4b 8e bd 0e 2a 93 bd 13 44 b0 bd 7f 1e 42 3d
       -0.06947899 -0.07185756 -0.08606734 0.047392365
000050 fd 32 6b 3e c3 bd 24 be d8 54 9d bd 27 4d f1 3c
       0.22968669 -0.16088013 -0.07682198 0.029455734
000060 e2 26 73 3e 59 43 2a 3b 40 64 62 bd 79 e5 79 3c
       0.23745301 0.0025980084 -0.055271387 0.015252464
000070 fe 4b 5f 3e 4d 31 86 3d 01 fc 37 bc 20 63 0d bc
       0.21806332 0.06552372 -0.011229516 -0.00862959
000080 63 fc 9d bd b1 1a bc 3d e2 4f 09 3e 50 fc 82 bd
       -0.077141546 0.091847785 0.13409379 -0.06395781
000090 e6 d5 2c 3e 8b 9a 97 be f5 13 36 be 57 46 47 bd
       0.16878471 -0.29610094 -0.1778105 -0.048651066
0000a0 d7 e7 bc bc 7d 24 c3 bd dd 18 d5 bd 13 93 8f 3d
       -0.023059769 -0.09528444 -0.10405133 0.07010474
0000b0 46 3d 83 bd b0 fd 07 be 06 db 92 3d d3 50 7f bd
       -0.06408171 -0.13280368 0.07170682 -0.06233294
0000c0 d5 22 d0 bc 10 b1 40 3d f3 91 c3 bc 7e e8 18 be
       -0.025407234 0.04704386 -0.023873305 -0.14932439
0000d0 a2 a3 b5 bc 41 78 f0 3d bb 09 99 bc 0b 76 20 3e
       -0.022172753 0.117416866 -0.018681398 0.1567003
0000e0 d3 b0 28 bd 52 f9 e2 bc 16 59 ae bd 6d 1f 16 3e
       -0.041184258 -0.027706776 -0.085130855 0.14660425
0000f0 d3 06 2f 3d 91 75 76 3d a4 b0 16 bd eb c1 b2 3c
       0.042731117 0.060170714 -0.03678955 0.021820983
000100 08 24 b5 bd a4 df 01 3d f8 cb 0e bd 61 d8 25 3e
       -0.08844763 0.03170742 -0.03486249 0.16195823
000110 d4 7b 81 3e a6 cd 2d be 66 79 ac 3d fd 24 94 bd
       0.25289786 -0.1697298 0.084215924 -0.072336175
000120 3d 63 f2 3c 22 da e5 3c 3e 6d 43 be 18 ef 81 bd
       0.029588336 0.028058115 -0.19084641 -0.06344432
000130 6e a3 e7 3d 85 c3 05 be b6 f8 18 bc 7e 7a 2d 3e
       0.113104686 -0.13062866 -0.009336641 0.16941258
000140 4c ec 34 3a 2c c6 88 3d e6 2f 9c bd b6 eb e7 bc
       0.0006901666 0.06678423 -0.076263234 -0.028310638
000150 ab 85 db 3c b3 a7 55 bd 61 8f 4c bb ae 54 2c 3e
       0.026797136 -0.052161884 -0.003121339 0.16829178
000160 9d 35 58 bd 3f 39 41 3e ea 8d aa bd 3e 22 e6 3d
       -0.052785505 0.18869494 -0.08327849 0.11237
000170 2d e7 a0 bd 91 7f ea bc ff cf a5 bd 79 47 c6 bd
       -0.07856593 -0.028625282 -0.08096313 -0.09681601
000180 8f 97 7b bd f4 81 cc 3d 44 db 21 bd b8 e1 ef 3c
       -0.061423834 0.09985724 -0.03951575 0.029282436
000190 c3 de c1 3d b9 6d 56 3e 13 bc 14 be ad 2a 14 be
       0.094663166 0.20940293 -0.1452487 -0.14469405
0001a0 3e da 3a bd 69 a2 61 bc 20 38 57 3e 64 bb 35 bd
       -0.04561829 -0.013771632 0.21017504 -0.044368163
0001b0 d4 31 10 bd a1 fb 0e be 7b 07 18 3e 6f e4 28 3e
       -0.03520377 -0.13963176 0.14846604 0.1649339
0001c0 65 c4 85 3d fe 68 12 3d f4 d5 3e bd 2c 5e 1c bd
       0.065316 0.03574466 -0.04659076 -0.038175747
0001d0 76 35 78 bd 01 fa 5d bd 14 f5 06 3e e2 b8 04 bc
       -0.06059786 -0.0541935 0.13179427 -0.00810072
0001e0 31 2a d9 3d dc a6 33 be 69 de 2f be 8c b1 ab bc
       0.106037505 -0.1754412 -0.17174686 -0.020958684
0001f0 35 7e b1 3d 65 8b 92 bd 1f f4 01 be 49 79 2a 3e
       0.0866665 -0.07155494 -0.12690781 0.16647829
000200 ef 14 eb bc 5c 6d 83 bd 95 5c 5e 3d c8 bc 3f be
       -0.028696505 -0.06417343 0.05428751 -0.18724358
000210 7d fb 63 bd 9f d5 aa 3d ce 03 d4 3b ed b1 4b 3c
       -0.05565976 0.08341526 0.00647018 0.0124325575
000220 56 97 f6 3d 32 dc 26 3e bc 1a df bc d2 f5 a3 3c
       0.12040584 0.16294935 -0.027234428 0.020014677
000230 5f 88 53 3d 1b 54 8c be bd 0e 80 3c e8 32 7c bd
       0.051643725 -0.27407917 0.015632028 -0.061571985
000240 9c a9 25 3b d0 d9 0b be 66 ae 44 bd 70 bf 05 3e
       0.0025278097 -0.13657308 -0.04801788 0.13061309
000250 1f ed 09 3d 6f e4 15 be 06 be 8b bd 13 ea 81 bd
       0.033673402 -0.14637922 -0.068233535 -0.06343474
000260 71 84 8a be 58 d7 90 bb 24 14 99 bd fe 0b cd bd
       -0.2705417 -0.004420202 -0.07474545 -0.10012053
000270 9d f4 9e bc a1 f0 46 3e ae ef 1b be 57 8e ea bd
       -0.01940375 0.1942773 -0.1522815 -0.114529304
000280 92 78 ce bd 25 65 45 bc bf c6 21 be 15 6c 6e bd
       -0.10081591 -0.0120480405 -0.15798472 -0.058208544
000290 8e bf c8 bd 49 92 db bd 5d dd a7 3a 9c a3 94 bd
       -0.09802161 -0.10721261 0.001280706 -0.072577685
0002a0 ec a6 e9 bd 6a 55 5a bd a1 5c b9 3c 43 4e 86 3e
       -0.11408791 -0.053304113 0.022627177 0.26231584
0002b0 83 f9 c2 bd 16 ca c0 3b f9 c3 6e bc 5b b9 04 bd
       -0.09520247 0.0058834655 -0.014573091 -0.03240333
0002c0 59 09 34 be a2 c8 54 be 60 dc 32 3c 33 49 12 3d
       -0.17581691 -0.2077966 0.010916799 0.03571434
0002d0 ad c7 4e bd c4 c0 52 be 95 77 1c 3d f3 af c6 bd
       -0.050483394 -0.20581347 0.03819998 -0.097015284
0002e0 99 7a 97 3d 0b 6a 68 3c 13 ef 6f bd 20 79 8f 3d
       0.073964305 0.014185439 -0.05857761 0.07005525
0002f0 d2 c4 c4 bd 37 47 57 bd 5d ec 72 bb 40 7b b6 3d
       -0.09607853 -0.05255815 -0.0037067153 0.08910227
000300 7f 9c bf 3c 43 55 10 3d da a4 5e bc dc 43 81 bd
       0.023390053 0.035237562 -0.013589108 -0.06311771
000310 2a 99 cb bd fb 51 0c 3e 56 2c 3d bd d2 52 6c bd
       -0.09941323 0.13703148 -0.04618486 -0.05769617
000320 87 45 21 3e 11 30 eb 3d 58 88 d9 3b 94 b9 8f 3d
       0.15749179 0.11483777 0.006638568 0.07017818
000330 ba 18 49 bd 97 dc 90 3d f5 3a 2d 3d 3f fc a8 bc
       -0.049095847 0.07073324 0.042292554 -0.020628093
000340 6b 76 f1 3d aa 8b fc 3d 2d 2e a1 bc 3c b8 a5 3c
       0.117901646 0.12331326 -0.019675339 0.020229451
000350 a3 b7 12 3d d9 cc 94 bd 6f 28 16 be 66 03 53 bd
       0.03581966 -0.07265634 -0.14663862 -0.051516913
000360 9b c7 95 bd ec 26 00 3e 7e 67 bd 3c da dd 58 be
       -0.07313462 0.12514848 0.023120638 -0.2117838
000370 e5 d0 72 be 45 d2 3d 3e e8 58 21 be 5a 4c e4 bc
       -0.237125 0.18537243 -0.15756571 -0.027868439
000380 31 fe 16 3d 80 74 ff bd 73 3e 45 3d 7c cb 3d 3d
       0.03686351 -0.124733925 0.04815526 0.046336636
000390 05 0f d9 3d 1a 66 bf 3d df ab d1 bd 9f c5 41 3d
       0.10598568 0.09345646 -0.1023786 0.047307607
0003a0 c6 6d 73 bd 29 88 47 bd 68 73 80 bd 79 fc 25 38
       -0.05943086 -0.048713837 -0.06272012 3.95742e-05
0003b0 74 a2 09 3d a2 4a cb bd 9f 4d 04 3e c5 88 bc bd
       0.033602193 -0.099263445 0.12920235 -0.09205774
0003c0 84 83 9f 3d 55 e1 6a bc 73 2a e7 bd 65 18 f0 3b
       0.077887565 -0.01433595 -0.112873934 0.007327127
0003d0 07 df 98 bc 4b b2 9a bc c2 70 9e 3c b9 5a ce 3d
       -0.018661035 -0.018883845 0.019340876 0.10075898
0003e0 ac 65 15 bc 02 39 2c be 2a 6b a2 bd 80 32 03 3d
       -0.009118479 -0.16818622 -0.07930596 0.032030582
0003f0 8c 27 3f 3d d3 35 89 be ae c8 81 be 4e f0 db 3a
       0.046668574 -0.26798877 -0.2534842 0.001677999

lstm.bias_ih_l0 f4 [512]
000000 eb ac 16 be 73 fc 2d be d3 fd 39 be 7b 80 a7 3d
       -0.147144 -0.16990833 -0.18163233 0.081788026
000010 94 46 91 bc 91 33 26 be 7f 38 83 bd 76 3d 72 3d
       -0.01773385 -0.16230609 -0.0640726 0.059140645
000020 b9 ac 9c bd 83 e8 f8 bd a9 2d d9 bd a1 e0 52 3d
       -0.07650132 -0.12153723 -0.10604412 0.051483754
000030 f7 5e 60 be 4e 60 4f be 69 c0 47 bd 9b 4b d3 3c
       -0.21911226 -0.20251581 -0.04876748 0.025792887
000040 c2 4d 82 be 17 a1 87 be 89 7e 8c bd 71 40 3d bd
       -0.2544995 -0.2649009 -0.06860072 -0.046204034
000050 9d fb 7b bd 3a 73 c2 bd e8 3d ef bd fd 27 12 be
       -0.061519254 -0.09494634 -0.116817296 -0.14273067
000060 38 ad 6e be 25 58 b7 bd e8 12 0f be 5b a2 91 bc
       -0.23308265 -0.08952359 -0.13972056 -0.017777612
000070 0d 08 23 be 9c cf 98 bd 53 c4 d5 bd 02 34 06 be
       -0.1592104 -0.07461473 -0.104378365 -0.13105777
000080 f1 4f e6 bd 45 50 16 be be 32 bf bc 0f 64 64 bd
       -0.11245716 -0.14679058 -0.023339625 -0.055759486
000090 a8 08 0c be dd c3 3e be 36 cd 16 be ee db 6a bb
       -0.13675177 -0.18629403 -0.1472672 -0.0035836655
0000a0 64 2c 65 be 7e 56 38 be 2b 8d fc 3c 23 41 96 3d
       -0.22380215 -0.18001744 0.030829033 0.073366426
0000b0 85 2e 21 3b 66 10 42 be 56 7a 4d bd dc 23 dc bc
       0.0024594378 -0.18951568 -0.050165497 -0.026872568
0000c0 ad c8 e3 bc 4e 7f d9 bd c2 9b 87 be cc c8 8a bd
       -0.02780565 -0.106199846 -0.2648602 -0.0677658
0000d0 46 0b a0 bd e0 df 45 be 0a ad 2c bd 23 36 3b bd
       -0.0781465 -0.19323683 -0.04215721 -0.045705926
0000e0 00 9d 7b be ac a9 d1 bd df 94 52 3d 82 5a 2d be
       -0.2457161 -0.102374405 0.051411506 -0.16929057
0000f0 db b8 ef 3d 1c 73 17 3d f8 88 fe bd 62 be ab bd
       0.1170518 0.03697501 -0.124284685 -0.08385922
000100 03 d0 62 bd f0 b2 18 be af ef 57 3c 2f 41 14 be
       -0.055374157 -0.14912009 0.013179704 -0.1447799
000110 9f 13 12 be fe 40 ac bd 31 e9 1f be f4 e7 51 be
       -0.14265297 -0.08410834 -0.15616299 -0.2049864
000120 7d b1 f7 bd d1 04 6d bd 10 b8 3c bc 52 26 93 bd
       -0.120944 -0.05786592 -0.011518493 -0.071850434
000130 77 0e 56 be 9b 6c 08 bc 9b f9 d3 3c a3 bc 96 bc
       -0.20903955 -0.008326675 0.025875857 -0.018400496
000140 b5 a5 80 be c8 c1 37 bc 7c d8 db bd 17 fa 30 bd
       -0.25126424 -0.011215635 -0.107346505 -0.043207254
000150 50 8a 87 3b 71 2d 57 be d1 47 cc bd 3e 8b 1d bd
       0.004136361 -0.21013428 -0.099746354 -0.03846287
000160 80 fa ba bd 69 2c 42 be f0 ba 29 bd 64 b0 fd bc
       -0.0912981 -0.18962254 -0.041438043 -0.030967899
000170 ca 85 e7 bd 0f 4b be bd 66 2c c6 3d 2d 24 43 be
       -0.11304815 -0.0929166 0.09676437 -0.19056769
000180 5a f1 4c be 35 b7 1a be 32 8d 02 be 6c b6 90 bd
       -0.20013943 -0.1510895 -0.12749174 -0.07066044
000190 eb ad 83 3d 49 ff 90 bd dc 86 09 be 0d 2c 54 be
       0.064296566 -0.07079942 -0.13430351 -0.20719929
0001a0 f3 55 c1 bd 48 dd b4 bd bc b3 01 be 02 07 28 be
       -0.09440222 -0.088312685 -0.1266622 -0.16408923
0001b0 31 bf f6 bd 1e 9f 16 be f2 1d 09 be 01 6b ae 3d
       -0.120481856 -0.14709136 -0.1339033 0.08516503
0001c0 3f 7c 7f bd 80 f6 51 be d6 b8 2f 3d 96 86 1c be
       -0.06237435 -0.20504189 0.042900883 -0.15285715
0001d0 76 cd 40 be 3f 2e d2 bd 4d f4 45 be b2 a4 25 be
       -0.18828377 -0.10262727 -0.19331475 -0.16176108
0001e0 bf 38 da bb c8 01 30 bd 4c e7 ce bd 24 e4 b1 bd
       -0.0066595967 -0.04297045 -0.1010271 -0.086860925
0001f0 36 14 fa bd e7 b5 70 be aa 06 b9 bd 7d 61 ee bd
       -0.12210886 -0.2350689 -0.09034474 -0.11639688
000200 93 4d b9 be dd 54 e8 bd ac a1 1b be fe a0 c1 3d
       -0.36191997 -0.113443114 -0.15198392 0.09454535
000210 98 bc 17 bc d0 10 08 bc f5 4b 00 be 04 c1 4f 3d
       -0.009261273 -0.00830479 -0.12528975 0.050721183
000220 d6 70 1c bd ef d5 5b 3e 88 f0 eb bd d4 5b 11 3d
       -0.038193546 0.21468328 -0.11520487 0.035487965
000230 1c 2e 0d bd a4 fe e1 3e 67 18 08 be af a9 be 3d
       -0.0344678 0.44139588 -0.13290559 0.09309708
000240 b3 e6 aa 3d 0e 96 cf bd 79 1e cb bd 80 9d 0b bc
       0.08344784 -0.101360425 -0.099179216 -0.008521438
000250 10 88 8d bd 59 17 46 3e 79 aa 80 bd 4d 79 35 be
       -0.069107175 0.19344844 -0.06282515 -0.17722054
000260 cf f2 b3 3e 33 45 81 bc d7 9d d9 3c 6f 90 b6 bc
       0.35146186 -0.015780067 0.026564522 -0.022285668
000270 54 8b 0c 3d a4 a1 95 bd 99 30 6b 3a ae ff f6 bd
       0.03431256 -0.07306221 0.000897178 -0.12060486
000280 d3 fa 61 be e2 7d 6f bc cc 68 4b bd 6b c2 84 3d
       -0.22068338 -0.014617415 -0.04966049 0.06482395
000290 dc cf 30 bd 41 70 5b be a6 fe bd bd 16 e2 d3 3c
       -0.04316698 -0.2142954 -0.09277086 0.025864642
0002a0 ac 5d 96 bd 8d 99 9c bd c5 b3 0b be 7a bf 19 3e
       -0.07342085 -0.07646475 -0.13642795 0.15014449
0002b0 d4 10 19 3e 99 49 da bc 86 4f e1 3d 08 4c 0c 3c
       0.14947826 -0.026646422 0.11001496 0.008563049
0002c0 1e 0e e4 3d 09 12 1a be aa 4c c7 bd 36 eb c7 bd
       0.11135505 -0.15045942 -0.097314194 -0.0976166
0002d0 4f ba d1 3c 38 6e 5f 3e 82 9a b2 bb 08 92 7c 3c
       0.025601534 0.21819389 -0.0054505477 0.015415676
0002e0 80 50 6e be 32 c5 3e bd 1c 5d 60 3d f3 23 c8 bd
       -0.23272896 -0.04657478 0.054776296 -0.09772482
0002f0 4e 17 1d 3e d0 4b 39 3d eb 72 10 be d3 75 10 be
       0.15340921 0.045238316 -0.14106338 -0.14107446
000300 d4 87 1f 3e 8a d0 39 be 1f 17 14 3e 1c a2 5d 3d
       0.15579158 -0.18145958 0.14461945 0.054109678
000310 58 4c b1 bd 75 22 05 bd 60 cb ed bd f2 b7 11 3e
       -0.086571395 -0.032503564 -0.11611056 0.14230326
000320 e0 1c 00 3e b3 a8 25 bc 4b ea 08 3d 18 2c 1a be
       0.12511015 -0.010111022 0.033426564 -0.15055883
000330 9e 23 a6 bd df ec 01 3e ab 69 91 3e b7 1b 7f 3e
       -0.08112262 0.12688015 0.2840093 0.24912916
000340 d7 ce f9 bd 0e 83 2b bd 24 f4 58 be af f1 b8 bd
       -0.12197655 -0.04187303 -0.21186882 -0.090304725
000350 24 a1 d3 bd c7 21 83 bd af dd 24 3e e2 4f 18 be
       -0.103334695 -0.06402927 0.1610019 -0.14874223
000360 96 11 53 3c b6 bd 88 bd b1 aa 68 3e 2e c6 07 3e
       0.012882611 -0.066768095 0.22721364 0.13259193
000370 16 26 f5 bd 51 71 e4 bd db 5c 06 bd 73 da 35 be
       -0.11970155 -0.11154426 -0.032803398 -0.17759113
000380 2b 32 28 bd 71 fc 98 3e 9f b6 84 3e 40 12 bb bd
       -0.04106347 0.29880098 0.2592058 -0.0913434
000390 44 ec 9d 3d 83 ba bb bd 1c bb 08 be 17 65 84 be
       0.0771108 -0.09166434 -0.13352627 -0.25858375
0003a0 2d a4 0c 3e 4c 69 fa 3d bc 76 0a 3e f9 cb 23 be
       0.13734503 0.12227115 0.13521856 -0.15995778
0003b0 98 f0 01 3d a4 4c 68 3c 50 98 ca bd 7d 97 0d 3d
       0.03172359 0.014178429 -0.098923326 0.0345683
0003c0 98 60 4e bd 70 e7 ce 3d c4 7d 2d 3d e7 4a ea 3d
       -0.050385088 0.10102737 0.042356268 0.11440068
0003d0 00 80 83 bd 59 9c b3 bd bc 26 9b be 86 78 78 bc
       -0.064208984 -0.08770055 -0.3030299 -0.015165454
0003e0 bd d6 3d 3e a6 e7 bd bd d2 98 51 3d 38 1d c1 3d
       0.18538947 -0.09272699 0.05117113 0.09429401
0003f0 aa fc 5a bc 72 65 00 be 57 ef 83 bd 92 4b ba 3a
       -0.013365904 -0.12538698 -0.06442135 0.0014213196

lstm.bias_hh_l0 f4 [512]
000000 e5 2c 06 be 2d 9f 6d bd 4c 3d 34 be 97 5d 72 3d
       -0.13103063 -0.05801313 -0.17601508 0.059171285
000010 aa 9b 92 bd c2 22 32 be 69 b1 3b be cc 15 3a bd
       -0.07158597 -0.17396072 -0.18329395 -0.045430943
000020 49 90 21 3d f6 aa fb bd 1e 2d 8d bd 34 85 9e bd
       0.03944424 -0.122884676 -0.06893371 -0.0774025
000030 0c 0a 92 be 02 59 8d be 29 5a d8 bc 93 7f 39 bc
       -0.2852329 -0.2760697 -0.02641018 -0.01132192
000040 67 74 8c be e4 7d 7f be 5a 8b da bd 70 95 fd bd
       -0.27432558 -0.24950367 -0.106711105 -0.123820186
000050 f5 6e f9 bd 01 9f 87 bd 56 51 c8 bd 2d 17 3a be
       -0.121793665 -0.066221245 -0.097811386 -0.18172903
000060 8f cb 7f be e8 89 2f be 6b 61 fb bd 47 f6 b4 bd
       -0.24979995 -0.17142451 -0.122744404 -0.08836036
000070 88 5b fd bd 3b 7b 22 be 2e de ef bd 9b 6d 12 be
       -0.12370974 -0.15867321 -0.11712299 -0.14299624
000080 3c 23 3a be e8 35 3e be b6 e0 36 be 6d e5 c9 bd
       -0.18177503 -0.18575251 -0.17859158 -0.098582126
000090 42 ba d2 bd c5 ab b5 be a3 1e 09 be 33 17 42 bd
       -0.10289432 -0.35482612 -0.13390593 -0.047385406
0000a0 4c a9 8f be da dc 3b be e8 27 3c bc a6 51 c2 bd
       -0.2805885 -0.18345967 -0.011484124 -0.094882295
0000b0 74 10 43 bb 67 93 69 bd 30 57 48 3c 04 bb e5 bd
       -0.0029764445 -0.05702534 0.012227818 -0.11217311
0000c0 ec 12 34 be ca a4 8b be 4f c0 22 be 02 39 4a 3d
       -0.17585343 -0.27274162 -0.15893672 0.049370773
0000d0 4f a2 1e be f3 44 44 be 96 5a 14 be ae 3f 15 be
       -0.15491603 -0.19166927 -0.14487681 -0.14575073
0000e0 bc 90 59 be 09 10 9d bb fc be 47 3d 5a d7 4a be
       -0.21246618 -0.0047931713 0.04876612 -0.19808713
0000f0 13 d5 14 3e c1 5d 2e 3d ca 66 58 be 7b cc c2 bd
       0.14534406 0.04256988 -0.21132961 -0.09511658
000100 ab a8 85 bc 8a 77 15 bd 8d 96 9c 3d bf 65 98 bd
       -0.016315779 -0.036490954 0.07645903 -0.074412815
000110 58 7a 92 be 09 3d 4f bc ee fd 16 be 34 8d c4 bd
       -0.28608966 -0.012648829 -0.14745304 -0.09597245
000120 7d 9e 01 be 6a a6 fd bd dc 4c c9 bc e2 db 27 be
       -0.12658115 -0.123852566 -0.024572782 -0.16392472
000130 c0 fe bc bd 78 1c c1 bb 71 c0 eb bc d2 6d da bb
       -0.09228277 -0.0058932863 -0.028778287 -0.0066659236
000140 47 12 65 be 2e e8 42 bd 19 9a 0d be bb 20 2d be
       -0.22370254 -0.047584705 -0.13828315 -0.16907017
000150 37 62 eb bc e7 df 37 be 05 88 01 bd bc b4 e9 3c
       -0.028733356 -0.17956506 -0.03162386 0.028528564
000160 e1 3b 45 be e9 79 53 be 47 c5 0b bd 73 ae 1f be
       -0.19261123 -0.20651974 -0.034123685 -0.15593891
000170 d6 b4 11 be 3c f9 9d bd cd 41 1c 3e b7 a8 05 be
       -0.1422914 -0.07713553 0.15259476 -0.13052641
000180 6a a3 a9 bd 55 44 0c be fa 7e fc bd 36 9d ec bd
       -0.08283122 -0.13697942 -0.12328906 -0.11553423
000190 5b ea 8f 3d 37 b4 0f be f2 67 19 be 6f 2f 53 be
       0.07027122 -0.1403359 -0.14981058 -0.20623563
0001a0 bf aa b6 bc bd 58 aa bc 9e 75 d4 bd 1e fa f9 bd
       -0.022298215 -0.020794267 -0.10373996 -0.12205909
0001b0 99 49 f9 bd f3 2b aa bd c3 43 32 be e7 ca bd bc
       -0.12172241 -0.08309164 -0.17408662 -0.02316804
0001c0 4b 18 ef bd 89 59 87 be 72 0a d5 3d ad fd 0a be
       -0.116745554 -0.26435497 0.10402383 -0.13573332
0001d0 ad 52 9f bd 06 2c 4a bd fd 0b 66 be 61 c7 07 be
       -0.07779441 -0.04935839 -0.2246551 -0.13259651
0001e0 61 b7 80 3c 8e bd 32 be f2 2b f1 bd 7a b9 1e bd
       0.015712442 -0.17455122 -0.1177596 -0.038751103
0001f0 9b 08 b1 3c c0 df 0f be f8 20 41 be 71 b3 71 bd
       0.021610549 -0.14050198 -0.18860233 -0.05900902
000200 79 25 c1 be b3 48 2a bd 57 56 ba bd 31 61 f5 3d
       -0.37723902 -0.041573238 -0.09098499 0.119814284
000210 99 48 f3 3d 16 ae 27 be ac 6e 13 be 54 34 04 bd
       0.11879081 -0.16375002 -0.14397687 -0.032276466
000220 c3 6c 8b bd b2 35 2a 3e 2a 12 15 be ed 3c e1 3d
       -0.06807854 0.16622046 -0.1455771 0.10997949
000230 e0 65 0b 3d d9 5c e6 3e 8d 3a c9 bd b7 11 b8 bc
       0.034032702 0.44992712 -0.09825621 -0.022469385
000240 a8 c1 d3 3d 1d 7c 72 be f7 68 a1 bc 84 50 b6 bc
       0.103396714 -0.23680158 -0.019703371 -0.02225519
000250 3c c8 d4 bd 4e c2 00 3e 37 09 d0 ba 8c 1d 3e be
       -0.10389754 0.12574121 -0.0015871887 -0.18565959
000260 26 1b a4 3e fa ee a4 bd 5f 61 6a bd 6c 98 a1 bd
       0.32051963 -0.08053394 -0.057221767 -0.078904
000270 af 14 06 3d 8f 7b 51 bd a5 09 ec bc 3d bb cc bd
       0.03273457 -0.051143225 -0.028813193 -0.0999665
000280 97 d1 2d be 53 9e 2b 3d 37 e9 46 3d 28 7c e5 3c
       -0.16974483 0.041899037 0.048562255 0.028013304
000290 84 08 55 bd 0b c7 d0 bd 3a 1c 18 bd e5 d2 8a bd
       -0.052010074 -0.101942144 -0.037136294 -0.06778506
0002a0 6d 43 b8 bc 33 20 a1 bd a7 2d ff bd 75 47 1c 3e
       -0.022493089 -0.0786747 -0.12459879 0.15261634
0002b0 1e a2 18 3d 90 af 23 bd 50 0b 26 bc 46 83 c9 bc
       0.037263982 -0.03996235 -0.010134533 -0.024598729
0002c0 c1 54 93 3d f4 13 7f bc 1e e7 da bd 41 3d 38 be
       0.071939 -0.015568722 -0.10688613 -0.17992117
0002d0 88 b6 bb b9 b4 3b 16 3e 04 72 fb bd c3 02 ec bc
       -0.00035803416 0.14671212 -0.12277606 -0.02880991
0002e0 26 d6 65 be ea 8d 62 bd b5 f0 05 3e 09 e4 bd bd
       -0.22444972 -0.05531112 0.13080104 -0.0927201
0002f0 cd cb b7 3d 29 87 87 3d 8e a0 45 be 63 42 00 be
       0.08974419 0.06617577 -0.19299528 -0.12525325
000300 3c 95 02 3e bd 1e 15 be 3e 10 77 3e 7f 2b fa ba
       0.12752241 -0.14562507 0.2412729 -0.0019086449
000310 2e b1 c4 bd 59 8f 89 bd 80 7d 55 bd b5 89 10 3e
       -0.09604107 -0.067167945 -0.05212164 0.14115031
000320 de 65 4b 3d 8d 57 b0 bb f7 2d ed bd 34 59 bb bd
       0.049657695 -0.0053815306 -0.11581033 -0.091478735
000330 73 54 9a bd 8f aa 1a 3e 72 3e 8c 3e db ea 1b 3e
       -0.07535639 0.15104125 0.27391392 0.15226309
000340 df 55 6c be 68 68 f1 3d 10 a3 4c be fd 04 4c be
       -0.23079632 0.11787492 -0.19984078 -0.19923778
000350 a9 48 c4 ba 49 81 8e 3d 60 be 22 3e bf ab da bd
       -0.0014975268 0.06958253 0.15892935 -0.10677289
000360 3e 02 96 bd 83 7b 0b 3c ef 2b 30 3e 04 15 e0 3c
       -0.073246464 0.008513334 0.1720426 0.027353771
000370 52 ce 38 bd 62 3b c7 bd 5b a4 19 3d 59 71 c6 bd
       -0.045118637 -0.09728123 0.037510257 -0.09689588
000380 10 4f 92 bd 95 5e 71 3e 33 fa 10 3e b0 2d 42 3d
       -0.07143986 0.23571236 0.14157943 0.047406852
000390 5e a7 c3 3d 45 1b d9 bb 80 16 d0 bd 80 b1 52 be
       0.09553407 -0.0066255652 -0.101605415 -0.20575523
0003a0 8f 37 bb 3d 46 a2 df 3d c6 1b 83 3e ca 7a 2e be
       0.09141456 0.10919623 0.25607127 -0.17039028
0003b0 d6 04 b4 3b 0e 1d 2c bd bf a7 42 3d 28 cf 4a 3e
       0.0054937406 -0.042019896 0.047523256 0.19805586
0003c0 e1 b1 18 bd e0 be 4d 3b 80 7f 02 3b 9a ad d5 3d
       -0.037279014 0.0031394288 0.0019912422 0.104335025
0003d0 64 6f 0b be 27 53 00 bd d9 54 69 be be be 1f 3d
       -0.13616711 -0.0313293 -0.22786273 0.039000265
0003e0 21 a3 59 3e 1b ee 7f bd 46 cd df 3d bd ff 08 3c
       0.21253635 -0.062482934 0.10927825 0.008361754
0003f0 cb 2c 8e 3c d0 5a ab ba 8d e8 40 be 74 eb ac bd
       0.017355343 -0.0013073329 -0.18838711 -0.084433466

fc1.weight f4 [64, 128]
000000 63 f2 4f 3d f6 ea 18 be 15 e7 d5 3d ec c8 4f bd
       0.050768267 -0.1493338 0.10444466 -0.050728723
000010 9b 9a dc 3d cd 31 39 3c 57 55 eb 3d 6a 66 80 3d
       0.10771676 0.011303377 0.11490887 0.06269534
000020 19 8c ea 3c f4 cc 75 be 29 10 0b 3d 74 38 7b bc
       0.028631257 -0.24003965 0.03395096 -0.015333284
000030 46 74 57 be dc 10 50 be 81 e5 a2 bc 65 18 46 bd
       -0.21040449 -0.20318931 -0.019884827 -0.04836311
000040 fe c6 8d 3d 62 77 fb 3b 44 7c 15 3d 48 38 b1 bd
       0.069227204 0.0076741436 0.036495462 -0.08653313
000050 66 b7 cc 3d a3 fc 27 be 3d 38 d6 bd e8 de 91 3c
       0.09995918 -0.16404967 -0.10459945 0.017806485
000060 70 af 67 bd d4 1c 52 bd 5d 06 a8 3d e4 9d b6 3c
       -0.056563795 -0.051297024 0.08204339 0.022292085
000070 96 eb 6e bc 43 c0 04 3e 11 c1 03 be d5 11 03 be
       -0.014582535 0.12963967 -0.12866618 -0.12799771
000080 f7 8d 3a 3d 2f c4 38 bc 9a 65 10 bd 84 02 c0 bd
       0.045545544 -0.011277243 -0.035253145 -0.0937548
000090 82 8c 13 3e 85 26 e6 3b 3d f9 1a be fa 5d 89 3d
       0.14409068 0.007023635 -0.1513414 0.06707378
0000a0 11 73 d8 3c 06 45 a8 3b 69 9c a5 bd 55 24 58 be
       0.026422055 0.0051351814 -0.080864735 -0.2110761
0000b0 d4 b3 c5 3d 31 34 9d bb cf b0 75 bd 2b e6 1e 3c
       0.0965344 -0.0047974815 -0.05998307 0.009698431
0000c0 74 30 35 3e 00 b3 5c bd 1a 21 09 be 40 25 aa 3d
       0.17694265 -0.053881645 -0.13391533 0.08307886
0000d0 4a 33 9e 3d df b6 11 bd 00 e4 b0 3d 3f 04 da 3d
       0.07724626 -0.03557479 0.086372375 0.10645341
0000e0 db 28 56 bd 41 4d f3 bd 19 5a 91 bc b9 0b 51 3d
       -0.052285057 -0.118799694 -0.017743157 0.05103657
0000f0 f1 3a 3a 3d e3 5a d3 bd 83 84 f7 ba 98 4c 31 bd
       0.045466367 -0.1032007 -0.0018884096 -0.043285936
000100 b8 30 9a bd 34 b7 fc bc f0 e1 4b 3d 21 a7 9a 3d
       -0.075288236 -0.030849077 0.049776018 0.075514086
000110 5c 0c 8c 3d c9 71 72 bd bf f2 53 bb 04 e6 9b bd
       0.06838295 -0.059190545 -0.0032340733 -0.076122314
000120 a7 8b f5 3d 94 a2 45 bd 14 95 e4 bd ac df 56 3d
       0.11989527 -0.04825075 -0.11161247 0.052459404
000130 9a e5 81 3c e1 eb 49 3e 52 87 67 3d 48 a3 c9 bc
       0.015856553 0.19718887 0.056525536 -0.024613991
000140 ca 01 52 3c 2a ad 30 3d d8 ab f5 3d 29 a2 de bc
       0.012817809 0.043133892 0.11995667 -0.027176933
000150 ff c9 f7 3c 95 91 d8 3d 17 df 82 bc b5 d2 1f bd
       0.030247686 0.105746426 -0.015975518 -0.039019305
000160 25 63 75 bd de 5f b1 3d 56 96 36 3d b3 b0 b2 3d
       -0.059909005 0.08660863 0.044576965 0.08725109
000170 97 0a cd 3c 8c 65 a4 bd fd 5f 4b 3e 1a fd 2b bd
       0.025029464 -0.08027181 0.19860835 -0.041989423
000180 08 88 49 bc f5 d0 d3 3c d8 f9 44 bd a9 cb 42 3c
       -0.012300499 0.025856474 -0.048089832 0.011889377
000190 1c bc a7 3d ec 79 0d 3e 0f ca 18 bd 26 13 d3 bd
       0.08190176 0.13816041 -0.037302073 -0.10306387
0001a0 4a 63 eb bd d2 ae c6 3d 2c d2 f5 3d bc 68 98 3c
       -0.11493547 0.09701313 0.12002978 0.018604629
0001b0 c4 64 5b 3d c3 24 96 bd ec 0b b8 3d bc 41 67 3d
       0.053562894 -0.073312305 0.08986649 0.056459174
0001c0 a3 c9 eb bc 8c 37 28 3e 31 ef 52 3d 0c 3b 02 3b
       -0.028782671 0.1642744 0.051497642 0.001987162
0001d0 09 99 ba 3c a5 46 98 bd 9f c6 a5 3d 54 b8 95 3c
       0.022778051 -0.074353494 0.080945246 0.018276371
0001e0 10 e2 97 3d df ee 96 3d e0 48 5d bd e9 0f 01 be
       0.07416165 0.0736978 -0.054024577 -0.12603725
0001f0 63 23 a9 bd ce c1 9b bd 99 fe 9a bd bc 8a cb 3d
       -0.082587026 -0.07605325 -0.07568092 0.09938571
000200 88 40 23 3c 4d 31 81 bc 95 47 79 bd ea 92 f6 bd
       0.009964116 -0.015770579 -0.06085928 -0.120397404
000210 6c ea 88 bc 8f 6c 43 3d bd 79 94 bc e3 3c 4b 3d
       -0.016713344 0.04771095 -0.018124456 0.049618613
000220 d0 05 a7 bc ea c3 6f ba a1 11 db bd e5 b6 e3 3d
       -0.020388514 -0.000914632 -0.10696722 0.11118869
000230 e8 be 7e bc b9 fa ad 3e e2 3d ea bd f0 3d da 3d
       -0.015548445 0.3398035 -0.114375845 0.10656345
000240 9e 78 3a bd 98 84 19 bd f6 82 8d 3b 2a 61 0b 3d
       -0.045525186 -0.037479967 0.0043185903 0.03402821
000250 0d 63 18 3e d6 69 08 be ea bd 9a bd 78 7a 3a 3d
       0.14881535 -0.13321623 -0.075557545 0.04552695
000260 5a 95 32 3e e4 88 49 be 36 4c df bd 13 93 18 3e
       0.17439786 -0.19681126 -0.10903208 0.14899854
000270 5e f0 93 bd 43 db 0a bb 19 21 f5 bd 66 62 b7 bd
       -0.07223581 -0.002118782 -0.119692035 -0.08954315
000280 8d 02 66 3d 76 0f c7 3c e2 c4 99 bd 07 68 1f bb
       0.056154776 0.024299365 -0.075082555 -0.002432348
000290 4a b1 22 bb da 16 bb 3d d7 0b c6 3d 70 c8 19 3c
       -0.002482491 0.09135218 0.09670227 0.009386167
0002a0 05 10 4b 3d 17 82 96 bd 18 01 a9 3c b4 2a d6 bd
       0.049575824 -0.073490314 0.020630404 -0.10457364
0002b0 05 a5 23 bd 11 ec 83 bd 0e 91 f0 bd f0 0c bc 3c
       -0.039952297 -0.064415105 -0.11746417 0.022955388
0002c0 d6 f2 be bd bf 7f 87 3c 46 eb 0b bd 17 ed 45 be
       -0.09323661 0.016540406 -0.03415992 -0.19328724
0002d0 cf 11 a9 bd d2 4b c6 bc f1 0f 8b bd fa a2 22 be
       -0.0825535 -0.024206076 -0.0679015 -0.15882483
0002e0 f7 3d c5 bc 31 b0 e9 3d db a7 99 bc 55 33 74 bd
       -0.024077399 0.11410559 -0.018756798 -0.059619267
0002f0 f3 71 46 bd d1 cc 20 bb 29 42 2d bd ee f4 e7 3d
       -0.048448514 -0.0024536143 -0.042299423 0.113260135
000300 09 b5 99 3d a2 2a 08 3d 02 ad 8b bd 74 6a 80 3d
       0.07505233 0.033243783 -0.06820108 0.06270304
000310 ea ca 47 3d 6e c4 5e bd 95 42 a9 bd f1 44 cc 3c
       0.0487775 -0.05438655 -0.08264653 0.024935218
000320 f7 4d c0 bd a8 b2 f5 bd 9e e7 65 3c dd 81 73 3d
       -0.093898706 -0.119969666 0.014032273 0.05945002
000330 ce 47 37 bd 5e ef f3 be 96 ae 4d 3d 02 7e 57 be
       -0.044746213 -0.4764356 0.050215326 -0.21044162
000340 80 f3 03 3e b0 21 00 3d e6 1b 69 bc b3 6a 53 3e
       0.12885857 0.031282127 -0.014227843 0.20646171
000350 26 f8 53 3c 4f 70 7b 3c 11 01 9d 3b f9 bd cf 3c
       0.012937581 0.015346601 0.004791387 0.02535914
000360 7e 35 ab 3c b0 19 bf bc 9c 1a ae bd e3 1f cc bc
       0.02089953 -0.023327678 -0.08501169 -0.024917549
000370 cc ad 20 3d 6a 08 cb 3c 1a b3 cb bd a9 db 17 3e
       0.039228246 0.024784286 -0.0994627 0.14829887
000380 0e 8d 96 3c c0 3a eb 39 91 5a bd 3c b3 f3 fd 3d
       0.018377807 0.00044866465 0.023114474 0.123999976
000390 14 15 6f bd 5a 81 f9 3c 02 ff 34 3d 79 25 1a 3d
       -0.05836971 0.030457187 0.044188507 0.037633393
0003a0 fe 62 1a bd 55 ab b2 bc 31 04 a1 bd c8 70 85 3b
       -0.037692063 -0.021810213 -0.078621276 0.0040722825
0003b0 38 24 f0 3a 2a cb 19 bd 27 bd ee 3c 5e 56 8c bd
       0.0018321341 -0.037547268 0.02914293 -0.06852411
0003c0 3c 40 16 3e 84 95 cf bd bc 44 92 3c 7a 2e c1 bb
       0.14672941 -0.1013594 0.01785504 -0.005895433
0003d0 63 0d 4f 3c 05 d5 bd bc 63 01 5b bd 4f 12 30 be
       0.012637469 -0.023172865 -0.05346812 -0.17194484
0003e0 11 85 e5 3c 2e 33 11 bd 03 5a 8c bd 4a 3a 1d 3e
       0.028017553 -0.0354492 -0.06853106 0.15354267
0003f0 6a ab d8 bd 3e 52 51 3c 5f 02 17 3d eb 3a dc 3c
       -0.1057957 0.012775956 0.036867496 0.026883563

fc1.bias f4 [64]
000000 59 94 33 bd be 78 a2 3d 59 fc 00 bd 78 a9 0b 3e
       -0.043842647 0.07933186 -0.031490657 0.13638866
000010 7c 37 29 3d 3e 9a 69 bd 27 cf 18 bc f1 dd 1f 3d
       0.04131268 -0.057031862 -0.009326733 0.03903002
000020 91 52 33 3d 42 26 36 bd b1 1f 47 3e e7 b8 3f bd
       0.043779913 -0.04447008 0.19445683 -0.046807196
000030 49 00 c5 bd a9 ca 1c 3c c1 92 72 3c 07 f0 cd 3d
       -0.09619195 0.009569802 0.014805497 0.10055547
000040 60 51 f7 bd a2 0d 68 3d 13 b5 da bc 38 90 b1 3d
       -0.12076068 0.056653626 -0.026697671 0.08670086
000050 9d 3a cb bc 9a ca 14 bd d7 d8 f6 3d 84 e9 5d bd
       -0.024808222 -0.03632603 0.12053078 -0.054177776
000060 5c 3b b1 3d e7 3f ca 3c 04 ff ed 3d 76 e9 aa bd
       0.086539 0.024688674 0.11620906 -0.083453104
000070 aa a9 e5 3c e9 54 11 bb 3c 89 c6 bd 76 d8 d1 3c
       0.028035004 -0.0022175855 -0.09694144 0.025615912
000080 52 b5 70 3d cb 08 09 3d 48 13 de bd 10 de 9b bd
       0.05876667 0.03345565 -0.10843521 -0.076107144
000090 30 1d 3b bd e5 72 36 3d 37 cf a3 bd 4a d5 a5 bb
       -0.045682132 0.044543166 -0.079985075 -0.0050608264
0000a0 36 84 69 bd df 94 08 bc e9 07 b5 3c 58 dc 93 3d
       -0.05701085 -0.008336275 0.022098498 0.072197616
0000b0 c4 ae c8 bd 65 ca e0 bd 0f f0 4b bc 4d 79 0d bd
       -0.09798959 -0.10976104 -0.012447371 -0.03453951
0000c0 6f 12 10 3e 0d ba a6 bd 20 c7 62 bc 75 f4 9e 3c
       0.14069532 -0.08140955 -0.01384142 0.019403676
0000d0 f5 87 96 3b 1e d2 a7 bd 29 29 2d 3d f1 0c 81 bd
       0.004593844 -0.081943735 0.04227558 -0.063012965
0000e0 14 45 16 bd 8e f8 97 3d 28 48 a9 bd 0c 00 04 3d
       -0.03668697 0.07420455 -0.08265716 0.032226607
0000f0 f6 a1 47 3c b2 b2 8b bc f6 d6 ff ba 83 f6 ad bd
       0.012184611 -0.017052982 -0.0019519019 -0.08494284

bn1.weight f4 [64]
000000 78 ec 8d 3f 32 f9 86 3f d4 47 96 3f 70 20 9d 3f
       1.108779 1.0544798 1.174067 1.2275524
000010 29 2c 90 3f 75 bd 9d 3f cd 74 86 3f 4f 50 8d 3f
       1.1263477 1.2323443 1.0504395 1.1040133
000020 4a b5 8c 3f 3a a5 a2 3f 54 84 a3 3f 08 10 92 3f
       1.0992825 1.2706673 1.2774758 1.1411142
000030 60 0f 85 3f 39 9c 92 3f 43 72 82 3f 88 4b 88 3f
       1.0395317 1.1453925 1.019112 1.064805
000040 87 34 80 3f 88 47 8e 3f f2 bd 97 3f b8 d2 a3 3f
       1.001603 1.111558 1.1854842 1.2798681
000050 59 62 89 3f 3d 46 7a 3f ef f4 82 3f 05 e1 89 3f
       1.0733138 0.97763425 1.0230998 1.0771796
000060 c9 9c 91 3f 8b 25 89 3f 41 08 99 3f d2 34 89 3f
       1.1375972 1.0714582 1.1955644 1.0719244
000070 70 8a 8a 3f 5f 3f 83 3f c7 7e 88 3f 82 19 8e 3f
       1.0823498 1.0253714 1.0663689 1.1101534
000080 5d b9 8b 3f 66 5b 80 3f 0e 39 82 3f 23 2a 9d 3f
       1.0915943 1.0027893 1.0173662 1.2278484
000090 6b ff 92 3f 2d 4d 90 3f e2 80 86 3f 83 d8 94 3f
       1.1484197 1.1273552 1.0508082 1.1628574
0000a0 54 cb 99 3f f5 6a 9c 3f 3b 74 8a 3f 08 b3 94 3f
       1.2015176 1.2220141 1.0816721 1.1617136
0000b0 79 0a 87 3f 59 fe 94 3f 2a 42 92 3f a6 7f 92 3f
       1.0550071 1.1640121 1.1426442 1.1445205
0000c0 7a fa 8d 3f a0 a9 91 3f cb 7f 88 3f e0 26 8f 3f
       1.1092064 1.137989 1.0663999 1.1183739
0000d0 e6 54 9e 3f 04 f3 87 3f 40 45 8e 3f 99 75 a1 3f
       1.2369659 1.0621037 1.1114883 1.2614013
0000e0 35 0b a1 3f 0d 9c 93 3f f8 8b 8d 3f e7 59 8e 3f
       1.2581545 1.1531998 1.105834 1.1121186
0000f0 b1 61 a0 3f c5 36 92 3f 3a ab 70 3f fb 03 8c 3f
       1.2529813 1.1422964 0.9401127 1.0938715

bn1.bias f4 [64]
000000 3b 7c e6 3d b8 69 c0 3d 8f f5 9d 3e 97 cf c6 3e
       0.11254164 0.09395164 0.3085141 0.38830253
000010 9e ce 61 3d 03 b9 27 3e fa 76 ef 3d 07 01 5f 3e
       0.055128686 0.1637917 0.11692615 0.21777736
000020 5e de 07 3e 22 8f 70 3e 18 41 7d 3e 95 f3 15 3d
       0.1326842 0.23492101 0.24731863 0.03660925
000030 f0 d2 07 be 7c 2f 99 3e 83 2f d7 3d 82 81 cc 3c
       -0.1326406 0.2991904 0.10507109 0.024964098
000040 60 57 b4 bd 8d 94 f0 3d c9 0b 77 3e 5a 02 6c 3e
       -0.08805728 0.11747084 0.2412559 0.23047772
000050 e3 38 84 3d a7 ca 1b 3e a1 c6 c9 3d ee 86 03 3e
       0.06456163 0.15214024 0.098523386 0.1284444
000060 7a 1d 17 3e 01 4b 39 3d 34 43 0e 3e 05 ca 39 3e
       0.14757338 0.045237545 0.13892823 0.1814347
000070 55 01 2f 3e 93 66 bd 3d d4 87 83 3e 48 a7 53 3d
       0.17090352 0.0924808 0.25689566 0.051673204
000080 07 b0 0b bd 6a c2 8e ba 92 4a 24 bd d7 60 83 3e
       -0.03410342 -0.001089168 -0.04011018 0.2565982
000090 30 27 dd bd 89 08 d9 bd 17 e8 8c 3b 94 cd 3f 3e
       -0.1079849 -0.10597331 0.004300128 0.18730766
0000a0 12 ae 9e 3d 5b 91 85 3d bd f9 76 3e 00 7b a0 3e
       0.07748045 0.06521865 0.24118705 0.31343842
0000b0 c7 e4 fd bd 96 ad 15 3e 81 28 00 3e 66 b8 75 3e
       -0.123971514 0.14616999 0.12515451 0.23996124
0000c0 ab 67 2b 3e 64 e8 4d 3c e9 bd a0 3e 5a be ef 3d
       0.16738765 0.012567613 0.3139489 0.117062286
0000d0 db 28 91 3e 8d e4 1d 3d 10 42 aa 3d ec d5 98 3e
       0.28351483 0.03854804 0.08313382 0.2985071
0000e0 35 19 50 3e 96 29 5d 3e 33 84 72 3d c0 2e 3e bd
       0.20322116 0.21597895 0.059208106 -0.046431303
0000f0 a4 26 05 3e 91 1d 80 3e ec 18 82 3d ed 9d 8d 3c
       0.13003021 0.25022557 0.0635241 0.017287219

bn1.running_mean f4 [64]
000000 1c a9 cf be 1c 9c 03 3f 1e 0d ba be 44 d5 5d 3f
       -0.40558708 0.5141008 -0.36338133 0.8665354
000010 b6 c5 ca 3e 01 a0 e0 3e 2a 5c d6 3d 57 68 80 be
       0.39603966 0.43872073 0.10466798 -0.25079605
000020 ab 3f e7 bd 56 3a 8d be 43 40 3a 3f 2c 81 d6 3e
       -0.112914406 -0.2758357 0.72754306 0.41895425
000030 6e 1b 63 bd 0f db c5 3e 9c 09 0c be 14 14 98 3e
       -0.05544608 0.3864369 -0.1367554 0.29702818
000040 72 8e 06 bf e3 25 1f 3f 53 a1 0e 3f bf 97 da 3e
       -0.52561104 0.62167186 0.5571491 0.42693898
000050 ca ee d5 3e 63 bc df 3d be 08 ed 3e f4 29 e7 3b
       0.41783744 0.10924604 0.46295732 0.0070545617
000060 f4 fb fd 3e aa bc 66 be d0 92 e4 3e a9 9e ae 3e
       0.49606287 -0.22532907 0.4464326 0.34105423
000070 c9 b8 ce 3e c6 85 1b 3f e2 7a e9 be 98 f1 fd 3e
       0.40375355 0.60751 -0.45601565 0.49598384
000080 3a 5e bf 3e 31 45 ed 3e 13 ba f7 be 22 4d 50 3f
       0.37376577 0.4634185 -0.4838415 0.81367695
000090 af f1 0a 3e 7c da a4 3d 57 63 ff be b8 e8 7f 3e
       0.13568757 0.08049485 -0.49880478 0.24991119
0000a0 77 d5 0a 3f e0 63 3b bc ba f9 13 3f f1 2a 95 bd
       0.5423197 -0.011437386 0.5780293 -0.07283581
0000b0 64 32 81 bd de 6d ff bd 73 15 1c 3f 26 6a 01 3f
       -0.063084394 -0.124721274 0.6097023 0.50552595
0000c0 59 4e 44 3f 0e 50 ce be e4 95 87 3e a0 cb c3 3e
       0.7668205 -0.40295452 0.26481545 0.3824129
0000d0 ae da e8 bd 42 63 7a 3e 93 88 9d 3e 84 f0 ab 3e
       -0.11369835 0.24451926 0.3076826 0.33581936
0000e0 45 cf a5 3d b7 0f 54 3f 49 50 00 bf 42 2e 3f bf
       0.08096174 0.8283648 -0.50122505 -0.7467996
0000f0 7d 82 cd 3e a1 c3 08 3f 25 ae 63 bf f2 09 9c bd
       0.40138617 0.53423506 -0.889376 -0.076190844

bn1.running_var f4 [64]
000000 c2 f2 c3 3e 40 ec f1 3e 5d 4a 51 3f c2 0b dd 3e
       0.38271147 0.47250557 0.81754094 0.43173033
000010 e9 dc d2 3e 98 89 85 3e b9 0c b6 3e 74 4e b3 3e
       0.41184166 0.26081538 0.35556582 0.35020792
000020 dc d4 0d 3f 32 28 f9 3e 8f 32 be 3e db 1f 6f 3e
       0.5540292 0.4866348 0.37147948 0.23351996
000030 1b 49 39 3f e8 61 21 3f 92 da ae 3e 17 2a 19 3f
       0.72377175 0.6304002 0.3415113 0.5982985
000040 6c 92 b4 3e d2 2d fe 3e 7d 35 f8 3e 56 67 ac 3e
       0.3526796 0.49644333 0.48478308 0.3367259
000050 e0 ea 58 3f 4d 51 a0 3e 83 1b 83 3e 2a 30 19 3f
       0.8473339 0.31312028 0.25606927 0.5983912
000060 88 1a 57 3f 0f fe 97 3e ee 3b 0f 3f 4c e0 d0 3e
       0.8402486 0.2968602 0.5595082 0.40796125
000070 db 2c 6e 3e 92 49 24 3f 21 85 ce 3e fa 84 b9 3e
       0.23259299 0.6417476 0.40335944 0.36234266
000080 f2 89 30 3f c2 46 0d 3f ee 1b d5 3e 91 2f 8d 3f
       0.6896049 0.5518609 0.4162287 1.1030141
000090 ef cd ec 3e db e2 e6 3e 59 8e c5 3e 47 08 af 3e
       0.46250865 0.45094952 0.38585165 0.34186003
0000a0 be 1e 1e 3f 35 02 b3 3e e7 08 f7 3e f3 60 00 3f
       0.6176566 0.3496262 0.4824898 0.5014793
0000b0 00 83 35 3f 73 9e 6e 3e cf 5f ac 3e 8b d6 87 3e
       0.70903015 0.23302631 0.33666846 0.2653087
0000c0 35 04 e3 3e 7c 11 19 3f 4e 39 98 3e 34 2a bc 3e
       0.44339147 0.59792304 0.2973122 0.36750948
0000d0 8f 7c 90 3e de 1b bb 3e b5 37 03 3f c2 4a 54 3f
       0.2822003 0.36544698 0.5125688 0.8292657
0000e0 23 d2 e6 3e 28 64 e8 3e 4c 5b 9d 3e 70 21 50 3f
       0.45082197 0.45388913 0.30733716 0.8130102
0000f0 e9 cb e9 3e 76 d9 9f 3e 4b 5d 4f 3f 08 da df 3e
       0.45663384 0.31220597 0.8100173 0.43721032
