Models/model_19rec_0001.pt (torch, 952039 bytes, 32 tensors)

lstm.weight_ih_l0 f4 [512, 6]
00000000: a926 c7bd b007 0f3e 046a 5cbd c107 cf3d
00000010: 0148 8bbd ec4c dcbb be80 7a3c dac4 bc3d
00000020: 3033 6cbd 7e3d fd3d c59c 6a3c 5a99 953c
00000030: b1e3 4e3c bbbe 44bd 2260 efbc a5e2 423d
00000040: 3153 ee3c 2955 943c e9fe d03c 9b7b bc3c
00000050: d69f 54bd 84f3 093d 782f df3c 0068 693d
00000060: 87b4 bbbc dc36 a83d f282 f4bd 6c6c 41bd
00000070: 2631 28bd b2ed 1e3d 5044 d83c ece6 7a3d
00000080: ee1c 9a3d 6f3f 3739 a612 ab3c 5a49 1b3d
00000090: b86f a23d f576 9bbb 6cbf 033d 0c64 4ebd
000000a0: 8765 863d fa87 bebc 758e 823d fbef 4e3d
000000b0: e2d1 4abd 4edd 9d3d 29a9 483d 8701 4d3d
000000c0: 8508 3b3d 5535 72bd 855d 2e3d 7496 7abd
000000d0: 3a60 6cbd 3da5 4cbd 5ced 543d b302 07bd
000000e0: d657 b63d 2c8d 9e3b d9e3 30bc 68ab b13d
000000f0: c227 833d 85dd e2bd f070 ab3c 3c27 a43c
00000100: 7f24 eebd 3a5c 7d3c 9d82 c3bc 1789 c4bc
00000110: 298b 4fbd fcc2 2a3d 41a7 0abd eacd 9ebc
00000120: 9e06 b3bd b576 8abd 60b9 c33d a43b a53b
00000130: 84b8 cbbd 67e8 9f3d 1b92 c4bd b5dd 03bd
00000140: 7d70 debd 4cca d63d d350 313c 87fa 68bd
00000150: 833c 9b3d a9b7 8abd d4f0 a0bc bfd7 633d
00000160: 2d99 85bd e94d cabc c9cd e73c 1535 71bd
00000170: e522 8e3d 6cfe 583c 6a33 993d 1702 9fba
00000180: 49f9 4abd 9c36 0c3c fcae 763d 613a cd3b
00000190: a710 933d 6bce b5bb 06a5 79bd 0928 193d
000001a0: c023 f6bc f715 103d 76f4 37bc 441c 013e
000001b0: 44a4 b8bd 8c62 36bc dd5d 3f3d eefd 37bd
000001c0: 0de0 95bd ae01 063e b9c1 f2bb ab88 c8bc
000001d0: 372b 15bd 778e 17bc ec16 d1bd 2a85 babd
000001e0: f54f 8c3d f6ab acbc 5abd 843b ab91 063d
000001f0: e96b 4ebc 6f7d 8c3d e3bb 4fbd 7f8a 51bc
00000200: 41c7 553d b6c4 7bbb 4275 3bbd 0c5c 58bd
00000210: 508c 02bd da06 f9bd 4a1a 9e3d c8bd 57bd
00000220: 0851 ea3d f677 f4bc ac28 88bd e138 733c
00000230: 8667 ae3c 596f debb c87b 483d 13cd 8c3d
00000240: d5b9 15bd 6ca3 50bd b53d c6bd 45e4 f0bb
00000250: e406 093d e070 f1bc 8433 6fbd c275 89bd
00000260: c824 a5bd cb11 27bd 2fa5 db3d cf02 e5bc
00000270: c5b9 acbc 9dd0 7bbd 94b3 163d 476e 63bd
00000280: 78ef e23c 92a9 11be 827e 64bc 5454 4cbc
00000290: 1f74 bdbd 84db 483d 477b 74bd f41f 343d
000002a0: 7364 aa3c 4532 913d b99b 1bbd 5bc1 8e3d
000002b0: 7054 b43d 4054 adbc c15f 2d3d 5cff 41bd
000002c0: 5f04 02be e5cd 0cbc c10e 05bd 5775 b73c
000002d0: 0fc6 2b3b 44cc 48bd 0599 cfbd 60df 133d
000002e0: fab4 76bd f9f4 e0bd 1a38 2dbd 6b43 2a3d
000002f0: cd44 a0bd 60e1 53bd 6dd3 063d ca85 5a3d
00000300: 8a97 273c fbe8 aabd 7e03 223d fae2 e83c
00000310: eb11 b83c 3471 a6bc 809d d53d 1d99 43bd
00000320: b57a 733c 372e f3bc 1007 37bc 7882 6a3d
00000330: e41e 0abd 6075 c33d 1fee 163d f5a6 0dbd
00000340: 47d0 243d c2c9 003b 9ddd 80bc c1d4 e53c
00000350: 4b66 283c 9779 a2bd 91b3 883d a060 7dbd
00000360: b5c5 e53c 6af9 4e3d 9b85 fe3c 4d35 bcbc
00000370: d60e 47bd 8a41 a83d 7a2b a5bb f214 e03d
00000380: 0099 abbd da65 87bd f23a b63d e114 3dbd
00000390: 0dec 013d 73df ff3d 1f2e 37bd e339 913d
000003a0: 9f26 5f3d c35a 2dbc ff82 1f3d 4410 b33c
000003b0: 7b70 9e3d 0c6e b0bd 8564 b93c 5562 2ebc
000003c0: bb6d a03c 78a6 d03d c146 2d3c f083 dfbc
000003d0: 1c20 973c f6da ae3d 398b 873b cded bdbc
000003e0: 838b 963d b8e5 813d 56e9 403c 0da3 fb3c
000003f0: bffd 99bc e38a 89bd 2d87 2b3d c3a2 61bd
-0.09724171 0.13967776 -0.053812042 0.10108901 -0.06800843 -0.006723037 0.015289484 0.09217234
-0.057666004 0.12365244 0.014319603 0.0182616 0.012627528 -0.048033457 -0.029220644 0.047579426
0.029092403 0.018107014 0.025512176 0.023008158 -0.051910244 0.0336795 0.027244315 0.056983948
-0.02291323 0.082135886 -0.11939038 -0.04722254 -0.041062497 0.038800903 0.026399761 0.06125538
0.07525049 0.00017475871 0.020882916 0.03791175 0.07931465 -0.0047444054 0.032164976 -0.05038838
0.065623336 -0.023258198 0.06374828 0.050521832 -0.049516566 0.07708226 0.04898945 0.050050285
0.04566242 -0.059132893 0.042569656 -0.06117864 -0.057708956 -0.04996227 0.051984176 -0.03296156
0.08903472 0.0048386063 -0.010796511 0.08675271 0.064040676 -0.11077408 0.020927876 0.02003824
-0.11628055 0.015463883 -0.023865992 -0.02399115 -0.050669823 0.041689858 -0.033850912 -0.019385297
-0.087414965 -0.06760923 0.09556842 0.00504251 -0.09947303 0.07807999 -0.0959818 -0.03219386
-0.10861299 0.10487804 0.010822493 -0.056879546 0.07579901 -0.06773312 -0.019646086 0.055625673
-0.065233566 -0.024695354 0.028296368 -0.058888514 0.06940249 0.013244253 0.074805096 -0.001213136
-0.049554143 0.008557942 0.06022547 0.006263063 0.071809106 -0.0055482886 -0.060948394 0.037391696
-0.030046344 0.035177197 -0.011227718 0.12608439 -0.09015706 -0.011131894 0.046720374 -0.0449199
-0.07318125 0.13086578 -0.0074083474 -0.02447923 -0.036418166 -0.009250275 -0.1020945 -0.0910743
0.06851188 -0.021078091 0.004050893 0.032853764 -0.01259897 0.06859862 -0.050716292 -0.012789368
0.052191976 -0.003841681 -0.045766123 -0.052822158 -0.031872094 -0.1215951 0.07719858 -0.052671224
0.11441237 -0.029842358 -0.066483825 0.014845104 0.021289598 -0.006788176 0.048946172 0.06875052
-0.036554176 -0.0509371 -0.096797384 -0.0073514306 0.033453837 -0.029472768 -0.05839874 -0.06711914
-0.08063656 -0.040788453 0.10724866 -0.02795544 -0.021084676 -0.061478246 0.036792353 -0.05552509
0.027702078 -0.14224842 -0.013946177 -0.012471277 -0.09250664 0.04903747 -0.05968788 0.043975785
0.020799851 0.07089666 -0.037990306 0.069704734 0.08805168 -0.021158338 0.042327646 -0.04736267
-0.1269698 -0.008594011 -0.032484774 0.02239482 0.0026210581 -0.049022928 -0.10136608 0.0361017
-0.060231186 -0.10984225 -0.04228983 0.0415682 -0.07825623 -0.051728606 0.032916475 0.053350247
0.010229001 -0.08345219 0.03955411 0.028428543 0.022469481 -0.020317651 0.10430431 -0.047753442
0.014860799 -0.029685123 -0.011171117 0.05725333 -0.033720866 0.09543872 0.036848184 -0.03458305
0.04023769 0.0019651507 -0.015730673 0.02805555 0.010278295 -0.07933348 0.066748746 -0.061859727
0.028048376 0.05053083 0.031069567 -0.022974635 -0.048598133 0.082156256 -0.005040583 0.10941495
-0.08378792 -0.066112235 0.08897962 -0.04616249 0.031719256 0.124937914 -0.04472172 0.07091119
0.05448019 -0.010580721 0.038943287 0.021858342 0.07736298 -0.0861474 0.02263094 -0.010643561
0.019583574 0.101880014 0.010575951 -0.027284592 0.018447928 0.08537857 0.0041364697 -0.023184681
0.073508285 0.063426435 0.011774382 0.030717397 -0.018797753 -0.06715944 0.04187696 -0.055086862

lstm.weight_hh_l0 f4 [512, 128]
00000000: 12ee bbbd c39e 87bd 4d75 76bb 9fc5 6a3c
00000010: aaf4 a6bd d254 253d 97fd 7d3c bca2 953c
00000020: fc6e acbc ad33 c4bb 52a5 b2bb 779f 483c
00000030: b413 aabc b9c6 693d 7000 a53d d8e7 1dbd
00000040: 2f94 903d f864 243d ce7d 6cbd b2b6 61bd
00000050: e528 29bc c235 e33c 8429 bc3c b3fc cb3d
00000060: 054e bf3d f349 45bb f99b 1bbd ef95 76bd
00000070: 73da 683d 711f 4bbd c48e 113d 448b aebc
00000080: bdcb c03c 22bd d73d fea5 c53d 2efb e93b
00000090: 8fa8 343c 6d0f 133d 204f 9c3c 57bd 30bd
000000a0: 97ea dbba f943 0dbc 1c6c 973c b774 813d
000000b0: 165c 4abd aac6 11bd 611e 563d 9760 9a3d
000000c0: 8eea 1ebd 727c b43d 3c95 a3bc 3824 c83c
000000d0: 35b0 7a3d 6608 93bd a89f 88bd 240a 4f3d
000000e0: 1a26 943d 89e4 0c3d b19b 873d 80c6 43bd
000000f0: f267 97bd 48ea 1dbc d681 8f3d 638b 693d
00000100: a44a 1cbd 2c62 c73a 9139 bebc 1dd3 55bd
00000110: 49db a83d 8290 293d 4e58 83bd b846 0abd
00000120: eaf9 53bd 934a 91bd 8113 623d 0b63 9a3c
00000130: e291 a13d 7b1e ebbd 4c8e 42bd 625f 693c
00000140: 6ae3 e2bc 370f d43d 24a5 82bd d926 623d
00000150: 0a0c cfbd c5c7 80bd 03c4 08bd c6e7 0ebd
00000160: 9425 063d 7685 fdbc 79b0 353d a956 90bc
00000170: a9ed c1bc 79c9 803c c559 47bd 1dac 9b3d
00000180: 4120 b13d c359 853d 76c3 0fbd a007 80bc
00000190: 6da1 dabd 5c19 14bd 3ad6 e0bc 590b d9bc
000001a0: 043f 4cbb bf49 2b3c efa2 1d3d a290 ce3d
000001b0: 68cb 273d 0195 05bc f66e bb3c 24b5 7d3d
000001c0: d003 6fbd 69af bcbd d383 2f3d a660 36bd
000001d0: d4c6 233d e101 a63d 2b1c dcbd 63ac ba3d
000001e0: 5f9a 003c b27c b6bd 3bc7 4dbd 2dad a23c
000001f0: c1b9 fcbd e49e 283d 0aa8 cbbc c897 ab3d
00000200: 67ea 0bbd c534 693d f1f5 c53b 8b2e ad3c
00000210: e93d b33c 2808 5bbd e561 933d 168c 61bd
00000220: 6ab4 0d3d 7078 7b3c 9df1 053d c61b 0abc
00000230: 7625 a5bd c5e1 e33d ab11 d8bd b68e 293c
00000240: b58e 7dbd 5f9f 23bc 5839 093d 0bb7 4fbd
00000250: cd27 50bd de07 2b3d d43d 9dbd a63d 803d
00000260: 66ef c53c b02b 2d3d 9950 0a3b 32de ad3d
00000270: b29b fd3b a707 2cbd 9311 82bc ac4c 6f3d
00000280: 03e9 5b3d bf83 bb3d 0ae8 273d 5d04 d23d
00000290: 804c dcbd 5c7c 9a3c a93a 113d dd61 1dbc
000002a0: 5578 93bd 6761 433d 7f5b 1abc b771 2ebd
000002b0: 00ab 96bd 59f5 133c 4dd1 65bd a438 353d
000002c0: 4cf7 793c 4d68 0fbd 48b5 1bbd d3c5 5dbd
000002d0: 8231 ac3d c714 6dbd 0007 d3bc aba4 583d
000002e0: 9162 4b3d f650 c2ba bd10 c1bc 4902 a03d
000002f0: 3d5e e83d 585f 63bd d707 863d cb1d 32bd
00000300: 4329 bbbd 137d 07be 69f1 f0bc 0b73 ccbb
00000310: 0bd6 a4bb 0484 a83c 7b8b e53d 09bf 05bd
00000320: dec0 063d c6a1 29bd c09a cbbb db14 b93d
00000330: 076c 40bd d36e 0f3d ec65 9dbd 76cb b3bd
00000340: 7a1b afbd b673 88bd 0007 b93d 6f73 a33c
00000350: 22a4 fcbc 74cc b63b ddfc cbba a392 f33d
00000360: 53e7 0d3c 46fd f7bd a512 bdbd 3457 b23c
00000370: 810e 7abc ab37 e03d fa1e 81bd be8e 1e3b
00000380: b5fa 23bd 6fd0 e73d ffeb 3dbc fb14 6c3c
00000390: 6e36 06bd 89fe 49bb a3d3 c03d 3be6 f93b
000003a0: 5aaa acbc 2093 54bd c031 5b3d 3c8c 373d
000003b0: c3c4 a0bd e0d3 193d af53 8f3d 2610 32bd
000003c0: 6b78 c7bc ab59 503d c6ed e6bd ba2d 263d
000003d0: 5f65 a03d 0647 9b3c 4f6c db3d 6db3 913d
000003e0: 9a11 4fbb ee30 a13c acba 593b a1ac 9b3c
000003f0: dc58 92bc 5914 8dbd 2da3 48bd c019 88bc
-0.09176268 -0.06622078 -0.0037606538 0.014329343 -0.08152135 0.040364094 0.015502355 0.018266074
-0.021049015 -0.0059876055 -0.0054518366 0.012245051 -0.020761348 0.057074282 0.08056724 -0.03855118
0.07059514 0.040135354 -0.057737164 -0.055105872 -0.010324691 0.027735595 0.022969015 0.09960308
0.09341053 -0.0030103892 -0.037990544 -0.06020158 0.056848954 -0.04959053 0.035536543 -0.021306641
0.02353465 0.10534121 0.09650801 0.0071405387 0.011026516 0.035903383 0.019080698 -0.04314932
-0.0016778287 -0.008622163 0.018484168 0.0632109 -0.049404226 -0.03558985 0.052275065 0.07537954
-0.038797908 0.088127986 -0.019968621 0.024431333 0.0612032 -0.07179336 -0.06671077 0.05054678
0.0723383 0.034397636 0.06621493 -0.047796726 -0.07392873 -0.0096383765 0.07007186 0.057017695
-0.03815712 0.0015211753 -0.02322081 -0.052203286 0.0824495 0.04139758 -0.06413327 -0.03375885
-0.05175201 -0.07094302 0.05519438 0.018846055 0.07889153 -0.11480423 -0.047498986 0.014243932
-0.02769633 0.103544645 -0.06379154 0.05521283 -0.10109718 -0.06288103 -0.033390056 -0.034889005
0.03275068 -0.030947428 0.04435775 -0.017619448 -0.023672896 0.01572107 -0.048669595 0.076011874
0.0864873 0.06511261 -0.035098515 -0.015628636 -0.10675321 -0.036156997 -0.027445901 -0.026494669
-0.003116549 0.010454594 0.038485464 0.1008618 0.040965468 -0.008153201 0.022880059 0.061940327
-0.058353245 -0.09213144 0.042850327 -0.044525765 0.03998454 0.08105827 -0.1074756 0.091149114
0.007849305 -0.089105025 -0.05023883 0.019857967 -0.12340117 0.041167155 -0.0248604 0.08378559
-0.03415909 0.05693509 0.0060412814 0.021140357 0.021880107 -0.053474575 0.07196406 -0.055065237
0.034595884 0.015348539 0.032701124 -0.008429473 -0.08063786 0.111270465 -0.10550245 0.010348966
-0.061903674 -0.0099867275 0.033501953 -0.050711673 -0.050819207 0.04175555 -0.076778084 0.062617585
0.024162006 0.04227799 0.002110517 0.08489646 0.0077395076 -0.041999485 -0.01587752 0.05842273
0.053689014 0.09155988 0.040992774 0.102547385 -0.10756779 0.018858127 0.035456333 -0.009605852
-0.07200686 0.047700312 -0.009421228 -0.042588916 -0.073568344 0.009030663 -0.056107808 0.04424347
0.015256714 -0.03501158 -0.03801468 -0.054143738 0.0840788 -0.057881143 -0.025760174 0.052891415
0.049654547 -0.0014825154 -0.023567552 0.07812936 0.113460995 -0.05551085 0.06544464 -0.043485444
-0.091387294 -0.13231306 -0.029411988 -0.0062393 -0.0050303987 0.020570762 0.112082444 -0.03265289
0.032898776 -0.041414045 -0.006213516 0.09037181 -0.046978023 0.0350178 -0.07685456 -0.087790415
-0.085501626 -0.06662695 0.09034538 0.019952504 -0.030839983 0.005578572 -0.001556303 0.11893203
0.008661109 -0.12108855 -0.09232072 0.021770097 -0.015262247 0.10948118 -0.063047364 0.0024193968
-0.040034015 0.113190524 -0.01159191 0.014409299 -0.032766752 -0.003082188 0.094153665 0.0076263226
-0.021077324 -0.05189812 0.053514242 0.044811472 -0.07850029 0.037555575 0.06998383 -0.04347243
-0.024349412 0.050866764 -0.112758204 0.040570952 0.07831835 0.018954765 0.107140176 0.07114301
-0.0031596185 0.019676652 0.0033222837 0.019003214 -0.017864637 -0.06888647 -0.04898374 -0.016613841

lstm.bias_ih_l0 f4 [512]
00000000: aef6 cc3d e670 743d 222a d63c ba95 083d
00000010: e66b 85bc dbbc 44bd dc7c 76bd 77cb 943d
00000020: 2f47 a33c 9100 f93c ae6f 4ebd d88d 50bd
00000030: 2577 ad3d 8afd 23bd e912 a73c 8271 b1bd
00000040: adaf c13d 7718 8abc ddc3 0f3d 60a1 43bd
00000050: 8eb2 6ebd 7805 88bd 1ebb 7c3d 80af af3d
00000060: 0d98 a3bc 33a0 263c 4967 9b3a 98ed 1f3d
00000070: 48dc a73c f552 42bd 1d44 8b3d 166a 1ebd
00000080: e60a b2bc 438e b33d b5d0 89bc 5d04 bc3d
00000090: 9a3a e1bc ac7b 3dbc 003b 11bd 1996 cebc
000000a0: dd92 183d 2d38 a33b b6b1 1d3d dc63 d03d
000000b0: 7a4c 87bd b8ee 303d 334d 27bd bdbe 1abd
000000c0: a93a 3ebb b7aa 283c 52fa 853d fd39 2a3c
000000d0: 76be ca3d d8cd 8cbd bba9 2e3d b422 3ebc
000000e0: 499b 0cbd cbf0 583d 6691 5a3d 27a1 a6bd
000000f0: 067a 723d bb9c 5e3d 7e97 8a3d eab6 023d
00000100: b76f f0bc 2cbc 363d bbbf ea3c a83f 973d
00000110: 59c4 8fbc c979 14bc 1a5d 34bd 41b7 1f3d
00000120: be2c 883d eb73 da3d 4323 303d 664f 6fbd
00000130: 96e3 343c 3ebe 913d ee3c 18bd 30f7 523d
00000140: 31c6 fc3c 9d6d 84bd 371f bf3c 27c5 1f3d
00000150: 34e2 99bd d1c0 90bc 7123 ca3d 3b52 4a3d
00000160: 4774 853d 74db a43d efad 9a3c 8f9d 963d
00000170: ebb3 b23d ec9b 5fbd 0fc5 b83d 7bd6 cd3c
00000180: 9bc6 23bc 4f1e 613d f211 433d a936 0e3d
00000190: f295 aa3a a813 12bd 5164 fc3c 1dfb 6ebd
000001a0: 2d1c 9c3d c8b5 d93d 7ac0 ab3d b909 8cbd
000001b0: 3748 21bd bb16 47bd e3e2 303c e076 993d
000001c0: 5d4d 88bd c84b 0f3d b874 803d acd7 d93a
000001d0: 7acb 1b3d f08b 90bd 69e7 b13d 2c67 5b3d
000001e0: f4f8 df3d b7c4 b13d 9533 0c3c 3f82 ad3c
000001f0: 6499 c93d baf2 be3b 2dc7 a63d 50a4 f53c
00000200: d72d 273c 33e4 583c c043 033e f466 b33d
00000210: 8fc5 7f3d 7472 4e3d 5e5f 863d b586 81bd
00000220: 6998 2c3d 4839 723d 17e2 df3d 0ee0 243d
00000230: 0851 193c 5329 49bd 13c4 c4ba 1a5f c93d
00000240: 3d62 483d 9a27 4f3d faf0 eebc 8de0 813d
00000250: caad 37bc 5b79 20bd eccc 773d b29c b93d
00000260: 7144 c83d 44c0 a3bc 9c93 6e3d e946 9ebc
00000270: 6b29 80bd 696a f83d a919 1f3d d74e ec3c
00000280: 789f 903d c764 033e 47e7 af3d 4b6d 86bc
00000290: d617 3b3d 9f32 2c3d f8de 903d 831d 563c
000002a0: da9d 87ba d19a 793d 6bf9 dbbb 9425 18bd
000002b0: 9b94 d03d da8e 8c3d 0cc4 ae3d 82d0 a5bd
000002c0: a412 16bd 0caf a5bc f98e a93d 810e 843d
000002d0: d67a da3d 516b 4cbd 7a19 943d 49c3 49bd
000002e0: 4e9e 993d 416c 7dbd 3cde 05bd 4f3a 7d3c
000002f0: e3c0 8c3d 84bf 7c3d 5e23 6c3d 9360 193d
00000300: 1b39 8a3b 2118 213d bfbf 47bd 2ab9 b33d
00000310: e3ec d53d bac6 39bc c117 f63d e7e9 443d
00000320: a58c 503d a1f6 823d 36f7 ae3d 5088 003e
00000330: 8989 4b3d cec7 c2bc c5bc 94ba a5a0 233d
00000340: 3c77 9abb 2a94 f3bb f124 a23d 8a2d 8f3d
00000350: f65e 663d b4d4 853c 9106 333d 9e65 903d
00000360: d02a 7f3d 4e72 e53d 6fe6 9abb e960 5d3c
00000370: a8d1 053d 96a6 aa3c 93b4 203d 6688 6d39
00000380: 0a64 72bc dd5b 18bd b543 e33d 05b6 1c3d
00000390: d1e9 f83d b4ca 553d cf81 febc bd7d 01bd
000003a0: b0c0 59bc a06c 373d f3bf 29bd d3b1 da3d
000003b0: 6c42 9bbc 1681 e7bb b5ce 623d 65f4 903d
000003c0: e103 333d 3d07 dd3d 79e1 9f3d 8d0a b93a
000003d0: ef36 253d 1bf0 9e3d 5e2d ad3d 33e0 da3c
000003e0: c813 cbbc 38c9 863d 4d2c f83c beb8 9ebc
000003f0: 0a33 88bc d0c4 463d 9661 23bc fc32 76bd
0.10007988 0.05967798 0.026143137 0.033345915 -0.016286802 -0.04803167 -0.06017767 0.0726537
0.019931404 0.030395778 -0.050399475 -0.050916523 0.08469991 -0.040036716 0.02039476 -0.08664228
0.094573356 -0.016857369 0.0350989 -0.04776132 -0.05827575 -0.06641668 0.061701886 0.08578396
-0.019969964 0.01017003 0.0011856343 0.039044946 0.02049078 -0.047442395 0.06800101 -0.03867539
-0.021733712 0.08767369 -0.016823152 0.0918052 -0.027493764 -0.01156513 -0.035456657 -0.025218057
0.037249435 0.004981062 0.038499556 0.10175297 -0.066063836 0.04319641 -0.040845107 -0.03777956
-0.0029026663 0.010294608 0.065418854 0.010389802 0.09899609 -0.06875199 0.042642336 -0.011604954
-0.03432778 0.052964013 0.05336132 -0.08136206 0.059198402 0.05434869 0.06767176 0.03191272
-0.029350145 0.04461305 0.028655877 0.07385188 -0.01754968 -0.009062239 -0.0440341 0.038993124
0.06649159 0.10666641 0.04300238 -0.05842533 0.011040589 0.07116364 -0.037167482 0.051505268
0.030856224 -0.064662196 0.023330314 0.03900638 -0.07513848 -0.017670067 0.09870041 0.049394827
0.06516319 0.0804967 0.018881766 0.07354271 0.08725723 -0.054592058 0.09021961 0.025126686
-0.009996082 0.054960545 0.047624536 0.034720097 0.0013014658 -0.035663277 0.030809553 -0.05834495
0.076225616 0.10630375 0.08386321 -0.06837792 -0.03937551 -0.04860566 0.0107962815 0.07493377
-0.06655381 0.03498438 0.06272262 0.0016620061 0.038035847 -0.07057941 0.08686716 0.05356519
0.10936156 0.086800985 0.00855722 0.02118027 0.0984371 0.005827275 0.081434585 0.029985577
0.0102038 0.013238001 0.12818813 0.08759871 0.062444266 0.05040212 0.065611586 -0.063245215
0.042137537 0.05913666 0.10931795 0.040252738 0.009357698 -0.049111675 -0.0015012048 0.09832592
0.048921812 0.050574876 -0.029167641 0.06341658 -0.011210868 -0.039178234 0.060498163 0.090630904
0.09778679 -0.01998914 0.05824624 -0.019320922 -0.062579 0.12129671 0.03884283 0.028846188
0.07061666 0.12831412 0.085890345 -0.016409537 0.04567703 0.042040464 0.07073778 0.01306856
-0.0010346726 0.06093866 -0.0067130825 -0.037145212 0.10184594 0.06863184 0.08533487 -0.0809641
-0.03663887 -0.02022507 0.08279223 0.06448079 0.1066796 -0.049907032 0.07231422 -0.049258504
0.07500897 -0.061870817 -0.032682642 0.015455796 0.06872728 0.06170608 0.057650916 0.037445616
0.0042182333 0.03932965 -0.048766848 0.087755516 0.10445573 -0.011338884 0.120162494 0.04807463
0.05091538 0.06394697 0.085432455 0.12551999 0.04969171 -0.023776915 -0.0011347762 0.039948124
-0.004713921 -0.007433434 0.07917202 0.06991108 0.056242906 0.016336776 0.043707434 0.07050632
0.06229669 0.112034425 -0.004727177 0.013511875 0.032670647 0.020831387 0.03923471 0.00022652894
-0.014794359 -0.037196983 0.110968985 0.038259525 0.12153972 0.052195266 -0.031067757 -0.031614054
-0.013290569 0.044781327 -0.041442823 0.106784485 -0.01895257 -0.007064949 0.055372912 0.070778646
0.04370487 0.10792396 0.07806677 0.0014117524 0.040335592 0.0776064 0.08455919 0.026718235
-0.024789706 0.06581348 0.030294562 -0.019375201 -0.0166259 0.04852754 -0.009971997 -0.060107216

lstm.bias_hh_l0 f4 [512]
00000000: f73d 98bd 5de0 ee3c 133a 083d 1c3c 573d
00000010: 1b2d c83c 9020 d93d b2fb d8bc b7bd 37bd
00000020: 85e0 5c3d 1425 0e3d c866 663d 0a86 4439
00000030: 6ae0 7e3d ee23 263d 2be3 04bd bad0 11bd
00000040: c070 2e3a a8e3 c73d ad03 96bc cda4 d43d
00000050: f547 1cbd 260a f8bc e43c 953d 970a 09bd
00000060: c761 b93d 057f 2abd 3546 6fbd 8dab ec3d
00000070: 6d93 44bd d93c cebc 1b2c 2b3d 0638 69bd
00000080: a1e2 f7bc cfbc a03d ab1e acbc f0dc 41bc
00000090: b761 55bc 5232 693d 4365 aabc e743 933c
000000a0: ab7d b1bd c52d 5b3d d6ec 873c 8aa3 dbbc
000000b0: 3b70 093c 9fda 0e3c 2cf8 8fbb e794 cfbb
000000c0: ae30 98bd b04b debb cd7e 393d 26ff 9ebc
000000d0: 0ecf 273d 244d f83c ff8f bf3d 415b 80bc
000000e0: a59c 293d accb 5f3c 7b1f 953d f017 963d
000000f0: 309d 27bd e5c8 f73c 6653 03bd f66a 663c
00000100: 1a97 08bd 0816 aa3d cd8b 6c3d 5adc 5dbd
00000110: a7cd b53d 83aa 2e3c 4ec8 323c 007e 793d
00000120: 294c 373d 1ac7 76bd 0d06 4d3d 8a5e 1cbd
00000130: 3e5c d63c 3bff bd3d d33d 4dbd 47cd 83bd
00000140: cdba 2d3c 18bd b03c 6325 79bc 1987 b83d
00000150: 32d9 9bbc a552 df3b e752 b33b 2b20 54bd
00000160: ba34 66bc e956 0f3d 17dd 26bc 62c3 52bd
00000170: 6d08 923d 97e3 8e3d e9e1 b73b 7502 773d
00000180: 034b 35bd 67e8 30bc f7e8 303d 1930 093d
00000190: 606d c23d 4013 223b bd43 69bc ccfa 84bd
000001a0: 16c2 003d ad21 ddbc d9ff eabc f639 9b3d
000001b0: 1b3d 0fbd f46e 673d 3c09 af3c 7bf1 e33d
000001c0: 3fb5 ae3a 836b 73bd 7971 b33d a6bd aebc
000001d0: 527b a13d 4dc9 50bc f472 a7bd d54b 2fbd
000001e0: 7baa b63d 5635 083d 82b5 a43c 8219 853d
000001f0: 246e 09bd 73c2 cabb b380 373d dd02 45bc
00000200: b004 8c3c a293 0fbd 4054 643d c75e 1abd
00000210: bd15 72bc 9c37 c23b 8687 5dbd 1d6d 9a3d
00000220: dfc4 a93d 49b0 fb3c eac8 d13c 8515 39bd
00000230: 7157 4b3b c63a 473c 6273 803d 4978 c43d
00000240: 6adf d23d 70e9 27bd 1063 f83c f5c5 d23d
00000250: 21ca a83d 8adb a93d e7eb 3d3c 01d4 fe3c
00000260: 39dd cd3d 4e01 553d 985a 733d 8ff4 193d
00000270: 8707 503d bc9b 773d b5dd 1a3c ad3e db3c
00000280: 0775 6d3d 423e 33bd fdcf 2fbd 965e 93bd
00000290: f732 e43d a077 863c a217 243c 371a 78bd
000002a0: d933 9fbd ef66 4cbd 052b e83d 979f cebc
000002b0: 7d19 c53d af56 3bbd 8481 dfbc 86b4 89bd
000002c0: 6f31 68bc 2a88 1b3d 830d 143d 8266 d13c
000002d0: dc93 0cbd 949c 6ebd 2e44 f23d 553e bd3d
000002e0: 5c14 c93c 1720 dbbc 982b e23c 0c9a 5e3d
000002f0: 184d 7a3d b6aa 52bb 0f91 ac3d 5c1d 75bd
00000300: 86d3 c93d dea5 ad3c f810 b03d 0a4b 683d
00000310: d57e 10bc 467e 55bd e821 d43c cd78 933d
00000320: 93f6 43bd 88be 973d c60c 32bc 05de f33d
00000330: a33b 2bbd ffaf 07bd 81ba 193c 2214 1e3d
00000340: a5e2 ec3c 37f5 9b3d e95d 713d 7162 203d
00000350: 78b1 013c cebd a83d 019b b53d 27aa 8b3d
00000360: d206 c9bc 71af ff3c 3434 9e3c 1592 223b
00000370: e507 513d 4a01 d03d f1ec eb3d 39c0 30bd
00000380: 3ef0 2a3d 2883 103d a230 d33d 3a94 be3c
00000390: f152 96bb 9f19 c0bc 6f85 10bd 3353 cbbc
000003a0: 8d8d 4b3d 231b c13d 4cbb cbbc bd25 9b3d
000003b0: c4b6 b6bc 6340 b4bc f371 c63b 4cf3 e83c
000003c0: 6bc0 cf3d 5f27 823c d901 983d 880b 933a
000003d0: d2f0 183d 4c6d 88bd 16af 923d b2ec 813d
000003e0: 0d06 e63d d22d 543d 8bd6 b8ba a494 d73d
000003f0: ca46 35bc 0775 58bc 420d 733d 9ed6 113d
-0.07433694 0.02915972 0.03325851 0.05254756 0.02443557 0.10601914 -0.026487205 -0.04485866
0.053925056 0.03470333 0.056250364 0.0001874195 0.062225737 0.04056161 -0.032443207 -0.035599448
0.00066543743 0.09760219 -0.0183123 0.10382996 -0.03815456 -0.030278277 0.072870046 -0.033457365
0.09051853 -0.04162504 -0.058416564 0.11556158 -0.04799216 -0.025175499 0.04179011 -0.056938194
-0.030259432 0.078485124 -0.021010717 -0.011832461 -0.013023785 0.056932755 -0.020800238 0.017976714
-0.086665474 0.053510446 0.016592424 -0.02681138 0.008388574 0.0087191155 -0.004393598 -0.006334889
-0.0743116 -0.006783925 0.045286942 -0.019408774 0.040968947 0.030310221 0.09353637 -0.015668513
0.041409153 0.013659399 0.07281395 0.073287845 -0.04092139 0.030247161 -0.032061957 0.014063587
-0.033347227 0.083049834 0.057750512 -0.05416522 0.08877116 0.01066077 0.010912014 0.06091118
0.044750366 -0.06024847 0.0500546 -0.038176097 0.026167031 0.09277197 -0.05010779 -0.06435638
0.010603619 0.021574542 -0.015206668 0.09010143 -0.019024465 0.006815272 0.005472529 -0.05178849
-0.014050657 0.034994993 -0.010184548 -0.051455863 0.07130513 0.06977003 0.0056116474 0.060305078
-0.04426099 -0.010797597 0.043190923 0.033493135 0.09493518 0.0024730712 -0.0142373415 -0.06493148
0.031435095 -0.026993597 -0.02868645 0.075794145 -0.034970384 0.056502298 0.021366708 0.11130043
0.0013329162 -0.059428703 0.087618776 -0.021330666 0.078848496 -0.012743306 -0.081762224 -0.04279693
0.08919235 0.03325399 0.02010608 0.06499006 -0.033552304 -0.006187731 0.04480047 -0.012024608
0.017092079 -0.035052903 0.05574441 -0.037688043 -0.014775691 0.0059270393 -0.054084323 0.07540343
0.08289503 0.030723708 0.025608499 -0.04518654 0.003102746 0.012160009 0.062720075 0.09593255
0.10296519 -0.040994108 0.030320674 0.102916636 0.08241678 0.08293827 0.011591888 0.03110695
0.100519605 0.052003197 0.05941257 0.037586745 0.05078843 0.060451254 0.009452273 0.026763285
0.057972934 -0.043760546 -0.042922962 -0.07195775 0.11142533 0.016414464 0.0100154 -0.060571875
-0.07773561 -0.049902853 0.1133633 -0.025222583 0.09624002 -0.045736965 -0.027283438 -0.06723885
-0.014171942 0.037971653 0.0361457 0.025561575 -0.034320697 -0.058254793 0.118294105 0.092404045
0.02454584 -0.0267487 0.027608678 0.05434613 0.06110868 -0.0032145209 0.08426105 -0.059842452
0.09854798 0.021197256 0.085969865 0.056712188 -0.008819302 -0.052122377 0.025895074 0.07200775
-0.047842573 0.07409388 -0.010867303 0.11907581 -0.04180492 -0.033126827 0.009382845 0.03859342
0.028916666 0.076151304 0.05892745 0.03915638 0.007915847 0.08239327 0.08867455 0.06819563
-0.024539385 0.031211587 0.019312002 0.002480631 0.05103292 0.10156496 0.11519802 -0.043152068
0.04173302 0.03528133 0.1031201 0.02326404 -0.004587524 -0.023449717 -0.035283502 -0.024819946
0.04969554 0.09429004 -0.024869584 0.075755574 -0.022303946 -0.022003358 0.0060560643 0.028436325
0.10144123 0.015887914 0.074222274 0.0011218647 0.03733904 -0.06661472 0.07162301 0.06343974
0.11231623 0.05180151 -0.0014102025 0.10526398 -0.011064241 -0.013211495 0.059338816 0.035605066

fc1.weight f4 [64, 128]
00000000: 431f 8ebd 3a8d 42bd 0eb3 80bd a098 92bd
00000010: 6ee0 f23c 7fcf 66bc c44b 5d3d 132e 2abd
00000020: 07fa 8c3a ff68 a8bd 6f69 b83d 6fc9 db39
00000030: 225b f8bb 2b05 77bd 2b84 64bd b348 2cb8
00000040: 7b08 1e3d 2d1e 55bd 0988 0dbd 01c6 73bd
00000050: 7645 9ebd d320 4dbd c90a e13c 4aad 873c
00000060: cbc3 0f3c 4054 6f3d 264c 74bd 4d57 603c
00000070: 2b7e 7cbd df24 83bd 0685 11bd b04e 53bd
00000080: d189 a2bc 270a 353d 7b9e 87bd 9318 8ebd
00000090: 4767 093d 349c 623d 78bd a03d 7f34 18bd
000000a0: 1d8d 253d 0ea8 8dbc c988 c6bd e175 903d
000000b0: bd28 06bc 6c92 b3bc 9177 8bbd c75d 263d
000000c0: 774f b3bd c7a1 f0bc d6b3 1cbd b040 e1bc
000000d0: 74c3 b9bc 485e 283d e06d a93d 52ee 7c3d
000000e0: 3a58 1f3c 1a3d 5abd ece9 a63d 0824 98bc
000000f0: d8f0 4abd a756 31bd c156 9fbd 6304 2dbb
00000100: 51aa 2dbd df2a 98bc 1b5a 4d3c b181 a03c
00000110: 5356 72bd 80dc cbbd 88ae a5bd d4df b1bd
00000120: f3df 673c 83a4 0f3d 642f 9dbd 3229 8f3d
00000130: e4b3 6fbc 02d6 4abb 9c76 203d 3de5 953d
00000140: 74b3 24bd 0f0b 84bd c9e1 203d 025a 89bd
00000150: a810 a33d 07b4 59bd ca09 b83d ff63 6b3d
00000160: dc90 4c3c bcfd ddbc 5cba 97bd ad9c 28bd
00000170: 5ca4 263d 6381 6dbd 7c4a 8c3b f765 4ebb
00000180: 8916 6f3d d065 87bd 7bdd 183d 8ec1 58bd
00000190: 87f6 3a3d fe08 733d 64e8 a5bd 4d6b 79bc
000001a0: f750 e4bc 8008 713d 708f 62bd 3020 5fbd
000001b0: 41a2 2fbb 90e9 d83c 5123 55b8 346c 15ba
000001c0: a22c 05bd fc90 b9bc 4d5d a03c 58f0 863d
000001d0: 3084 3fbd 8887 b33d 0779 703d ff33 2cbd
000001e0: 4c2a 533c c0f8 56bd 3665 2dbd c350 7cbd
000001f0: d635 573d 24dc 6e3c f9d6 a43d 98f7 833d
00000200: 1266 d8bc 14e1 363c e8fd 843d 42a2 69bd
00000210: 3e4c 8dbd ff3e a73d b540 bd3b a12f 6cbd
00000220: 484c a83c ea18 cd3c 4f9e 8b3d f972 9c3d
00000230: 2069 a03c 8b67 6bbc f31e 6dbd d1d5 a3bd
00000240: ba81 3ebc 4fd7 933d ec67 0c3d cd7b 17bd
00000250: 8917 c0bb 61ba a23c 0b36 b5bc dd99 58bd
00000260: 5fe1 a53b aa92 a8bc 2720 15bd c288 743d
00000270: 4900 b4bb 6af8 283d bb62 d7bd 2ea7 f53b
00000280: f176 c03b 1b10 1bbc 296c 5fbd 030f 87bd
00000290: f9ca 953c e94a 74bd d43a 083d 6d6d 1cbd
000002a0: 0c8d 8d3d 7f35 873d b70f d1bc cc72 003d
000002b0: aaf2 903c a799 ef3c f24a 27bd 321e 80bb
000002c0: 733a c7bc cf0e 09bd 7370 223c ee7d c43c
000002d0: 7291 98bd 897d aebd 46ab 573d f4dc 29bd
000002e0: d857 11bd 8294 2e3d 993f 50bd c14f 23bc
000002f0: b81d 48bc 2d9e cfbb ddfa b3bd 3ce7 3d3d
00000300: a84d d53d ce4a a33d 91e6 c43d ec10 82bd
00000310: 17d9 ab3d fbe1 9a3c 429e 0e3d a773 973b
00000320: b589 253c e92f 1d3c 2ecf 85bc f31f bc3b
00000330: f66f 3f3b a8ce 333d 2035 063d afe3 acbd
00000340: d49c 7e3d f3b3 733d 0a8e 02bb 6040 48bd
00000350: 1475 3a3d 9c00 4ebd e5d9 e23d e9b2 13bd
00000360: 5295 b23d 304e afbc 339d f3bc 6b35 78bd
00000370: 633b 77bd 7472 553c 7e56 6f3b 13eb a7bd
00000380: caae 3f3d 8fb6 bd3d 84a8 aabc e270 20bd
00000390: a454 d83c 23ed 22bc 5b3e d03a be58 e0bc
000003a0: 1303 3fbd 3bc6 a33b 2ed3 883d 6a70 57bc
000003b0: a737 c73d c6fb 3b3d c710 803d 8b49 73bd
000003c0: 7046 5b3d 7c21 d0bb 1715 a53d a66e 0e3d
000003d0: 5e81 043d 2ede a63d e8c3 0abd 3de2 3f3d
000003e0: 920c dabc 240c 6c3d bf47 633c 049c 84bd
000003f0: 5586 c4bc b41f b3bd 1c5f 533c a31c cdbd
-0.069395564 -0.047497965 -0.06284152 -0.07158017 0.029648032 -0.014087557 0.054027334 -0.041547846
0.0010755666 -0.082231514 0.09004485 0.00041921015 -0.0075792233 -0.060307663 -0.055790108 -4.1075702e-05
0.038582306 -0.05203073 -0.03455356 -0.059515003 -0.07728092 -0.05008013 0.027470963 0.016562123
0.008774708 0.058429956 -0.059642933 0.013692689 -0.06164376 -0.06403517 -0.03552725 -0.051588714
-0.019841107 0.044199135 -0.066220246 -0.06938281 0.03354576 0.05532475 0.07848638 -0.03715944
0.04041778 -0.017292049 -0.096940584 0.070537336 -0.008188424 -0.021920405 -0.06809915 0.040616777
-0.08755391 -0.029374016 -0.038257442 -0.027496666 -0.022676207 0.04110554 0.0827291 0.061750717
0.009725625 -0.053280927 0.08150086 -0.018571869 -0.049546093 -0.04329553 -0.07780219 -0.002640032
-0.042398755 -0.01857513 0.01253369 0.019593092 -0.059164356 -0.099541664 -0.0808993 -0.0868527
0.014152515 0.035069 -0.07675055 0.06990279 -0.014630292 -0.0030950313 0.039175615 0.07319114
-0.040210202 -0.06447422 0.039277826 -0.06706621 0.07962161 -0.053150203 0.08986242 0.05746841
0.012485709 -0.027098529 -0.07408592 -0.041165043 0.04068409 -0.05798472 0.00428134 -0.0031493881
0.0583711 -0.06611216 0.037320595 -0.052918963 0.045645263 0.059334747 -0.081009656 -0.015223336
-0.027870638 0.058845997 -0.055312574 -0.054474056 -0.0026799592 0.026478559 -5.081605e-05 -0.00057000224
-0.03251327 -0.022652142 0.01957574 0.06588811 -0.046756923 0.08766085 0.05870917 -0.042041775
0.012888502 -0.05248332 -0.04233285 -0.061600458 0.052541576 0.014578853 0.08048815 0.06443709
-0.026415858 0.011162061 0.06493741 -0.057039507 -0.06899308 0.081663124 0.005775536 -0.05766261
0.020544186 0.025036294 0.06817304 0.07639117 0.019581378 -0.014367948 -0.057890844 -0.079997666
-0.011627609 0.07218801 0.034278795 -0.0369833 -0.0058621806 0.019864263 -0.022120496 -0.05288111
0.0050622667 -0.020577747 -0.036407616 0.059700735 -0.005493198 0.04125253 -0.10516878 0.007496736
0.005873554 -0.009464289 -0.05454651 -0.0659466 0.018285261 -0.059641752 0.033259228 -0.038190294
0.06911668 0.066020004 -0.025520189 0.03135948 0.017693836 0.029248072 -0.040842958 -0.0039098496
-0.024319863 -0.03346139 0.009914505 0.02398583 -0.074496165 -0.08520038 0.052653573 -0.041470483
-0.035484165 0.042622097 -0.0508419 -0.009967745 -0.012214117 -0.0063359947 -0.08788083 0.0463631
0.104152024 0.07973252 0.096142896 -0.06350884 0.08391016 0.018906584 0.034818895 0.004621941
0.010103633 0.009593942 -0.016334143 0.0057411133 0.002921102 0.043898255 0.032765508 -0.08441865
0.06216128 0.059497785 -0.0019921088 -0.048889518 0.04552181 -0.05029355 0.11076716 -0.036059294
0.08719887 -0.021399587 -0.029738044 -0.06059782 -0.06035937 0.013027776 0.003652006 -0.08199134
0.04679755 0.09263336 -0.020832308 -0.039170153 0.026407547 -0.009944233 0.0015887724 -0.027386066
-0.04663379 0.004997996 0.06680904 -0.01314936 0.09727412 0.045894407 0.062532 -0.059396308
0.05353397 -0.006351648 0.08060663 0.03477349 0.032349937 0.08147846 -0.033878237 0.046846617
-0.026617322 0.057628766 0.013872086 -0.0647507 -0.023989836 -0.08746281 0.012901094 -0.10015228

fc1.bias f4 [64]
00000000: 6577 2fbd 1ede 77bd b6ea 35bd a784 783d
00000010: f6bd 753d b221 29bd cac9 a2bc b998 c53d
00000020: aba6 6cbd 293d 53bd 0a52 b2bd 8ae2 d63c
00000030: 4b04 b23d c800 b0bc 3d13 0a3d 97fa cd3b
00000040: 3ba0 893d 1435 fa3c 6fef 80bd 849a ac3d
00000050: c8ee 2b3d cbef af3d 6fa9 0fbd 117a be3d
00000060: a0cf cabc a213 7c3d debf ce3d 6ae3 783b
00000070: c34f 30bd c2de 983d 376c 5a3d c930 9dbc
00000080: d539 e73d 6450 ee39 29d4 8a3d 227f 5f3d
00000090: 0214 633c 50bb 64bd 94cc 303c fe96 883d
000000a0: 2ade 133d 3b74 c53d 99f3 f9bc 50a2 9e3d
000000b0: 2cc1 ccbd b433 f23c b84e c13d 6cd6 b0bd
000000c0: fbf9 b0bd 8de7 b6bd f389 30bd b61e 9ebd
000000d0: ded2 5e3d a749 8dbd b598 c83d 5f78 0c3d
000000e0: 930e ffba 786e ecbd ba84 cdbd 0ea6 893d
000000f0: 83a9 1d3a 8db5 b0bc bb13 c33d 5e31 5fbc
-0.042838473 -0.06051456 -0.04441329 0.060673382 0.059995614 -0.0412919 -0.019871611 0.0964827
-0.057776134 -0.051572 -0.08707054 0.02623107 0.08692225 -0.021484748 0.033709753 0.006285976
0.06720015 0.030542888 -0.06295668 0.08427909 0.041975766 0.08590659 -0.035073694 0.09300626
-0.024757206 0.06154216 0.100951895 0.0037977346 -0.043044817 0.07464363 0.053325858 -0.019188302
0.112903275 0.00045454793 0.067787476 0.054564603 0.013859751 -0.055842698 0.010790963 0.066694245
0.036100544 0.0964131 -0.030511664 0.077458024 -0.09997782 0.02956567 0.094388425 -0.08634648
-0.0864143 -0.089308836 -0.04310031 -0.077207014 0.054400317 -0.06898814 0.097947516 0.034294482
-0.00194593 -0.11544508 -0.10035081 0.067211255 0.0006014334 -0.021570945 0.09525248 -0.01362261

bn1.weight f4 [64]
00000000: a261 8b3f de69 8c3f 5915 8a3f 7314 8b3f
00000010: 7894 8a3f 8ef9 903f d071 8c3f 0455 8a3f
00000020: 9d51 883f 4ea9 8c3f f64a 8f3f 0d4d 8f3f
00000030: 0e94 953f 35ff 893f 9a6a 843f 5649 823f
00000040: df32 963f 9a64 893f 6165 863f ed17 853f
00000050: 7479 8a3f 5357 963f 93b2 8b3f 9c2c 8d3f
00000060: a177 8a3f 2c52 923f 9d49 903f a88e 863f
00000070: 239c 933f 55ea 953f 609c 923f 75fa 953f
00000080: c816 943f d33f 953f 50c0 8f3f fd05 853f
00000090: c326 8d3f 6581 8f3f edf1 8d3f 0df6 993f
000000a0: e2df 883f 7c07 8c3f e988 8f3f e333 953f
000000b0: 4843 8f3f df90 943f 9ea0 8f3f 4f09 8d3f
000000c0: 9fd3 8e3f 2107 8c3f 410e 953f 876e 903f
000000d0: fccb 963f ca91 8f3f bf53 8a3f e7e4 9d3f
000000e0: 2d19 933f eee3 943f 6715 993f 21c6 8c3f
000000f0: dc3e 873f b251 823f 6b57 923f 4020 953f
1.088917 1.0969808 1.0787765 1.0865616 1.0826559 1.1326158 1.0972233 1.0807195
1.0649906 1.0989168 1.1194751 1.1195389 1.1685808 1.0781008 1.0345032 1.017863
1.1734275 1.0733826 1.0499688 1.0397927 1.0818315 1.1745399 1.0913872 1.1029239
1.0817758 1.1431327 1.1272465 1.0512285 1.1532024 1.1712137 1.1453972 1.1717058
1.1569452 1.1660103 1.1230564 1.0392452 1.1027454 1.1211363 1.1089455 1.2028214
1.0693324 1.0939784 1.1213657 1.165646 1.1192408 1.1606711 1.1220891 1.1018466
1.1158332 1.0939676 1.1644975 1.128373 1.1781001 1.1216366 1.0806807 1.233548
1.1492058 1.1632059 1.1959656 1.0997964 1.0566058 1.0181181 1.1432928 1.1650467

bn1.bias f4 [64]
00000000: e9f2 ee3d 56f1 9d3d 5b25 7ab9 a056 d33c
00000010: e657 a7bb e316 903d b21a ed3d 23bb f23d
00000020: a879 9f3b eb9e 863c 9c07 f73d 1d6c 003e
00000030: 4f72 de3d 4ec4 1c3b 9500 b8bc 8205 07bd
00000040: 8e50 cf3d 4313 033d 059e 44bb cb07 4bbd
00000050: f966 243b 90cd d33d d87d d43d 1416 0e3e
00000060: 8b6c 123d ee32 383d 3e9e 823d c0ba 72bb
00000070: 35f0 fd3d 694f 093e 2b9a 283e 9bb0 fa3d
00000080: ada2 153e 376b af3d 3fd3 c33d 78e2 13bc
00000090: bb01 cd3d 7c7f 0d3e 6126 033e 5797 0b3e
000000a0: d390 843c c4ab ee3d c617 cc3d ea5b e03d
000000b0: bd0c ce3d 1ac7 ef3d 73cb f23d 8f80 273c
000000c0: 3f94 9c3d 73c5 eb3d c413 e63d 5c08 033e
000000d0: 08d7 be3d 052a 053e 146c da3d 518d d83d
000000e0: c218 9e3d 990b ef3d 53dd ed3d defa ea3d
000000f0: 288e 48bc 8af8 4cbd 202d 8a3d 6649 0c3e
0.11667425 0.07712047 -0.00023855774 0.025798142 -0.005106914 0.07035615 0.11577357 0.118521
0.0048667975 0.0164332 0.12061998 0.12541242 0.108616464 0.0023920718 -0.022461215 -0.032964237
0.101227865 0.03200079 -0.0030001414 -0.04956798 0.002508579 0.10341942 0.10375565 0.1387561
0.035748046 0.044970445 0.063778386 -0.0037037581 0.123993315 0.13409199 0.1646506 0.12240716
0.14612837 0.085653715 0.09561776 -0.009026162 0.10010096 0.13818163 0.12807609 0.1363195
0.016182339 0.116538554 0.09965472 0.10955031 0.100610234 0.117078975 0.11855211 0.010223522
0.07645463 0.1151227 0.11234239 0.12796158 0.09318358 0.1300431 0.106651455 0.10573829
0.07719566 0.11672134 0.1161448 0.1147363 -0.012240924 -0.050041713 0.06746888 0.13699874

bn1.running_mean f4 [64]
00000000: de6a babc bd59 38bc 68a5 16bd a9af b83d
00000010: b21a 243e 71fc 20bd 8afe 3f3d 9f26 2c3e
00000020: eada 9fbd 0400 afbd 3a46 a8bd 27e2 3f3d
00000030: fa27 df3d 0d58 c9ba 4647 29bd 8950 173d
00000040: 4431 e53c 729c 323d 063e cabd 9c4d 4d3d
00000050: f94f 563d e19a 433d 8720 a53c 92e8 db3c
00000060: 6180 1ebd 27d0 003e d605 cb3d b478 043c
00000070: 02db 10bd 781a c43c 587f ef3d 2cd7 833c
00000080: c221 133e a7b8 0939 0858 93bc 903f ab3c
00000090: e731 a73d 1e43 083d 575b b53d e052 033e
000000a0: d02e 123c 666f 123e f5ae 7f3a 4728 1c3e
000000b0: 5dcd bcbd 3751 883d d1a5 9a3d 7b52 3fbd
000000c0: e939 f8bd 0c97 90bd 3794 fdbb b1a7 83bd
000000d0: 8004 b43d ce12 47bd f1de 0e3e 0d61 00bd
000000e0: 3f5e a93c 0458 12be 4b01 27be ea52 f33d
000000f0: da41 b63c 4939 e0bc 2843 1f3d 968e 3c3d
-0.022756036 -0.011251864 -0.036778837 0.090178795 0.16025808 -0.039303247 0.046873607 0.16811608
-0.078054264 -0.08544925 -0.0821652 0.046846535 0.10896297 -0.0015361324 -0.041327737 0.03694204
0.027977593 0.04360623 -0.09875111 0.050122842 0.05232236 0.047755126 0.020157112 0.026844297
-0.03869665 0.12579404 0.099132225 0.0080854185 -0.035365112 0.023938403 0.11694211 0.016093813
0.14368346 0.00013134126 -0.017986313 0.020904332 0.08163815 0.033267133 0.08855312 0.12824583
0.008922294 0.14300308 0.00097535487 0.1524974 -0.092188574 0.066561155 0.07551158 -0.04670952
-0.121204205 -0.0706006 -0.007738616 -0.06428469 0.08789921 -0.048601918 0.13952233 -0.031342555
0.020674823 -0.14291388 -0.16309087 0.11881049 0.022248197 -0.027371066 0.038882405 0.046034418

bn1.running_var f4 [64]
00000000: ca65 573c c15a 623c 160f 503c c500 ef3b
00000010: 000d f63b d48a d93b a75c ae3b 90d9 a23c
00000020: 2bdc 163d aea3 e03b 86ae c83b b07a 093c
00000030: 9ab4 333b d430 0a3c 6aa6 c63b 372f 203c
00000040: 90f5 af3b f97c f43b 8d82 673b 2612 343c
00000050: a202 2f3b 5584 eb3b 3b73 013d f355 993c
00000060: 0ff3 973b d6bd b83b 15db 263b b72f 083c
00000070: b8a7 193b d9b6 003b 13b5 c03c d154 ab3a
00000080: 1d27 3b3b e0df 1d3b 294e 603b b8d0 b73b
00000090: ef9b 273c a1da 893c 55dd 873c 2891 ec3b
000000a0: 8619 bc3b 7454 833b 8298 3e3b 0118 923b
000000b0: 4558 263c c229 a63b 7190 a53b ac72 ad3b
000000c0: b2b3 193c 06f9 673d 92f9 633b f94e 453b
000000d0: a52f 013c 4745 483b e27a d73b 7716 8c3b
000000e0: fa82 593b 4a3f 523b caea 083c ff3d 6c3b
000000f0: 9bd3 5c3b e3dc ed3b 2231 4b3b 5cdd 7a3c
0.013146827 0.013815583 0.012698909 0.007293793 0.007508874 0.006638864 0.0053211036 0.019879133
0.036831062 0.0068554496 0.0061243204 0.008391067 0.002742088 0.008434493 0.0060623186 0.009776882
0.0053698495 0.007461187 0.0035325617 0.010990655 0.002670445 0.007187406 0.031604033 0.018717742
0.004637129 0.0056378646 0.0025460173 0.008312157 0.0023445915 0.0019640236 0.023523843 0.0013071542
0.002855725 0.0024089739 0.0034226275 0.005609598 0.010230049 0.016827883 0.016585032 0.0072194524
0.0057403473 0.0040078703 0.00290826 0.004458428 0.010152881 0.005070896 0.005052619 0.005293211
0.009381222 0.05663397 0.0034786207 0.0030106886 0.0078848945 0.003055887 0.006575928 0.004275139
0.003318964 0.003208118 0.008356759 0.0036047695 0.0033695463 0.0072589978 0.0031004627 0.015311565

fc2.weight f4 [4, 64]
00000000: 7ba2 183e 4754 113e 37cc b0bd 32ac 49bd
00000010: 0a22 37bd e2fb 473d 25a0 243e e67a ea3d
00000020: 9893 1dbe 27c7 38be da09 4f3e 249e 3f3e
00000030: 7705 de3d cf54 c0bd 41f9 a9bd bfe3 f0bd
00000040: 5c08 a83d fbbd e3bb 68fa 2ebe c8a4 96bd
00000050: c7a3 40bd b29c 54bd bf77 e03d 0120 263e
00000060: fd9b 9abd 6217 5cbd 71cb 93ba 83df 35be
00000070: 9334 3c3e d792 bb3d ac43 313d c2b9 073e
00000080: 4ae8 3c3e d863 e83d 95cf 6e3d 388d db3c
00000090: 159f 2f3e c903 543e a864 493e a6be c53d
000000a0: cd10 0dbe a2de 2a3e 2fc8 633e 1d56 353d
000000b0: e1c6 2b3e 664d c53d 0c2d 873d e75a fcbd
000000c0: 7eee 6c3d e856 473e a775 b03c 329d 373e
000000d0: d8b8 1d3d bc76 853d 1b34 083e 20e8 0cbd
000000e0: d79f 273e 3391 233e e9e5 24bd 3e56 303e
000000f0: afe9 e6bd a0a9 b4bd 265f d73d ec05 093e
00000100: 45f7 19be 4768 a8bd ceb4 203d 2055 a4bd
00000110: 83da 21be a5cd 32be 17c4 8d3d b056 3dbe
00000120: 85af cf3c a2d1 033c eef8 9f3d 8f7e 2abe
00000130: 2d2e 00be dbb6 913d 695c fb3c 55d2 52bd
00000140: 651c d83d b62b 80bc e000 0fbd 0fa9 a63d
00000150: 94db 35be 8af8 a03c ad08 38be b31f c4bd
00000160: 7413 0a3e 5930 35be ddb9 0c3e 865a 943c
00000170: aa86 1ebd 57dc 2fbe 1d33 d8bd 7de6 f6bd
00000180: 8c6f 00be e192 debd 6c8a a33d 3c79 f43d
00000190: a7a1 1bbe a06a 23be 573d 50be 7f99 44be
000001a0: e5ec 3f3d 29e7 58be ba26 b5bd a0d4 86be
000001b0: 535f babd 484b 54be fd23 6e3d 99e1 63be
000001c0: 8175 fa3d 6620 12be 6369 6cbe e720 d3bd
000001d0: e22c d7bd 5f61 22bd f246 4abe e8ac 9b3d
000001e0: e81c b43c d0f5 183e 0792 473d df48 9e3d
000001f0: 76b9 41be c917 023e 06cd 993d 2135 1abe
00000200: a1a9 ddbd 6688 16be 7d57 d93d e4ee 80be
00000210: eb9b 333e 4d39 b1bc a5e7 4fbe 1fb9 28be
00000220: eca7 bf3d f880 02be f756 4fbc f065 20be
00000230: 999e 30be 9786 133e 95af 06be 542f fa3c
00000240: 3f4e 8fbd ad64 58be c1e7 cdbd fc4d 803a
00000250: 3e7d 123e 0a6f 6dbe 5645 cebd 82c8 2ebe
00000260: 5873 dd3c 165b 283e 4c32 52be 579b 8abd
00000270: 0bf4 13be 578e 27be 78b6 5bbe f34e b63d
00000280: 77ca 33bd 16f1 99bd ab08 42bd 5856 e3bd
00000290: 943c 81bb bd4f 00be 8788 a7bd 06e4 f4bd
000002a0: 2206 ba3c 662c 0abc a8ec f2bd ead1 c93d
000002b0: 3847 2dbe 951f e13d 3dd6 24be eb00 ff3d
000002c0: 6626 a83d c0f8 06be c502 ba3d ccb1 f0bd
000002d0: 30cf 003e cf4c 3bbe a062 0dbe c828 7c3d
000002e0: a985 7b3d 90fa 87be 42e1 a0be 059c 0cbd
000002f0: cc07 633c d8c7 24be 3921 30be 430d 80bd
00000300: e2e7 febd 7e51 bbbc d7d2 61be 449e f23d
00000310: 0429 20be f127 903d 7798 cfbd d466 01be
00000320: dfb6 123c 1360 fbbb 59a0 7ebd 99ce 8e3d
00000330: e14b 1d3e bca6 17be 5463 c73d fd46 df3d
00000340: e161 84be efaa d23d 6b8a 283d f73e febd
00000350: 96a8 4bbe 54f1 75be fc00 29be a42a aabd
00000360: b1b1 7fbe ab08 193e e022 51be d72c 0ebd
00000370: 4d3a d43d cfa1 123e d91f eabd 7a47 01be
00000380: 3cc9 2abd 650e 2b3e cb75 19be 62d4 2c3d
00000390: 57fb 3abe 2eb9 f4bd 5705 d9bd fad5 003e
000003a0: b8a1 16be 21e2 d8bd 9d1f 19be 0c3c d43d
000003b0: 6e27 c73d 1e8c 64be 4964 afbd 389e bb3d
000003c0: a233 63be a78d ebbd 29c6 13bc 174e 083e
000003d0: da99 dbbd 55b5 15be 5d96 d8bd dcc8 3fbe
000003e0: ef1c 5bbe b12f d6bd a892 f03b ae32 f5bd
000003f0: cceb 0a3e 7fad abbd 7706 c03d adaf 33be
0.14905731 0.14192306 -0.08632701 -0.049236484 -0.044710197 0.0488242 0.16076715 0.11449222
-0.15388334 -0.1804472 0.20218602 0.1871267 0.10840886 -0.09391176 -0.082994945 -0.11762189
0.082047194 -0.0069501377 -0.1708771 -0.07355648 -0.04703119 -0.05190725 0.1096034 0.16223146
-0.07549284 -0.053733237 -0.001127584 -0.17761044 0.1837943 0.09158867 0.043277428 0.13254455
0.18447986 0.11347169 0.058303434 0.026800737 0.17150529 0.20704569 0.19667304 0.09655504
-0.1377594 0.1668649 0.22244333 0.044271577 0.16775085 0.09633903 0.06600389 -0.12322026
0.05784463 0.19466746 0.021540476 0.17931059 0.03850636 0.065167874 0.13301127 -0.03440106
0.16369568 0.15973358 -0.040258322 0.17220399 -0.1127504 -0.08821416 0.10516195 0.13381165
-0.15035732 -0.08223014 0.03923493 -0.08024049 -0.15806012 -0.1746126 0.06922167 -0.184901
0.025352249 0.008045586 0.078111514 -0.16649841 -0.12517615 0.07114955 0.030683713 -0.05147012
0.10552291 -0.015645843 -0.034912944 0.08137714 -0.17759544 0.019649763 -0.1797206 -0.09576359
0.13483983 -0.17694224 0.13742776 0.018109571 -0.038702644 -0.17173897 -0.10556624 -0.12055681
-0.12542552 -0.10867859 0.07985386 0.11937186 -0.15198384 -0.15958643 -0.203359 -0.19199179
0.04685678 -0.2118193 -0.08845277 -0.26334095 -0.09100213 -0.20731843 0.05813979 -0.22254027
0.12229443 -0.14270172 -0.23087077 -0.1030901 -0.105066076 -0.03964364 -0.19753626 0.076013386
0.02198644 0.1493752 0.048723247 0.07728743 -0.18918404 0.12704386 0.07509808 -0.1505933
-0.1082337 -0.1470047 0.1061239 -0.2518226 0.17539947 -0.021633768 -0.20303209 -0.16476868
0.093582004 -0.1274451 -0.012655011 -0.15663886 -0.17248 0.1440681 -0.13152917 0.030540146
-0.06997346 -0.21132155 -0.10053969 0.0009788866 0.14305589 -0.2318689 -0.100718185 -0.17068675
0.02703254 0.16440997 -0.20526999 -0.0676791 -0.14448564 -0.16362892 -0.21456325 0.08901777
-0.043894257 -0.075166866 -0.047371548 -0.11100453 -0.003943989 -0.12530418 -0.081803374 -0.119575545
0.022708002 -0.008433437 -0.11861545 0.09854491 -0.16921699 0.10992352 -0.1609735 0.12451347
0.08210449 -0.13180828 0.090825595 -0.11752662 0.12579036 -0.18291019 -0.13807154 0.06156233
0.061406765 -0.26558352 -0.31421858 -0.03432848 0.013856839 -0.1609186 -0.17200173 -0.062525295
-0.12446572 -0.022866007 -0.22053085 0.11846593 -0.15640646 0.07038868 -0.10136502 -0.12636882
0.008954733 -0.007671365 -0.06216464 0.06972999 0.15360977 -0.14809698 0.09735742 0.10902212
-0.25855926 0.10286509 0.04114763 -0.12414353 -0.19888529 -0.2401784 -0.16504282 -0.08308914
-0.24970128 0.14944713 -0.2042346 -0.03471073 0.103626825 0.14319538 -0.11431856 -0.12624922
-0.04169582 0.1670471 -0.1498634 0.04219473 -0.18259941 -0.11949383 -0.105967216 0.12581626
-0.14710128 -0.10590006 -0.14953466 0.103630155 0.097243175 -0.22319075 -0.0856405 0.09161037
-0.22187665 -0.115016274 -0.009019413 0.13311039 -0.10722704 -0.14619954 -0.105755545 -0.18728966
-0.21397756 -0.10458315 0.0073417015 -0.11972557 0.13566512 -0.08382701 0.09376233 -0.17547484

fc2.bias f4 [4]
00000000: 1bb5 123e 0bf3 3e3c eade cc3c 5ea3 17be
0.14326899 0.011654626 0.025008637 -0.14808413
